control_model.pth (torch, 89476 bytes, 6 tensors)

weight f8 [100, 3]
00000000: 4d0a 74b8 effc ebbf 704d 6fc7 28fd d93f
00000010: cce1 e9c3 77c5 dcbf 1495 c584 3d54 ecbf
00000020: e7d3 7742 98d8 d33f a346 d3cc f6c3 cfbf
00000030: c1a1 4cbf d14f e0bf 438f 8af8 f3ff a73f
00000040: 8352 673b b9fb 62bf dd20 2b30 b6ca e73f
00000050: 566a 4d0d 2b22 c1bf f64d d2a3 2593 dabf
00000060: 14ba 53a4 d9ce e83f 2968 535c 92c2 d33f
00000070: 8409 e760 b502 d03f 7e8b e28e 8d62 d03f
00000080: cf3e 4a99 19aa dbbf 9dae 068b 2c92 9b3f
00000090: 1153 5b50 be38 debf f474 80d8 e07a c33f
000000a0: 86ae 13da ecfe a53f f42c ddeb 5a9a e73f
000000b0: 3c15 b1ca 9e3e a6bf 1a98 8990 4743 c93f
000000c0: 6635 3904 ce5a ef3f 0333 d230 871a a53f
000000d0: b1ef 05b2 e97f afbf 0f0f 02f8 5840 e0bf
000000e0: 1f19 2d76 89e0 b5bf a5e1 b6fa 32bc cc3f
000000f0: 0593 281b 73da e43f 5247 ba1e 7083 b93f
00000100: 9a08 c45d 27d9 c63f f81b f725 7614 ab3f
00000110: 2564 71f2 2d3b d3bf 0d8e a54a cfba d5bf
00000120: 4fff 51f8 ef0f 00c0 7d53 2420 2182 cb3f
00000130: 98c1 25f5 10c1 a4bf c639 a2b6 15b5 b8bf
00000140: 9f2a 84c1 cee0 cc3f 7547 515d b1d8 d2bf
00000150: b928 c224 a435 eabf b422 dbe5 16d9 de3f
00000160: 8afa b86b 9384 bbbf f61f 8997 726f e93f
00000170: 78ec 17e0 9dd6 cdbf 0e82 1401 8c90 df3f
00000180: c0c8 e1e2 3d05 e83f 5f98 03cf 6d2a d93f
00000190: b608 6216 c756 dc3f 06b0 ff2f aa3e e9bf
000001a0: fbcb 3b92 14bb 913f de45 86a1 afbe d73f
000001b0: 33ce 373f 16ee e0bf c26c a3df e48c d23f
000001c0: be1b 0654 ba53 c8bf 600a 8acc ac86 eebf
000001d0: 07f9 ba0c 2706 d5bf c095 43c1 f57e da3f
000001e0: 6654 efec b4af d3bf 7d7c 36ef 1e2b e13f
000001f0: eb7d 60ba 39c0 a2bf 110c 4ce0 5346 edbf
00000200: add1 0b8d c566 c63f 7500 6305 3b44 dfbf
00000210: 6adb c4d8 117e dfbf 6816 59dd 2110 b0bf
00000220: 0c25 bb76 a6d6 49bf dfed dc4a bce2 f8bf
00000230: f351 3201 e257 b93f 054b ff0d f33f ccbf
00000240: 6bcd 099d cabc d4bf e45b f7f3 a35a c1bf
00000250: 2fb0 4d33 07dd 893f 8729 ce74 77e6 e9bf
00000260: e59f 1aab 24ec d93f 9da1 c854 db56 d1bf
00000270: f2c2 cf84 11f8 e03f d5b1 c07c 90aa 9bbf
00000280: 4c1e b61f 2648 ca3f 8c38 d350 9208 d2bf
00000290: 32ce 6d74 38ad d6bf bd03 5263 85da d33f
000002a0: 972b 42d3 f5a4 eb3f 4527 caef 405f c23f
000002b0: adcd 5f70 0042 d03f 04d0 a66b c5ad eabf
000002c0: 440b 6b8d fadb db3f 24e3 e33f 344b e0bf
000002d0: 299b 7dca 49d2 de3f 5150 9225 0f04 d9bf
000002e0: d3d0 a942 0143 bcbf a3a0 f2c7 7486 abbf
000002f0: 0157 f3ee 816c d5bf 08a1 4f8e af5b d93f
00000300: 9e11 5d65 5cce e33f 56af 4dae dafb d43f
00000310: e91d c64b 4278 cabf 5c83 cbc3 7fe7 e8bf
00000320: 7fb5 f934 0b64 c6bf 1730 45c4 3a45 d1bf
00000330: 6a40 8f94 a344 e33f 2235 efe9 3fed cf3f
00000340: 27b9 cc94 b11d 863f feb9 d06a d828 ec3f
00000350: 3fac edf9 c702 abbf fd28 3043 0252 c53f
00000360: 580e abeb 477b e43f f3c4 c48d 1b58 c8bf
00000370: 61a6 51e4 9d9b c33f eb86 60bd 13e8 d0bf
00000380: 5d90 3e4e 475f d53f 5b97 a4b2 d828 d93f
00000390: 5e3b 2332 6f1b dc3f 59d1 12f7 28fc d7bf
000003a0: d6c6 8ed5 b03d a73f 216c 24dd 5f75 f5bf
000003b0: b844 57c0 111a d0bf bd95 3c5e 4424 af3f
000003c0: 262f efc4 c241 e9bf 6534 ed96 9a49 d83f
000003d0: 7139 d061 5484 ddbf 4233 d2c2 34e6 e93f
000003e0: 1043 192d 6688 cbbf c3cc 4db2 3fff bf3f
000003f0: 7e02 e8a8 1f70 f1bf c523 e263 d273 c5bf
00000400: 2bb8 7f25 4048 be3f 3b19 6ae7 b7b9 eebf
00000410: cb20 3f75 2481 c03f 300b 6465 c2ee dabf
00000420: 0f15 1c1d 8667 cabf bc6c 1802 5999 afbf
00000430: 413d eb6b 94ff c1bf 8d41 4e6e 4afb eebf
00000440: b9e8 292b 27a5 d0bf b67a ba23 09c3 d3bf
00000450: 5452 1c54 864c e73f ba05 4456 3b66 cabf
00000460: 308a c73f b842 ab3f 099b 541e 1c7a e83f
00000470: db2e 7848 819e d93f bceb 7d69 4f3f dd3f
00000480: c1aa 4dc3 cbe8 f1bf 32ce f835 0a82 c23f
00000490: 378f 1e4e c1d8 b4bf 370b e6ff cef7 eabf
000004a0: 6a2e 6a45 0bfc d3bf 107c 627b 16b3 d7bf
000004b0: ca60 4eb2 a09a e63f f1f9 eabc c038 b7bf
000004c0: 470a 7348 a343 d6bf 310e a85d 5cc3 c73f
000004d0: 0ac0 e949 6cfc dbbf 59fa 6d43 915a e03f
000004e0: e18a cb2c e6c4 d4bf f6bd 4d23 6b5d d63f
000004f0: 03b6 5b2a ca8d ccbf 9f57 0064 a94d e0bf
00000500: 383e a593 c32c d5bf 8c42 1c1d 2285 b8bf
00000510: 6394 57d4 59f0 e5bf 0789 821c 5f70 b5bf
00000520: f83b ba6f 0f45 d2bf 5154 613e ae20 f03f
00000530: e676 4432 670e ba3f 3b90 1648 3457 d2bf
00000540: fc0e fe41 9115 d93f bad7 11d3 3654 c8bf
00000550: ed1a 5f36 30b0 cdbf ae92 f81b fbec db3f
00000560: 237b d33a 1307 dd3f 20b9 c242 4f47 dcbf
00000570: 69da 9759 ebad d2bf 680b ef2b 8189 d6bf
00000580: 2813 59e6 39ab d73f 3593 71ae ce79 e93f
00000590: 8c45 2e97 fe7b c2bf c783 7812 9ede 4abf
000005a0: 2304 b571 bd15 ec3f 56cb c7c6 74b1 c2bf
000005b0: 7395 0b07 e187 c4bf 5009 7a10 988d ac3f
000005c0: 6a4f 9e8a f9da b53f 171a 42fa bce7 d4bf
000005d0: ce53 79c8 5577 e8bf c4b4 3edb 8240 ad3f
000005e0: 098b 6bef 064a bbbf e6a7 f8be d828 f6bf
000005f0: 2f14 adf0 89fa c2bf 3849 4d13 6bb0 b93f
00000600: 3c00 920a 8147 ec3f cba3 356f 4c84 afbf
00000610: 809a 4e0e 9258 d3bf fb9e 1428 de02 c4bf
00000620: 50a1 eb21 95d9 d7bf edcf 7cad 3345 d63f
00000630: 7f3d d23e b1d9 ecbf 6d57 6672 204b d3bf
00000640: cbd6 225e 96aa d83f a7dd ea9a b820 f1bf
00000650: 2a01 c640 6d0f a2bf f98f c32e 92cc d03f
00000660: 0000 0000 f086 b9bf 0000 00a0 7fcc a83f
00000670: 0000 00a0 cb44 aa3f 13b9 dd68 3325 ffbf
00000680: 10da 0d1a 97b3 d4bf fbb5 1912 b362 a1bf
00000690: d2b4 7313 6bcf e23f 0aa2 c4e2 4f56 c9bf
000006a0: 2b73 b557 7426 ba3f 7982 84b1 d9c1 f6bf
000006b0: ab38 0d9f 918a bfbf 2bd7 ed6a 80d1 b33f
000006c0: 8fdc fe88 55b7 cdbf 4f66 7a7e 34eb d9bf
000006d0: ec26 1a7b 9dea c9bf 86c1 d63f e6e2 eebf
000006e0: f9fa d239 c67a 9b3f f79f 6a8e 3563 de3f
000006f0: 9e36 acbe 8f19 e5bf 3843 3daf e481 bdbf
00000700: 5f70 f171 8f6c cf3f 4388 acb3 4c4c e5bf
00000710: d1a9 684e 1d2e cabf 155c 3f23 aa8c c13f
00000720: a008 d23c cbd3 ebbf 2266 c8a5 8693 d03f
00000730: f59f 527a c6a0 d1bf c6b9 804f 3c12 eabf
00000740: 354c e326 f7cb d33f a486 5851 6938 cdbf
00000750: 9f1d 3640 4c3c 863f 1cc6 48ac c6fc c83f
00000760: 2acb 215f 22db cdbf 9853 bfcc 9ee5 d53f
00000770: 1ade 0f94 5bac d3bf 834f c4af c81e c6bf
00000780: 3c0b f030 e10b e6bf 5df3 1f76 d548 d53f
00000790: 1bb1 bf75 699b ca3f fda0 f871 774b e83f
000007a0: c9cc 555c 93d3 babf c612 d1b0 ac5d d53f
000007b0: 8c24 7e53 f601 ee3f dc23 e9fc 1fb3 bcbf
000007c0: 3dd8 9b0b 87ba debf df6c 71f1 412a e5bf
000007d0: 6e74 45c2 6ee2 d4bf 60c6 52d6 141e d7bf
000007e0: 5522 0912 407b d83f e552 2b89 ae78 d1bf
000007f0: 2c44 a364 292b dcbf 5240 5ba4 ccf6 e33f
-0.8746260264018219 0.4060766170125225 -0.44955248005092296 -0.8852832406234108 0.31009489527724415 -0.24816784859881577 -0.5097435699763581 0.04687464150381839
-0.002317296773279688 0.7434950772085603 -0.13385522985011516 -0.41523114202683986 0.7752502641213277 0.30875071541015814 0.2501653143227929 0.25601519540412443
-0.43225707978943445 0.026924797044257976 -0.4722133431180718 0.15218744822860908 0.04296054994651137 0.7375921828001126 -0.043446504824297766 0.19736570889944077
0.9798345644464177 0.041218018254857845 -0.06152277277121188 -0.5078549236208988 -0.08545741210136669 0.22449338189995874 0.6516662149848292 0.09966183424174105
0.17850200727850024 0.052890483984405934 -0.30048702884738737 -0.3395269612285297 -2.0077819252036657 0.2149087340300432 -0.040535478520612844 -0.09651313504057332
0.22561058472668535 -0.29447588074719216 -0.8190479963243639 0.48200008818507034 -0.10749169712014797 0.7948544463806673 -0.2331120819288548 0.49319744210700456
0.7506398612297502 0.3932146569844743 0.44279648958048357 -0.7888995110965886 0.017315217423810463 0.3710135533702593 -0.5290633425451631 0.2898494895905054
-0.19005517103889064 -0.9539398188501984 -0.3285005211181588 0.41399902223050944 -0.3075992883507922 0.5365137741208766 -0.03662281417950538 -0.91483491714496
0.17501134287853173 -0.48853946233794626 -0.49206968468518275 -0.06274615911487447 -0.0007885277568330531 -1.5553553509079092 0.09899723557675326 -0.22070158179720792
-0.3240229161812837 -0.1355786267510829 0.012628608945043222 -0.809383133063691 0.4050380392968676 -0.27092631606731193 0.5302817911125131 -0.02701783906393181
0.20532681034477418 -0.2817731656367719 -0.35432254190456824 0.3102124662328228 0.8638867498533384 0.1435319109771688 0.2540284249691592 -0.8337123014994181
0.43530143556943224 -0.5091801879744691 0.4815849759528868 -0.39087275189490805 -0.11039741399310125 -0.05376019421356772 -0.3347477754117421 0.3962210550075871
0.6189405421978795 0.32787196180173817 -0.20679501247307933 -0.7782591652031488 -0.17492809378328997 -0.26985043684976645 0.6021287824205619 0.24942778513506264
0.010798823693758465 0.8799860082852431 -0.05275559354671388 0.16656521111173808 0.6400489428419389 -0.1901888315419807 0.1531865467871283 -0.2641648625741328
0.33394034043363324 0.39311807103728363 0.4391744603753319 -0.3747656262232986 0.04539253813653736 -1.34115587600423 -0.25159114630975976 0.060823570731638445
-0.7892774435399346 0.3794924234287634 -0.46120175888145015 0.8093513302897934 -0.21510007097324335 0.12498853781817147 -1.0898739431287647 -0.16759710194699387
0.11828995624065956 -0.9601707000554492 0.12894111370974878 -0.4208227148193826 -0.20628429814693347 -0.061716825013911486 -0.140612175650384 -0.9681751398475612
-0.26008013930517 -0.3087790345106599 0.7280913965974585 -0.20624486648743617 0.053243406091287304 0.764905986060371 0.4002993781766528 0.4569891481584667
-1.1193349484480424 0.1445935023817682 -0.0814324203225255 -0.8427500722903919 -0.3122585466269131 -0.37030565308845187 0.7063754541914247 -0.09070973026516761
-0.34787828517088254 0.18564943860120445 -0.437281677418469 0.5110555951103591 -0.32451776861686993 0.34945181319832785 -0.22307707851670963 -0.5094801858092416
-0.33085717600349396 -0.0957814522810258 -0.6855897090250774 -0.08374590345423281 -0.28546510611425857 1.0079786717153818 0.1017822740290871 -0.2865725234971738
0.39194137043544663 -0.190070012151123 -0.23193934111460326 0.4363391659883672 0.45355683083282566 -0.4418523933371876 -0.2918651938374866 -0.35214261331946384
0.3698258161060033 0.7961190611937129 -0.14440901166794295 -0.0008199951016117862 0.8776538105813682 -0.14604053217007146 -0.16039669841772372 0.05576777650005005
0.0853725398467852 -0.3266441768577421 -0.7645672717577499 0.05713280607538132 -0.10659831376282737 -1.3849723300759194 -0.148270838277456 0.10034817906606441
0.8837285238696562 -0.06155623300111975 -0.3022809161870228 -0.15633751828249118 -0.3726551848653985 0.34797374670165376 -0.9015737750032001 -0.301460372656371
0.3854118270204309 -1.0704885531866724 -0.03527394691173165 0.2624860245398391 -0.0997152328491211 0.04843520000576973 0.051306117326021194 -1.9465822311718213
-0.32346131843897385 -0.033956142386937636 0.5878196124955599 -0.19794653484974872 0.10214926854446264 -1.4223267492563123 -0.12320814259621453 0.07741549120495665
-0.23215741338001236 -0.404980777276795 -0.2024723864636181 -0.9651976820805863 0.026835534362130684 0.47480524928914697 -0.6593703006817184 -0.11526326444915191
0.24550049842480612 -0.6655639180428427 -0.2045323021751089 0.1371052429301193 -0.8696037471675204 0.2590042704556216 -0.2754379458006036 -0.8147260239400616
0.3093240623249501 -0.22828403922999485 0.010857196530891509 0.19521411335294736 -0.23324994702451224 0.34213991160259516 -0.3073948808591652 -0.17281445104947232
-0.688950152951612 0.3325704244196482 0.20786779641583383 0.7592122293472411 -0.10479088787342329 0.33384244220023296 0.9377395277707747 -0.1121082298715374
-0.4801347363821867 -0.6614083972630417 -0.32632035228545575 -0.36121102266324634 0.38252259980484854 -0.2729908313315675 -0.44013438060670995 0.6238768777930181

bias f8 [100]
00000000: 58a5 ac3b bc62 dc3f 4285 ff4b fa3a ba3f
00000010: bd46 147d 975d e43f e4b1 868e 57e5 d0bf
00000020: efc4 118c 2096 df3f 86a7 6c4c b1b7 d2bf
00000030: de92 cc3f ad30 c73f 4b5c fa9f 9bde c13f
00000040: f4f4 8081 1e02 d13f a184 c610 f130 e73f
00000050: 2656 4d7a 852b d43f 306c e020 056e cabf
00000060: f46f 33a3 072e e0bf 13e8 d868 40f1 c83f
00000070: 460b 1f9e e673 b1bf c570 4d23 44bb ddbf
00000080: 8fb1 a881 ff36 cdbf c18c f36b c8b1 e03f
00000090: 58f9 54d7 2d99 df3f 0c90 8607 d454 c73f
000000a0: 5021 2a42 cd16 d63f c0f7 07bc 1b56 af3f
000000b0: 6fb9 45cd 6282 e53f c8fe 0758 c91a debf
000000c0: 0558 f6dd 79b7 e03f 185a 5ac6 a6e3 de3f
000000d0: ac56 d640 8c22 cfbf 46cb c547 ae59 e73f
000000e0: 0eb4 fc15 481d ce3f 842b 1aef 5167 c13f
000000f0: fba2 bdd3 34cd dcbf 0507 cc60 5f19 c63f
00000100: 565d 407f 435f e0bf 3283 fc5d 9944 e43f
00000110: 54b3 408c 06a2 e5bf 6925 bda9 d3b5 cb3f
00000120: 30b1 0745 482c 943f 5347 5110 71fb d63f
00000130: 1f04 fc57 7c70 9dbf 4d40 3bae 35e4 aebf
00000140: ec33 fab9 8c15 b9bf 5bd7 4846 9c86 e7bf
00000150: 712c 9b14 0666 3fbf d3a1 141b 75d3 c3bf
00000160: 6378 b1a0 3e61 d93f f2aa 8ca9 04bd db3f
00000170: ef55 842f 338e b43f 9549 13cb 798a ba3f
00000180: d53e 9655 2814 cdbf fdd0 ff4c b9ae 923f
00000190: 9307 ee50 7c3a b7bf e19e 4228 49c7 ddbf
000001a0: 7c0a 5da8 6785 e63f 428e 3c49 c42b dd3f
000001b0: ade1 2aa1 c7f3 e63f c24d 3965 a1fe d33f
000001c0: e602 05f5 07fc a7bf 0996 22de d76a d1bf
000001d0: a769 c715 d03a e13f 64dc 084c 8915 e13f
000001e0: 5f7f cd37 a38a ce3f 3c6a 70c6 44ba d43f
000001f0: 6701 b62c 2433 db3f ee27 3eb7 0cb4 ccbf
00000200: 51aa ed07 28ad d13f 0318 5bd7 f874 cc3f
00000210: d848 d681 025f a9bf 55a9 3b65 eeeb e1bf
00000220: 0000 0000 9ab1 d6bf 65a3 0c02 0932 dfbf
00000230: 2957 7aa8 6149 e03f c8fb e262 5684 d2bf
00000240: 0933 dc67 6d0d bb3f 456e 916e a969 d53f
00000250: 3032 0e47 3233 e43f 5b02 b275 ae4e e63f
00000260: 6cec 889f 6e9e e53f 79dd e2bb ecf6 d13f
00000270: 394b 2ea3 c33d cc3f 4b29 d151 73a1 dcbf
00000280: 2c19 9b0f 6a61 e83f 7367 91b3 a6d1 e6bf
00000290: b147 c2a4 5747 c63f cda1 56ac 360f cb3f
000002a0: 0fe4 e57b 11e7 e0bf d9b6 a1c5 c719 d13f
000002b0: a5c4 7844 7a68 d13f acea de02 313f c3bf
000002c0: 8857 1b51 e29b e0bf ee58 f8d6 b3d2 d73f
000002d0: 3b0b c063 0ef4 cb3f 1dcf f1b3 f02d e9bf
000002e0: 660e 2707 f52f e1bf 29b7 7492 273a e63f
000002f0: 86c8 d5c4 fbd3 e23f d0a4 0852 c1f5 a33f
00000300: 01f2 ac7b fe46 eb3f 7cd1 77e6 608a b03f
00000310: 50bb 27b7 ae00 dc3f 3a72 4fb9 c7de cd3f
0.443526323581485 0.1024624286215117 0.636424774451562 -0.26399792593545457 0.49353803328183593 -0.292461704858049 0.18117299666587078 0.13960595427917818
0.26575434347962745 0.7247243240018585 0.3151563352924732 -0.2064825449495813 -0.5056188762205225 0.19486241454598083 -0.06817475662596192 -0.46455481956014594
-0.22824090796474336 0.5217020138192298 0.4937243082857967 0.18227625243628187 0.34514171086677425 0.061203829482095795 0.6721662530160709 -0.4703849181823725
0.5223969779206078 0.48264474268344904 -0.24324181714898907 0.729697361164974 0.23526860307302438 0.1359655778399792 -0.4500248019963206 0.17264930941023962
-0.5116288648013476 0.6333739123984741 -0.6760285128890282 0.21648641384153258 0.01970017358137105 0.35909678071503953 -0.028749411459106363 -0.06033485175942186
-0.09798507252180827 -0.7351819393868299 -0.00047910355042963317 -0.15489066908163682 0.3965603417653993 0.43341175611082783 0.0802947989471574 0.1036754723348053
-0.2271776597885863 0.018244643520987747 -0.09073616958451529 -0.4652884381452918 0.703784779391142 0.4557963099671022 0.7172582767298558 0.3124164093507852
-0.04684471956216445 -0.2721461934364418 0.5384293008203728 0.5338789448786767 0.23860588288061543 0.323868936336712 0.424996417677923 -0.22424467990305125
0.2761936261582934 0.22231970324918401 -0.04955299220013537 -0.5600501992424066 -0.35458993911743164 -0.4874289054883348 0.5089576998313748 -0.2893272367181763
0.10567363534591946 0.3345740871206753 0.6312495601465056 0.6971046732651972 0.6755898586192308 0.28069609020481995 0.22063489406408524 -0.4473541544908996
0.7618913941194356 -0.7130921847521975 0.17405219597691038 0.2114017812248349 -0.5282065791972189 0.2671985082623514 0.2720018070859374 -0.15036595001386865
-0.5190288147084496 0.37223525994467266 0.21838550444234692 -0.7868579401533428 -0.5371041431139474 0.6945989475695785 0.5883768886981364 0.03898433805836421
0.8524162688768798 0.06461148859654559 0.43754165540933787 0.23336121128422055

weight f8 [100, 100]
00000000: 5536 cf55 5844 c03f 3e7a fa0a b7ea a13f
00000010: 6e7a 6cc7 eecc c43f b244 8200 660b c3bf
00000020: 9c59 cd92 4da7 ac3f f45a fa81 7a2d c2bf
00000030: dd1c 14fb fe73 b13f eab1 e85c ccea a53f
00000040: e253 9fbc d1fc a3bf c569 0b57 2a39 8d3f
00000050: 67f4 9f5c 4db4 c13f 403f 143d d6c2 c0bf
00000060: 548a fcd4 feaa d63f b41b 23a0 003a 83bf
00000070: 451f 0e87 e68f bc3f 32b6 6345 b353 c8bf
00000080: d024 4f43 d466 b13f bd65 4fa0 577a ca3f
00000090: 9f6a 8eaf 028d c53f fc8c b41b dfd9 c8bf
000000a0: c810 53ae f0ea c93f 40a9 1984 ad94 66bf
000000b0: 9945 99b2 65ce d23f 045d e25a 8c29 cf3f
000000c0: 2eb3 b6a3 5300 b93f 513d 8b75 15b6 b33f
000000d0: ea5f d310 70ba c1bf efeb 913f 82d7 c43f
000000e0: baf5 9ddf d256 c43f c499 6aa4 4d4b 853f
000000f0: 21cf 3e72 1993 a9bf a919 582c 7b07 813f
00000100: 4c5e 146f 701a c0bf 2ca6 e9e9 0136 d43f
00000110: 2205 b679 176d bdbf 47fa 4a40 1f95 c53f
00000120: 4c09 9efd a329 c03f 4f9b 2f7d 80b1 c33f
00000130: f4d9 6a40 5704 75bf 836d 6f0d 0006 8abf
00000140: 3470 ab3d 6c3f 873f 4c85 f5aa e11c f2bf
00000150: b19d 8f76 c19a cabf 5f8a ed53 1631 a23f
00000160: 6550 0245 4065 b93f d569 7fe9 bbd1 be3f
00000170: 800d 6776 8403 c03f da9f 7895 6d99 b03f
00000180: e413 ebbb 3a14 de3f 4158 2d56 9378 8c3f
00000190: cfa7 e358 1f8d b8bf c586 2452 8eb6 c9bf
000001a0: f5e9 a9b0 1d2f 91bf fe45 849b 35c9 ba3f
000001b0: 4769 32ec b440 ce3f f598 b5f4 d3bd acbf
000001c0: bd56 4c60 944d bebf cb72 cada c402 90bf
000001d0: 7c07 1ce1 f626 ba3f 02e9 d349 4f22 a1bf
000001e0: 1786 1401 6c80 a0bf d348 a7b1 7f31 b1bf
000001f0: cdab 8c49 296c d43f 70d0 2a59 37ce debf
00000200: 15e9 c88d 7df0 c4bf 50dc e637 9a6d b03f
00000210: e002 0a7b 5083 c7bf af58 79dd 7b2b d9bf
00000220: 0000 0000 f9eb b1bf 9614 09e0 4eba abbf
00000230: 6c9d 6fd4 6cc9 a93f 3fbc b5a7 899e eebf
00000240: 5f99 46d5 fdf7 a3bf 1ed5 6ded 668e b73f
00000250: 3dd3 3bdd 2100 b73f 01bd 8d86 69af 903f
00000260: ac2a 6b91 0656 c73f bdf8 b953 7d3c cc3f
00000270: a4b0 d9df 71ff b53f 69c0 c018 89e4 ccbf
00000280: 30fe 83fa 7c36 c73f 1762 6a6b 9c77 d4bf
00000290: 599b a9aa 402d b2bf fd51 8a6b 1037 c63f
000002a0: 1a7e 47bc 9b0a c9bf ac82 4244 a5ed 8abf
000002b0: 8220 e30a 111b c63f c0fa 5c61 c52d c6bf
000002c0: 32bb 3ee8 d34a bfbf 89c8 2df0 b934 c53f
000002d0: 4a11 dcdd 78df b2bf cf02 727f b54f d8bf
000002e0: cf7b 032b 7677 eebf 84af 2495 1b5d c73f
000002f0: 1ede 40fa e999 c03f 3d3a f26b 5065 c23f
00000300: d209 4004 cd9e d03f 6998 f0c6 9ec6 c13f
00000310: 3de2 933a a445 913f 6991 f4d2 8b54 cb3f
00000320: 2031 10bc 3461 9bbf c490 2d65 0843 bfbf
00000330: b7bf d20b 04ad c83f 547b d75a 8b58 9abf
00000340: de51 c97e bb34 9a3f b3de 6a97 d625 bd3f
00000350: f824 4cd7 311e bebf 9be8 670f 6d32 a5bf
00000360: c667 7dd3 de99 a6bf 0c09 5920 620a c23f
00000370: b7b6 4a3f 33a9 cdbf 1095 afad 9c15 bd3f
00000380: cc22 36e3 c20d e23f de5d 9af7 8260 b13f
00000390: 2e22 339a 75fa 9b3f ee7a 9f1b a7e2 bfbf
000003a0: 0a92 b8cc 09f3 cfbf 0b11 f257 96c8 d23f
000003b0: e504 54f9 a7b7 90bf f022 6598 e5e1 af3f
000003c0: a5b0 ebd7 d353 5fbf d4d5 79ef 97bc 613f
000003d0: e6a0 e666 9046 b83f fca6 f8a3 b997 883f
000003e0: 8080 a8c0 e14c c63f 1e84 4a94 110c 443f
000003f0: de76 43cc 0065 c7bf d5cd 878f f2d4 c13f
00000400: 8575 8a12 e1a6 7dbf 43ec 83b7 5f64 a7bf
00000410: cd78 05da 3c52 ac3f 3785 fc42 94cc a03f
00000420: 6397 779f 7a68 b73f ede0 b531 38ae c73f
00000430: eeb5 5a75 1ba8 e7bf 1132 51fe d30c b0bf
00000440: d1e7 30bf 95f8 babf f0a6 af1a f0f3 b23f
00000450: 6197 9a0b 6473 b33f 2dec 1eb9 b9d3 b23f
00000460: 0696 5b9f 60d4 a73f 9e09 fdd0 57da cfbf
00000470: 16ab bef8 2302 d03f 23ce fad3 9d69 923f
00000480: fe4c 2477 2c9b bf3f e2fb 0162 bdf9 9d3f
00000490: 8b0e 1b8a 3e93 b53f 74a9 5a48 ca4c cdbf
000004a0: 1afe 7026 1ba9 e2bf 1574 0ee1 7b71 b13f
000004b0: df27 8581 869e b73f c030 fdc8 a838 8ebf
000004c0: 8f99 4eee 149b b1bf af95 bf0b 31ef b33f
000004d0: c553 ff1a c764 bb3f e2f0 a189 dbb1 b03f
000004e0: 1b71 1cf7 9c95 a13f ee84 ef65 0d46 773f
000004f0: 5f71 6f47 8a88 ca3f fe6d 8717 ddf3 7d3f
00000500: 45e3 28aa 3cb3 c13f 62f1 572c 9cdf 9a3f
00000510: aae6 7a81 b882 c3bf cb10 e71b a5e2 d93f
00000520: 0a69 f906 d95f b33f 7be6 fe15 42f9 be3f
00000530: 97c6 1148 047b ca3f a274 4d03 e0b8 ca3f
00000540: 0000 0000 0e45 b03f 9a37 7af5 d44a b53f
00000550: e6aa 3ee8 02eb bf3f 9534 3b0a 2562 e03f
00000560: 29d7 6b93 5823 c33f 02e5 84e9 370b c73f
00000570: 7c0b 45fb b696 c43f 3280 fb4b 9f2a d33f
00000580: 3b4a 79b2 d655 b5bf 61f4 0444 eb13 b3bf
00000590: d6ba 9ee5 38dd af3f 49d8 810f 2a67 bc3f
000005a0: 6a67 08dd d27c c83f f74f 6ae2 96e0 d6bf
000005b0: e7ae f859 ba3f b53f 969d 0501 c689 c63f
000005c0: ffd9 143e 36bb a83f f105 6f6d 69be c8bf
000005d0: b20d 0069 742b bb3f 0e28 dc31 4162 b73f
000005e0: 499f a089 f44b adbf 2ae9 2b96 d9c5 ca3f
000005f0: 12da 2c5c 3906 cdbf 231a 0951 c289 b0bf
00000600: b88b 9cf5 3c1e d3bf ea00 cd1a dae2 c13f
00000610: 81a9 daa2 86cc d3bf 9f2c 1a69 ca6f cb3f
00000620: 8960 0020 5fe5 cb3f 783c 74e7 88a9 b53f
00000630: 4cc9 ed51 db34 d23f 75de f94f 01f0 d3bf
00000640: a481 e4be 90f7 ac3f 42bc 2842 0a19 92bf
00000650: 82f7 cdd7 3f35 b93f 578c fa77 1792 a4bf
00000660: dd60 d193 baca abbf b3d9 427c dc5e c33f
00000670: 9df0 a7c7 dbe4 b23f 6f9f 8a4f bfd7 6bbf
00000680: 3464 d027 ef44 8f3f e46b be0f ab8f bf3f
00000690: 2035 4037 7923 c1bf 841b 69f4 d0db c23f
000006a0: 9648 830a e3ef c3bf a8f1 f9dd 726a b6bf
000006b0: bea7 2e76 91be b03f d4d4 df81 01b9 843f
000006c0: 82c5 9d01 510d b4bf 3d93 30b8 d45b cd3f
000006d0: c343 14b2 0ce9 a13f 1c0d 4ccd b39b 91bf
000006e0: 3ec7 1151 dcf9 8bbf 774b 7fb2 a353 aabf
000006f0: bc03 bb3d acf5 c33f 5f69 7902 03bb d03f
00000700: 9ec9 4fee 9eeb c33f 2114 5501 4680 b2bf
00000710: 679e 5177 9642 a6bf 597e 81b2 6d7c 813f
00000720: 8b76 27a0 ff00 bebf 330a acdd 21ef a9bf
00000730: 0f58 786f f6c5 953f cea4 f157 b750 c63f
00000740: 2c91 5239 379f b1bf bf68 5b3c ac8b c63f
00000750: d516 e1b0 9788 03c0 dd7b bc11 5350 6abf
00000760: f7d4 7107 e202 a03f 2a3b 4106 f029 90bf
00000770: b28d d835 33a3 bc3f 3d6f 74ba 02fb c53f
00000780: e203 7177 ef0c a7bf 3f9a 589d 25bf c1bf
00000790: e198 4994 bffd d03f 37b3 3abd 3628 b0bf
000007a0: 53d0 f83b 2e62 bf3f 2a50 82f6 5e38 a43f
000007b0: 53d1 76ec b684 b23f 423a d766 aea5 c3bf
000007c0: b36c 2770 47ef c5bf 47c4 48e7 89b0 b13f
000007d0: f853 91a6 9c91 943f 614f 7abd a82f b3bf
000007e0: 2e6d 70ca 3159 b1bf 1b52 bfb6 a7dd 823f
000007f0: 231d 1bbf 5840 b83f c209 9714 c673 b13f
0.12708572568810675 0.03499385842336665 0.16250405061233003 -0.1487853529438659 0.055963920755561974 -0.14201289507464987 0.06817620878074444 0.04280699381010662
-0.039038233065788366 0.01426919057978616 0.13831488630958974 -0.1309459493863816 0.35418673324071404 -0.00938797463130734 0.11157074734921675 -0.19005432975920794
0.06797529834070137 0.20685859038966994 0.16836579868398346 -0.19414891102596943 0.20248230468690154 -0.002756441973180618 0.29384748879700734 0.2434554523249305
0.09766123530307588 0.0769971286747382 -0.13850212880674856 0.16282680610660757 0.15889964979935006 0.010397535877314186 -0.0499504043540624 0.008315050402427486
-0.1258068601971324 0.3157963547042495 -0.11494585725269649 0.168613344567307 0.12627076991709385 0.15385442841144445 -0.0051310928599179635 -0.012706756982814543
0.01135143817139559 -1.1320511510933384 -0.20784776963340115 0.03553075575361641 0.09920121845999715 0.12038778734805729 0.12510734349607944 0.06484112643431619
0.469984706415117 0.013901854579369767 -0.09590335769794865 -0.20088366518853298 -0.016781295688341264 0.10463271185678732 0.23634969265988046 -0.056135772344349556
-0.1183712706664108 -0.015635562757426762 0.10215704913937701 -0.03346488739221522 -0.03222978127656633 -0.06716154181711724 0.3191016405350496 -0.4813364382528169
-0.1635891859348894 0.0641724001387598 -0.18369489677208772 -0.3932790434677242 -0.07000690698623657 -0.054155793045120124 0.05036487668240394 -0.9568527484497124
-0.03900140026535114 0.0920166330013967 0.08984576846326049 0.01629414447546385 0.18231279469030903 0.22059599483686113 0.08592902865501856 -0.22572435101165247
0.18135034782606985 -0.319800476930625 -0.07100299994054406 0.17355542422286865 -0.19563624089549664 -0.013148585458396887 0.1727010062370518 -0.17327182058394008
-0.12223553104443566 0.16567157962305526 -0.07372241417403305 -0.37986504979930386 -0.9520827140912561 0.1825289228667054 0.12969708175090572 0.14371686240015605
0.2596924344544763 0.1388739081750743 0.01686722381143312 0.2135176448874845 -0.026737998941869567 -0.12211658926168228 0.19278002335840735 -0.025728394908465305
0.025591783154895846 0.11385861584391925 -0.11764823442731032 -0.041400344973184754 -0.04414268809951198 0.1409418733547415 -0.23172607984945667 0.11361102333428996
0.564179843685531 0.06787890000338545 0.027322614227872126 -0.12455219673527626 -0.2496044396986153 0.2934928759425623 -0.01632559260634005 0.062270331242478494
-0.0019120758803934737 0.0021651237000763577 0.09482672226170372 0.012008142773157975 0.17422124774111936 0.0006117902599563939 -0.1827698705082445 0.13931114204716147
-0.007239226521645552 -0.045687667037747313 0.05531492387193424 0.03281081502633259 0.09143797295800264 0.1850042574622032 -0.7392709056927609 -0.06269574126162804
-0.1053556052947038 0.07403469707028498 0.07597947390840211 0.07354317445326393 0.04654218621525889 -0.24885080055726133 0.2501306466244143 0.017981020034041017
0.12346151264891955 0.029272994143408122 0.08427801963540042 -0.22890594990651503 -0.5831428290184164 0.06813787693541003 0.09226265585053238 -0.014756506570528294
-0.06877260988276233 0.07786852394891385 0.1070064965163758 0.06521389112635093 0.03434458271496706 0.005682041489280849 0.20729187477162278 0.007312644615435014
0.1382823782785413 0.026243629652513596 -0.15242677995938908 0.404458310364373 0.07568127079267498 0.12099087750439168 0.20687917250647977 0.20876693879373415
0.06355369091033936 0.08317309372998097 0.1246797387126822 0.511980552657081 0.14951617430022537 0.18002985861111404 0.16084944981602323 0.2994764558807247
-0.08334104401846158 -0.07452268992069967 0.06223466685275063 0.11094916227907094 0.19130931656473688 -0.3574578486525292 0.08300366112296907 0.176079512118332
0.048303313329984825 -0.1933109077781832 0.10613181651574768 0.09134299723896808 -0.05722011737844796 0.2091629012355239 -0.22675244332067784 -0.06460203627020937
-0.2987205885457871 0.13973547276146486 -0.3093582716343449 0.2143490803904102 0.21793736517497944 0.08461814547284685 0.28447611809601336 -0.3115237504020805
0.05657627420646641 -0.017673645294220337 0.09846877115884747 -0.040177091022336846 -0.05428107313554318 0.15133243625105094 0.07380460380949434 -0.003398774770477723
0.015268200304534664 0.12328595289584104 -0.13389506528657424 0.14733325895414506 -0.15575826657601927 -0.08756177825302436 0.06540784011181608 0.010118495727491718
-0.07832819261036231 0.2293649577487943 0.034981152284792504 -0.017195519833888104 -0.01366016504673306 -0.051419368304457196 0.1559348393839438 0.2614142917788253
0.15562807689964314 -0.07226979763534348 -0.043476774277959866 0.008538109788957348 -0.11720273647321215 -0.05065255957562833 0.021262980035395226 0.17433826250206724
-0.06883568906284115 0.17613747546312727 -2.4416955774966973 -0.0032121298262519486 0.031271994980594124 -0.01578497923065495 0.11186523499104942 0.1717227373527467
-0.045020564394242304 -0.13864584143557754 0.26548757058334443 -0.06311361427169691 0.12259186710508745 0.03949257620948317 0.07233756325769507 -0.1534936906959548
-0.17136471725721023 0.06910001656139385 0.02008671538017734 -0.07494597078249178 -0.0677672499881978 0.00921183611345904 0.09473185220405304 0.06817281725583427

bias f8 [100]
00000000: 2617 d588 3870 cf3f 35ad 0ed0 eb1a b93f
00000010: 0929 6cd0 eaec c63f 534c c3be ae3a c3bf
00000020: 8d55 7969 5593 c83f 11f6 44c1 b57f b93f
00000030: 707f 66b2 0568 7ebf a21d ed02 e201 90bf
00000040: 54c1 182f 0b06 a43f e927 c7cf bd40 a23f
00000050: 4d4c db46 db5e c03f c67b 0c79 1a96 d0bf
00000060: 7f84 beac 247d 83bf 0334 a032 f1ba bc3f
00000070: 0000 0040 1fe8 af3f d777 e52b e785 c33f
00000080: e51a fbf4 2d39 be3f bafe af36 d19d cf3f
00000090: e2c0 eef1 a77d c33f 1baa c68e c207 cb3f
000000a0: 4af1 6077 7779 c1bf 7b26 8a80 cf11 853f
000000b0: d1c9 e66f c7c6 d3bf 3861 84f7 2fdf b13f
000000c0: dfeb c6b0 9718 953f e7ca 5c67 e352 a73f
000000d0: b6e3 8330 e47c c83f 87fc be80 40e4 ab3f
000000e0: a2f8 7346 f979 b33f f4cb 7c09 d870 a43f
000000f0: 0000 00e0 d4ff 8f3f 8cb0 db3d b1cc c0bf
00000100: 4b24 01c7 2f63 89bf ed1d ced9 e616 bb3f
00000110: 7913 14fb 1a9d 97bf c02f 1895 b708 ca3f
00000120: 67c8 4372 e27f b23f 9396 8cac baf5 a1bf
00000130: 7ba8 4fb0 9b7c 94bf c16c 4533 064f a43f
00000140: 1917 70a1 f49f 793f ee09 a1b9 1df2 b63f
00000150: d4a3 fce4 c627 88bf 6ea2 4bd0 0043 a8bf
00000160: 5df2 d6bf d8e0 b2bf 755d 424c a16f c23f
00000170: 0000 00a0 bd82 a5bf f423 0504 86bd c93f
00000180: 722f 95f5 655d bebf 7e5c 1db5 613a a73f
00000190: 521e 5ad8 37c5 c03f 162b e2e7 6612 be3f
000001a0: 1625 cd4e 174f 9b3f aa76 b0ac 0232 5abf
000001b0: 0add d061 1186 503f f2c9 82d1 a8c1 bfbf
000001c0: cf30 046e 525e d03f 3ccb 7c57 6cbd 88bf
000001d0: 46ea 9ee5 8e13 b33f 8c6a 8172 d492 b53f
000001e0: ad36 f2ba 7e8f a5bf 33e8 e9bc 7832 c13f
000001f0: ff51 b9bc 9ab7 ba3f 2cf8 5067 d7b9 b83f
00000200: 597e 522e fdd3 9a3f 0000 0060 c9a6 b3bf
00000210: 0000 0000 9836 ab3f c024 db2c bc1c 803f
00000220: 7f99 e5af 7795 c93f 082d 240b 0d8a bf3f
00000230: 8e46 36b6 182f a83f 0703 4ef2 9c91 763f
00000240: 50b3 ceff e0af c03f 06af 8405 93a0 c83f
00000250: 0791 55d8 87a4 9e3f 65f3 ad68 df73 cf3f
00000260: 96f2 0faa 45c7 be3f c2cc 9256 1561 89bf
00000270: bc28 eb6e 2882 b43f d46f fd42 769f a33f
00000280: 3390 5744 78e3 b83f 7dab c04f cc05 a0bf
00000290: de66 105f 4a93 b2bf 1ff6 667d 417b c83f
000002a0: 88f2 4e52 6b8c cdbf 09bd 8174 7f00 c43f
000002b0: 77bf e8d7 c7d3 c8bf 9353 d089 4276 c03f
000002c0: bb31 1bb6 62a3 c13f 578a 30ed 9d02 893f
000002d0: 2829 f37c 875f b53f c366 2896 f5da adbf
000002e0: 81c2 7bd9 6d01 d1bf bfda 512e 1060 913f
000002f0: 9a56 842f 87fc c4bf 0000 0040 d313 94bf
00000300: 6e48 3e48 e3d9 be3f 61dd f99f f510 abbf
00000310: be8f 6d8e f1bc 8bbf c179 b0df 57bc 80bf
0.24561220818775914 0.09806703404926938 0.17910514046554507 -0.15022835077852167 0.19199626588912758 0.09960494965067591 -0.0074234221014249785 -0.015632182530024637
0.03910860967551125 0.03565018807746851 0.12789479217335256 -0.25916158505600284 -0.00951603557752123 0.11222751127225199 0.062317825853824615 0.15252389567734667
0.11805999022463316 0.24700369997298371 0.15227221787564021 0.21117431613431922 -0.13651936844861218 0.010287877187937547 -0.3090075104511501 0.06981181900880962
0.020601625599493075 0.04555426251171984 0.19131138199716496 0.05447579928976958 0.07607992143673184 0.039923430593624604 0.015624678693711758 -0.13124671478670213
-0.012396214733728558 0.10581820313938524 -0.023060247015581823 0.20339102535251463 0.07226386346499823 -0.03507788997948782 -0.020006592403583028 0.03966540695065524
0.006256061161371362 0.08963189870795649 -0.01179461847603306 -0.047386193682375274 -0.07374338801941734 0.14403167937846786 -0.04201309755444527 0.20109629818242036
-0.11861264463112578 0.04536729179260933 0.13101862014831284 0.11746829186646965 0.026668895897533927 -0.0015988374823402798 0.00100852677793545 -0.12404875864994105
0.25575695747171506 -0.012080046100526702 0.07451718431449547 0.0842716960482141 -0.04211040527398544 0.1343527719907925 0.10436408145444175 0.09658571503038677
0.02619929881313818 -0.07676371186971664 0.05315089225769043 0.00786730777635325 0.19987388695444605 0.12320024034504595 0.047234318010976314 0.0055099611971634104
0.13036739817234855 0.19240033883522062 0.029924509600634 0.2457236539011333 0.12022815133964068 -0.012392203049193976 0.08011105258916279 0.038325973203171465
0.09722091358668265 -0.03129423593084988 -0.0725599748697294 0.19126146910814243 -0.23084775465931195 0.15626519383247509 -0.19396303217353836 0.12860900620640034
0.13779863254457134 0.012212022591545564 0.08348891068013542 -0.058311152057468195 -0.2657122253286062 0.016968014552243057 -0.1639565450683918 -0.019606877118349075
0.12051220430137885 -0.052863765505146494 -0.013543975028092233 -0.008171736253697827

weight f8 [2, 100]
00000000: f028 b0b2 917a c4bf c19e 690d dd2f af3f
00000010: 6be5 e1da c259 c13f ae24 78c5 78b6 d33f
00000020: 81c7 0376 6384 c7bf a6af 48c0 e126 c43f
00000030: c43c 9239 eb16 c23f 2604 af6d 22af b43f
00000040: 7c4b 13e7 2f1e c2bf ced6 9979 443b b33f
00000050: c553 dcd8 e4ba c1bf 0a1e ea70 3a08 d9bf
00000060: 436f 9f56 c118 703f 21be 2f9f 43f2 c93f
00000070: 0000 0060 b4e6 afbf 9ad3 56bd af94 91bf
00000080: a927 8e99 c80a c03f da20 e511 4185 c5bf
00000090: da9f 48cd 8e5c c2bf ddf5 8ca7 f256 c63f
000000a0: e61a d1e1 2898 d13f 6ff4 9053 773b c73f
000000b0: ea56 cfee 1aa0 e0bf 0450 7098 e41a 9e3f
000000c0: 1120 da36 e605 c4bf 3723 7c02 9c11 c23f
000000d0: 1ab7 7444 c3b2 9e3f 7014 761d b1a1 a73f
000000e0: 35e3 b21f 8765 c5bf 055e c58d 650f b2bf
000000f0: 0000 0000 1868 9e3f b89e 4f8d 2d0c d9bf
00000100: 74e7 4340 c51a b8bf b6f2 a748 93c3 ca3f
00000110: d124 69ad 17d6 d3bf cee5 4bea 57db c73f
00000120: 2cf2 d534 be7d c1bf ee45 e697 4753 ba3f
00000130: d74a 89b6 b7f4 c3bf 4b6b b510 e370 cf3f
00000140: 5cd9 0c57 cff7 a4bf d740 1bf1 1e74 b73f
00000150: 8c48 d89a b0db b5bf 06b6 78c7 2fc2 b8bf
00000160: 6aa9 b1e9 196a 94bf 751e c877 6ad3 b0bf
00000170: 0000 00a0 fb79 a8bf 7361 c064 45da bf3f
00000180: f5ba 9aa1 1a6c c5bf 92f1 91fd d845 b1bf
00000190: 93b9 60dc b6cc cdbf f1ed 3189 0148 b03f
000001a0: 2acd 5278 ba69 b9bf fc5f 4327 801b bfbf
000001b0: 6f70 5d03 ca91 c83f e4e9 c8a9 36dd e03f
000001c0: e843 2308 95af c8bf 9015 44fe 786a bb3f
000001d0: 8290 4001 912b b6bf 4fea ea07 8b8e d03f
000001e0: cd98 418e a985 b03f f566 4962 db9c c7bf
000001f0: b7ae b61f b6d0 d13f 4631 2d62 0e84 be3f
00000200: bd0b c304 0892 a33f 0000 00e0 0ec6 abbf
00000210: 0000 0000 6ccb b8bf 755c e69a 5f2f 3cbf
00000220: e270 6470 f4fa 773f efd5 103f 05c2 d33f
00000230: 84dd dbeb 5681 b73f 14b4 2947 8455 c8bf
00000240: c15f c8d5 8b6c bebf fc6d 8a56 1ecd cbbf
00000250: 7c85 a232 bd07 9e3f 8a28 9ba0 b14d c63f
00000260: 2b1c 6560 ad03 80bf 439e b383 3fe5 d23f
00000270: 6d21 699b d9ec a03f 2bc3 81c8 de82 bdbf
00000280: 9c63 9fb0 9a4d c1bf 38b2 a80b f468 d73f
00000290: d38d 0e1a b4e1 a8bf 1efe 93b9 bc2a ce3f
000002a0: 3653 af75 6ae8 e2bf 8504 45d3 e707 bcbf
000002b0: d1d6 3904 a56f c5bf 8877 e410 1235 973f
000002c0: a20d 3cb4 5e02 87bf a48a c14c b427 cabf
000002d0: 0027 a4d9 4639 c2bf 70aa 3b91 bd53 ae3f
000002e0: 8e59 d385 c54b d6bf 4746 8e7d 5154 a1bf
000002f0: bfb5 cd8c 136e d73f 0000 00e0 fe95 b53f
00000300: 440b 573a c1a5 d03f eb07 7eb3 1bcb c73f
00000310: 5374 f88a 2e67 7e3f 3a7f eed4 c89d c1bf
00000320: 64e0 3d38 f732 cdbf 7f0f 818b ad96 c23f
00000330: ba4f b92a d5dd c33f 58cb 070e ad8b d03f
00000340: 0100 5f81 2937 c8bf 58d8 63de f58b c23f
00000350: 7329 296a 7f5d acbf 452e a6b2 e25d b93f
00000360: 662a b17a 6c92 b0bf 56fe 1efb 6716 ba3f
00000370: 18e6 873a c3ed 95bf fc27 3487 0f79 d5bf
00000380: e3b4 5bc0 278b b63f f1da f024 c8d3 c63f
00000390: 0000 00e0 8c61 5fbf 5903 966e 4569 c1bf
000003a0: 2bdf 9718 e521 c5bf bed8 24a0 8f01 98bf
000003b0: 5d80 2994 94e5 b3bf 3cbf 31d9 0f2a c43f
000003c0: de62 d8af ae31 cb3f 3c01 582f 1376 b2bf
000003d0: 920a 974f 132a dcbf f842 3be8 1cf6 c43f
000003e0: 8171 281f 0089 923f bfa1 d1b9 9bd5 bd3f
000003f0: 0bfc 0120 0295 ccbf 179a 8016 6ff4 a33f
00000400: 3d88 8dd1 5fb2 75bf d767 32be 33aa 893f
00000410: 0000 0060 d6c5 88bf 3055 80b0 1b88 d5bf
00000420: 522a aa73 3af2 b3bf 2a64 c562 dad0 b93f
00000430: 36ca e060 a6cd cebf 9c8b 112a 2a3f c83f
00000440: d397 dbfa 1448 c4bf 386f 31a7 3d16 bc3f
00000450: 9ed6 f04a 052d 3e3f 7992 1a30 5b3b 893f
00000460: 171a 5a4a ade4 9e3f 013f 74e9 157a 923f
00000470: 174d 5fe2 65ce b6bf f884 a8a8 6a4d 68bf
00000480: 7318 bb1a 66ba 9dbf e70f 7785 ea49 bbbf
00000490: 0000 0000 e427 b93f 7df0 6ca8 139c bc3f
000004a0: f000 c53f 4a48 c6bf e351 120d c04f b1bf
000004b0: b334 9c80 7d20 c9bf 7782 f3b6 14be be3f
000004c0: 7f31 84ee b05d b3bf 12bb a273 b782 c0bf
000004d0: 755a 6d40 30bd c9bf f6b4 892a 70dd dc3f
000004e0: 3f09 61ed 3066 c5bf 1e08 3fe4 30e7 ac3f
000004f0: 3fd3 d577 b1f2 c6bf 3092 736c cda2 d13f
00000500: 0465 34c9 e1d9 af3f c058 d0c9 1f1d ccbf
00000510: e9ac 0ccc c274 cf3f bd8d 9eeb 7635 bb3f
00000520: 8f7e de4c b51c 84bf 0000 0040 91f5 a73f
00000530: 0000 0040 677b b4bf 35c0 2a9e fc90 81bf
00000540: 142a 761e 731f d63f 2041 32f4 9906 d33f
00000550: dcaa 7745 6825 c13f 3339 d3bb 2a5e bcbf
00000560: 5a3b 86f6 6c41 b3bf 853f 47fb d6dc b7bf
00000570: 7f30 9cba a114 c53f e89a 03b1 16f6 a63f
00000580: a511 e54e 9b20 aebf 65c1 e1e5 f1ea d03f
00000590: 81d5 b201 19c3 95bf be42 b719 4c51 b7bf
000005a0: b370 e0c0 fd41 d0bf b266 b662 7156 d53f
000005b0: 1ca1 81a1 6143 a43f 8d9c 54c8 54a1 cc3f
000005c0: 6164 2c17 d74d e1bf f6c2 a092 35c8 b5bf
000005d0: 6923 deb2 f713 c9bf 49d2 419d 14d5 be3f
000005e0: 0f5b e496 a2ab bcbf 5d46 e6a8 58ac c8bf
000005f0: 000b 20b9 8450 94bf 803a 77d1 ff3c b4bf
00000600: 3bb6 b61c 4ad4 d1bf d139 c70c 990b 73bf
00000610: 436c 02d8 e5a0 d53f 0000 0040 17d7 ab3f
00000620: 71c4 ba65 627a cf3f 0aaa 9ced c0cb c63f
00000630: 7a7d 1930 3187 c43f 099b 1892 4268 88bf
-0.15999051308637702 0.06091204441764609 0.1355517929803612 0.3080121925746181 -0.18372767698707196 0.15743657959808138 0.14132442771049203 0.08079734018157633
-0.1415462377832134 0.07512309998295594 -0.13851605023287852 -0.39112721468743017 0.0039298584251488715 0.20270581505563803 -0.06230701133608818 -0.017168756419511412
0.1253290891439154 -0.16812909482746968 -0.14344964049928316 0.17452843838866175 0.27491209080146317 0.18150226192838967 -0.5195440925842523 0.029399463466759826
-0.15643003156969873 0.1411623966344224 0.029978800824372966 0.0461554859603347 -0.16716088340560878 -0.07054743491368505 0.029693961143493652 -0.39136828231719845
-0.09415848559356538 0.20909348533304745 -0.3099421685661357 0.1863813299203642 -0.13664987163419207 0.10283324678882597 -0.1559056893625754 0.24563253703930807
-0.04095313966392908 0.0916156138075651 -0.08538345127479569 -0.09671305293951357 -0.0199359940419667 -0.06572595047338743 -0.047805655747652054 0.12442430219414806
-0.16736157313194835 -0.06747204008747179 -0.23280988464962302 0.06359872436035353 -0.09926953733047542 -0.121513375840891 0.19194913067156302 0.5270036045179123
-0.1928583421454555 0.10709339339890378 -0.08660227089473163 0.2587001397438699 0.06453952525189095 -0.18447439479023556 0.2783637342169913 0.11920251747978225
0.038223505574499474 -0.05424543842673302 -0.09685397148132324 -0.0004300697718461818 0.0058545635604583 0.30871707113996555 0.09181731470368076 -0.1901097629046552
-0.11884378403954 -0.21719722009298426 0.02932639714766115 0.17424602834791286 -0.007819513801804309 0.2952421938084379 0.03305702230551586 -0.11527817149341206
-0.13518079399252947 0.3657808412415622 -0.048596981220977796 0.23567923604422075 -0.5908710764439096 -0.10949562938641762 -0.1674696226725048 0.022663385659249552
-0.011234989047358483 -0.20433667896130203 -0.14237294795048427 0.05923263929237954 -0.3483747298136216 -0.03384642274535259 0.3660935282740318 0.08432000130414963
0.2601168699003902 0.18588587059281222 0.0074226205902308716 -0.13762770077755154 -0.22811784979035388 0.14522332488752096 0.15520729623915291 0.25852514619980616
-0.18918341462085667 0.1448962531937379 -0.05540083094509187 0.09908882962752681 -0.06473424907123046 0.10190439110646685 -0.02141480488533007 -0.3355139561032272
0.08806084104772398 0.17833806804420463 -0.0019153476459905505 -0.1360251226397178 -0.16509689045755613 -0.02344345488492005 -0.07772186867941984 0.1575336275595819
0.21245368562883632 -0.0721141806207059 -0.44006808063947134 0.1637607702200723 0.018100740339023872 0.11654065405458079 -0.22329737246397516 0.038974257943028494
-0.005297064105294122 0.012531666032646811 -0.012096094898879528 -0.33643238293128075 -0.07791486095281044 0.10084309493449042 -0.24065093737006443 0.189427633801725
-0.1584497666255503 0.10971436817038416 0.0004604471132013485 0.012320244222175024 0.030169208205302746 0.01804384457960762 -0.08908688332239866 -0.002966602628717948
-0.0290313676657878 -0.10659662016320191 0.09826493263244629 0.11175654279662868 -0.17408111680743543 -0.06762314147119457 -0.19630402354997542 0.12008790461141837
-0.0756483633342153 -0.12898915430329133 -0.2010860743127584 0.4510155120286322 -0.1671811255528812 0.05645134721955024 -0.17928140975313941 0.2755616721244989
0.06220918255912447 -0.21963879923050023 0.24575076068263194 0.10628455402780097 -0.00982038155399259 0.04679540544748306 -0.08000798523426056 -0.008577321602700841
0.3456695363499034 0.29727791640563517 0.13395408050504087 -0.11081187329839252 -0.07521706598911973 -0.09321349749302328 0.16469213115522405 0.044846257312931403
-0.05884251916953368 0.2643398995342266 -0.021252051094696526 -0.09108424785450617 -0.2540277846872058 0.3334010566701223 0.03957657906068077 0.2236734369446122
-0.5407519772153472 -0.08508620099815886 -0.19592186197067044 0.1204388507774833 -0.11199394401442596 -0.19275959250494426 -0.019838403510230584 -0.07905577529820995
-0.2785821228415874 -0.004649732447843794 0.3379454240291048 0.054375387728214264 0.24592237441314382 0.1780930671896644 0.16037573670017108 -0.011917610248088477

bias f8 [2]
00000000: 741d 8284 f0ca 97bf 2957 d561 bfe7 7f3f
-0.02323509033933875 0.007789371096199629
