model2_DGM_state_dict_1000_30.pt (torch, 168968 bytes, 8 tensors)

layer1.weight f8 [100, 3]
0.20340668094648096 0.096145712316531 0.47752559478795603 0.0014594493542479145 -0.26439300353900974 0.24928047493365132 -0.04726940600053159 0.4506350525652161
-0.4369034486982903 0.5129963762045866 0.0075380065252161205 0.2694323406364879 0.5072033794205502 -0.028437048706382837 -0.30989599509581905 -0.15579522803186302
0.2490089943886283 -0.013558607546363791 -0.37856881712951423 0.4033489212288669 0.010238042341422266 0.4385305080527809 0.3832227970890103 0.3884313399559993
-0.17008243656008573 -0.44521865886692336 -0.1345433742656865 0.4623225392092094 0.16709797453398953 -0.139170973773168 0.18765757192936827 -0.18709532462102677
-0.0926570870344001 0.1642873568572929 0.3649639517345392 -0.09510382499612328 0.2050072003354313 -0.0993556184329506 0.1795630308044276 -0.6349753982698011
-0.2436314325593785 -0.31194635900584045 -0.32881181778188734 -0.22692079916573538 0.016477861491294793 -0.6211625725002325 0.3026744459962825 0.21116166821851307
-0.6252465280255254 0.4118820768163244 -0.45708911183599893 -0.1523855652059588 0.40382186917481594 0.23094740673718836 -0.2841796222320881 0.1722110743664569
0.4594026108209363 -0.1453467627423907 -0.04437592384601854 -0.39991207468985135 -0.3035287366696395 0.512008584538664 0.26507222125911506 0.2069405245356725
-0.2103850700359793 0.05247770600677333 -0.004174775788645503 -0.3551090386923023 0.3830534152184868 0.4890865983615575 -0.21183311885853132 0.05559162517418116
-0.27032284015686725 -0.5319752358812885 0.2684865867056456 0.22593912969554925 -0.6260949405262834 -0.07760161118565656 -0.39356697774163274 0.09067067840487904
-0.5371539430286969 0.08706411334514502 0.4954260449953126 0.04775080504985254 0.4658630076031588 -0.22497537093041237 -0.19641219425311474 -0.1969011104599338
-0.21345764776256576 -0.22620586798664383 -0.22220985487941633 -0.4140894039283945 -0.11672993700330446 -0.2841085773443646 0.40196450053501215 0.3766307679195109
-0.14974395816509 0.05009034028262926 -0.011789348876712135 -0.009198967890359488 0.4161477343454551 -0.08971724256751458 -0.08146442835695929 0.06376627969677989
0.18591636890642835 0.19586376091287977 -0.31271704895433033 0.46724668563702304 -0.5198396361502616 -0.2444524444915189 0.5848541185404348 -0.42163217067718506
-0.04024261236190796 -0.05789405107498169 0.07816796347575773 -0.31816786888913373 0.3397869815105417 -0.11692818083470073 -0.5769532980354376 0.4594724275416165
-0.03968174704837641 -0.33716744797760306 -0.35479333851177697 0.2839219806155247 -0.3874730703205539 0.16948437101685251 0.10332266089138448 0.10032913585805704
-0.3744600258388382 0.45331665796743964 -0.23193500343387602 -0.07696116404784649 0.26324561011392733 0.014181351784965367 0.2533942412928519 -0.0289156872851124
0.36077928699758194 0.09086004035976311 -0.26204939013687994 0.32113386928851784 -0.1060992437978077 -0.2701543030395885 -0.03658329872286415 -0.46527265512886307
-0.5223563809348393 0.17604776162494384 0.13819998047450968 0.09111912305227433 -0.10954831107397078 -0.36647975374402175 0.5179013120217495 -0.19726740612932597
0.08968861451695698 0.3779857394470279 -0.018943330064069418 0.2004210522128725 0.4788043871992216 0.057568524799449246 0.45884491013963435 -0.1551721015647501
-0.4080694080387198 0.513548881533286 -0.21220253225122399 0.24449838634345955 0.19866815308944347 -0.04226770828066928 0.2564764668909333 -0.014428623409236518
0.20426140076313973 -0.09990356336888272 0.17664782635297205 0.2265390393591674 0.04347754629601561 -0.10837001632382882 -0.4394909601802522 0.061743555747002805
-0.11904129970460903 0.6428040719763013 -0.5357447515737465 0.4959585065645676 -0.2494990174942883 -0.3017515794400995 0.45607744127576383 0.1357236904674532
0.3430005101434101 -0.016530570433895646 -0.33530111024485304 0.10424225303269302 -0.10487025257991965 0.13326448114591163 -0.39955156928981206 0.27771674327126034
0.46832130949037776 -0.35926561737310275 -0.37273196067920505 -0.13875602799168127 0.4366364100278605 0.10329613788837079 -0.3301672697311757 0.2555779676324625
-0.21129873779908637 0.358214721472891 0.32443748401867634 0.03803584629000925 -0.5869504548301966 0.13487206496081403 -0.13278200069795854 -0.1729005714285174
-0.1769763430716577 -0.11296914909390181 -0.1739679893152185 0.355819979749776 -0.1664048506798306 0.5211636150568448 0.2641751182821334 0.18305818079399838
0.6417339956942346 -0.5965780231828253 0.2818173111966922 0.4958434099036486 -0.2589006814064944 0.14170254698937323 0.5991201681536643 -0.04023193255832536
-0.44766235288342576 -0.17071447763121883 0.0701059498897815 -0.19181033259907954 -0.514739157096664 0.17118011273109177 0.23340490177217044 -0.5994714663496564
0.4615453405515138 0.4235947164335028 -0.3553910177002379 -0.16580760542305883 0.5185366785691481 -0.24427137617575068 -0.5024639241990232 0.45691278336221924
-0.48013164198485203 0.4000518349734391 -0.10562116720005592 -0.29471375912230574 0.3403410863201963 0.14642789797670466 -0.444060138804266 -0.013705620890281097
0.15795940361210123 0.3885411686686308 0.23107611948798806 0.3136807139272553 -0.0693262359094409 -0.080068914802461 -0.3763243181820836 0.11259775333489164
00000000: 48fd 39e9 3a09 ca3f ffd4 0c62 019d b83f
00000010: 8580 2783 c78f de3f 1354 c9cf 5fe9 573f
00000020: ca70 dfa1 d0eb d0bf 6389 af2f 6ce8 cf3f
00000030: 584c bf11 b233 a8bf dcb9 4c67 34d7 dc3f
00000040: 23cd eae1 39f6 dbbf 9e7c 5860 776a e03f
00000050: b09f 0b38 2ce0 7e3f 3e2e e124 613e d13f
00000060: ac05 e194 023b e03f 9933 c108 9a1e 9dbf
00000070: 4f44 0603 56d5 d3bf fe85 a218 19f1 c3bf
00000080: 838d a7d7 86df cf3f 626d ed7f 9dc4 8bbf
00000090: a7d3 36b4 783a d8bf e282 63fe 77d0 d93f
000000a0: 5774 40c8 aef7 843f 29a3 9843 e210 dc3f
000000b0: 680d 25e9 b886 d83f f48e 761f 0fdc d83f
000000c0: e124 53e3 42c5 c5bf 30c1 d966 767e dcbf
000000d0: 97ab 2ea0 b738 c1bf e4dc 8646 b196 dd3f
000000e0: 3ff8 ec67 7763 c53f e440 74be 5ad0 c1bf
000000f0: 9846 24cf 2905 c83f 11ac 3d56 bdf2 c7bf
00000100: ff2c 8ef6 5fb8 b7bf e096 6c3c 5e07 c53f
00000110: 1acd 3ac3 915b d73f 1b36 156a b958 b8bf
00000120: 284e 710a ad3d ca3f 98e7 d7ab 5e6f b9bf
00000130: 8815 70e0 ebfb c63f f9aa 2aed b751 e4bf
00000140: 6961 8f95 502f cfbf b853 82dc edf6 d3bf
00000150: 4d56 fab8 400b d5bf 6879 99a1 bd0b cdbf
00000160: 783e da90 92df 903f 4468 cc54 90e0 e3bf
00000170: 95e4 b8a3 045f d33f 9e6a 9575 5807 cb3f
00000180: 69d4 b901 0502 e4bf e204 6fa4 465c da3f
00000190: 0f5f acb0 f240 ddbf b495 78c5 5e81 c3bf
000001a0: b9fc 60ae 37d8 d93f 3f20 8443 af8f cd3f
000001b0: 014b ebb9 ff2f d2bf c1db 3432 030b c63f
000001c0: 6711 4b35 da66 dd3f d56d 4704 b99a c2bf
000001d0: d3ff 4beb 70b8 a6bf 0261 84d0 2898 d9bf
000001e0: 671b 59cb 036d d3bf 8dac bbd3 5f62 e03f
000001f0: d1b3 587a f1f6 d03f ad84 8cf0 067d ca3f
00000200: 8183 afe1 e5ed cabf 5aea 229e 5bde aa3f
00000210: 4293 afd7 9119 71bf cfa2 ec42 1bba d6bf
00000220: 3402 bf78 f283 d83f 57fc 37e0 314d df3f
00000230: 5d81 dafe 581d cbbf 52f4 1b68 8176 ac3f
00000240: 267a 752b f84c d1bf 6d8b 0cee f005 e1bf
00000250: c82f 545d e22e d13f 4eec 76ca 92eb cc3f
00000260: e60b b841 f808 e4bf 10c8 28fe b2dd b3bf
00000270: 56e5 8b8c 3330 d9bf b580 748e 3136 b73f
00000280: f038 4777 5d30 e1bf 9cfe 786f d549 b63f
00000290: 02db 3571 0fb5 df3f a3f4 1724 cb72 a83f
000002a0: d297 8413 b3d0 dd3f 829a 4632 fecb ccbf
000002b0: 2826 6de7 0824 c9bf 165a fc3a 0e34 c9bf
000002c0: ce53 1c88 9452 cbbf 263d 955a 50f4 ccbf
000002d0: fb2a c75d 5f71 ccbf 9186 dfd7 7080 dabf
000002e0: 77b1 e45d 03e2 bdbf a941 0dbe d52e d2bf
000002f0: c1da fc4f c9b9 d93f 346d b8ef b71a d83f
00000300: 14dc 8b5d cf2a c3bf cf03 b8ea 70a5 a93f
00000310: c6d2 ee9e 0325 88bf 13e8 f791 e8d6 82bf
00000320: cf5d 541b 2aa2 da3f 71fb b68e b5f7 b6bf
00000330: 059a 944f dada b4bf 4ca0 e2a5 fc52 b03f
00000340: 5341 1f8a 1bcc c73f 2ad3 cb4f 1012 c93f
00000350: 4d45 8a5e 8e03 d4bf 116d 7ea4 5ee7 dd3f
00000360: d9c1 8dbb 86a2 e0bf 9b58 42bb 374a cfbf
00000370: 84fc 01fc 1fb7 e23f 0000 0080 05fc dabf
00000380: 0000 0000 ae9a a4bf 0000 0000 4aa4 adbf
00000390: 512a b9ce d002 b43f fe13 e1c3 dc5c d4bf
000003a0: f56f 4ce5 11bf d53f c372 aa58 01ef bdbf
000003b0: 9f35 4cc3 6676 e2bf 451e 6d0a ff67 dd3f
000003c0: c94f a47b 2a51 a4bf c9bb 95c6 2694 d5bf
000003d0: 94ca 6f1e efb4 d6bf 89fd 5619 c72b d23f
000003e0: 12e1 46d9 5bcc d8bf 5faa 59f3 a9b1 c53f
000003f0: 74d5 7699 5a73 ba3f d9a6 5895 2baf b93f
00000400: a8c6 282f 27f7 d7bf 5ff0 2cdf 2303 dd3f
00000410: 16e8 45d3 0bb0 cdbf 91c8 a512 bab3 b3bf
00000420: 0850 901d 04d9 d03f f935 09d1 1c0b 8d3f
00000430: f53d d67a 9c37 d03f 8076 ecec 129c 9dbf
00000440: dda4 ae01 0217 d73f 96c1 db85 9a42 b73f
00000450: f9c6 24ce 6ac5 d0bf 1adb 8e12 758d d43f
00000460: 23ee 3dee 5129 bbbf eb6f 1b46 354a d1bf
00000470: 5162 30cf 0bbb a2bf 7419 60f5 06c7 ddbf
00000480: 0e1b 9fba 24b7 e0bf 1848 5ba9 bb88 c63f
00000490: dd11 3976 89b0 c13f 51ba 8c35 9553 b73f
000004a0: a00d 65ad 5b0b bcbf 5e82 3e7f 6774 d7bf
000004b0: 840b b6c5 a592 e03f c633 f2f0 0e40 c9bf
000004c0: 7883 2c42 d5f5 b63f 11e1 5119 eb30 d83f
000004d0: d6f8 685c e165 93bf bb93 57a4 65a7 c93f
000004e0: 34ed 0c28 bba4 de3f 99cf 9526 9f79 ad3f
000004f0: 2817 bf0a b75d dd3f ca70 bcee addc c3bf
00000500: 768f 8126 cf1d dabf a4a6 6210 fe6e e03f
00000510: c0dd 12dc 7329 cbbf 208d a21e b94b cf3f
00000520: 1250 2342 f56d c93f 6014 7cf1 1ca4 a5bf
00000530: 325f 5f45 1c6a d03f 660d 5a0d c18c 8dbf
00000540: 5d71 0ed2 3c25 ca3f cf57 6ca9 4793 b9bf
00000550: 6839 8c5e 659c c63f 034e a832 3bff cc3f
00000560: ec46 e75e b042 a63f 2153 fa2b 23be bbbf
00000570: 1528 37b1 9e20 dcbf 6921 58f1 d99c af3f
00000580: 0cc9 1a99 7d79 bebf 88f6 5bd8 d991 e43f
00000590: 8f69 602d d224 e1bf 598a 77bf c8bd df3f
000005a0: 2dd4 4274 95ef cfbf 6b8a 4ddb e54f d3bf
000005b0: cd41 ae6f 5f30 dd3f 56d1 ecd5 645f c13f
000005c0: dff1 6469 b8f3 d53f 8b5a 97cd 63ed 90bf
000005d0: c71a b4c9 9275 d5bf 9403 a3cb 9eaf ba3f
000005e0: 7f6d 27e1 c6d8 babf 91bb 1e7e cf0e c13f
000005f0: fa92 cabe 4092 d9bf 4fb5 7972 1cc6 d13f
00000600: 00fd 11f1 f9f8 dd3f 6376 4c37 35fe d6bf
00000610: 19a2 5227 d7da d7bf cf6e 2ced c1c2 c1bf
00000620: 1f00 54d7 d9f1 db3f e19d 089e 9d71 ba3f
00000630: e41e 6de6 7521 d5bf 0bd0 23b1 635b d03f
00000640: 6c3e 4448 d60b cbbf 08ff 6a70 fdec d63f
00000650: 303b dd6f 95c3 d43f e454 c837 6f79 a33f
00000660: d1c6 fb51 4cc8 e2bf 9b49 13e2 7c43 c13f
00000670: 1862 3f27 00ff c0bf 8662 df1d 9b21 c6bf
00000680: f547 d42a 29a7 c6bf a3b4 d0d0 8beb bcbf
00000690: 6472 5444 9544 c6bf 9379 122a c1c5 d63f
000006a0: c166 c80f c14c c5bf d618 5151 5fad e03f
000006b0: 9313 5cc1 3ee8 d03f e042 e351 736e c73f
000006c0: dd9e 87bb 1589 e43f 5ea4 62cb 2a17 e3bf
000006d0: 2855 c279 4b09 d23f 704a 5eff e5bb df3f
000006e0: 7f64 e329 d491 d0bf 3c25 8a1e 4f23 c23f
000006f0: 1f02 130f fe2b e33f a18e 2fa5 4799 a4bf
00000700: ef38 52ff 7fa6 dcbf 909d 30d5 f8d9 c5bf
00000710: aa18 08aa 76f2 b13f 8c22 c6b0 3d8d c8bf
00000720: c66c b640 be78 e0bf c3eb f3dc 3ae9 c53f
00000730: 5035 eb39 36e0 cd3f 0b6c dbc8 de2e e3bf
00000740: 498e d277 f589 dd3f 49c7 7503 2d1c db3f
00000750: b323 94f7 b9be d6bf 902c 5c01 2f39 c5bf
00000760: fc63 873b da97 e03f a80a 03d2 4844 cfbf
00000770: 1c59 3b39 2f14 e0bf 6b90 6a1d 0f3e dd3f
00000780: d061 0611 7aba debf fe9a fa02 739a d93f
00000790: 0bbc e322 fd09 bbbf 3923 4719 97dc d2bf
000007a0: 27be cefa 25c8 d53f a117 843c 26be c23f
000007b0: 5cc7 6737 7b6b dcbf 9e07 f64b b111 8cbf
000007c0: a708 4e84 0338 c43f 7b35 25c7 dbdd d83f
000007d0: 1a33 0bfc e693 cd3f 0806 ed45 5813 d43f
000007e0: 525f fc3b 5dbf b1bf 36b6 807a 657f b4bf
000007f0: df04 d297 b215 d8bf d02a 2dd4 34d3 bc3f

layer1.bias f8 [100]
-0.016457157891533698 0.23084220118915058 -0.2898141842568161 -0.32238582234854835 0.6148917389642276 0.1974437241055014 -0.4962152211152085 0.5508236260148395
-0.22291696521132864 -0.08253036901179271 0.19133989458487746 -0.6295054632674055 0.43468787424251976 0.49331825671365903 0.7361690790337191 -0.396811281754017
-0.15797367893273445 0.24626349127186542 -0.021744588840125194 -0.7380049559958742 0.36678123809593144 -0.18524247227891683 0.29941015426410456 0.05590127428412862
-0.05934716909412087 0.09018367767571421 0.554319203830744 0.38968114414117433 0.22932668599135342 -0.04008673554992181 -0.1767065757812286 -0.5681022150682546
0.438898171667214 0.29831463745928427 -0.3697712408599357 -0.20282614321996711 -0.30141340226669605 -0.40213531255722046 0.5422015096518243 0.5873952340913139
-0.3168182591628449 -0.6528342674302807 -0.6598879061835283 0.08830208652133728 0.5568612474460564 0.33654521789313396 0.14684473070386525 -0.4265952443367519
0.14226717241157294 0.42450480436533927 -0.025176998120375 -0.27960320888350854 -0.5435443132800812 -0.6413807457469133 -0.6375612489775772 0.5832353518995614
-0.1010385794982872 0.2738953608362673 -0.08341210098791677 -0.5274951173050353 -0.05150788333655329 -0.5592038416339293 0.26853255129788056 -0.6120938875643424
-0.2904275489705221 0.36342133498260415 -0.7176248930292285 -0.08924470849604481 0.5545716932119239 0.5975154262652927 -0.02003732773930913 0.12050292262314265
0.2610907140758792 0.6924512991112446 -0.3700082642945024 0.4575613726731601 -0.1894365544733306 -0.22477811169325676 0.1910722967791138 -0.631777859739807
-0.38676140036873075 0.050289895487281064 0.6332850497496558 0.2275735930226847 0.02855805910960758 -0.47209513327269964 0.4529081884020232 -0.07840627619766008
-0.25919855688493676 -0.020164717083505066 -0.45809143893137066 -0.3680690139107503 -0.5322102370112937 -0.2981484869763688 -0.3042977879817433 -0.15894746080188257
0.5558188288783051 -0.04375060385931135 -0.2731050982140732 -0.5888270770460692
00000000: 258c b72b 25da 90bf 5d70 52bc 3c8c cd3f
00000010: 4532 d3ca 508c d2bf d596 eb24 f8a1 d4bf
00000020: 57d2 ad70 31ad e33f 99b2 ea00 d645 c93f
00000030: 15e7 9d7c fdc1 dfbf c121 73de 58a0 e13f
00000040: 6c32 a709 8b88 ccbf 331c d5d3 b520 b5bf
00000050: e1c0 d45e d37d c83f f660 2ca4 e824 e4bf
00000060: 74b8 f516 edd1 db3f a6b6 c6bc 8692 df3f
00000070: 25d7 d874 b28e e73f 5f4f 7425 5b65 d9bf
00000080: 0a8c 5244 7b38 c4bf 9410 9be4 8f85 cf3f
00000090: 1eb4 bba7 3644 96bf ed38 c991 bc9d e7bf
000000a0: 7823 9a03 5879 d73f 3a52 227c 06b6 c7bf
000000b0: b0e5 2935 8929 d33f 31ca b581 179f ac3f
000000c0: 1226 bd8c c062 aebf f70c 400a 4716 b73f
000000d0: 01ee 7fa0 fbbc e13f b511 7d2e 89f0 d83f
000000e0: 106a 37ac 935a cd3f ef70 61a4 3f86 a4bf
000000f0: 8bf8 fb31 529e c6bf 221b 50b2 e42d e2bf
00000100: a46e 655b e816 dc3f f590 f346 9617 d33f
00000110: 31aa 9ffe 54aa d7bf 36a8 f301 35f6 c9bf
00000120: 77f0 5370 5b4a d3bf 0000 00c0 95bc d9bf
00000130: 397c f9fa b659 e13f 5df3 0717 f1cb e23f
00000140: 1653 7817 c046 d4bf 0e47 8ab0 04e4 e4bf
00000150: 86b1 023e cd1d e5bf be17 c72d f79a b63f
00000160: 3219 c6ad ced1 e13f 227a 1ef4 f489 d53f
00000170: 8344 fbe1 cecb c23f f68c c323 564d dbbf
00000180: 30ab 668a cf35 c23f dd9d ef32 162b db3f
00000190: 2263 27be ffc7 99bf 90b9 80db 04e5 d1bf
000001a0: 0cdf 2e0b b764 e1bf f38b e8e9 3086 e4bf
000001b0: 89c7 31d9 e666 e4bf 0af3 482f dda9 e23f
000001c0: 2856 9412 aadd b9bf 4458 5468 8087 d13f
000001d0: c270 d5d5 7e5a b5bf 72fe b370 3de1 e0bf
000001e0: 0c57 d5c4 3d5f aabf 74b0 7374 ffe4 e1bf
000001f0: fe17 6f27 a32f d13f 8573 a5eb 4596 e3bf
00000200: a7e4 2b6e 5d96 d2bf 01d0 1a8f 4b42 d73f
00000210: a364 cb7a c8f6 e6bf 7fe1 54c0 bdd8 b6bf
00000220: eb3d b422 0dbf e13f 1f47 d5ab d81e e33f
00000230: 46b7 5b4d aa84 94bf 0f23 bd8f 47d9 be3f
00000240: 29b1 8fd3 b5b5 d03f 222d 78a0 8f28 e63f
00000250: 5441 9924 37ae d7bf 62d2 e27e af48 dd3f
00000260: d39f 10ff 743f c8bf 5722 4a77 87c5 ccbf
00000270: 4e40 eb98 0e75 c83f 496b bd33 8637 e4bf
00000280: 4c16 7ce3 b2c0 d8bf 86cf dfe0 98bf a93f
00000290: 600e 3702 df43 e43f 3e9a bba9 2121 cd3f
000002a0: 53e9 a6e7 523e 9d3f cb72 8081 ce36 debf
000002b0: 38bf 51a0 72fc dc3f a2f1 1108 6f12 b4bf
000002c0: ce6f 3f8b b596 d0bf 3982 a041 0fa6 94bf
000002d0: 9d6b 32c1 5e51 ddbf a4ba 5a56 718e d7bf
000002e0: d3ea 51c3 dd07 e1bf af95 3a64 dd14 d3bf
000002f0: 551c e86d 9d79 d3bf e791 f6f0 6358 c4bf
00000300: 2111 9191 44c9 e13f 9911 83a9 7a66 a6bf
00000310: ebd1 4cce 8d7a d1bf 3f30 dde1 abd7 e2bf

layer2.weight f8 [100, 100]
-0.006547671458681876 0.12693137256564413 -0.088740037166253 0.16998472577758741 0.10324650400755268 0.024253005403524944 -0.09924192350373998 0.14679195086864505
0.09090896830233587 -0.02227782699766516 0.045165885937963356 -0.12437808254381788 -0.04610481323483288 0.16159525079478457 0.08501217343774478 0.08448572452897442
0.0062825297891160505 -0.00016640610334296192 0.13729235094658912 -0.15649275107140884 0.10008950948117223 0.09971413087066944 -0.021632758613560028 0.05319526152715412
0.06612306448151285 0.1566961744585672 0.1346238148981312 0.005188686718767187 0.04216399663181774 0.11045602764793232 0.12806963170056437 -0.014600205325319741
0.09546822766941554 -0.016584653720125422 0.025957261444525686 -0.030996424236792258 0.08505982677570706 -0.027024492621421814 0.11732583454620066 0.014806641875709263
0.12693435298275596 0.07588119594728111 -0.08122729389466797 0.01699672013602792 0.01456569096721494 0.02423159281476507 -0.012473642168656103 0.04981675367109339
0.1529185809701378 -0.04198980236324647 0.07406261214131675 -0.004847648274620921 0.050327205196040864 0.0636738410502549 0.00819624701534164 0.08793313532834304
0.1339003791323238 0.1356156907145311 0.13758531298192522 0.09380667961815681 0.11003756054688608 0.02371156100955552 0.05793925497605873 0.15723006862736807
0.016335990839498132 0.19516607967224203 -0.14808412935047283 -0.10868464698917626 0.03699274900679898 0.16223325158069038 0.008909806120490292 0.13590006650309436
0.034834836729680144 -0.006437869991882628 -0.16106184596017648 0.07135706963668227 0.14680877245076696 0.02572160262938893 0.14530583694107255 0.032160177705303904
0.010506727268669473 0.07102422140889106 0.039703951882566084 0.0499367260755295 0.05714809080573437 -0.16339813240689707 -0.05719948627176788 0.047438296399059054
-0.1384979864733222 0.11828272875372597 0.1669108957250438 -0.12727803986326383 -0.01482174218885023 0.06710303431761201 -0.01364253162555088 0.06836155205927777
0.13882628276539793 0.08289844943962729 0.009235256912109356 0.035103307165457336 0.0211876433132282 -0.04163628517359328 -0.08991880700888927 0.15139317311600875
-0.1836730806008607 -0.03626990762277085 0.06660669842642665 -0.06836439159960651 -0.11834911820274795 -0.13068289731001578 -0.17863247047533437 0.03339873308027714
-0.08381067225097956 -0.08746723382399994 -0.10482388773984197 0.06231447150189717 -0.18039439545670244 0.06322194604264136 0.05304338313519586 0.02688640177762117
-0.07149806366043204 -0.06688782459798802 -0.01999114809686371 -0.06099875647613282 -0.08965298800594766 -0.1502915067857815 -0.1109341899720458 0.0047126723175547865
-0.12472789354858871 -0.16140223634659617 0.0015682643419040413 0.11956297438416837 -0.1924154667274483 0.05155179579927889 0.136865194457426 0.056707956971703666
0.019642315941288402 0.08840415626764297 -0.029441337664309408 -0.09426742498031554 -0.021527826034737903 0.16136331167787532 0.049604151141075685 -0.09036721938020861
-0.023252096615740927 -0.08686214474763274 -0.09011449668524245 -0.1885523961729867 -0.11754684916108109 0.018356853027846273 0.04694225837662315 0.15764785593243172
-0.0010292201928713473 0.059493382398789416 -0.00510789740990105 -0.16220035576812813 -0.04245102521216326 -0.17236254420300295 -0.05855336213793948 0.03858894025936878
0.05178491469134024 -0.008361258991750482 -0.04874700928495577 0.06623024813973764 0.044932214157971335 -0.08404816946000382 0.031705349726645626 0.08260794259469442
-0.07829353654582141 -0.19034741867748312 -0.08752743207808977 0.12683828720557325 -0.07699125226995937 -0.0791716190199846 0.11239070707819393 -0.05673537835153953
0.1326482097456323 0.07040085257832965 -0.08128697717544175 0.05472531721198216 0.026494330349436115 0.12575986929871463 -0.11129181409808248 -0.012178796582322925
0.02072174246254271 -0.121083844035615 -0.06345496536477714 -0.024572900983332296 -0.1128664167556081 -0.004420851808883894 0.03408782715854167 0.003195369602492365
0.10558495502703148 0.04586858487453973 -0.029376318253417317 0.01746185750259624 -0.05560186450091583 -0.0862284696579498 -0.05366997015455268 -0.016296903902437314
0.016637840768192427 -0.14210778669059726 -0.049011147182647576 -0.044697460840328385 -0.17775719079048488 -0.11810787586756577 -0.04633508798891811 -0.023410134228080033
-0.0600961103316831 -0.036581939120785854 -0.05693799475456891 0.12992401073293394 -0.05085171382316933 -0.011719911260618308 -0.12537725131282193 0.06810575526598857
-0.09465488525364056 -0.11532441929075389 0.026038184544055234 0.04510260996097802 -0.0505114815439204 -0.08757614997476158 -0.16191188892394032 -0.09482932436844295
-0.1583510905622682 0.030599302596702953 -0.030537565980605152 -0.15291355762095665 -0.060151843942690277 0.007026704943108796 -0.06538550387884848 0.026552648388943705
-0.15303121726500496 -0.12982046275687806 0.1432992464220023 -0.07816219551530586 0.04361409851363709 -0.026144161820411682 -0.008863580192223894 -0.046323019045728046
0.06777495719926234 0.02274200539883366 -0.09439704847190417 -0.06876313206747096 -0.03639507827221933 -0.039726634731364764 -0.15053249327043908 -0.05980501702624746
-0.056916271233274335 -0.14181940294963602 -0.032702742276120515 -0.05311162329360278 0.04619512466874135 -6.729866446642836e-05 0.1238681271991809 -0.01717718595033344
00000000: 21d8 7a2c bbd1 7abf 24bf 0087 493f c03f
00000010: d091 79c5 aab7 b6bf d562 043b 0fc2 c53f
00000020: 8b86 23e6 5c6e ba3f 64c2 26a4 c7d5 983f
00000030: ea37 d72f eb67 b9bf d0ff 2522 14ca c23f
00000040: c189 c565 cf45 b73f 4c0f 86a9 ffcf 96bf
00000050: c330 ffa5 fb1f a73f 3069 ddf4 3dd7 bfbf
00000060: 7547 10d2 0c9b a7bf 4d1f ad36 27af c43f
00000070: 764f ad98 5bc3 b53f f9af d43f dba0 b53f
00000080: 16b7 afbf b5bb 793f 44f1 1d8b a9cf 25bf
00000090: 313d a7b6 cb92 c13f a5d5 f457 f407 c4bf
000000a0: f0f1 e451 779f b93f fce0 0983 dd86 b93f
000000b0: 35ec 11db e526 96bf ec61 1fc9 683c ab3f
000000c0: 099b 75ef 70ed b03f 0c9b 5ac8 9e0e c43f
000000d0: 9207 2069 5a3b c13f 25be 427c bb40 753f
000000e0: 2762 34f5 8496 a53f 53d9 64a2 d846 bc3f
000000f0: 53e1 e1ef 9564 c03f 5cd9 1863 b6e6 8dbf
00000100: 58b0 a513 9b70 b83f 64aa 5f45 91fb 90bf
00000110: 1be9 fd53 8a94 9a3f db52 8fd1 86bd 9fbf
00000120: 9480 3416 7bc6 b53f 0000 0000 4fac 9bbf
00000130: 1c12 5ade 1009 be3f 4f42 f5d4 f152 8e3f
00000140: b661 6687 623f c03f ad95 f936 f36c b33f
00000150: 47f7 d1da 4fcb b4bf fd77 7e94 9667 913f
00000160: 805b c8f2 9dd4 8d3f 6478 adaa 2ad0 983f
00000170: 443c 69e9 c78b 89bf ffd6 9edf 9481 a93f
00000180: 0dd6 1b08 d692 c33f b2cf d4f7 af7f a5bf
00000190: 7bd7 0071 c4f5 b23f 0206 d5ac 20db 73bf
000001a0: 0408 d5c8 7cc4 a93f 83ea ebc8 ed4c b03f
000001b0: 93f0 0ba7 31c9 803f 5250 7834 c982 b63f
000001c0: 6dcd a5ca a523 c13f 16c0 38de da5b c13f
000001d0: dc69 d541 659c c13f a838 1bed b603 b83f
000001e0: 2968 e1eb 6b2b bc3f c1e7 4aec d747 983f
000001f0: c8b5 8dca 36aa ad3f a3e7 5969 1d20 c43f
00000200: e814 9dc9 61ba 903f 2e8b bdbc 33fb c83f
00000210: 0ef7 4eb6 6bf4 c2bf 4254 65cc c1d2 bbbf
00000220: c6bf 58ae b6f0 a23f 6970 ee26 0fc4 c43f
00000230: b9ab 35ef 4d3f 823f 8bd7 9362 2c65 c13f
00000240: 72ec 0729 dfd5 a13f 4df6 2291 985e 7abf
00000250: f823 84b0 ac9d c4bf cd8d 6df8 7444 b23f
00000260: d091 383e a1ca c23f fd2f 6088 c356 9a3f
00000270: 6337 cab4 6199 c23f f3a5 f47e 4c77 a03f
00000280: a22f 0e10 8d84 853f 16d0 2cb4 a42e b23f
00000290: 9714 b78d 1354 a43f 2638 ba7a 4e91 a93f
000002a0: 1235 14ba 8342 ad3f 0522 75e1 3aea c4bf
000002b0: b43e c545 4049 adbf b04c 3917 d549 a83f
000002c0: 8f7d 3b51 4dba c1bf dccb ade3 c647 be3f
000002d0: b818 3e13 565d c53f 1119 5b95 a54a c0bf
000002e0: ba4f c48f dc5a 8ebf 3144 db19 aa2d b13f
000002f0: 93c2 5499 9df0 8bbf 82fd 6586 2480 b13f
00000300: aabc 2644 0fc5 c13f 9678 3b31 d538 b53f
00000310: 3fe7 4233 efe9 823f 37a0 8388 0ff9 a13f
00000320: 6042 70ac 36b2 953f cd86 4be6 5951 a5bf
00000330: 1405 663f eb04 b7bf 707a affb d960 c33f
00000340: db0a 2b79 9982 c7bf 2432 2326 f891 a2bf
00000350: 21a0 6ff7 220d b13f 6999 212a 5480 b1bf
00000360: 27f5 30b8 204c bebf dfe8 0b99 37ba c0bf
00000370: d8fd 58c5 6ddd c6bf d980 9d84 a319 a13f
00000380: e5ac 5fc0 9d74 b5bf e3e3 beac 4064 b6bf
00000390: 70a4 ae01 bdd5 babf b01a 56b2 aee7 af3f
000003a0: 1822 6fde 2917 c7bf d482 a43e 502f b03f
000003b0: 5173 ab97 8028 ab3f 0935 5ee1 1b88 9b3f
000003c0: 1c1d 2675 b24d b2bf 1f21 267b 8f1f b1bf
000003d0: f35f 243d 8f78 94bf edc4 52a0 3a3b afbf
000003e0: d766 798b 7ff3 b6bf 9f78 4189 c03c c3bf
000003f0: 142d f0dd 2e66 bcbf fdca b057 984d 733f
00000400: 30ae b0cf 2aee bfbf fa10 4e17 d4a8 c4bf
00000410: e865 d603 c7b1 593f 8de0 cad8 ad9b be3f
00000420: 4263 6bec 11a1 c8bf 0a15 043a ff64 aa3f
00000430: b2e1 1377 cc84 c13f 589e 3b49 d308 ad3f
00000440: 0096 5782 1d1d 943f 0000 00a0 a7a1 b63f
00000450: 33c0 acb9 de25 9ebf d45b 5ef3 e821 b8bf
00000460: 9fbb 17f3 630b 96bf 2422 3791 8da7 c43f
00000470: 4724 cb1d b765 a93f f652 de5b 4e22 b7bf
00000480: 67b6 1cca 65cf 97bf 8e95 f3f6 983c b6bf
00000490: 1b9b 2860 be11 b7bf e89c 9223 7c22 c8bf
000004a0: 4b0a e5e0 8c17 bebf dcf7 a58d 23cc 923f
000004b0: 3253 0ed1 d008 a83f 09d5 c110 ce2d c43f
000004c0: 5ca6 66c4 dcdc 50bf ce62 76a7 ea75 ae3f
000004d0: 17c5 3ac5 04ec 74bf fe3a b633 fbc2 c4bf
000004e0: 4092 ef09 24bc a5bf d620 34d1 f90f c6bf
000004f0: 3e16 e8ce b4fa adbf 7275 cdf8 edc1 a33f
00000500: 9b08 0d66 8d83 aa3f d735 622f b51f 81bf
00000510: 1d3a 5035 5ef5 a8bf 9f21 c42d 77f4 b03f
00000520: 61d2 b0ec 5a01 a73f d88f 1e4b 2e84 b5bf
00000530: 904d 5e00 af3b a03f d284 d54b cb25 b53f
00000540: fad5 f392 0b0b b4bf 0685 0ce1 4d5d c8bf
00000550: d83b 47a2 3268 b6bf 1ddc b6ab 3c3c c03f
00000560: 0edb 93de b2b5 b3bf 1853 765a 9744 b4bf
00000570: cc70 462b a3c5 bc3f b193 1765 6b0c adbf
00000580: 087f 5dd5 9dfa c03f aa37 6f4f ca05 b23f
00000590: 1829 8f2c 39cf b4bf e19b 60ef f404 ac3f
000005a0: d45f 8569 5421 9b3f 6cc3 e43e e618 c03f
000005b0: 6c20 ddcd 9e7d bcbf 4ca9 3468 32f1 88bf
000005c0: af61 c598 1438 953f 6ff9 34ce 59ff bebf
000005d0: 21b2 02a9 953e b0bf db72 5d78 a329 99bf
000005e0: fc33 c840 d0e4 bcbf b0ad 085f 991b 72bf
000005f0: c4de acad f573 a13f 406f 1ffe 2c2d 6a3f
00000600: 596d ca98 9d07 bb3f a35f e64f 167c a73f
00000610: d585 b358 d314 9ebf 48b0 9a6b 85e1 913f
00000620: ab90 41fb d877 acbf ed3e 2aa9 1113 b6bf
00000630: a3a4 2e5d a17a abbf 5ee9 25b5 22b0 90bf
00000640: 44da e697 8209 913f 5ee9 2b84 9630 c2bf
00000650: 85ec 9334 fd17 a9bf c801 0ce9 95e2 a6bf
00000660: af77 8964 bfc0 c6bf 2050 4058 513c bebf
00000670: d8ad 238f 3bb9 a7bf a248 9e83 d3f8 97bf
00000680: 0797 fbd8 eac4 aebf abcb 4b30 deba a2bf
00000690: 7acb bd12 fa26 adbf cd13 8898 59a1 c03f
000006a0: 10d3 a15f 3c09 aabf f26b 9cdc 9b00 88bf
000006b0: 4f85 069d 5c0c c0bf c56b 89f7 606f b13f
000006c0: 4b2e 9274 4d3b b8bf e1b2 48b1 e685 bdbf
000006d0: d776 41fc c0a9 9a3f 2e48 7e75 b017 a73f
000006e0: 7377 9b12 a4dc a9bf ef1a 0dfc 636b b6bf
000006f0: 3686 e15d 87b9 c4bf b93e dd0e bc46 b8bf
00000700: b61c a039 d944 c4bf 1ea5 bb6f 6c55 9f3f
00000710: d39b be5c 3d45 9fbf 2a6b 8ce4 ab92 c3bf
00000720: 854f 0ef5 38cc aebf 3263 debe 08c8 7c3f
00000730: 62c9 cab8 1abd b0bf ab90 cf11 9e30 9b3f
00000740: 4ecb b5e4 8696 c3bf 6b39 f2f8 f49d c0bf
00000750: d443 7634 a157 c23f 7594 8509 7002 b4bf
00000760: 836c 854d 9654 a63f 0000 0000 89c5 9abf
00000770: 059a 6898 1127 82bf 27ef b497 a6b7 a7bf
00000780: 139c a818 b359 b13f 45d9 bb25 ae49 973f
00000790: e497 06ac 672a b8bf 277b 66eb 759a b1bf
000007a0: e03e d42d 60a2 a2bf 4517 e7a9 0c57 a4bf
000007b0: e97a ca13 a644 c3bf c766 8760 c39e aebf
000007c0: 8c46 1d27 2124 adbf f8af cd60 2327 c2bf
000007d0: 3783 21f1 69be a0bf f4bf 2a5a 7231 abbf
000007e0: a5af 5f2b e3a6 a73f 7c62 7540 56a4 11bf
000007f0: 0556 5653 d2b5 bf3f da72 936f e596 91bf

layer2.bias f8 [100]
-0.00896630020181818 -0.20497880395545381 -0.04577829058712517 -0.18231866841959488 0.04686635891608066 -0.0025173439209257146 -0.11758063803608179 -0.08826805164090112
-0.035231249512405485 -0.05859369780759193 0.0674317093260295 -0.06839269510044059 0.0773282170877994 0.1769809279499592 -0.014929711305658667 -0.0844927351530939
0.15945563038567986 0.06463121799231308 -0.08504433885296703 -0.0656800555410802 0.013911931537346656 -0.07690458950105988 0.00799096892408236 -0.02629841838729053
0.13925679311667638 0.08600348527594742 0.03777246874087115 0.1806849698137118 0.1446595254767569 -0.012780439312209584 0.03293543568797383 -0.11619232283675587
0.19303673335942753 0.1583924072865151 -0.21859791932546202 -0.14031910792459917 0.05607609565266011 -0.15738064792072703 0.06101358143937816 0.16014068022035943
-0.02500972710957088 -0.18099487339324888 0.06317580350594255 -0.15500830817256028 0.03256023037411995 -0.18532970697905762 -0.072931657879164 -0.016643654093649905
0.0635209755760038 -0.0800447630692969 0.07852939330517952 0.12992508652284526 -0.13841142966801984 0.004066189250508293 -0.13208619978832437 0.022792654131512297
-0.23890927690377767 0.11769635168654465 0.04620237739733117 0.10596238746815466 -0.14997249321473985 -0.17626241128190798 0.014292054748466827 0.007616782333485307
0.13807577564779458 -0.19364848522597655 -0.1240585985565107 -0.08597025874864693 0.15888573287687463 -0.1367567360243739 0.05340612316325504 0.09982276929280609
0.06856723369380407 0.13534515641559058 0.11033950337328223 0.12219988660093449 -0.061674645900894554 -0.16043298909258244 -0.17267462848104803 -0.1156382494510727
-0.23218676111441774 -0.1409720172134429 0.22125463241883975 -0.0840297818633796 0.14366214007207578 -0.13509794332560562 -0.03247674543757084 0.12343588861732482
0.12153232591535762 0.08965279968415174 -0.05820454641807287 0.0272904728357117 -0.15506092459503415 0.0896555937589096 0.05606290993316776 -0.04072945008600543
0.00915015478349852 -0.09027064117484881 0.12516831240940499 -0.1469112578809141
00000000: 2e3c 1071 ec5c 82bf be51 aed5 be3c cabf
00000010: 6681 e089 4070 a7bf a4fd 27d7 3756 c7bf
00000020: 1982 a70d defe a73f dd68 05ba 409f 64bf
00000030: 32fe 01c3 c319 bebf a04d 142b bc98 b6bf
00000040: 4aef e790 d409 a2bf 4fae ab3f feff adbf
00000050: e1c7 445a 3443 b13f 83df bd04 2f82 b1bf
00000060: e338 7333 c8cb b33f 87c8 c7a0 4fa7 c63f
00000070: ba48 5fee 7793 8ebf bb6c 3bde 50a1 b5bf
00000080: 1bb4 d5c6 0a69 c43f a8df 93e7 ab8b b03f
00000090: 085c 153e 77c5 b5bf 2464 8c7a 68d0 b0bf
000000a0: 2017 d1d7 db7d 8c3f 64c1 d1e8 04b0 b3bf
000000b0: 44cd 89b1 915d 803f c2c6 a3fb f8ed 9abf
000000c0: 904a 17a6 2ad3 c13f 8c2a 9a0c 5304 b63f
000000d0: 61c9 dcbb e956 a33f 0e44 1d62 af20 c73f
000000e0: 5920 7d0d 3484 c23f 29e1 fe86 a12c 8abf
000000f0: 7c97 51d6 e9dc a03f e250 a1b2 c7be bdbf
00000100: fd4a 5a7c 6db5 c83f 4a7a 9dd0 3346 c43f
00000110: 24fe 3c41 04fb cbbf 4a20 c5fd f9f5 c1bf
00000120: 0cc2 d489 01b6 ac3f 4ce1 eb8f 0c25 c4bf
00000130: 5db5 c911 2c3d af3f 241f 2764 7d7f c43f
00000140: 4de9 1160 269c 99bf 6edc fb0a d72a c7bf
00000150: 29e0 f419 4a2c b03f ccce 1aef 4fd7 c3bf
00000160: 04d2 3609 bcab a03f 79e5 3943 e2b8 c7bf
00000170: 381f 6f2d a6ab b2bf 4999 12b8 080b 91bf
00000180: d17d b520 e942 b03f 5344 9947 d07d b4bf
00000190: 5a3d 0598 801a b43f ebd5 c59e 62a1 c03f
000001a0: 3e8b e839 77b7 c1bf 11bf 9a5d b5a7 703f
000001b0: d400 2c5a 33e8 c0bf d8e5 5520 f556 973f
000001c0: 3ea1 8145 9494 cebf 552b 5a1d 5921 be3f
000001d0: 7685 d687 d6a7 a73f 5724 c8dc 5920 bb3f
000001e0: f514 d474 4c32 c3bf 8f25 fc45 c48f c6bf
000001f0: f700 e61d 2745 8d3f 9b7e 5e70 c632 7f3f
00000200: 5f78 638e 77ac c13f c895 7b3b 79c9 c8bf
00000210: 797a 96e7 4dc2 bfbf 770c c199 2502 b6bf
00000220: e6ea 4021 5e56 c43f fdbe 5da6 3e81 c1bf
00000230: 47df c820 0c58 ab3f c83d 8229 fc8d b93f
00000240: 9cc5 4a4a 9f8d b13f 3a0d 3d76 fd52 c13f
00000250: f7f3 71ae 353f bc3f d7a2 86e4 7d48 bf3f
00000260: 8000 46b6 d193 afbf c913 ad74 1189 c4bf
00000270: 1668 16c5 331a c6bf b81d 8fe3 779a bdbf
00000280: b179 c6b8 4bb8 cdbf 059c cafd 5e0b c2bf
00000290: d6e8 2961 1252 cc3f 4744 fecc f982 b5bf
000002a0: 4437 a460 8563 c23f 2f90 2bb0 e34a c1bf
000002b0: 50dc 11bf caa0 a0bf a29c c390 7e99 bf3f
000002c0: 2499 3615 be1c bf3f b865 a362 7cf3 b63f
000002d0: b732 b07e fccc adbf f77a 49a1 08f2 9b3f
000002e0: 03f8 0250 09d9 c3bf 1d15 1943 abf3 b63f
000002f0: 00f4 5c19 47b4 ac3f 69f8 3490 7dda a4bf
00000300: 2641 63fc 50bd 823f 8e8a a20b fa1b b7bf
00000310: b19e 25e8 8305 c03f bda1 01f4 fccd c2bf

layer3.weight f8 [100, 100]
0.07493735297616998 0.0033438840206936596 0.07779055635166697 -0.11918086422741786 0.16119699589434658 0.13917237387490525 -0.16239317727184674 0.011522362898947367
0.027890529134477562 -0.043010736612903555 -0.03401350833416481 -0.11906179566397859 0.12829243798368484 0.19769082234283317 0.14420652332825667 -0.22366894643055898
0.13123888674699624 0.02658995116141626 -0.2050932962662834 -0.17809600926903715 0.06394565209594776 -0.20572618492710862 0.1332617006286179 0.1198682803567026
0.04950728071328445 0.08653820870192742 0.18320817844555742 0.2045785440135451 0.11778881441771777 0.09710816414908782 -0.05543540461749085 -0.11233164579632057
0.01717586750465445 0.11033391343266895 -0.10331498911380094 -0.03750298207470647 -0.0641150691760057 -0.03972782444520422 -0.004006412551884766 0.06041281137283938
0.1039676002685743 -0.1966382963964647 0.14588069449032903 -0.17644345789390925 0.09280691327925278 -0.0771730186630472 0.03659524113289909 0.1006062294305967
0.2408582886932086 0.09170308249637271 -0.06074510376821612 0.07949036310981529 -0.19100708346078316 -0.022565256953526402 -0.17073558582947743 0.1306257004695051
-0.17875799521880523 0.05968881792109817 -0.030751428148676752 0.13241016891239146 -0.07296587981103325 -0.15557556585084253 0.017578271292764368 -0.027785913806840305
0.14841248966536313 -0.23303411732410967 -0.04530765399331225 -0.12901142266455964 0.08451223064083907 0.042754405139123014 0.09452922535928349 0.038966149192549884
0.1282319055076287 0.02694898925147951 -0.022535816329607324 0.061137663230562106 0.041394082166059894 -0.10572833043721933 -0.18191727610402145 -0.059078292121390194
-0.17826242483718288 0.00264973620105262 0.23620335701779693 0.07043978618086309 0.06613802847561896 -0.11160134635168623 0.017283054482198065 0.10941702954618795
0.07773797551819507 0.03679814932487719 -0.12019557917842887 -0.05900974044651107 -0.13469556767787105 0.017488380702884748 0.0068164851193381615 -0.008374702522084467
0.08257069663542659 0.08835447068490401 0.03287483540192957 -0.04471340811835384 -0.02460207207435021 0.06337731513630064 0.04859291453313632 0.1315006169826689
-0.014212008978113175 0.06351955188558459 -0.032020847081110165 0.07982040890328278 -0.0011253209982827433 0.017305937202729313 -0.19077829044400563 0.13010529303951268
0.07754955632704379 -0.12313372516308296 -0.036646229432600465 0.10695506366140116 0.011919801701818318 -0.1275052684613809 0.008890795779805444 0.14404754191488692
0.043143014005037665 0.05697273770181028 0.0967600289179682 -0.16756346742264172 -0.09091078936298198 -0.12877343670878968 -0.11390666758458222 -0.02621965730898918
-0.16312001261335907 -0.10153290081588026 -0.11678642299709073 0.0847393237546961 -0.09523221572946333 0.044124104074981865 0.15713045278679183 0.11136778850393893
-0.0019362917900862427 0.12443967932177198 -0.1433044439165792 -0.11890772100382548 0.003720595960191064 0.08120369215774258 0.009820354880076076 -0.03670618748419939
0.04154658418982484 0.10038548257503813 -0.033815696077035474 -0.053527881660641694 -0.04748457458953673 -0.10885689544743121 -0.08931642937812163 0.08836981325189283
0.14258646910579653 -0.03795390412544914 0.02525000708539755 -0.13252297436730395 0.11184126870348546 -0.11087818136118403 -0.06654590876161848 -0.006353698795021279
1.888883351953961e-05 0.14742193679911045 -0.09976533205620577 0.060797231123589084 -0.04895538044174034 0.135367744230679 0.13520925234517267 0.11296444164463053
-0.0570671606857349 -0.03364120981740686 -0.0936211019211102 -0.058545779502694906 -0.04580483619241641 -0.11203529823207393 -0.008544444519495134 -0.14191034772740488
0.08822803170593475 0.07276195603875157 0.149182659047023 0.07381312875145674 -0.14384119061803824 0.14057725473725266 -1.7519741916725554e-05 0.04655203412846479
-0.10316704564112289 0.0747255224739463 -0.16498678923621174 -0.11743488043629864 0.1848138806010642 0.03827472687593509 0.1075043828797391 0.026618734754397133
-0.04911580625717246 -0.008195059760189718 -0.1330267947190447 0.0839893055619015 0.0069224250883105935 -0.11127843333096275 -0.07302458924813839 0.04227548336802457
-0.07605025868151795 0.15077892071161283 0.0545487607360426 0.12751928403788182 -0.0397945222236821 -0.003273454824881033 0.140182844132939 0.06092156497018549
0.04063623162801906 0.008719222361072433 -0.12955918144459982 0.08861567161223086 -0.1273655944186848 -0.06721002244120626 -0.08029441943174198 -0.020047514503854412
-0.046820916163688546 -0.16942198027290953 -0.05168858221787861 0.10982319698757248 -0.002511771242402511 0.12851494136910324 -0.04980262116378773 -0.1335632003207272
-0.18532873664126487 0.09030737454407652 -0.14149225174236893 -0.14485322190911545 -0.014086836180102202 0.009858477443370702 -0.03643890624204903 0.02640600965516406
-0.15371475093162448 -5.986967811881547e-06 0.002610636385563427 0.14975730576412347 -0.10052983889659264 -0.11962457713378909 -0.16870374275279862 -0.05251096294933246
-0.04043011656451056 0.046675181009051894 -0.11495403646526463 -0.0018865853453809871 -0.06276349311344204 -0.02386837845199126 -0.05582048153592141 0.022466632411991403
-0.027893333094792815 -0.13548589129194077 0.03167088068139493 -0.0453527317445924 0.059363926050169984 -0.07557939523224934 -0.010678192205286575 -0.14714794315733212
00000000: a70d 4828 182f b33f 3efc 5510 a264 6b3f
00000010: 6fd2 77f7 14ea b33f 4c70 2a1a a382 bebf
00000020: 7532 ca68 1aa2 c43f d552 267d 66d0 c13f
00000030: 3ff1 bcb4 4cc9 c4bf 7fc7 965e 0999 873f
00000040: c7bb 00ba 558f 9c3f 6032 42d6 8005 a6bf
00000050: 7dbd d5f3 376a a1bf 426f 9476 d57a bebf
00000060: 7c65 bbf8 e26b c03f b345 57d0 ee4d c93f
00000070: dc48 c8fe 5b75 c23f 4767 061d 2fa1 ccbf
00000080: 9859 4593 6fcc c03f 7de4 8f6a 653a 9b3f
00000090: e5d7 0b44 7f40 cabf 81e7 ad9b d9cb c6bf
000000a0: 9b36 7904 be5e b03f 01ad 1852 3c55 cabf
000000b0: 512f 012b b80e c13f 40b5 f507 b0af be3f
000000c0: 4da7 27af 0459 a93f e9ac 3a38 5e27 b63f
000000d0: 7e46 6497 5d73 c73f 4330 0036 a12f ca3f
000000e0: e43a c261 6827 be3f 0ee7 31a5 14dc b83f
000000f0: 0fcc be83 0762 acbf fe44 0049 c4c1 bcbf
00000100: b307 daf4 8c96 913f 0740 d5e5 d73e bc3f
00000110: cc2c 6ee3 d972 babf 4ed4 0643 9733 a3bf
00000120: 4eae 4a5d d869 b0bf c77d 7795 3457 a4bf
00000130: b670 272e 0769 70bf 7026 3692 6dee ae3f
00000140: be43 ffe2 9e9d ba3f fdfc 1496 712b c9bf
00000150: d813 faf5 37ac c23f dcad 9f00 b395 c6bf
00000160: 8c89 60a1 31c2 b73f 3b98 4a67 9cc1 b3bf
00000170: 39c7 b587 9cbc a23f 1fa4 2d71 54c1 b93f
00000180: ad34 74c4 71d4 ce3f e0a9 436c da79 b73f
00000190: 073a 2774 fb19 afbf d960 e7fd 7a59 b43f
000001a0: 225b 628c eb72 c8bf 409f 90c2 581b 97bf
000001b0: 2f54 b3e6 a9da c5bf 8a4d c4cb 57b8 c03f
000001c0: 6180 aebf 8ae1 c6bf 63e7 d061 888f ae3f
000001d0: cdc0 d068 4d7d 9fbf b57a 9100 d1f2 c03f
000001e0: 1c23 8353 e4ad b2bf 846a b16f e6e9 c3bf
000001f0: c661 4ad1 0900 923f ae02 5c1c e973 9cbf
00000200: 4820 b732 2eff c23f 0630 61dc 0fd4 cdbf
00000210: 0dcc 5198 9032 a7bf c3cd 9340 7283 c0bf
00000220: c4e3 b6f2 97a2 b53f 3439 aac7 e7e3 a53f
00000230: ac30 6f3b 1133 b83f dab9 dd00 5ff3 a33f
00000240: 6ac1 3a30 e769 c03f a83f fb0d 8498 9b3f
00000250: 5f4f 7f08 a113 97bf cc1c 4290 6f4d af3f
00000260: 6165 4dea 9a31 a53f da10 7d09 0311 bbbf
00000270: b5da b8b7 1049 c7bf 463b 2189 823f aebf
00000280: 8f03 649a 4dd1 c6bf 6315 734a e6b4 653f
00000290: 9465 cc5e e93b ce3f 07ea fb81 5708 b23f
000002a0: 8d1f 53fd 6bee b03f bc22 c5e4 e791 bcbf
000002b0: cca6 1a27 a6b2 913f 6abe 8623 c102 bc3f
000002c0: 8105 82ce a2e6 b33f 19ae ceff 34d7 a23f
000002d0: 13f4 b131 23c5 bebf 1ef7 b952 8636 aebf
000002e0: acda 0b51 b43d c1bf 482e b75c 79e8 913f
000002f0: e063 944a 9aeb 7b3f 2e93 918b c126 81bf
00000300: 5737 a869 5a23 b53f b20b 0c0a 669e b63f
00000310: 8d49 d36d f8d4 a03f 683f 1f03 ade4 a6bf
00000320: 6c86 e41b 4931 99bf 2196 d1e7 7e39 b03f
00000330: e36a 79a5 2be1 a83f d014 ac20 03d5 c03f
00000340: 52f0 2b8e 2f1b 8dbf 3a52 013e d142 b03f
00000350: ecd5 0156 0965 a0bf 8ffe ca3d 1c6f b43f
00000360: 6ee9 a538 f06f 52bf 3cd9 3fc9 a5b8 913f
00000370: a034 1f4b 6c6b c8bf f412 524d 4aa7 c03f
00000380: 5b74 3ea8 49da b33f 182f 9c1a b185 bfbf
00000390: 2595 de69 4bc3 a2bf 9f3b 9134 6861 bb3f
000003a0: 9777 dfb3 6869 883f 91fe 0db7 1752 c0bf
000003b0: 7d9f e068 5635 823f 05fc cb5c 2670 c23f
000003c0: f7ae 6754 d716 a63f b9be 62da 872b ad3f
000003d0: 803f c3e7 43c5 b83f 6cd4 4a3e b872 c5bf
000003e0: b5e4 2af3 ed45 b7bf dbfe a0e1 a57b c0bf
000003f0: b776 12c4 fc28 bdbf 7124 9e6a 53d9 9abf
00000400: 94ad bfd7 1de1 c4bf 3ee3 7868 0ffe b9bf
00000410: efaa 630b b7e5 bdbf d329 36f0 79b1 b53f
00000420: dc6a 1574 2361 b8bf 2a48 ef3f 6f97 a63f
00000430: 8864 f6c5 d91c c43f 79c7 7371 9982 bc3f
00000440: d0e3 7d7a 65b9 5fbf 4501 0361 47db bf3f
00000450: 5220 ffcd cc57 c2bf f50c f484 bc70 bebf
00000460: 4c91 0fbf a77a 6e3f dfc7 21e2 c3c9 b43f
00000470: 533e 5cb8 b11c 843f fe67 9c45 27cb a2bf
00000480: 832c b608 9845 a53f d228 a7ec dcb2 b93f
00000490: 5d14 7c79 4a50 a1bf be2f 50aa 0168 abbf
000004a0: 8462 daed e54f a8bf 040c e4a5 0bde bbbf
000004b0: bdad 2c07 71dd b6bf 8ed9 de71 679f b63f
000004c0: 60ac d4fe 4540 c23f 89da f2b1 b16e a3bf
000004d0: b348 9f4a 23db 993f df27 7048 83f6 c0bf
000004e0: cab3 6c1f a1a1 bc3f 2b47 c932 8362 bcbf
000004f0: 0052 d015 2709 b1bf 3432 8808 5606 7abf
00000500: da0f 70c1 6ece f33e b5f0 a1d6 b8de c23f
00000510: 62bb 7486 388a b9bf 37f1 b98e d020 af3f
00000520: 55c8 ebfb ad10 a9bf 34b8 33f1 ba53 c13f
00000530: 5835 786a 894e c13f a37e 79d6 3ceb bc3f
00000540: fd40 a429 e837 adbf c761 edaf 6b39 a1bf
00000550: 7276 f772 8df7 b7bf 80d8 9060 b6f9 adbf
00000560: a5df e342 bb73 a7bf 6984 e765 58ae bcbf
00000570: 1593 30ee bf7f 81bf 3102 3a47 1e2a c2bf
00000580: 0177 c4be 1c96 b63f 6055 940d 87a0 b23f
00000590: 445f ded8 6a18 c33f f0c0 00ce 6ae5 b23f
000005a0: acd6 c25c 6369 c2bf 1338 d47b 6ffe c13f
000005b0: dfca 3f7f eb5e f2be 95be 4910 abd5 a73f
000005c0: 40b6 0dcf 2769 babf a3bd 333b 3621 b33f
000005d0: 4e52 0580 491e c5bf d531 e25a 3610 bebf
000005e0: 41a3 8332 fba7 c73f 1915 64b8 be98 a33f
000005f0: 0228 a540 6885 bb3f 4094 ec0c f141 9b3f
00000600: 6cb5 2efb b425 a9bf ae2e 454d 92c8 80bf
00000610: 29ae 67a2 0507 c1bf 6524 9ab8 5280 b53f
00000620: c317 d055 b05a 7c3f 0717 e84f be7c bcbf
00000630: f9e4 9f4e bdb1 b2bf e2fc f9d4 21a5 a53f
00000640: a1b3 e39d 0778 b3bf 89f7 b042 b94c c33f
00000650: 7919 ccae d0ed ab3f 28a9 4649 8d52 c03f
00000660: 3475 0597 f25f a4bf bf98 5ead eed0 6abf
00000670: 4370 81ed 82f1 c13f 5b0f 5682 1c31 af3f
00000680: fa02 c0ab 45ce a43f 274f 1937 62db 813f
00000690: 32bd 992f 6595 c0bf d2d3 7c43 84af b63f
000006a0: 15f9 540b 844d c0bf 3331 5910 ad34 b1bf
000006b0: 38b9 82d1 2c8e b4bf d6fb a3ec 5587 94bf
000006c0: 9f33 623f e9f8 a7bf 3773 3f94 9eaf c5bf
000006d0: 6ba0 6704 ed76 aabf c05e 677f 5f1d bc3f
000006e0: c1b7 eaea 9093 64bf d423 1d77 2d73 c03f
000006f0: 8d9d 4eaa ba7f a9bf afce a954 9918 c1bf
00000700: aa0d 711f dab8 c7bf 6d22 4154 621e b73f
00000710: c978 ef08 6b1c c2bf e1f1 68e5 8c8a c2bf
00000720: c0c8 9425 8fd9 8cbf 5e3a a971 ae30 843f
00000730: 0e25 39cd 1ea8 a2bf a512 8c4f 2d0a 9b3f
00000740: a501 15ca ecac c3bf f1ac 5a2e 751c d9be
00000750: 9e4e babc e662 653f 9f07 4c55 3f2b c33f
00000760: 6a40 55d2 52bc b9bf 5b63 965e b79f bebf
00000770: 3f04 eb90 1598 c5bf f302 1989 b7e2 aabf
00000780: 6f09 d698 41b3 a4bf 1201 f02f cfe5 a73f
00000790: 4358 29b3 a06d bdbf cf71 0297 e9e8 5ebf
000007a0: 8411 4eae 4411 b0bf 747d 70c3 f370 98bf
000007b0: 2a9a 498d 8094 acbf 99d0 d72d 7e01 973f
000007c0: 839d ace5 1190 9cbf c08a 1508 9a57 c1bf
000007d0: 3533 8669 2a37 a03f 8d2b 4127 7938 a7bf
000007e0: 6731 e5d1 f264 ae3f d922 c6d6 2b59 b3bf
000007f0: 94b7 6ab2 72de 85bf 7f67 c469 bed5 c2bf

layer3.bias f8 [100]
0.12337092643001694 -0.15698884798284124 -0.13527097492109078 -0.0581367525086264 -0.16507840347193525 -0.04463838702931132 0.010500075716298683 -0.027933175192324453
-0.057140610303843896 -0.17884695775186027 -0.0603184213415044 -0.053231782644723585 -0.01950296194826074 0.0747969333603665 0.08592908132374576 0.007957923824117589
0.06606665997306355 0.050836560199191104 -0.03911940683779593 -0.16463780950678464 0.1616246350860858 -0.13835388565399206 -0.08313282012525254 0.0759184365310439
0.11463982645146592 0.023810331929148776 0.13250366298337757 0.08795281080041865 0.1059248233054197 0.07085166893827922 -0.14787729589397078 -0.030392667296934416
-0.0165641959439107 -0.03977732825456049 0.10871737048209888 -0.12383183315718843 -0.05817080863094661 -0.11110155850397004 -0.017094024024456242 -0.01590697402058071
-0.09147967385798285 -0.08670045689168433 0.003324249421505059 -0.16072705177667193 -0.15489398290356232 0.010382367051374405 -0.061621478606954064 -0.09544760792294349
-0.02940430745563077 -0.03899499984446838 -0.09298136102231445 -0.04798457417393834 -0.019183513703944537 -0.09004694688835697 -0.15728456093471602 0.012181374168065577
-0.11816349616527358 -0.1209132581417852 -0.0331224047148012 0.10643799684300179 -0.06264572172479511 -0.15147026882823403 0.056360116692473386 -0.18383618771333587
0.0190139835417537 -0.10115327710623381 -0.01880999887808242 -0.08515113228839713 0.10517856315445374 -0.07846002014359761 0.060512435519706635 0.13882371164419025
0.05515461418716304 0.012874088079546715 0.05743614569702141 -0.00025776768884122945 0.10419235192931571 -0.14518314526590828 -0.037964550259443446 -0.07502815439596841
0.11289716175206917 -0.0723611072168517 -0.04815795774914719 -0.049234275208619206 0.03803237702028333 -0.03303694672629785 0.010410214879629334 -0.19828385958460665
0.12834998601043354 0.006633632947864956 -0.07022313745252985 0.06703759848191235 -0.1647999147995122 0.16304414687792262 -0.017922932485074435 -0.04724268578078981
0.10045538311769255 -0.1789107327440095 -0.20465519643206356 -0.16788297800752588
00000000: 134d 4bae 3c95 bf3f 7a25 f6e7 3518 c4bf
00000010: e12a b12e 8f50 c1bf 93bd 70b5 19c4 adbf
00000020: a00b 1804 4a21 c5bf 4ec9 dfb8 d7da a6bf
00000030: 5fca 744e 1081 853f cca8 b2a7 839a 9cbf
00000040: 4396 0eb9 8841 adbf 4644 4405 75e4 c6bf
00000050: f926 045e 0ee2 aebf 8c3c 223b 3241 abbf
00000060: 02be f89e 95f8 93bf a6b5 9f4e e425 b33f
00000070: 6791 0fc2 72ff b53f 6295 8c74 3e4c 803f
00000080: e4b4 f09f bee9 b03f 5b4a fee6 3f07 aa3f
00000090: 93b6 037a 7507 a4bf d023 c20b da12 c5bf
000000a0: 231a f6b4 1db0 c43f 1747 1483 94b5 c1bf
000000b0: 9d86 a947 3148 b5bf ff74 1002 646f b33f
000000c0: 049c 6d21 0959 bd3f 9038 c553 bc61 983f
000000d0: 6891 8e49 e1f5 c03f 93a4 fa4d 1384 b63f
000000e0: 5d6d eea3 e31d bb3f 41f9 f4c0 5523 b23f
000000f0: 1bbf d7aa a4ed c2bf 536d 5060 411f 9fbf
00000100: 075c 745f 34f6 90bf 1181 f3a7 b15d a4bf
00000110: 8b4c bace e6d4 bb3f 7425 9d69 71b3 bfbf
00000120: 73b7 4d71 90c8 adbf 8d26 4fd8 2671 bcbf
00000130: dc7c 9188 1881 91bf dd6f c9f4 ea49 90bf
00000140: 2102 783f 366b b7bf 15e6 e54a 0032 b6bf
00000150: 8b51 92d1 743b 6b3f 914d 7b3b b492 c4bf
00000160: 7a80 75e7 90d3 c3bf be98 86b7 5943 853f
00000170: 2a31 b2b6 d98c afbf 58ae 8222 416f b8bf
00000180: 8faa 88ab 291c 9ebf 8b3b 1412 27f7 a3bf
00000190: 0f79 ba60 a0cd b7bf 1440 9421 6f91 a8bf
000001a0: 5b59 eccf d7a4 93bf f579 fd13 510d b7bf
000001b0: 79ae b086 e621 c4bf 5ca0 605d 8cf2 883f
000001c0: 1262 9c7f f63f bebf 872c 5fd9 2bf4 bebf
000001d0: 2ea7 077a 6bf5 a0bf ce10 7e43 853f bb3f
000001e0: f1d4 0ace 8c09 b0bf fd7f 77b5 6063 c3bf
000001f0: 9a5f fcb3 3bdb ac3f 8069 06b7 f187 c7bf
00000200: adff e9d5 6678 933f b2f3 0d61 2ee5 b9bf
00000210: dc9e 13a8 ed42 93bf 9262 65f0 76cc b5bf
00000220: 2118 fd78 fbec ba3f bd6c 8fb4 f415 b4bf
00000230: ffec 1d67 7cfb ae3f a3e7 b5b2 f9c4 c13f
00000240: de91 50c0 393d ac3f c4ca 23da ba5d 8a3f
00000250: e405 c13e 4568 ad3f 3d58 25cb 9fe4 30bf
00000260: 9d9c 0798 59ac ba3f a97a 6c7e 5c95 c2bf
00000270: bf16 8beb 1670 a3bf b6f0 688d 0b35 b3bf
00000280: d54e 8911 d4e6 bc3f 9dac ffec 4186 b2bf
00000290: ec43 26eb 28a8 a8bf 3d00 ba23 3c35 a9bf
000002a0: 4786 fbce fa78 a33f be8f 7ffb 37ea a0bf
000002b0: bb64 9e63 f351 853f 12ca 1e92 5d61 c9bf
000002c0: e7ad 2db8 c56d c03f 4335 0949 de2b 7b3f
000002d0: 09f8 c7be 24fa b1bf 960a 1545 6029 b13f
000002e0: 6547 39e2 2918 c5bf 068c 526f a1de c43f
000002f0: f2bb 7ca3 635a 92bf 4db1 ce7c 3130 a8bf
00000300: 8998 32a9 71b7 b93f 3dfb 0401 8ce6 c6bf
00000310: e9ea d037 2432 cabf f677 0c7e 307d c5bf
