model2_DGM_state_dict_5000_40.pt (torch, 168968 bytes, 8 tensors)

layer1.weight f8 [100, 3]
000000 93 30 a8 4d 28 01 ca bf cd 2f b0 39 eb 26 d6 3f
       -0.20316032211156151 0.3461254180299392
000010 90 e1 0a c7 6c 85 c7 bf 35 a4 68 ea 65 07 e6 3f
       -0.18375930518028527 0.6884030893608101
000020 61 20 b4 2b a3 f5 dc bf b4 48 7d 47 3f 87 be bf
       -0.4524925162118106 -0.11925120826097918
000030 a3 16 bb 02 f4 26 e3 bf ee d6 ad 24 5e c2 d6 3f
       -0.5985050252281393 0.3556132658189729
000040 7d 2b 01 eb bb 28 61 3f af 42 bb 24 02 ca ec bf
       0.0020946188233543204 -0.8996592252170411
000050 99 af 38 81 11 51 a7 3f bb 44 8e f4 38 4d be bf
       0.04554037763986613 -0.1183658215579894
000060 f7 96 cd d0 aa 9e e3 3f ef 39 93 ca 8c c7 b8 3f
       0.6131185606179476 0.09679489083939762
000070 b0 81 c8 b8 a9 8f b7 bf 3e d6 e7 06 61 63 e3 bf
       -0.09203587304410266 -0.6058812270045519
000080 a4 e8 fe 03 bd d4 ce 3f ca 95 1d 41 87 7a b1 bf
       0.24086725897888528 -0.06827588405356902
000090 62 85 c2 be 39 fa c6 bf bc e8 16 16 a5 94 d2 bf
       -0.17951127829023067 -0.2903225627629913
0000a0 f9 a6 74 ac b5 e7 d0 bf 35 a9 7e d1 77 cf de 3f
       -0.2641424354684286 0.4814128442618711
0000b0 94 33 12 1d da f7 da 3f 4f e4 c5 ea 85 ca d5 bf
       0.4213776859185654 -0.34048602988292925
0000c0 a5 4c c0 d4 c1 5c 8d bf cf 7a 3c e2 a1 37 99 bf
       -0.014337076478147923 -0.024626283105244447
0000d0 31 5e 84 28 98 c4 d2 3f ed 42 2f 16 8e ce d6 3f
       0.29324916798347817 0.35635711828676514
0000e0 d0 72 e9 3d ef bb c6 3f bc eb 02 24 2a cb c6 3f
       0.17761030695955649 0.17807509191865545
0000f0 de f9 8f 50 aa ba dd 3f ce e3 30 45 85 e6 85 bf
       0.46451814525053503 -0.010693589376488701
000100 38 f1 29 11 97 7a d9 3f 40 7a d3 b5 40 e8 b7 3f
       0.39810730625301316 0.09338764609444983
000110 0f 7e f9 29 b8 31 dd 3f bf b7 bf b7 5c 4f e2 bf
       0.45615963076667837 -0.5721877659650473
000120 a0 2d 8d e9 56 a2 d2 bf 97 56 a9 fc 8c 76 db 3f
       -0.291158416822066 0.42911076234791196
000130 24 5f a5 11 ce e8 c2 3f eb 85 60 c4 52 ea d2 3f
       0.1477296434556986 0.29555195977636
000140 e2 ea 8d b2 b4 2b dd 3f e0 ac ec 4f 0d a3 d4 bf
       0.45579259335469946 -0.3224519043457814
000150 fc 3e 62 0a 00 96 d3 bf 4c 57 cf af ec ea c1 bf
       -0.30603028310814273 -0.13998182854146035
000160 be f2 3d cf 80 17 bc 3f 57 87 88 1d 9d 6a cd 3f
       0.10973362979525356 0.229816092892231
000170 d1 b9 28 9f b4 75 ce bf 77 fa e8 dd fa e0 d9 3f
       -0.2379670884269687 0.4043566863146348
000180 77 d0 67 c4 81 d6 dc bf d6 7b 23 3a dd ba bf 3f
       -0.450592462351103 0.12394507092856996
000190 02 d2 4c a5 9b 22 b5 3f 1d 93 b0 24 2c df db 3f
       0.08255932603498908 0.43549636443121803
0001a0 40 d3 9d 81 6f 22 da 3f 18 58 8b d6 69 cc d4 3f
       0.4083517804895571 0.3249764056357676
0001b0 ce 6d 65 ac a8 0e de 3f a6 c7 6f 1f 43 d7 d1 bf
       0.4696447070652682 -0.27876356191620244
0001c0 c2 9e 0a e5 df 36 b4 3f 80 61 67 70 ad 67 d4 bf
       0.07896231977303628 -0.3188279721921603
0001d0 96 63 b8 71 a2 de a4 bf f8 cf e8 83 69 be bb 3f
       -0.040761066800946086 0.10837420912213236
0001e0 d4 8c 0a 7a b2 03 df 3f 8b 4d 38 74 f1 a3 a0 3f
       0.48460065763556526 0.03250078719807011
0001f0 88 7a b5 94 4d fe bd 3f 6b 87 fb 01 f7 cb c3 3f
       0.11716160660351183 0.15466201397708387
000200 11 8a 21 ef 9d e7 a5 bf d8 f8 16 77 bb 1e c8 bf
       -0.04278272193984745 -0.1884378749363751
000210 de f7 c7 25 1a 4a d5 3f 1a f6 1c 35 52 81 97 3f
       0.3326478356319721 0.022954258434074594
000220 44 c7 9f 55 46 7d c7 3f ee a6 72 17 0e f5 e0 bf
       0.18351058178773816 -0.5299139459577569
000230 4c e0 dc ee dc c3 ba 3f 03 6f 56 25 4e ac d9 3f
       0.10455113250361697 0.40114167829754893
000240 2c 16 1e 25 32 f8 ca bf 35 ee 5c 86 bb 2b ac 3f
       -0.2106993371236724 0.05502115264104327
000250 7a 64 0e 29 7d 89 96 bf 49 ee 3f 76 ab 03 cc 3f
       -0.022008853560326426 0.21886199258720954
000260 08 f7 ee 9f 56 4d dc 3f 6c 0c 94 15 e7 7d df 3f
       0.4422203599786916 0.4920594893193939
000270 da 9f 47 7b 05 e7 b7 bf 9a 6a e5 bc 7a f4 c3 3f
       -0.09336885699997258 0.15589842055745323
000280 dc 2d 7e d2 88 ac d4 bf c3 32 8c 0a 6f 0b 80 3f
       -0.3230306678385355 0.0078343081563842
000290 c1 05 34 6c 53 05 c5 3f 85 ab 5f 74 a6 a4 d5 bf
       0.16422503264770508 -0.33817445149059494
0002a0 54 6f 40 1b df 31 d9 bf e6 d3 e8 f3 0e 5e cf bf
       -0.3936689153795119 -0.2450579348530077
0002b0 03 49 af 29 08 67 9a bf 87 b2 ff 5e ef 1f d3 bf
       -0.025783660454018264 -0.2988241603586989
0002c0 50 6a e9 f2 7f b9 c8 3f a6 de 7f 3a b8 4c e0 bf
       0.1931610046475094 -0.5093651907509027
0002d0 7a 48 39 17 17 04 d4 3f 27 f6 34 52 d2 46 c9 bf
       0.3127496458811333 -0.1974738027001177
0002e0 98 e4 c7 be 57 9c c9 3f 2c d6 96 c1 b4 c7 d7 bf
       0.20008370223493865 -0.37156409173198557
0002f0 ea db 7a 62 9f f0 e0 3f 9e df 7d 85 f1 15 d4 3f
       0.5293728755412961 0.31383932148264104
000300 26 69 19 5f c8 4d e1 bf b5 a2 27 41 1e fa d0 3f
       -0.5407449586303172 0.2652660023000338
000310 f9 55 bc b4 f6 d9 d7 bf f1 9f 2e 5a 71 1c d9 bf
       -0.3726784481999342 -0.3923610096630901
000320 c7 e8 4c 4d 08 d3 d3 3f eb b8 03 d9 f4 b8 a0 bf
       0.3097553973090154 -0.032661105624230156
000330 b9 37 36 ee 8d d9 ea 3f 74 3b 92 f9 a9 df 85 3f
       0.8390569355558376 0.010680511406716532
000340 e6 49 84 b8 ac d9 d4 bf ec 6f 19 0d 0d d6 da bf
       -0.32578580874647256 -0.41931463507876177
000350 ec de 59 5f 08 01 db 3f 9d 73 63 7b 88 83 c5 bf
       0.4219380313074754 -0.16807657265499368
000360 a1 89 e7 6d 87 6f d5 3f 8b a2 f4 23 31 86 81 bf
       0.3349321912084183 -0.008556732091691962
000370 c8 fb 67 0f e1 5e e2 bf 41 22 11 8f 84 11 ca 3f
       -0.5740819264318526 0.203659601075076
000380 ef 27 34 7e 98 86 cc 3f e3 4f 7c 6f 2e b1 ce 3f
       0.2228575340489551 0.23978214686996954
000390 e7 18 55 50 5b 4f e1 bf c9 86 23 fc 3f 19 d3 3f
       -0.5409370964996726 0.29841613409926687
0003a0 67 32 e3 11 05 7f c5 bf 4c c1 17 6c 1b 55 d2 3f
       -0.16793883679783336 0.2864445262521442
0003b0 3a 4d f3 71 19 39 91 3f 11 45 65 3a d7 54 ca bf
       0.01681937940595655 -0.20571413375231676
0003c0 05 df 9f 98 ff c0 d2 bf 2e f4 9c 24 0d 1b dc 3f
       -0.29302968888031017 0.4391510827588857
0003d0 14 77 59 40 56 d0 dc bf 99 45 a5 37 b0 10 8a 3f
       -0.4502158764279198 0.01272714299980997
0003e0 35 e5 03 1f 95 3b e0 bf dc d0 4b ad c7 99 db 3f
       -0.5072732549444142 0.4312609855981131
0003f0 e7 49 5a 07 6e 35 b6 3f cd d9 8d 48 1d 2f da 3f
       0.08675277404316938 0.40912563405381946
000400 93 e3 76 23 a2 64 db 3f 30 5b 94 db b0 bf bb 3f
       0.4280171724636201 0.10839372025325811
000410 97 61 97 77 d2 e1 aa bf 65 5e 10 60 ce 64 b7 bf
       -0.05250413617949617 -0.0913819298297028
000420 d9 b3 30 df d6 99 ad bf e2 c7 b0 75 ab a8 da bf
       -0.05781432604303633 -0.4165447854348924
000430 de a8 13 79 9a 9d d3 bf 5f 53 40 90 f8 9e c7 3f
       -0.3064943487539845 0.18453890841979168
000440 a8 99 0e 65 d0 f8 d7 3f ff b4 79 69 18 46 d5 bf
       0.37456140393114845 -0.3324032812150363
000450 c8 55 be 50 b8 d2 de 3f 3b d5 29 a2 f3 9c ab bf
       0.48161132702929565 -0.05393182138952076
000460 24 87 ce 55 39 6a d2 3f 87 c1 5a bd 77 15 cb bf
       0.28773339633527173 -0.21159264322114898
000470 eb 09 f2 d7 b2 90 c7 3f 00 42 b6 02 47 1c d2 bf
       0.18410335106098272 -0.2829759146198114
000480 31 8d 33 13 20 38 e5 bf 37 5e d5 5b 79 9b de 3f
       -0.6631012320544071 0.47823938339340394
000490 20 8a cb 2c d6 99 cc bf e1 5e e8 3f 36 7c b8 bf
       -0.2234447211004218 -0.09564532337423827
0004a0 3d fb 65 d3 52 a9 e4 bf d5 e6 4d ab 5b 73 c6 bf
       -0.6456693772196115 -0.1753954492995066
0004b0 11 ab c6 83 3d ea 92 bf 78 b2 62 9b d8 87 e8 bf
       -0.01847168080136458 -0.7665827784417862
0004c0 c4 9f 1e 7a ac da cb bf 8f 4c 3e 6c 9d 2d e3 3f
       -0.21761089289543467 0.5993182291152993
0004d0 93 44 bd 86 31 cc d4 bf ca 7e 19 b3 69 93 a8 bf
       -0.32496297987115347 -0.04799967108988097
0004e0 09 7f c8 46 8e 97 df 3f 42 c3 5c 4e 90 0d bb 3f
       0.4936252299539637 0.10567571557181757
0004f0 33 d9 87 40 7e c8 d0 bf ed fd af fe 48 47 db 3f
       -0.2622371320898253 0.42622589942763406
000500 81 0d 9f 2d 39 8d cf bf a3 bb 0b 58 6f 4a e4 3f
       -0.2464972946892026 0.6340862960477022
000510 62 f8 6a 4b 8e 78 be bf 90 19 f6 00 a1 9f 94 bf
       -0.11902703610664525 -0.020140186008143213
000520 a6 f3 17 0d 3a c2 ca 3f 8d d2 68 ac d3 76 e2 3f
       0.20905233039220866 0.5770052306530303
000530 fc b7 0a 2e ce e6 cf 3f 10 34 01 2f 9a 1e de 3f
       0.24923112152231386 0.4706178149252205
000540 f1 37 7f 16 ec 15 d8 bf f7 d3 4f 36 36 97 b1 bf
       -0.3763380260178329 -0.06871355844471326
000550 79 9e e8 8c c9 c2 d1 3f 47 ef 01 42 4b 7a d4 bf
       0.277513873678323 -0.31996423193026086
000560 e7 e6 7c a2 b2 72 d5 bf 91 12 46 bc 6a 36 db bf
       -0.33512559764822786 -0.42519634615045115
000570 76 21 ed f0 15 50 e0 bf 11 77 47 6f d8 0b d1 3f
       -0.509776087340511 0.26634798876863025
000580 d3 a0 c9 60 77 8a de bf 75 bd d2 94 b5 a7 de 3f
       -0.47720131351389944 0.4789861634589763
000590 d3 f6 c5 e8 9b 80 d3 bf 90 de d4 2f 8f f9 c1 bf
       -0.30472467166678746 -0.14042844615481842
0005a0 48 2b 4f f8 2a 1c b7 bf 70 44 43 76 8c 77 d8 3f
       -0.09027355730283404 0.38229667233560516
0005b0 e3 86 a0 bd 1b f0 e6 bf 33 f8 75 18 ea 3b b7 bf
       -0.7168101028111916 -0.09075797173679305
0005c0 7e 87 bb f0 c5 62 b6 3f 5e 44 3e 57 23 24 b9 3f
       0.0874446594930571 0.0982076728817147
0005d0 95 58 43 36 38 c3 d3 bf 25 91 a1 43 ce a7 c7 3f
       -0.3087902574456021 0.18480852415371732
0005e0 39 15 f8 a7 36 f5 a6 bf 37 cc 73 47 68 ca e2 bf
       -0.04483958053973897 -0.587207927279798
0005f0 9e 9e 7d 93 21 9a d7 3f a2 d5 46 16 fb b1 d3 bf
       0.36878241923703026 -0.30773808646639556
000600 73 bb d8 c5 5e 9a e4 bf ae 30 7f cb 18 6f b8 3f
       -0.6438440193359 0.09544520347771154
000610 2d c5 41 75 a8 6d b9 3f 45 72 5f c1 db 5d e4 bf
       0.09932949888913774 -0.636457326585124
000620 c4 6e 6c 92 f8 63 cc bf ea 40 53 cd ba 0c c9 3f
       -0.22180087232196943 0.1957009794773577
000630 01 93 cd a1 c8 60 a8 3f 12 e1 e8 1f d6 59 bf bf
       0.04761340117582869 -0.12246454505009677
000640 49 cf ab 5e b8 ed d9 3f 52 e8 d4 27 6f 6f df bf
       0.4051342892191668 -0.49117640390216366
000650 93 e7 a5 73 e7 98 cd 3f 0a d9 ee 88 ec 54 cd bf
       0.23122876307371296 -0.2291541737192307
000660 85 18 15 d7 f7 5e e3 bf b3 8f 01 3b 45 fa d2 bf
       -0.6053427887752753 -0.29652529489817
000670 7e 49 91 31 76 d5 e3 bf c8 3b cc a3 57 a2 df bf
       -0.6198073356738829 -0.4942835902774587
000680 48 e8 f9 0a 6f 01 a2 bf e3 b8 22 60 47 fd b6 3f
       -0.03516718873011421 0.08980222794591301
000690 80 f7 91 19 84 f0 e0 bf 82 b6 74 04 e5 8d 9c 3f
       -0.5293598651330598 0.027885034939734606
0006a0 c0 45 fd b9 cc 0e d4 3f d2 ac 81 a3 96 0f db 3f
       0.31340330279371287 0.4228264424079501
0006b0 18 81 7d 9f 1c 67 d9 3f 68 95 09 d9 48 56 de bf
       0.3969184453508361 -0.474016391707059
0006c0 52 9e 84 83 7d 74 ba bf f6 53 1e 32 e4 0c a2 bf
       -0.10334000073327701 -0.03525460349843705
0006d0 20 f6 da a4 16 7d 92 3f ec 08 ab fe 46 0c 98 bf
       0.018055299579591844 -0.023484334272105764
0006e0 b8 c8 8e ec ed f5 99 bf 85 4d 9a 37 49 05 d9 bf
       -0.02535220867475438 -0.3909476321216164
0006f0 bc a6 fd ee 17 df cf 3f 48 ad dd d1 8b 98 c7 bf
       0.24899577302431009 -0.1843428396926845
000700 8a 47 04 7d b3 47 c2 3f 7f 49 de ae 31 77 d3 3f
       0.14281314472514978 0.3041500289629297
000710 36 85 ee db 1c d8 d4 3f 1f 3f 99 bb 40 a2 e0 bf
       0.3256904742975907 -0.5198062576327834
000720 b2 9e 0c 52 cc ad df 3f a4 94 42 f8 81 2b d1 bf
       0.4949827958357488 -0.2682804989256715
000730 6c 17 da 8f 95 b5 c0 3f a6 7c a9 de 92 55 dd bf
       0.13054151081103826 -0.45834800476400017
000740 31 bb ec 9a b5 c8 a2 bf 92 5f f8 d0 ff 7b cd 3f
       -0.03668754116221463 0.23034665778754665
000750 cf 91 f9 04 07 ae e6 3f b2 bf b3 25 ea 57 a0 3f
       0.7087435815015456 0.03192073545676467
000760 93 04 c5 cf a3 a9 d3 bf 70 84 04 5e 8f 40 e8 3f
       -0.30722899713516333 0.757880862835135
000770 e2 27 1c 25 e3 c2 be 3f 41 75 23 f1 70 45 cb bf
       0.12016124397283037 -0.2130566766199227
000780 d6 c6 b0 1b 0e 9e db bf 55 36 1c d1 3e 64 b9 bf
       -0.43152191833642684 -0.09918587308148948
000790 d6 4f b2 d6 5d ba ca 3f 8a d0 e6 20 46 3e dc bf
       0.2088124559710411 -0.44130089963005814
0007a0 6d 93 63 4d f2 da d8 3f 4f 8c 0c 03 52 3f d0 bf
       0.38836343343273577 -0.2538647680068537
0007b0 16 5c aa b2 d5 77 bf bf a4 3b 3c 1d 76 e4 ca bf
       -0.12292228328657048 -0.21009708812240746
0007c0 93 87 3d cb 75 b8 d5 bf 67 0f ab 65 c0 78 e9 bf
       -0.33938355300608086 -0.7959901796061616
0007d0 20 4f 4f d5 7d e1 bd bf 9c 7b 35 14 38 cf d5 3f
       -0.11672197778471771 0.34077264760520065
0007e0 7b 3b fa 60 8e 29 d2 3f bb d9 0e c1 d5 f8 d1 3f
       0.28378638716178956 0.2808126817066314
0007f0 87 2d 64 bc f9 60 cd 3f d4 f6 9c 34 4d 7b cd bf
       0.2295219583396426 -0.23032536572457352

layer1.bias f8 [100]
000000 43 8e 07 f6 7b 40 94 3f 2c 4d 02 6f 20 14 dc bf
       0.019777237788629397 -0.43872843590470967
000010 10 38 c7 2e bf 6b e2 3f ca 20 7c db cb ac e2 bf
       0.5756526864659026 -0.5835933005155536
000020 3a b5 15 a2 80 a3 cc bf 7c 00 d1 f5 56 67 e2 3f
       -0.2237396995000525 0.5751147080518559
000030 b7 30 aa a2 4d 79 cb bf b7 5b c6 3f 00 46 b0 bf
       -0.2146393818151233 -0.06356813008311134
000040 66 0e 07 7e bb 49 ee bf 5f 2f d7 0f 78 07 dc bf
       -0.9465005361057137 -0.43795587107591943
000050 05 62 a0 7b ce 2c dc bf 2c da dc 30 36 46 e7 bf
       -0.44023477623844115 -0.7273207620954216
000060 f0 f2 ad 7a 16 d9 b8 bf 9d bd 9c fe d5 bf be 3f
       -0.09706249709229176 0.12011468378181296
000070 15 38 e0 6d 5d 6d e3 3f 83 a2 4a 73 c6 c3 e0 bf
       0.6071002145779426 -0.5238983394420561
000080 59 5c 69 15 de 01 d7 bf aa c5 3f 54 00 69 dd bf
       -0.3594889840218847 -0.4595337698693479
000090 e2 f0 30 34 56 9f e8 bf da 1c 9a fc e2 36 db bf
       -0.7694502848967455 -0.4252250162903245
0000a0 20 cd 38 12 e0 66 ee bf 9d 34 ae 7d fa 81 e7 3f
       -0.9500580173393338 0.7346165137002064
0000b0 f8 de 4c 86 74 ab e9 3f 36 b1 e3 29 19 3b e6 bf
       0.8021795867016115 -0.6947141473915852
0000c0 48 38 59 7a 57 fd d7 bf 4c 15 ad 00 66 aa e3 bf
       -0.37483775089356586 -0.6145505917744827
0000d0 a6 48 fc 36 34 ac c3 3f 8d 38 06 01 d1 4d d3 bf
       0.15369274792516768 -0.3016245374682363
0000e0 54 c9 c8 51 51 d6 e6 3f 0a 81 85 06 b0 bd e6 bf
       0.7136618230199852 -0.7106552245495845
0000f0 8a f5 63 0c 7b 50 de 3f 8d 6a 97 6d 83 03 d1 bf
       0.4736621495247496 -0.2658394403676219
000100 1d 5d af 02 0e f3 c8 bf 9a b2 f7 90 d6 7e c4 3f
       -0.19491744166473604 0.16012079313749866
000110 90 65 1b 2c ca c1 d2 3f 39 4e c7 4d 0f 4e d9 3f
       0.2930779867870905 0.39538939090309416
000120 ac a9 41 2e ba 74 e5 3f 84 9a 9c aa 72 28 e0 bf
       0.6704989341208623 -0.5049374897251515
000130 76 bb 88 49 db 8d c3 3f 4a da 32 b2 70 aa ea bf
       0.15276661959202514 -0.8333056908075573
000140 f8 4c 1a 0a 5f 41 dd bf e5 b4 4b cd 2d 75 d5 3f
       -0.45711494433017164 0.33527703331385644
000150 4f 71 ae ab 94 2b d3 bf 02 00 b4 31 30 25 e2 bf
       -0.2995349575592358 -0.5670395823253787
000160 0c c0 67 70 34 c9 e7 3f 62 a1 14 e6 61 23 d1 bf
       0.7433111377158652 -0.267784571350168
000170 ac 59 34 9d 87 34 f0 bf 62 23 ca 7e 55 ae de 3f
       -1.0128246441650886 0.4793905008487426
000180 30 d5 dd 77 16 ee 86 bf f2 1f b7 a4 31 9c d0 bf
       -0.011196303875957797 -0.2595333202884823
000190 97 bf 8e ab c8 2e e7 bf d1 71 95 62 08 6b d9 bf
       -0.7244609213575924 -0.3971577608806714
0001a0 0f f3 6d b1 29 c7 da bf 2c dd 53 85 b8 ab ec bf
       -0.41840593649958263 -0.8959620098166048
0001b0 67 57 45 23 88 18 e6 bf ff 3c a7 9d e1 37 e2 3f
       -0.690494603050621 0.5693214492002027
0001c0 38 17 c3 c1 5f 36 cb 3f ca bd 28 88 fd 7e d2 bf
       0.2125968643287537 -0.28900087639609906
0001d0 94 0c 13 e5 48 7d e1 bf 14 ac aa fa ab 0c ca bf
       -0.5465435480222305 -0.2035117124517859
0001e0 da 7a 22 00 4c 55 e5 bf a5 ed d5 a8 b6 55 e3 bf
       -0.6666622164373976 -0.6042130754062113
0001f0 7c ae 2f 51 25 4c e4 bf ab 88 ec ff 6d ce a4 bf
       -0.6342951379460398 -0.04063743352004797
000200 e0 3c 30 45 c1 55 d6 3f 45 3d 69 fa 73 f6 ed bf
       0.3489840675037623 -0.9363345995751976
000210 80 61 08 6b dd 65 e5 bf 13 f5 06 7e 89 53 c5 3f
       -0.6686846819384726 0.16661184934302095
000220 40 88 97 1b 52 7f e5 3f 0a f7 fe 05 a0 2c d5 bf
       0.6717920817284337 -0.3308486994318264
000230 06 a8 92 6b 3b 82 e9 bf c1 aa fa 88 d3 55 e5 bf
       -0.7971474743874303 -0.6667268443464637
000240 9b 31 01 7b de d6 c4 bf 8e e9 23 c7 c9 6d d1 3f
       -0.16280728345954007 0.27232593962949003
000250 ee 83 db 4d f3 42 c9 3f 65 08 2d fe 8c 10 e2 bf
       0.19735566426882606 -0.564520355641673
000260 00 95 ba a4 c8 ca e7 3f c9 7c b7 66 55 9d e7 bf
       0.743503877388008 -0.7379557615457993
000270 22 35 9a 99 98 f4 dc 3f 6e 5b f5 0c f8 60 cb 3f
       0.45242896080238115 0.2138967574380461
000280 30 1c ef e4 a2 6c cf 3f b3 ef 6a a5 63 17 bd bf
       0.24550281694811948 -0.11363814152258449
000290 e9 2e d0 cc 2f 0d df 3f 14 bb d8 95 22 a8 e5 bf
       0.4851798534516392 -0.6767743040744301
0002a0 05 1e a6 61 b2 9d e1 bf 3b 32 66 ab 08 3b d2 bf
       -0.5505000979619018 -0.28485314119533073
0002b0 9e c0 84 40 ab 6b e9 bf 8f 91 11 7d fe 7c d7 3f
       -0.7943931827667432 0.3670040341733278
0002c0 14 dd 24 2d 5f 31 d5 3f 44 94 68 3d cb 7a a2 bf
       0.33113841446488945 -0.03609309315314893
0002d0 4a 44 a6 f9 3e 85 65 bf 0a a2 b1 ce d6 f7 de bf
       -0.0026270132049792993 -0.48387689766835307
0002e0 5c 4b 37 e6 05 6e e8 bf d7 d0 26 0d 2f 41 da 3f
       -0.7634305473714948 0.41022850307787223
0002f0 15 ec 9c c6 76 96 dc bf 08 56 c1 68 91 2a ea 3f
       -0.4466835918025834 0.81769628963474
000300 e6 1e a9 08 94 5d ed bf ca 55 eb d7 30 2d b8 bf
       -0.9176731270935903 -0.09443955680338614
000310 75 d1 62 6e 97 91 e6 3f b3 a4 1e 5a 55 02 e7 3f
       0.7052724033333521 0.7190348396444705

layer2.weight f8 [100, 100]
000000 e7 93 25 3b b2 3b c8 bf 94 a8 dc 19 34 9a 9f bf
       -0.1893217839052845 -0.03086167724465179
000010 78 34 4b 9d c1 7f bb bf ad ba 57 a1 d8 aa cb 3f
       -0.10741815653018871 0.21615131261883871
000020 6b 40 81 11 0f d1 86 bf 65 06 7b ee c2 15 c3 bf
       -0.011140935632426094 -0.14910160679396536
000030 ae 9d 43 51 89 88 c3 bf a5 b0 12 34 3f d2 56 3f
       -0.1526042601392254 0.001392900201874028
000040 c5 1f 7c 91 0f a1 9f 3f 50 0e bf da df 70 a1 3f
       0.030887835745516918 0.03406428857081478
000050 66 6b 54 f0 da 0a 9e 3f 7a 6a 0f 6d dc a4 c6 bf
       0.029338284414829906 -0.1769061596413229
000060 62 70 76 8c 9d 2f ba 3f 6a 04 12 e2 19 87 a9 bf
       0.10228905371917699 -0.04985886463783447
000070 fd cd bc 0d 0f dd af bf 12 ba 74 83 89 f0 bd bf
       -0.06223341982549966 -0.11695155581831099
000080 8f 38 54 34 6e 6e 85 3f 69 40 5a 20 9a 54 ae bf
       0.010464535686449032 -0.05923921246460468
000090 00 ea 48 38 f8 9b b0 bf 85 15 18 55 bb 3d c3 bf
       -0.0648799073614228 -0.15032140402778907
0000a0 be e1 4f 92 10 ea 99 3f e3 1e 8b 9f 7c bd cc bf
       0.025306948595216865 -0.22453267851073297
0000b0 ce 56 a4 37 be 8c b0 bf 96 c5 f9 1b fb 45 b1 3f
       -0.06464756830640825 0.06747407372474465
0000c0 88 ae ef b8 fb 8e 9a 3f e2 75 96 fc 90 d9 a5 3f
       0.025936062967885337 0.04267552455278768
0000d0 36 9a 3b b2 79 16 c2 bf 93 e7 27 21 50 db 7e bf
       -0.1413108940389109 -0.007533371930998361
0000e0 16 51 33 1c 55 62 cc bf b2 12 84 4d c9 0d 95 bf
       -0.22175086857772247 -0.02056040320987291
0000f0 bd 00 89 91 d8 16 c4 bf fc 3f 55 bd 8d 50 a3 3f
       -0.15694720369538642 0.037723950731219674
000100 dc 4b 59 f4 ce 30 c2 bf dc 02 08 1a b9 bc 91 bf
       -0.14211451464743063 -0.017321483815979075
000110 75 23 cc c4 ce ba c6 bf 56 23 98 14 e0 f5 b1 bf
       -0.17757591828583555 -0.0701580095557238
000120 ad 82 f9 f8 ea 21 cb bf df 25 eb 01 72 4a be 3f
       -0.211972590989736 0.11832344576682584
000130 ef bf 56 7d 53 0c ac bf 54 c4 9f b4 85 0e aa 3f
       -0.05478154091849762 0.05089204625972657
000140 69 1a e7 87 89 63 92 3f fa 59 dc 74 12 50 b1 bf
       0.01795782939896143 -0.06762805321736912
000150 e7 c8 bc 24 86 e9 a2 bf 2f c2 ac ef 2f 55 82 3f
       -0.03693789671378216 0.008951544286532968
000160 15 8b a1 9f fb 84 af bf 40 56 36 1b d3 68 b9 bf
       -0.061561454044541865 -0.09925574697839412
000170 f0 d0 54 bb b8 50 87 3f 8b 14 ed 34 f7 ef bc bf
       0.01138443299951361 -0.11303658525601372
000180 55 0f f9 b9 33 b8 b3 bf a7 0d 0d 1a c0 d2 b7 bf
       -0.07702945032457127 -0.09305954586039054
000190 10 53 81 f7 3e b6 1e bf 14 60 c1 1b b1 ce c9 bf
       -0.00011715659445716794 -0.20162023406260288
0001a0 c7 4c f1 60 d2 a0 a8 bf 8a a8 50 a9 d5 a2 ae 3f
       -0.04810197289830281 0.05983607951959964
0001b0 9b 1c 6e 5f 6a 2f b6 3f 5b de 86 77 a7 ab b8 bf
       0.08666100339734088 -0.09636923473487384
0001c0 43 2f d4 a1 5d fa 84 bf 10 85 46 e8 83 3a b7 bf
       -0.01024315977203794 -0.09073662205493727
0001d0 37 6f 99 7e 3c 04 64 bf 62 bc de 5b b9 55 c6 bf
       -0.0024434262784732946 -0.17449109063952323
0001e0 c0 3c 3f 88 7d 43 92 bf 9f b1 3d b1 b8 44 c9 3f
       -0.01783558029256649 0.19740971235604562
0001f0 38 b9 1a 51 48 c8 b4 3f a7 d2 05 18 82 29 c2 bf
       0.08118106823051086 -0.14189172909722922
000200 71 12 77 ec 46 8d b7 bf 98 37 6b 2f 3b fe b6 bf
       -0.09199946663927407 -0.08981676013647044
000210 77 28 76 ca 1b b5 c4 bf 70 35 6c 34 3a 18 c8 bf
       -0.16177699456995118 -0.18823936042501144
000220 5b 30 f9 f3 4c fd ad bf 79 6b d5 26 7c 89 b4 bf
       -0.058573155195148906 -0.0802228541191833
000230 c1 9c 45 d0 75 6f b0 3f ea 1f bb 88 a2 b7 ab bf
       0.06420074782146214 -0.05413539809302377
000240 d6 e5 3e 81 8d 7c b1 3f ee 4b 80 8e 14 6a c0 bf
       0.06830677419102157 -0.12823731382431397
000250 89 31 8b 35 6f 3b c2 bf e6 80 4a 17 d9 cb 99 bf
       -0.14243879427375486 -0.025191680952617278
000260 24 f9 83 e3 e7 c4 c6 bf bd 16 08 db 3f 74 b1 3f
       -0.1778840886035563 0.06818007562113855
000270 fa ec 3c 23 2b 6c c4 bf 8c 74 a2 bb b3 fa c0 bf
       -0.15955104084591892 -0.13265082036824472
000280 fa a6 b0 0d 24 5b a6 bf 24 1b 4c cc c6 03 c8 bf
       -0.043664099379681034 -0.1876152513070447
000290 9a 76 08 7a fe c5 ca bf ed 92 d8 13 d7 b1 bd bf
       -0.20916729887624258 -0.11599487528344428
0002a0 27 96 2e 80 90 06 88 bf 4f 92 16 2e 0c 77 ae bf
       -0.011731270705989406 -0.059502010942456544
0002b0 89 1b cb a1 9c df ac 3f ec e2 79 d9 c0 de c6 bf
       0.05639352297799067 -0.1786728917975532
0002c0 de b9 d4 26 24 5c c6 bf a1 a7 09 ee 79 79 55 3f
       -0.17468692680399917 0.0013107004853289766
0002d0 ad 1a aa 54 55 d2 af 3f 52 b2 f0 cc 5b b0 95 bf
       0.06215159090520692 -0.02118056715350953
0002e0 6f 5b 61 95 43 3b 57 bf 48 70 60 09 03 fb c4 bf
       -0.0014179382319718622 -0.16391027410361603
0002f0 21 a6 0e bb 7d 2a c2 3f 56 27 76 b9 c8 04 bb bf
       0.14192172654775084 -0.10554174926633428
000300 1d d1 3e 14 50 1a a2 3f e4 f4 b8 11 24 19 a4 bf
       0.03535700080047575 -0.039254309810056204
000310 fc f4 d5 77 8c 43 b2 bf 75 7c 04 0a ee 27 b4 bf
       -0.07134321141889538 -0.07873428101128062
000320 7c 11 7c 3d bf a0 93 3f 1a 8f c5 c4 b5 09 da 3f
       0.019167888763165206 0.40684265342700743
000330 e3 15 ea d0 11 d1 af 3f ce b9 26 4c 46 58 c8 3f
       0.06214194941734854 0.1901939269859682
000340 2a 33 50 1e 61 c4 b6 bf c5 a3 31 6a 18 30 ab bf
       -0.08893401136465387 -0.05310131355583495
000350 b5 df a4 01 ee bd de 3f 5e 36 b0 d0 d9 5c ae 3f
       0.48034238968420634 0.05930214569535218
000360 1f 1e 6f 2d e6 36 c9 bf eb e6 e3 28 e1 99 b5 3f
       -0.19698788851222646 0.08437926529213839
000370 5d 5d 71 d8 42 45 c3 bf 38 82 67 b6 f5 2f ca 3f
       -0.1505511814927826 0.2045886173864504
000380 46 83 21 76 d4 7f b0 bf 23 26 4a 67 91 8a 9c bf
       -0.06445052990012554 -0.027872344903277956
000390 af 36 ac 09 61 bc c0 bf 36 4a 2d b3 3f 44 c4 bf
       -0.13074887249279274 -0.15833278893349395
0003a0 23 89 fd c0 3d 25 b5 bf 2b 69 61 00 df 50 aa 3f
       -0.08259950601271675 0.051398247524689765
0003b0 ab 7c f5 2f 8f a2 cd 3f 59 4b 93 29 72 80 cc bf
       0.2315234169172745 -0.2226698592190484
0003c0 c1 30 2a c3 68 65 c0 bf 9f c4 4f 6a 78 48 63 3f
       -0.12809476403743328 0.002353892503827184
0003d0 f3 a7 19 6a 99 f7 a7 bf 3d 03 c7 37 c0 6e cb bf
       -0.0468109075562352 -0.21431734775071645
0003e0 dc c5 bb 9b f7 4e a2 bf e6 6d 88 db 64 a0 b1 3f
       -0.03575872207683137 0.06885366782847022
0003f0 6d c9 71 f0 ee 42 b6 bf 12 46 e8 6e 80 bf c3 3f
       -0.08695882196642453 0.15428166785618252
000400 ee 31 59 5b 36 85 9e bf 9f f9 06 09 a0 f0 d3 3f
       -0.02980503971621034 0.3115615928799346
000410 5f 20 4a c4 13 b1 bb bf 9e 9f 49 ba 7a 0b 9b bf
       -0.108170733854537 -0.0264109779549525
000420 94 af a8 4f 15 4e b9 3f 83 ed b6 b8 5e ef b9 3f
       0.09884770579145502 0.10130874642975667
000430 f8 7f 0a bb f2 a3 ac 3f 0c e2 70 aa 5e 06 b7 bf
       0.055938325245051546 -0.0899409452548598
000440 f5 da 28 bd 4d 7b 94 bf d1 3b e4 6c 4d 17 7c 3f
       -0.020001616163621134 0.006858160441210751
000450 4a fd b6 02 c4 01 af 3f 4c cf 35 a6 d8 c8 a1 bf
       0.06056034596576383 -0.03473546055729901
000460 87 74 ea 30 86 ee b2 bf f2 14 ef 33 65 c3 9d bf
       -0.07395209020838155 -0.029065686507029072
000470 3a 49 03 6e fe 60 bb bf 22 e9 f5 ec bb 56 77 bf
       -0.10694875894413239 -0.005697950443727147
000480 f0 d9 3f 00 ee 9f c6 bf e7 9c 8f f8 bd 62 b0 bf
       -0.17675566684893296 -0.06400668447860235
000490 9c d2 6c 6c 9e bb c8 bf 60 38 e7 1b 63 f2 46 bf
       -0.19322567266649038 -0.0007002815180443649
0004a0 b0 09 d8 07 d6 b7 b6 3f d6 29 47 38 ae 8f a5 3f
       0.08874261561871921 0.04211182057368361
0004b0 e5 f5 4e 81 d3 c3 db 3f 02 3d 2e 16 31 1f c8 3f
       0.4338272822168093 0.1884518965057183
0004c0 3f c7 a7 47 41 a7 b3 3f 8a 12 3c 4d 37 07 cf bf
       0.07677085875891708 -0.2424077155229905
0004d0 82 7d 8f 1f 95 15 b5 bf cb 87 9e ec 06 79 ab 3f
       -0.08236057301063762 0.053657738098322826
0004e0 56 95 fa d8 40 59 ab 3f e6 c7 6b ae 22 78 d5 3f
       0.05341532372157569 0.3354574874239219
0004f0 4f 56 f7 f8 3a ac cf 3f c0 ad 85 f1 a3 bc dd 3f
       0.24744355351019684 0.46463869653845435
000500 6d ba 5f 06 29 36 a8 3f 92 d7 4c ee 00 9d c4 bf
       0.047288209941929484 -0.1610413707327863
000510 fd 37 31 94 d8 02 80 3f c6 82 3a e8 84 87 b0 bf
       0.007817928335636987 -0.06456785840647247
000520 6b af 1b 0d 09 02 cc bf 50 ff 75 07 ff 9b d4 bf
       -0.21881211414381183 -0.32202125290495065
000530 6a 61 e0 c4 72 8c d2 bf 96 0a ea 34 74 14 a6 bf
       -0.2898222849485338 -0.04312480112004839
000540 7c bb 15 74 47 18 af bf 91 f5 20 9b bd ab c0 bf
       -0.06073210994769959 -0.13024110865255215
000550 a3 97 53 e4 e2 cb c9 bf 9f 05 d6 3d 90 3d 75 bf
       -0.20153461598164055 -0.0051856645999363285
000560 bd 77 62 db 7a 3a a3 bf 80 f5 f6 69 1a 94 98 bf
       -0.03755554130587722 -0.024002468793459908
000570 6e ca d7 f5 e3 5d 84 bf 31 7e 82 1c 4c c7 c4 3f
       -0.009944706859618093 0.16233207122876217
000580 19 38 04 bb 6f 02 90 bf a3 82 11 a1 30 c7 ce bf
       -0.015634294309215677 -0.24045379509609174
000590 d3 10 c3 c7 72 18 b2 3f 18 9c 2e c1 a4 ef be 3f
       0.07068555237771372 0.1208441707263862
0005a0 a8 74 26 94 da 85 b6 bf f4 ad 3c 95 4d dc 94 bf
       -0.08797994725178404 -0.020371639474587824
0005b0 6b 20 11 fe a7 24 ad 3f 24 36 24 62 30 d9 d3 bf
       0.05692028976824378 -0.3101311643993958
0005c0 ff c8 73 63 08 9a b8 bf 4d 35 ca aa b1 85 c4 3f
       -0.0961003535083229 0.16033001746510891
0005d0 70 1c c3 c6 63 68 ba bf 22 cc 4f 06 eb 04 b8 3f
       -0.1031553612002527 0.09382504371733139
0005e0 c9 20 61 1a 82 b4 cb bf 0f fd 9a c3 93 37 91 3f
       -0.21644617355401 0.016813572706039056
0005f0 37 18 45 46 f0 02 7b bf 4c 43 bf cd aa 73 ad bf
       -0.006594599315866082 -0.05752309571801692
000600 1e 43 cd 6d 8d 55 c7 bf b7 a2 ef b9 02 b9 b5 bf
       -0.1822983537809017 -0.08485428847746844
000610 ab 50 9c 31 8d 8a 98 bf 92 0a 45 8a 8f e0 b2 3f
       -0.023966032174101908 0.07373902440762439
000620 e2 e6 08 8a bd 1b ca bf 8d b6 f0 f3 87 7e 93 3f
       -0.20397156944255018 0.01903736521142334
000630 fc da ce f0 9c 4f b8 bf 89 93 72 3b 0e cb c5 bf
       -0.09496479872801084 -0.17025926497185775
000640 07 35 f3 29 a2 12 a4 bf aa 6e 8c a7 b6 00 b7 bf
       -0.0392046619614153 -0.08985463705578903
000650 84 8f 69 35 34 ce aa bf 66 e0 d1 81 68 7d b8 3f
       -0.052354461212217124 0.09566357774190379
000660 16 46 5a 67 95 4b b7 bf 0b 97 17 1a 1b 7c c3 3f
       -0.09099706433541885 0.15222491048842132
000670 49 8b 94 a1 57 ae ba bf 30 45 2b a5 3c 6e c2 bf
       -0.10422275252180414 -0.1439891630639436
000680 5c 83 f0 8d 7f b8 9b bf 3c 7a e9 1d 94 f7 c2 bf
       -0.02707099250631316 -0.1481804987005989
000690 48 15 a0 92 8d 07 b2 bf 17 30 b5 b0 c6 cc b6 bf
       -0.07042774991721956 -0.0890621358313982
0006a0 5f 7d aa 19 89 07 b1 bf 33 c8 cf 47 33 23 a1 3f
       -0.06652123333559733 0.0334716820870117
0006b0 f6 3e 04 fd 72 25 bb 3f 9f f2 7d 3d 19 3f 91 bf
       0.1060401790348314 -0.016842264536068737
0006c0 5c 9c cc 80 44 c7 af bf cc e3 fd 52 3f 78 af bf
       -0.06206716606384852 -0.06146428955157254
0006d0 0d 3d 87 1c f8 15 cf bf 90 7b ab 99 be 96 a4 bf
       -0.242857946328947 -0.04021258951046669
0006e0 ca 06 8e 47 c9 d8 ce bf dc aa c7 ae 23 3e a9 3f
       -0.24099079126249584 0.0493022108892853
0006f0 b5 02 e5 49 cd 4d b0 3f 9b 37 03 bb 5e ac 9c 3f
       0.06368716291491235 0.02800128952440382
000700 8d d2 d6 5a 7d 6c bb bf c9 15 2a 77 90 a5 ba bf
       -0.10712417094948475 -0.10408881100928292
000710 1c 54 9a 48 1c 07 a0 bf 87 cc 27 8d be c8 94 3f
       -0.03130424867882928 0.02029702889008125
000720 16 80 7e 8a bb 00 bd 3f 5b e6 e6 d2 26 32 c5 bf
       0.11329242831425321 -0.1655930070681276
000730 c8 3e 65 83 77 57 8b bf ca a3 35 08 f2 49 71 3f
       -0.013350423524257762 0.0042209104898142755
000740 ea f9 a3 56 a2 26 a7 3f 0b 52 a7 6f a9 a0 c2 bf
       0.04521663005469974 -0.14552801086269115
000750 93 3c 2f ee 11 54 c0 bf a4 82 55 19 b0 cf ad 3f
       -0.12756561403373165 0.05822515782597762
000760 68 09 bc 95 b9 8d b3 3f 11 78 45 10 3c cb b5 bf
       0.07638130097988027 -0.08513236424684602
000770 6b cf ea 59 43 dd 92 bf 2c 3c 15 fb a3 78 bf bf
       -0.0184221767073746 -0.12293457870440311
000780 01 38 af c3 38 39 b0 bf 18 4a 4f 61 fd 8a b3 3f
       -0.06337313439800597 0.07633956552243892
000790 77 4e be 86 56 03 93 bf d8 ea 20 b5 2a 98 c3 bf
       -0.018567420934756797 -0.15308126300973046
0007a0 16 52 af 5d 07 d9 a9 3f 25 f6 2c 3b 69 6f c4 bf
       0.050483923135889494 -0.15964999570307828
0007b0 0e 80 b9 4a ad 16 bc bf 39 80 bf 83 ce ae b9 3f
       -0.10972102236110023 0.10032358852868208
0007c0 a7 b2 02 71 28 e1 bd bf 8c 87 59 98 2f 98 9a 3f
       -0.11671688803716994 0.025971168206872217
0007d0 a1 c2 8d 3f 94 b6 c5 bf b0 63 4f ad 04 99 c1 bf
       -0.16963437178812504 -0.1374822469940944
0007e0 9b 8a ec ea a4 f2 c4 bf 8e be a6 ed a8 2a c6 bf
       -0.1636549136247439 -0.17317687610692584
0007f0 e4 cc b2 d2 47 ff a6 bf d3 a3 8c 4f 50 36 b9 bf
       -0.04491638609888485 -0.09848501150248916

layer2.bias f8 [100]
000000 11 22 be 08 b0 21 c0 bf c3 71 46 d3 34 a7 c1 3f
       -0.12602806498422628 0.13791523281260085
000010 28 5a b0 2c d8 ee d2 3f 32 3f 1b f8 9b b8 88 3f
       0.2958279072203447 0.012070864209277585
000020 7d 6f ec e1 01 31 ae 3f 12 f9 10 52 a9 6c b2 bf
       0.05896764643531947 -0.07197054151126661
000030 16 0d b0 c7 cc 2c d0 bf 4a 1b c3 8b 7c f4 d1 bf
       -0.2527343702387993 -0.28054727219244013
000040 c2 94 a5 0b 4c 7b a7 bf 56 6e c7 fd 6f fc c5 bf
       -0.045862556859711315 -0.1717662800937087
000050 a9 42 e4 94 9f 32 6d bf bb e8 67 a9 70 32 a6 3f
       -0.0035641781643181614 0.0433535773081117
000060 de e6 99 55 24 1f c7 bf 7e 05 18 da 8f 72 a4 bf
       -0.18063787631745404 -0.03993653809812779
000070 3e 68 c3 0c 86 71 b5 3f 59 f2 1f e2 95 df c9 bf
       0.08376348315815194 -0.20213578740357965
000080 54 5a 2f 76 04 2f bf 3f da 5e 08 ad 59 93 ab bf
       0.12181117902159971 -0.0538585685464434
000090 9b 84 60 c1 75 07 ae 3f 66 8a a4 54 4e 84 c2 bf
       0.05865066514548652 -0.14466265805193074
0000a0 ba 4d 14 ab 55 d1 c3 3f 35 c9 b1 27 c2 27 cc 3f
       0.15482588628274901 0.21996333063322884
0000b0 7c fa e4 7d 02 03 d2 3f fb b8 5e 65 91 ff ca bf
       0.2814336995542488 -0.21092431497294925
0000c0 7a 84 97 bf a6 2d cb bf 1f 29 60 83 71 0a aa bf
       -0.212330668974605 -0.05086092690187826
0000d0 7a 01 d2 58 8e bf b4 bf 33 84 62 f8 bf 91 d6 bf
       -0.08104791325059138 -0.3526458669312575
0000e0 87 c6 8f cc e4 9a 5f 3f f1 20 93 fc 3a 67 c0 bf
       0.0019290193906695023 -0.12815034229993885
0000f0 2e 64 ea f1 ed 11 c2 3f 08 51 62 f9 f0 d2 c0 bf
       0.14117216408047412 -0.13143741776423945
000100 fa f0 59 1d d2 40 ad bf cd 02 2a a4 d3 a1 c4 bf
       -0.057135168154646324 -0.1611885596830888
000110 00 5d 37 a8 24 42 b9 3f 86 86 f6 96 fb e0 86 bf
       0.09866551501123766 -0.011171308083081099
000120 f9 7c 5f b9 50 27 d0 3f ce ed 99 e4 84 cd ce bf
       0.2523996172221384 -0.2406469455926143
000130 0f a7 2b bf 41 86 c8 bf f3 0b 33 1a 3b 11 c1 bf
       -0.19159719309328024 -0.13333834437625533
000140 38 57 84 5a 3a 17 a3 bf a9 92 f0 3f 2a 5a c7 3f
       -0.03728659014647778 0.18243911859567177
000150 6b a9 b0 eb e4 d0 ac 3f 26 19 c4 40 9e c0 c1 bf
       0.056281236429941504 -0.13869074022677202
000160 f7 53 ed 16 a6 da c0 3f 08 40 ca f7 b4 d4 b4 3f
       0.13167263144956085 0.08137064981042397
000170 d2 8c 70 c6 6b ca 95 3f 08 c1 ea 80 1b 04 c3 3f
       0.021279987322611778 0.14856284899497774
000180 3c 00 fe f4 85 b7 c0 bf 89 bd 84 fb 40 a3 a2 bf
       -0.13060068571576433 -0.03640177793783567
000190 d4 ea 23 aa 70 26 d3 bf 20 cd d9 b6 cb 9c d1 bf
       -0.2992211972738634 -0.2751950536396226
0001a0 76 c9 ce 77 e4 36 d0 bf a5 7a 40 f7 08 d1 b6 3f
       -0.2533503694532081 0.08912712131903307
0001b0 35 b9 10 94 d0 b6 cb bf 47 f8 6c b9 7f 30 b8 3f
       -0.2165165636992669 0.09449003483766304
0001c0 ec 95 ef 3c 25 b8 c3 3f 7d 31 b4 cc ab 8f 5c 3f
       0.15405717349419434 0.0017432382326801603
0001d0 7d 89 5a 54 a9 59 b1 bf cf ad de 4e ca 76 cf bf
       -0.06777437505164659 -0.2458126912218703
0001e0 ac ab cf 77 ef 5a d5 bf d7 5e b4 be 95 f2 d3 bf
       -0.33367525768579287 -0.31168120978825925
0001f0 31 9d c1 4f d4 87 c7 bf 9a 12 19 ce 49 91 a6 3f
       -0.18383268255568333 0.044077211769523575
000200 f6 63 ee 38 45 c8 c9 3f eb fd 98 b6 03 ae c3 3f
       0.20142426757664084 0.15374800125026353
000210 fe 03 18 d8 e3 2c c6 3f 86 bf 9b 6c 64 b1 ad bf
       0.1732449345727502 -0.05799402070795083
000220 4a ce 82 92 a7 f2 c6 bf 4e 38 9b 15 58 69 b3 bf
       -0.17928023008208732 -0.07582617309091796
000230 ad ba dd 65 24 a1 d1 bf 2d 7f 81 83 b6 a0 cc 3f
       -0.27546033809532383 0.22365456982788015
000240 82 ee 34 b7 4b 2d ca 3f 08 2a 05 a5 ee 33 90 3f
       0.20450731702463903 0.01582310564234926
000250 36 1d d7 e3 c9 8c cf bf 22 27 7a 4e 99 0b 54 3f
       -0.2464840281011022 0.001223468507222277
000260 98 41 f6 e9 4f 9c c3 3f ea 6d c5 1b cc 00 72 bf
       0.15320776866839192 -0.004395291613345157
000270 28 2e 55 c4 f6 a3 be 3f ac 32 0b 38 2f 53 b9 3f
       0.11968939107207943 0.09892554395919245
000280 32 c4 e6 ad 17 41 73 bf db dc 20 b1 a2 73 b1 bf
       -0.004700748917842156 -0.0681707079355535
000290 3d d2 e4 9a 5a 51 ac 3f b0 5e d2 7d 66 3d 98 3f
       0.05530818119806156 0.023671723775435083
0002a0 83 cc 50 40 52 ee 78 3f 45 af 93 59 3f 41 cf bf
       0.00608665589702462 -0.24417869447585808
0002b0 4d ea b0 a0 e9 7a b9 bf 2b 97 f3 3d c6 2f c1 3f
       -0.09953174756166412 0.13427045845963312
0002c0 ef f7 57 f2 07 e2 82 3f d7 62 35 a0 32 39 cc bf
       0.009220182498207634 -0.22049553702051725
0002d0 36 82 e0 89 bb 15 b6 3f 58 03 05 17 4b db c0 bf
       0.0862691127408731 -0.13169230102541962
0002e0 0c e6 5e 0a d8 2e b2 3f e8 45 d0 ad de 0a bc 3f
       0.07102728131476271 0.10954086059088974
0002f0 d5 91 e2 3f 2d f2 c1 bf 70 29 a2 49 39 3d b3 3f
       -0.1402031480730687 0.07515295074168704
000300 35 64 69 67 e3 33 a7 3f 32 4b 8f 8a e5 8e bc 3f
       0.04531775128698038 0.11155542977148228
000310 94 34 05 8d 90 ef c6 3f a9 0c 65 c5 97 d2 bc bf
       0.17918593297728036 -0.11258839196402683

layer3.weight f8 [100, 100]
000000 36 17 46 6b ab da 86 bf 94 db a5 eb 74 f6 c0 bf
       -0.011159266673313444 -0.13252126222843386
000010 e2 8f 5d 75 4b 54 af bf d7 2d fc 4b d6 d4 9d bf
       -0.06118999297794382 -0.029132221591721432
000020 0a ea c3 e6 63 7a b6 3f 6b fe 9d a4 df 8b a0 3f
       0.08780502685468874 0.03231715092169626
000030 56 b9 93 15 15 a9 c3 3f 0d 58 63 f1 c8 16 a7 3f
       0.15359748414580093 0.045095710245434
000040 14 70 22 51 99 bf ca 3f 6f f8 e9 e6 19 27 bd 3f
       0.20897213422438254 0.1138778866533998
000050 92 78 bf db 5c 7a ad 3f 86 7c 7e 02 6e 32 c9 bf
       0.05757417852849857 -0.19685149308950062
000060 00 aa 89 c1 a3 fb af 3f 70 2c cf 52 1a 0c c2 3f
       0.062466733336652425 0.14099434894010043
000070 d1 ae fd b1 c9 84 bc bf f0 99 9f 90 1b 92 a7 bf
       -0.11140118213159701 -0.04603658810065159
000080 87 b9 12 a4 56 00 a6 bf ee cf 47 a3 e3 76 83 3f
       -0.042971332100353136 0.009504106922555846
000090 1a fc 16 4b 5d c5 8f 3f 0f fb 29 6c 05 8c b6 3f
       0.015513161520059927 0.08807405367586461
0000a0 8c 13 05 63 00 16 aa bf b1 5c f8 63 98 5d c0 bf
       -0.05094910820711282 -0.12785630112987215
0000b0 49 59 99 c5 72 0e b5 bf 02 0b 2a 69 42 0b c5 3f
       -0.08225171398348609 0.1644061101433963
0000c0 26 ce 6d 63 d1 3c 6b bf 16 04 53 c3 c8 e8 c0 3f
       -0.003324898683269034 0.13210401093786633
0000d0 ea 14 c3 b9 ca 26 b0 bf 67 c6 53 a2 28 d2 c1 3f
       -0.06309191737371447 0.13922603536734643
0000e0 21 65 62 c9 9b 1d a5 bf 8a b8 07 3b c9 95 bb 3f
       -0.04124152024560091 0.1077543038479424
0000f0 96 02 6b 10 6b 1d ab bf aa 04 d3 a4 07 6f c6 3f
       -0.05295881820120944 0.17526336238919288
000100 98 7a 4b 3f 2f b5 bb 3f fb cc 50 74 11 6b ba 3f
       0.10823340697559514 0.10319623079049116
000110 d2 93 af 81 bc 35 b2 bf 5f 7b 6e 9e 6d b1 b5 bf
       -0.07113245168837004 -0.08473858945806743
000120 d9 48 0d af 08 38 b0 bf 65 e9 d7 57 73 b8 c6 3f
       -0.06335500978210308 0.17750398434857143
000130 bd cc 7a 6b 7d 51 ca 3f 36 61 cb 01 b3 f6 8a 3f
       0.20561187503844805 0.013165853969824153
000140 57 cc 3d ca ef 66 b1 3f 3c 22 a6 4a f7 9b b7 bf
       0.06797693908247147 -0.0922236020325124
000150 12 b8 93 ac 3e 18 91 3f 43 08 d7 a1 34 d0 b0 3f
       0.016694049151674113 0.06567696524783266
000160 61 02 a0 40 64 38 bc bf f6 e3 ec fa 74 86 c4 bf
       -0.11023546769866634 -0.16035330059256098
000170 c0 6f 29 9b 1d ff c5 bf 04 4b 4a a2 f3 f7 b0 bf
       -0.1718480117441441 -0.06628344261325131
000180 a2 0c 41 70 37 ec c7 3f 4b f0 2e e4 29 31 c1 bf
       0.18689625722081354 -0.13431285516515098
000190 dd 76 15 f9 0e a5 c4 3f 5a e7 64 b7 f7 62 bb 3f
       0.1612871853093826 0.1069788763751637
0001a0 6a d8 d1 2a 31 cf b0 3f 66 15 53 51 d9 12 bb bf
       0.06566149993327178 -0.10575636134588748
0001b0 a3 63 3d 44 b1 44 b4 3f 62 51 a3 56 c3 58 b9 bf
       0.07917316356669217 -0.09901066651520332
0001c0 c4 7a 3e 62 78 29 99 bf 40 24 77 39 b0 b1 a1 bf
       -0.024572258945790862 -0.034558779730624156
0001d0 95 5c d7 78 5b e2 ac bf 43 e6 94 8c 9b 1d c3 3f
       -0.05641446924317354 0.14934105266893213
0001e0 e0 59 bb 2d b9 8d 80 3f 63 00 ce 48 dd 8c c1 3f
       0.008082815845608715 0.13711134009281797
0001f0 b4 1b 68 31 16 c2 ba 3f f7 62 12 d0 da c0 c5 bf
       0.10452402788369747 -0.16994795951611483
000200 36 7f 8c 1e cc 4b c3 bf e5 d4 aa aa a8 8a b0 bf
       -0.15075065127984438 -0.06461576620752714
000210 1e 13 c5 7c ff 45 c0 bf 23 1e 07 77 e3 ee c1 3f
       -0.12713616935993682 0.14010279952911828
000220 02 37 5d d7 af 3e b0 bf d0 51 68 f1 13 6f b8 3f
       -0.06345652587807751 0.09544491428125146
000230 fd e9 e6 1c a4 31 cc 3f c6 f5 d5 8f 1a ff ba bf
       0.22026492511015752 -0.10545507442107924
000240 83 0c 8f 94 ca f4 a7 bf 86 b7 88 a4 65 0b a2 bf
       -0.04678948462926604 -0.03524320252868933
000250 66 46 0c 92 e1 a5 b2 3f a2 51 d2 52 ad 7e c2 3f
       0.07284364524482498 0.14449087661763566
000260 5b 9f 40 e5 2e 54 ca bf 8b 96 d2 e7 fb c6 91 3f
       -0.20569406694380174 0.017360626243905258
000270 99 b8 ea ae 4c 26 c6 bf b9 dc 3b 12 7c 4e bd bf
       -0.17304380932677502 -0.11447883076822309
000280 b1 15 0a 2b a7 40 bb bf 55 5b 76 2e 5b 2b cb bf
       -0.10645527649656718 -0.21226062554043304
000290 15 ee 2f bb d6 60 ca bf d4 12 b0 67 45 1f 99 bf
       -0.20608028545380877 -0.024533352330780314
0002a0 8e 75 fa 98 e9 db b3 bf 9d 93 63 90 26 1c b8 bf
       -0.07757434830496931 -0.09417954468842855
0002b0 07 78 e3 d6 04 b7 c6 3f 7f 45 fc 97 19 39 c1 bf
       0.17746029369931213 -0.13455505295909728
0002c0 56 41 35 ff c2 6f bb bf 91 55 32 0e 9f 59 bf 3f
       -0.1071740983072734 0.12246126267048953
0002d0 30 3d 59 69 a0 fe c3 bf 15 bb 49 6e 24 a2 b2 3f
       -0.1562080873868381 0.07278659527376548
0002e0 be 33 62 49 ab a4 c4 3f c1 6f c6 47 bb d1 bf bf
       0.16127530177291577 -0.12429399969408818
0002f0 ab 87 31 42 18 c6 b0 3f 05 53 e6 bc b4 99 b0 bf
       0.06552268615771932 -0.0648453675442618
000300 dd 8e cb f5 51 02 c7 bf 03 59 b9 d8 00 be a5 3f
       -0.17975830556598896 0.04246523519093339
000310 8c 47 df ce 79 8b c1 bf 7a 13 55 6b 3b 1d b1 3f
       -0.13706896401577884 0.06685229654710936
000320 8c 19 db a9 4b 38 bf 3f aa 7c 9c 31 99 e5 a4 bf
       0.12195275208350703 -0.04081419687849437
000330 64 a5 26 6a 2d 35 c9 3f 3b c7 17 5e c5 25 a3 bf
       0.196935345489048 -0.03739754460901997
000340 bb 88 5d 6e 6c cc b4 bf 36 ad 35 fd 51 dc c2 3f
       -0.08124425596682532 0.14734864104989648
000350 74 db 7d aa 4b f2 b0 bf 8d 95 73 8f e1 6e c6 bf
       -0.06619713699715907 -0.17525882248370941
000360 f5 93 18 0e 42 03 a9 bf 64 4f 1a 91 8e c4 aa 3f
       -0.048852981777862604 0.052280860150090175
000370 13 0e b4 6b c2 8a b1 3f 4e 9b 80 da 8b db c5 bf
       0.06852355126834934 -0.17076252144871734
000380 a9 bf d2 16 78 06 cc 3f 85 1a 39 22 2a b5 ca 3f
       0.21894742121139402 0.20865370436714073
000390 15 17 56 31 bd ea c4 3f 5e cc 33 8e 0a ad b2 3f
       0.16341366681097527 0.07295289966332194
0003a0 8f 40 9f 7b 82 50 bb 3f 31 b0 ed 8f 7b 12 b2 bf
       0.10669723051182899 -0.07059452308539062
0003b0 c3 01 16 49 47 fc a0 bf 06 91 e1 4d 7e 70 a7 bf
       -0.03317473189509059 -0.0457801313466764
0003c0 f3 b8 7e 8f 64 ed d0 bf e2 f4 36 80 a0 8d a4 bf
       -0.26448930752930194 -0.04014302792664083
0003d0 a3 d4 4e 83 90 a0 b9 bf 8c c6 6c d8 60 d6 a5 3f
       -0.100106269891358 0.04265120164781164
0003e0 7c 9d 1e 03 aa 0c be 3f 32 42 32 4f 6a aa b6 bf
       0.11738073898469809 -0.08853783067230195
0003f0 6d bd ce b2 09 f7 b7 3f 1b e5 8e 22 09 5a c0 bf
       0.09361324897212393 -0.1277476710072641
000400 08 68 8e f6 27 b9 98 bf cb c0 30 9a 3e 2c be 3f
       -0.02414381449089123 0.11786261810698588
000410 b8 4c 44 38 13 58 c4 bf c0 43 d8 6a 66 e2 91 3f
       -0.15893783805276995 0.017465210219657967
000420 69 53 a1 4b 37 2a ce 3f d2 f5 66 7c f1 c0 ca 3f
       0.2356633300102218 0.20901316236806494
000430 ec 7a 0f 2b 96 7c 8f bf 9a 8a 57 11 26 59 b0 3f
       -0.015374348820782889 0.06386030124080336
000440 34 0d db b2 c3 ba be bf a9 b3 ce 70 6d 76 c7 bf
       -0.12003729931443702 -0.1833016205613636
000450 a3 d4 d7 ae ea 01 cd 3f f9 ab 45 bc f5 3f ca bf
       0.22662099396953747 -0.20507690136886916
000460 01 c0 78 f2 d1 9c ad bf 27 fe 40 50 ee f2 a4 bf
       -0.05783706745967266 -0.04091591577207181
000470 97 ef 71 fc 60 df b1 bf c4 7d 14 a9 e9 1f b0 3f
       -0.06981474078378223 0.06298694971018565
000480 7c 52 07 f5 09 1a b0 3f 9f d0 79 ce 2f 5c bd 3f
       0.06289732200759518 0.11468790808595707
000490 18 ad c1 90 3d e1 af bf 0e ff 8e e6 d4 d6 b2 bf
       -0.06226532356307696 -0.07359057072516981
0004a0 a0 14 d3 f0 44 3b 84 bf 48 bf 45 f8 37 72 b6 3f
       -0.00987867221773292 0.08768033801402197
0004b0 6b 39 f7 17 ce df c7 bf 1f 35 cd 95 c5 64 b4 bf
       -0.18651748819543043 -0.0796626558996718
0004c0 f9 36 af 6d 24 1f 93 bf a1 33 90 68 92 90 c0 bf
       -0.018673485941511612 -0.1294119844973496
0004d0 27 e1 f0 ba 72 12 be bf a9 8b e0 f1 14 40 c1 3f
       -0.11746899665820774 0.13476812181860723
0004e0 d9 27 8e 79 e4 79 93 bf 8e 20 11 4c 4c a2 c4 3f
       -0.019019670409342247 0.16120294298366783
0004f0 66 70 1e 91 59 a0 8d 3f 91 06 04 de a8 93 a3 3f
       0.014465999356439063 0.03823592863228698
000500 51 5c 9b 56 71 c0 bf 3f 8d dc d3 53 06 80 99 bf
       0.12403019298959463 -0.024902438036374753
000510 86 8a 5b 3d 03 0a af bf 23 4d 0c 66 9e 04 c1 3f
       -0.06062326549524237 0.1329534529000763
000520 c7 90 d7 1b 46 ac b4 3f 1d a2 74 e0 7e 6e ca bf
       0.08075369052636737 -0.2064970584845164
000530 6b 1f d5 fd e9 62 bc bf 12 88 91 d6 9d dc c8 3f
       -0.1108843083103445 0.19423268296219526
000540 07 45 b5 e9 fc db b6 3f d8 b8 bf fa b1 82 6d bf
       0.08929424958957465 -0.003602359405696292
000550 84 59 95 08 95 f2 ab bf 9a e7 f8 4a 4c eb c8 3f
       -0.05458513002183721 0.19468072567707112
000560 02 ee 00 80 b5 2e c1 3f 73 a8 88 9c 1b 54 c4 3f
       0.13423794508149461 0.15881676810505815
000570 57 a1 24 25 8c 3e 6a 3f 2b a1 e8 11 26 a2 b8 bf
       0.0032036530693810117 -0.09622419297432276
000580 04 40 26 be 4b a0 ae 3f de f5 ea 23 f1 58 b7 3f
       0.05981671043548434 0.09120089651965865
000590 42 2b 9e aa 1e 24 90 3f 87 8a a5 38 84 de 97 3f
       0.015762786067664132 0.023309770543515042
0005a0 44 ee 63 de 74 d2 c8 bf 2c 25 60 59 c4 53 b2 bf
       -0.1939226232424166 -0.07159068281193431
0005b0 fc 42 1a d8 e1 9b a1 bf ab c9 78 0a 2d f4 c2 bf
       -0.034392411832532915 -0.14807665835685432
0005c0 6c de 74 f0 25 47 c2 bf cd d4 3e 71 0f 2f cb 3f
       -0.1427962707618805 0.2123736670452331
0005d0 54 a0 d5 a0 16 ad b9 3f 8a e2 30 39 73 2d b4 3f
       0.10029736925719251 0.07881851335776893
0005e0 d5 dc 2e b3 e6 e7 c3 3f cd 2a dc f8 11 c6 7f 3f
       0.15551456212208473 0.007757253840973544
0005f0 a1 49 b4 64 b1 a5 a2 bf a7 84 44 bf d4 20 c6 bf
       -0.03642038683223637 -0.17287692393532447
000600 fb 7f 41 29 30 e1 86 3f 04 9e 65 27 fd 9f d0 3f
       0.011171699770954993 0.2597649464355245
000610 9c 50 2b 3e 7d b5 bf bf 8c 3b 86 42 c2 d2 81 3f
       -0.12386305587580398 0.008702771811639719
000620 b8 5a e2 ad 99 83 cf bf 91 c5 4c 7a d1 bd c8 3f
       -0.24620362272681517 0.19329279395746515
000630 81 ed 71 5f 79 8d a0 3f 03 06 52 b9 9b 80 c0 3f
       0.03232936182117908 0.12892481373641837
000640 d9 e1 82 14 a8 8e cb 3f c2 6a 5c f9 29 bc 92 3f
       0.21529103280569364 0.018295913548267213
000650 11 36 87 e9 b0 3a b4 3f 6b d7 21 bd ec 01 b0 bf
       0.07902055455561931 -0.06252936952099979
000660 a8 a7 a3 37 bf ca c7 bf 74 5e 83 51 25 38 c8 3f
       -0.18587484566461154 0.1892134330762364
000670 d9 6f e5 a7 aa bc 95 bf 12 f3 28 07 5c 26 b0 bf
       -0.02122751855618774 -0.06308531927875219
000680 77 f4 fa 44 71 9e bb bf f8 ed 87 c9 71 fd 6c 3f
       -0.10788639005746058 0.003538820496258085
000690 e8 b1 83 70 ce 80 a4 3f 93 2b 2c bc 26 e4 c1 bf
       0.04004521487681584 -0.1397751253901701
0006a0 df 54 5c 9f 0a 03 b5 3f cd c7 0e 4a 7b dc aa 3f
       0.08207765951768263 0.05246339110398388
0006b0 ff 53 08 26 ba 0d bd 3f b5 a4 10 eb aa a8 8c 3f
       0.11349070957687955 0.013993583010306268
0006c0 e8 a1 ae 54 de 60 b2 3f 03 e4 c3 1e 9a 76 bb bf
       0.07179059569774149 -0.10727847338775125
0006d0 27 62 87 e9 1b 38 a4 bf 0c fd b3 bf cf 3c c3 bf
       -0.0394905779427897 -0.15029332027914
0006e0 d7 31 b0 cf fe b9 c2 bf 91 dd cb f2 05 fd b7 3f
       -0.14630112782505364 0.09370457818646673
0006f0 ae 4e a7 63 2a ae a0 3f 0d 56 55 00 5a d5 b0 3f
       0.032578777947177215 0.06575548656595505
000700 87 b1 b1 0d 9e a3 72 bf 35 80 e5 61 7a e9 aa bf
       -0.004550568958716978 -0.05256254620576365
000710 fd 9f 8a ba 9b 37 b4 bf 24 b2 b5 b9 9f 1d bf bf
       -0.07897351555095607 -0.12154577526025229
000720 90 6e 72 df 25 13 b7 3f 0d 2c e5 e4 5e d6 c3 3f
       0.09013592438935292 0.15497957397960285
000730 25 d0 0f 65 c9 5b b5 bf e7 fb 79 32 4f 0b b5 3f
       -0.08343180386856426 0.08220381719910073
000740 f3 fd 9c 21 03 0a b5 3f a1 3e e0 2b 91 46 b7 3f
       0.08218402453075395 0.09092051812353442
000750 83 53 c0 39 ca 20 84 bf f6 fc 3b 88 7d d4 a0 bf
       -0.009828166854313874 -0.03287117279068667
000760 44 99 f8 fb c7 06 b1 3f 26 0b 0c c5 16 f2 a4 3f
       0.06650972272527605 0.0409094920669502
000770 2a a4 3e 05 38 47 c5 3f 34 55 c9 f1 bf 7c 76 bf
       0.16623592620934008 -0.005490064414137397
000780 6c 7e 43 4b e1 87 b0 bf c0 f7 2b 19 4f f3 b8 3f
       -0.06457336509219552 0.0974626003698793
000790 8c f7 e0 4d a9 dc a6 bf c1 33 47 3a 86 2d b2 bf
       -0.04465226245564144 -0.07100714609914772
0007a0 01 af c8 fd 98 78 ac 3f 2a e6 c0 73 59 f3 96 3f
       0.05560758684108969 0.022412679376634305
0007b0 c0 7b 67 cf 8b 10 b0 bf 42 5f 0a 72 09 e8 95 bf
       -0.06275247396068462 -0.02139296301410743
0007c0 00 22 05 6c b8 78 c1 3f 1a a0 e8 57 39 7b a6 bf
       0.1364965941850329 -0.04390887449363863
0007d0 d3 de 20 0f a6 aa ab bf 01 f2 a9 0a 27 dd 93 3f
       -0.054036321017006415 0.019398317361707388
0007e0 f1 bf d2 5f b0 81 b5 bf 4e e7 9f 27 49 84 bf bf
       -0.08401014651712992 -0.12311227052114512
0007f0 b4 2d 0d 00 47 83 b8 bf e5 82 43 94 76 3d 78 3f
       -0.09575313330895235 0.005917990875077027
