model2_DGM_state_dict_5000_30.pt (torch, 168968 bytes, 8 tensors)

layer1.weight f8 [100, 3]
000000 03 c0 c1 4c 28 01 ca bf 8c ab f1 39 eb 26 d6 3f
       -0.20316032169239415 0.34612541826816634
000010 1e 5a 62 c8 6c 85 c7 bf 69 b3 fc e9 65 07 e6 3f
       -0.18375930580505523 0.6884030885754387
000020 9d 9c 9c 2a a3 f5 dc bf 32 09 03 48 3f 87 be bf
       -0.452492515194942 -0.11925120838262585
000030 6b c9 42 02 f4 26 e3 bf 75 65 ac 25 5e c2 d6 3f
       -0.5985050243528297 0.35561326674504495
000040 4d 62 d6 94 bb 28 61 3f af 42 bb 24 02 ca ec bf
       0.0020946181964059175 -0.8996592252170411
000050 99 af 38 81 11 51 a7 3f bb 44 8e f4 38 4d be bf
       0.04554037763986613 -0.1183658215579894
000060 64 dd 2f d0 aa 9e e3 3f 2d 20 dd c6 8c c7 b8 3f
       0.6131185594703479 0.09679488997528614
000070 13 fe ec b4 a9 8f b7 bf 00 81 72 06 61 63 e3 bf
       -0.0920358721459638 -0.6058812261508422
000080 54 55 e6 06 bd d4 ce 3f 50 81 cd 42 87 7a b1 bf
       0.24086726033116668 -0.06827588444639798
000090 03 60 20 bc 39 fa c6 bf 3b 07 37 16 a5 94 d2 bf
       -0.17951127706396627 -0.29032256287984
0000a0 6b c7 ed ac b5 e7 d0 bf 2f 16 30 d0 77 cf de 3f
       -0.2641424359090851 0.48141284304469684
0000b0 bd 49 d3 1b da f7 da 3f 25 21 3a ea 85 ca d5 bf
       0.42137768475836507 -0.34048602937447675
0000c0 a5 4c c0 d4 c1 5c 8d bf cf 7a 3c e2 a1 37 99 bf
       -0.014337076478147923 -0.024626283105244447
0000d0 31 5e 84 28 98 c4 d2 3f 77 f7 bf 15 8e ce d6 3f
       0.29324916798347817 0.35635711788187713
0000e0 e5 09 0e 3d ef bb c6 3f 3d cb 66 22 2a cb c6 3f
       0.17761030656045232 0.17807509116900092
0000f0 c1 61 8d 4f aa ba dd 3f 56 77 f0 4f 85 e6 85 bf
       0.46451814430977484 -0.010693589689306709
000100 ce f9 95 10 97 7a d9 3f 4f 91 06 b5 40 e8 b7 3f
       0.3981073057147143 0.09338764590808533
000110 86 a3 da 28 b8 31 dd 3f c2 05 75 b7 5c 4f e2 bf
       0.45615962972311086 -0.5721877654215677
000120 34 f5 cb ea 56 a2 d2 bf 87 f1 50 fb 8c 76 db 3f
       -0.29115841798177944 0.42911076109501106
000130 22 a1 48 11 ce e8 c2 3f 9a 49 35 c3 52 ea d2 3f
       0.1477296432870015 0.2955519586877472
000140 cc f2 aa b1 b4 2b dd 3f b8 8d 8f 50 0d a3 d4 bf
       0.45579259252899074 -0.3224519049383292
000150 29 4c 3e 09 00 96 d3 bf 1a 30 df af ec ea c1 bf
       -0.30603028204604016 -0.13998182857028568
000160 21 40 c9 d2 80 17 bc 3f 1f 1f 3d 1b 9d 6a cd 3f
       0.10973363062044018 0.2298160918237437
000170 9b cf fa 9e b4 75 ce bf 6d 5d ce dc fa e0 d9 3f
       -0.23796708834345 0.4043566852864931
000180 f2 45 63 c4 81 d6 dc bf d2 5c 22 39 dd ba bf 3f
       -0.4505924623345826 0.12394507069471963
000190 6d eb 2c a4 9b 22 b5 3f d1 4e 9c 23 2c df db 3f
       0.08255932577314491 0.4354963634261653
0001a0 a3 87 9a 80 6f 22 da 3f 8a 95 d4 d5 69 cc d4 3f
       0.4083517795462461 0.32497640497089064
0001b0 34 c7 8e ac a8 0e de 3f c4 de 16 20 43 d7 d1 bf
       0.46964470721569573 -0.2787635625240734
0001c0 53 35 99 e0 df 36 b4 3f 80 61 67 70 ad 67 d4 bf
       0.07896231873856623 -0.3188279721921603
0001d0 96 63 b8 71 a2 de a4 bf f8 cf e8 83 69 be bb 3f
       -0.040761066800946086 0.10837420912213236
0001e0 d4 8c 0a 7a b2 03 df 3f 8b 4d 38 74 f1 a3 a0 3f
       0.48460065763556526 0.03250078719807011
0001f0 88 7a b5 94 4d fe bd 3f 8c 15 62 04 f7 cb c3 3f
       0.11716160660351183 0.15466201509495325
000200 96 19 f4 e8 9d e7 a5 bf 2e ae b0 76 bb 1e c8 bf
       -0.042782721220692085 -0.18843787475030765
000210 9a fe d9 26 1a 4a d5 3f 5b 91 25 37 52 81 97 3f
       0.332647836628874 0.0229542585524468
000220 df bd 4e 55 46 7d c7 3f 55 71 49 17 0e f5 e0 bf
       0.18351058164033326 -0.5299139456579193
000230 84 7e e2 ee dc c3 ba 3f 8c 79 8e 25 4e ac d9 3f
       0.10455113250872655 0.40114167850142546
000240 2c 16 1e 25 32 f8 ca bf 35 ee 5c 86 bb 2b ac 3f
       -0.2106993371236724 0.05502115264104327
000250 7a 64 0e 29 7d 89 96 bf 85 c7 76 75 ab 03 cc 3f
       -0.022008853560326426 0.21886199222131722
000260 12 4d 73 9f 56 4d dc 3f 2b 17 b7 14 e7 7d df 3f
       0.4422203595288049 0.4920594885155533
000270 3b f2 7c 76 05 e7 b7 bf 4c b4 4e bf 7a f4 c3 3f
       -0.09336885588431525 0.15589842168029333
000280 4a b7 80 d3 88 ac d4 bf 3e c9 14 11 6f 0b 80 3f
       -0.32303066877908704 0.00783430834653542
000290 d6 65 37 6b 53 05 c5 3f e1 e0 af 73 a6 a4 d5 bf
       0.16422503218818346 -0.33817445085106895
0002a0 7c 35 0c 1a df 31 d9 bf c6 3f 1c f5 0e 5e cf bf
       -0.3936689142581924 -0.24505793541220394
0002b0 b7 4c 17 2b 08 67 9a bf cc 6a b8 5f ef 1f d3 bf
       -0.025783660535876076 -0.29882416103070564
0002c0 90 85 3c f1 7f b9 c8 3f 6d a7 ef 39 b8 4c e0 bf
       0.19316100386735657 -0.5093651897015953
0002d0 99 a7 78 17 17 04 d4 3f f5 38 cf 50 d2 46 c9 bf
       0.3127496461116777 -0.19747380204939416
0002e0 1e d6 e6 bf 57 9c c9 3f 78 20 75 c2 b4 c7 d7 bf
       0.20008370275688575 -0.3715640925406727
0002f0 25 6d f6 61 9f f0 e0 3f ce 8c db 84 f1 15 d4 3f
       0.5293728745777214 0.31383932089211164
000300 de 48 94 5e c8 4d e1 bf 21 28 4c 42 1e fa d0 3f
       -0.5407449576616974 0.2652660033642196
000310 44 93 72 b5 f6 d9 d7 bf 28 78 44 59 71 1c d9 bf
       -0.37267844886291734 -0.3923610088112377
000320 cd 25 a5 4d 08 d3 d3 3f b9 08 c1 e0 f4 b8 a0 bf
       0.30975539763002474 -0.03266110652522642
000330 7c 97 85 ed 8d d9 ea 3f e2 c1 cb 05 aa df 85 3f
       0.8390569342707148 0.010680511762502346
000340 3c d1 99 b8 ac d9 d4 bf 07 df a1 0c 0d d6 da bf
       -0.32578580882479335 -0.4193146346437832
000350 07 48 ea 5f 08 01 db 3f 6f 81 3d 7d 88 83 c5 bf
       0.421938031832838 -0.16807657351729285
000360 6c 4f a1 6d 87 6f d5 3f 8e 3d 13 18 31 86 81 bf
       0.3349321909529326 -0.008556731745925441
000370 1d d5 82 0f e1 5e e2 bf 4f 78 30 8d 84 11 ca 3f
       -0.5740819266272045 0.20365960020075355
000380 f2 27 77 7c 98 86 cc 3f 0e 0b e3 6d 2e b1 ce 3f
       0.2228575332395049 0.2397821461255138
000390 9f 45 d5 4f 5b 4f e1 bf f8 63 12 fd 3f 19 d3 3f
       -0.540937095569621 0.29841613496824904
0003a0 a8 d1 5f 14 05 7f c5 bf 59 d1 70 6c 1b 55 d2 3f
       -0.1679388379558422 0.28644452657615244
0003b0 50 86 01 7f 19 39 91 3f 2e 6c 28 3b d7 54 ca bf
       0.016819380165890074 -0.2057141341072976
0003c0 cd 8e b9 99 ff c0 d2 bf 3d 84 d7 23 0d 1b dc 3f
       -0.2930296899050802 0.4391510820406131
0003d0 a7 bd 0a 3f 56 d0 dc bf 7f 6b 56 1d b0 10 8a 3f
       -0.45021587521019985 0.012727142234145948
0003e0 89 03 e0 1e 95 3b e0 bf 75 ab 57 ac c7 99 db 3f
       -0.5072732546833417 0.43126098470991475
0003f0 5b 14 aa 05 6e 35 b6 3f 13 ac a4 47 1d 2f da 3f
       0.08675277365007743 0.4091256332055206
000400 e0 bd 7e 22 a2 64 db 3f 30 5b 94 db b0 bf bb 3f
       0.4280171715608656 0.10839372025325811
000410 97 61 97 77 d2 e1 aa bf 65 5e 10 60 ce 64 b7 bf
       -0.05250413617949617 -0.0913819298297028
000420 ee d2 75 d5 d6 99 ad bf 2e 03 8b 75 ab a8 da bf
       -0.05781432491031589 -0.41654478529749184
000430 8f 67 95 79 9a 9d d3 bf 68 99 12 8e f8 9e c7 3f
       -0.30649434922599367 0.18453890740529322
000440 26 c5 e6 63 d0 f8 d7 3f a8 3c a5 68 18 46 d5 bf
       0.3745614028549248 -0.3324032804420747
000450 a2 62 7d 51 b8 d2 de 3f 32 68 9d a8 f3 9c ab bf
       0.48161132772433224 -0.0539318221405697
000460 7a 08 8f 56 39 6a d2 3f 64 c9 45 bb 77 15 cb bf
       0.28773339703560163 -0.2115926422516835
000470 6d 92 c1 d9 b2 90 c7 3f 51 34 68 03 47 1c d2 bf
       0.18410335190414476 -0.2829759152671772
000480 60 5e 63 13 20 38 e5 bf de 0f a1 5a 79 9b de 3f
       -0.6631012324023224 0.4782393822717931
000490 52 87 9d 2d d6 99 cc bf f9 4e 93 3a 36 7c b8 bf
       -0.22344472148238964 -0.09564532213272149
0004a0 51 03 97 d3 52 a9 e4 bf 84 8d ef ab 5b 73 c6 bf
       -0.645669377576363 -0.17539544959354825
0004b0 8f 8c fa 8b 3d ea 92 bf 51 76 ed 9a d8 87 e8 bf
       -0.0184716812788222 -0.7665827775887896
0004c0 8b d4 c4 79 ac da cb bf 23 c3 c6 6b 9d 2d e3 3f
       -0.21761089273210063 0.5993182282455546
0004d0 d1 fc c5 85 31 cc d4 bf e8 21 45 b9 69 93 a8 bf
       -0.32496297897155296 -0.04799967180821679
0004e0 d0 77 c2 45 8e 97 df 3f 9f 36 44 4b 90 0d bb 3f
       0.4936252290007106 0.10567571485099812
0004f0 a5 39 6f 3f 7e c8 d0 bf 75 38 c9 fd 48 47 db 3f
       -0.2622371310689238 0.42622589858809273
000500 ab 6f 78 2d 39 8d cf bf a0 14 b3 57 6f 4a e4 3f
       -0.2464972946189595 0.6340862954026711
000510 62 f8 6a 4b 8e 78 be bf 90 19 f6 00 a1 9f 94 bf
       -0.11902703610664525 -0.020140186008143213
000520 a6 f3 17 0d 3a c2 ca 3f 56 b8 ec ac d3 76 e2 3f
       0.20905233039220866 0.5770052316127117
000530 d4 a5 f4 2f ce e6 cf 3f ce b5 37 2f 9a 1e de 3f
       0.24923112241348966 0.4706178151235151
000540 3d 81 40 15 ec 15 d8 bf bc 1c 5a 37 36 97 b1 bf
       -0.37633802485835927 -0.06871355868689738
000550 40 f5 f9 8d c9 c2 d1 3f 84 ce 99 40 4b 7a d4 bf
       0.27751387467272437 -0.3199642306201229
000560 fd 96 7b a2 b2 72 d5 bf 5f 59 f2 bc 6a 36 db bf
       -0.33512559764345423 -0.4251963467771897
000570 ed 4c b8 f0 15 50 e0 bf 24 92 87 6e d8 0b d1 3f
       -0.5097760869561206 0.26634798807052307
000580 1e 9a dd 5f 77 8a de bf 08 3f d9 93 b5 a7 de 3f
       -0.4772013126552411 0.478986162551323
000590 c5 49 cb e7 9b 80 d3 bf 04 35 c9 2f 8f f9 c1 bf
       -0.3047246707548335 -0.14042844613360483
0005a0 d4 cf 33 fb 2a 1c b7 bf 64 f8 6d 75 8c 77 d8 3f
       -0.09027355797644471 0.382296671559635
0005b0 3c 24 24 bd 1b f0 e6 bf 33 f8 75 18 ea 3b b7 bf
       -0.716810101906169 -0.09075797173679305
0005c0 7e 87 bb f0 c5 62 b6 3f 5e 44 3e 57 23 24 b9 3f
       0.0874446594930571 0.0982076728817147
0005d0 95 58 43 36 38 c3 d3 bf 25 91 a1 43 ce a7 c7 3f
       -0.3087902574456021 0.18480852415371732
0005e0 39 15 f8 a7 36 f5 a6 bf 0d 90 d4 46 68 ca e2 bf
       -0.04483958053973897 -0.5872079261212108
0005f0 03 aa 5b 94 21 9a d7 3f 03 5e 10 17 fb b1 d3 bf
       0.3687824200448235 -0.30773808719956736
000600 de 52 51 c5 5e 9a e4 bf 00 05 88 cd 18 6f b8 3f
       -0.6438440183506733 0.0954452039514031
000610 16 fe 26 78 a8 6d b9 3f 5d 52 59 c1 db 5d e4 bf
       0.0993294995632755 -0.6364573265405614
000620 92 bc 85 92 f8 63 cc bf de 25 8a cd ba 0c c9 3f
       -0.221800872367997 0.19570097957720994
000630 d8 eb 7f a1 c8 60 a8 3f 24 56 87 22 d6 59 bf bf
       0.04761340114051621 -0.12246454565987414
000640 6c d4 93 5e b8 ed d9 3f ee 7e a0 26 6f 6f df bf
       0.4051342891319283 -0.4911764027801685
000650 d1 75 a4 76 e7 98 cd 3f b5 91 80 8a ec 54 cd bf
       0.23122876446806953 -0.2291541744499576
000660 cf d6 60 d6 f7 5e e3 bf de 64 a8 3b 45 fa d2 bf
       -0.6053427874637353 -0.29652529550510376
000670 57 d7 df 31 76 d5 e3 bf c8 3b cc a3 57 a2 df bf
       -0.6198073362454392 -0.4942835902774587
000680 48 e8 f9 0a 6f 01 a2 bf e3 b8 22 60 47 fd b6 3f
       -0.03516718873011421 0.08980222794591301
000690 66 47 8f 19 84 f0 e0 bf 37 3f 77 04 e5 8d 9c 3f
       -0.5293598651135027 0.027885034940310773
0006a0 f4 f0 18 ba cc 0e d4 3f 6a 52 73 a2 96 0f db 3f
       0.31340330289437124 0.42282644142441106
0006b0 91 cf 61 9e 1c 67 d9 3f 45 84 22 d8 48 56 de bf
       0.3969184443187653 -0.47401639086644237
0006c0 52 9e 84 83 7d 74 ba bf f6 53 1e 32 e4 0c a2 bf
       -0.10334000073327701 -0.03525460349843705
0006d0 20 f6 da a4 16 7d 92 3f 5c 59 f6 ee 46 0c 98 bf
       0.018055299579591844 -0.023484333357907658
0006e0 4e 59 38 e4 ed f5 99 bf d0 f2 8e 37 49 05 d9 bf
       -0.02535220818944 -0.3909476320803096
0006f0 e4 41 c6 ec 17 df cf 3f 83 25 30 d0 8b 98 c7 bf
       0.24899577199222656 -0.18434283891137335
000700 ae a0 30 7c b3 47 c2 3f db c0 c3 ad 31 77 d3 3f
       0.1428131443401574 0.3041500279350779
000710 b6 30 96 db 1c d8 d4 3f ef 83 fd ba 40 a2 e0 bf
       0.32569047397624773 -0.5198062564996898
000720 07 69 ef 52 cc ad df 3f 27 ad 24 f7 81 2b d1 bf
       0.4949827966608073 -0.2682804978855579
000730 76 2e 09 90 95 b5 c0 3f a6 7c a9 de 92 55 dd bf
       0.13054151089669447 -0.45834800476400017
000740 31 bb ec 9a b5 c8 a2 bf 92 5f f8 d0 ff 7b cd 3f
       -0.03668754116221463 0.23034665778754665
000750 ee ab 4e 04 07 ae e6 3f b8 90 19 2a ea 57 a0 3f
       0.7087435802580992 0.03192073596872674
000760 97 10 dd cf a3 a9 d3 bf b1 25 59 5d 8f 40 e8 3f
       -0.3072289972226456 0.7578808615882534
000770 2c f7 d2 27 e3 c2 be 3f 3c 32 0d f0 70 45 cb bf
       0.12016124460475613 -0.21305667611376744
000780 dd a2 67 1a 0e 9e db bf 9c 0d 9d d4 3e 64 b9 bf
       -0.4315219171390206 -0.09918587389716155
000790 f7 11 31 d9 5d ba ca 3f f9 e0 b8 1f 46 3e dc bf
       0.2088124571329357 -0.4413008985316221
0007a0 7f 82 e2 4d f2 da d8 3f ff 21 3e 03 52 3f d0 bf
       0.3883634338945185 -0.25386476818724185
0007b0 a5 b2 5b ad d5 77 bf bf 5c fb bd 1e 76 e4 ca bf
       -0.1229222820508747 -0.21009708882408062
0007c0 bd 19 aa cb 75 b8 d5 bf b8 70 7a 65 c0 78 e9 bf
       -0.3393835534010597 -0.7959901792524056
0007d0 87 34 12 d7 7d e1 bd bf 11 f2 a3 14 38 cf d5 3f
       -0.11672197819480533 0.3407726480070617
0007e0 c6 ef a3 60 8e 29 d2 3f 40 75 55 c0 d5 f8 d1 3f
       0.2837863868478475 0.2808126810321774
0007f0 18 7b ab ba f9 60 cd 3f 06 3e 4f 34 4d 7b cd bf
       0.2295219575380194 -0.23032536558319822

layer1.bias f8 [100]
000000 da 86 b4 ff 7b 40 94 3f 65 73 f0 6f 20 14 dc bf
       0.01977723835182741 -0.4387284367710918
000010 00 63 46 2f bf 6b e2 3f ca 20 7c db cb ac e2 bf
       0.5756526873911696 -0.5835933005155536
000020 90 98 50 a4 80 a3 cc bf 5f 5f 31 f6 56 67 e2 3f
       -0.2237397005384918 0.5751147087530447
000030 39 15 23 a1 4d 79 cb bf cf da 24 45 00 46 b0 bf
       -0.2146393811037031 -0.06356813133320859
000040 66 0e 07 7e bb 49 ee bf 17 66 1b 10 78 07 dc bf
       -0.9465005361057137 -0.4379558713240796
000050 d5 b3 71 7c ce 2c dc bf 3a d0 72 31 36 46 e7 bf
       -0.44023477699994135 -0.7273207631865326
000060 33 53 11 7f 16 d9 b8 bf 9a 83 0d fd d5 bf be 3f
       -0.0970624981139963 0.12011468341871848
000070 10 91 6d 6e 5d 6d e3 3f bf 73 80 73 c6 c3 e0 bf
       0.6071002156063816 -0.5238983398336287
000080 28 08 b2 15 de 01 d7 bf 4d a2 01 55 00 69 dd bf
       -0.35948898428626075 -0.45953377057461325
000090 3c f4 01 34 56 9f e8 bf da 1c 9a fc e2 36 db bf
       -0.7694502845548707 -0.4252250162903245
0000a0 20 cd 38 12 e0 66 ee bf d5 ee 41 7e fa 81 e7 3f
       -0.9500580173393338 0.7346165147750648
0000b0 bd 66 da 86 74 ab e9 3f f9 d8 c4 29 19 3b e6 bf
       0.8021795877313803 -0.6947141471671606
0000c0 48 38 59 7a 57 fd d7 bf 78 13 d9 00 66 aa e3 bf
       -0.37483775089356586 -0.6145505920945729
0000d0 33 5d 3a 39 34 ac c3 3f 78 91 ee 01 d1 4d d3 bf
       0.15369274896941362 -0.301624538313511
0000e0 1e 48 67 52 51 d6 e6 3f ae 59 1d 07 b0 bd e6 bf
       0.71366182417319 -0.7106552256544114
0000f0 3a 61 24 0d 7b 50 de 3f 66 b8 32 6e 83 03 d1 bf
       0.47366215022477187 -0.2658394409326149
000100 c0 f6 d2 02 0e f3 c8 bf 4a d0 41 91 d6 7e c4 3f
       -0.19491744172949232 0.16012079327231482
000110 4d eb 28 2b ca c1 d2 3f 10 98 b5 4e 0f 4e d9 3f
       0.2930779859049622 0.39538939176998245
000120 5b ff bf 2e ba 74 e5 3f dc 68 fe aa 72 28 e0 bf
       0.6704989350400682 -0.504937490436784
000130 bd 75 9b 4a db 8d c3 3f 50 de fb b1 70 aa ea bf
       0.15276662009175182 -0.833305690407494
000140 b2 8b 45 0b 5f 41 dd bf dc 58 fc cc 2d 75 d5 3f
       -0.4571149454188187 0.3352770330251482
000150 c9 7b e1 ab 94 2b d3 bf 02 00 b4 31 30 25 e2 bf
       -0.2995349577449216 -0.5670395823253787
000160 ee 6d 06 71 34 c9 e7 3f 1b f1 02 e7 61 23 d1 bf
       0.7433111388704086 -0.26778457221713986
000170 04 4f 01 9d 87 34 f0 bf 4a cf 01 80 55 ae de 3f
       -1.0128246434223351 0.4793905019825969
000180 7f 5a 0d 9a 16 ee 86 bf f6 94 01 a4 31 9c d0 bf
       -0.011196304870890515 -0.25953331962803305
000190 34 c3 23 ac c8 2e e7 bf 51 d2 72 63 08 6b d9 bf
       -0.7244609224418128 -0.39715776168603606
0001a0 d4 9f 54 b2 29 c7 da bf dc 85 90 85 b8 ab ec bf
       -0.41840593733877296 -0.8959620102579566
0001b0 67 57 45 23 88 18 e6 bf 49 19 10 9e e1 37 e2 3f
       -0.690494603050621 0.5693214499631633
0001c0 95 67 5d c3 5f 36 cb 3f 57 f9 73 87 fd 7e d2 bf
       0.21259686507511036 -0.28900087573847116
0001d0 69 00 ab e5 48 7d e1 bf 51 7c 44 fc ab 0c ca bf
       -0.5465435491278302 -0.20351171319723219
0001e0 2b 9e ba 00 4c 55 e5 bf a5 ed d5 a8 b6 55 e3 bf
       -0.666662217544347 -0.6042130754062113
0001f0 7c ae 2f 51 25 4c e4 bf 7b ef 3a fc 6d ce a4 bf
       -0.6342951379460398 -0.04063743309003961
000200 c9 31 1c 46 c1 55 d6 3f b2 b1 66 fa 73 f6 ed bf
       0.3489840683621677 -0.9363345995566787
000210 f7 de d4 6a dd 65 e5 bf 11 07 58 80 89 53 c5 3f
       -0.6686846815636888 0.1666118504218095
000220 32 7e 45 1c 52 7f e5 3f 0a f7 fe 05 a0 2c d5 bf
       0.6717920829941646 -0.3308486994318264
000230 df f3 83 6b 3b 82 e9 bf 41 61 98 89 d3 55 e5 bf
       -0.7971474742804466 -0.666726845493976
000240 9b 31 01 7b de d6 c4 bf e8 e6 71 c7 c9 6d d1 3f
       -0.16280728345954007 0.27232593991321474
000250 90 19 20 4c f3 42 c9 3f ee e4 b0 fe 8c 10 e2 bf
       0.19735566346225797 -0.5645203566010915
000260 bc 1d 53 a5 c8 ca e7 3f c9 7c b7 66 55 9d e7 bf
       0.7435038784978398 -0.7379557615457993
000270 b3 26 21 99 98 f4 dc 3f 80 09 17 0b f8 60 cb 3f
       0.4524289603619806 0.213896756567987
000280 2e 4a 55 e6 a2 6c cf 3f 36 c0 17 a7 63 17 bd bf
       0.24550281759964449 -0.113638141912589
000290 f7 60 06 ce 2f 0d df 3f b6 59 b8 95 22 a8 e5 bf
       0.48517985458012397 -0.6767743038388321
0002a0 0a 60 c0 61 b2 9d e1 bf 23 ca 7c ac 08 3b d2 bf
       -0.5505000981529531 -0.28485314220884755
0002b0 cd 43 7c 40 ab 6b e9 bf 40 f7 b7 7d fe 7c d7 3f
       -0.794393182704988 0.3670040347786774
0002c0 e3 a8 0f 2e 5f 31 d5 3f d1 94 cc 47 cb 7a a2 bf
       0.3311384153190728 -0.03609309436277786
0002d0 46 62 be ee 3e 85 65 bf f3 dc c2 cf d6 f7 de bf
       -0.0026270131256292155 -0.48387689866235845
0002e0 ce ee 23 e6 05 6e e8 bf 34 57 42 0e 2f 41 da 3f
       -0.7634305472306211 0.41022850410932965
0002f0 ef a3 22 c7 76 96 dc bf 6b 22 2f 69 91 2a ea 3f
       -0.44668359228904725 0.8176962904336283
000300 e6 1e a9 08 94 5d ed bf ac 28 98 db 30 2d b8 bf
       -0.9176731270935903 -0.09443955765906037
000310 56 a4 fa 6e 97 91 e6 3f 48 1e 8a 5a 55 02 e7 3f
       0.7052724044380152 0.7190348404264535

layer2.weight f8 [100, 100]
000000 b8 df d3 3a b2 3b c8 bf 5a c6 25 1a 34 9a 9f bf
       -0.18932178375666608 -0.03086167726127651
000010 2a 2c 99 9c c1 7f bb bf ad ba 57 a1 d8 aa cb 3f
       -0.10741815636826915 0.21615131261883871
000020 9c bb b7 0f 0f d1 86 bf 17 e6 4f ee c2 15 c3 bf
       -0.01114093558041223 -0.14910160671551928
000030 be 0d 2c 51 89 88 c3 bf 2b d3 fe 5a 3f d2 56 3f
       -0.1526042600963659 0.0013929003434729008
000040 c5 1f 7c 91 0f a1 9f 3f 84 d4 bf db df 70 a1 3f
       0.030887835745516918 0.034064288687582184
000050 3d f1 10 f2 da 0a 9e 3f 31 02 00 6d dc a4 c6 bf
       0.02933828451590269 -0.17690615961329706
000060 bd e1 07 8d 9d 2f ba 3f c5 f8 aa e0 19 87 a9 bf
       0.10228905385145644 -0.049858864474559485
000070 71 d5 92 0e 0f dd af bf 7b 0d 80 83 89 f0 bd bf
       -0.06223341992282883 -0.11695155582861176
000080 c4 a8 d4 38 6e 6e 85 3f 19 74 42 1f 9a 54 ae bf
       0.010464535817466099 -0.05923921233736724
000090 c8 b7 4b 38 f8 9b b0 bf 85 15 18 55 bb 3d c3 bf
       -0.06487990736397287 -0.15032140402778907
0000a0 be e1 4f 92 10 ea 99 3f 7e 52 91 9f 7c bd cc bf
       0.025306948595216865 -0.22453267852201358
0000b0 39 c3 4a 37 be 8c b0 bf 1a 58 30 1c fb 45 b1 3f
       -0.0646475682249389 0.06747407377437789
0000c0 88 ae ef b8 fb 8e 9a 3f 5c 41 b4 fd 90 d9 a5 3f
       0.025936062967885337 0.042675524682752125
0000d0 74 cd 39 b2 79 16 c2 bf 76 62 eb 20 50 db 7e bf
       -0.141310894035637 -0.007533371927558199
0000e0 87 21 52 1c 55 62 cc bf f2 7d 86 4d c9 0d 95 bf
       -0.22175086863377322 -0.020560403210422913
0000f0 7b a7 83 91 d8 16 c4 bf eb ec 75 be 8d 50 a3 3f
       -0.15694720368565726 0.0377239508624941
000100 22 e5 54 f4 ce 30 c2 bf 1f 42 0b 17 b9 bc 91 bf
       -0.14211451463942476 -0.0173214836420944
000110 19 8b a4 c4 ce ba c6 bf 38 23 01 14 e0 f5 b1 bf
       -0.17757591821381238 -0.07015800941838968
000120 13 e7 04 f9 ea 21 cb bf ef 6f 6e 02 72 4a be 3f
       -0.21197259101045826 0.11832344588623277
000130 f2 64 4f 7c 53 0c ac bf ed bf 9f b4 85 0e aa 3f
       -0.05478154079873744 0.05089204625971875
000140 1b 6b be 87 89 63 92 3f fb ca 30 75 12 50 b1 bf
       0.017957829389710783 -0.06762805329416814
000150 94 22 b4 23 86 e9 a2 bf 2f c2 ac ef 2f 55 82 3f
       -0.03693789659343341 0.008951544286532968
000160 f6 3d 99 9f fb 84 af bf 6d e5 2e 1b d3 68 b9 bf
       -0.06156145404076689 -0.09925574697162683
000170 22 48 e1 ba b8 50 87 3f 76 4b d5 34 f7 ef bc bf
       0.01138443298637887 -0.11303658523438095
000180 60 73 3d b9 33 b8 b3 bf fe a3 d1 19 c0 d2 b7 bf
       -0.07702945015394169 -0.09305954580635498
000190 35 83 8b cc 3e b6 1e bf a7 0f c6 1b b1 ce c9 bf
       -0.00011715658468914872 -0.20162023407112636
0001a0 f2 87 eb 60 d2 a0 a8 bf b4 39 39 a9 d5 a2 ae 3f
       -0.048101972895679426 0.05983607950894357
0001b0 9b 1c 6e 5f 6a 2f b6 3f f8 01 d9 76 a7 ab b8 bf
       0.08666100339734088 -0.09636923457674829
0001c0 bc c2 7e a2 5d fa 84 bf ad bb 26 e8 83 3a b7 bf
       -0.010243159791430194 -0.09073662202602746
0001d0 b9 28 2d 7f 3c 04 64 bf f2 ea e3 5b b9 55 c6 bf
       -0.0024434262826718814 -0.17449109064894902
0001e0 25 94 41 88 7d 43 92 bf 9f b1 3d b1 b8 44 c9 3f
       -0.017835580293098858 0.19740971235604562
0001f0 38 b9 1a 51 48 c8 b4 3f 22 89 d6 17 82 29 c2 bf
       0.08118106823051086 -0.14189172901121433
000200 de 39 74 ec 46 8d b7 bf a7 3a 6b 2f 3b fe b6 bf
       -0.09199946663668565 -0.08981676013648131
000210 fd a1 82 ca 1b b5 c4 bf a0 b6 40 34 3a 18 c8 bf
       -0.16177699459264253 -0.18823936034589384
000220 1b 36 57 f4 4c fd ad bf 79 6b d5 26 7c 89 b4 bf
       -0.05857315523790537 -0.0802228541191833
000230 f4 cf 43 d0 75 6f b0 3f 11 7e 58 88 a2 b7 ab bf
       0.06420074781982504 -0.05413539804817103
000240 d6 e5 3e 81 8d 7c b1 3f ad ad 87 8e 14 6a c0 bf
       0.06830677419102157 -0.12823731383774142
000250 a3 c3 93 35 6f 3b c2 bf 27 29 79 17 d9 cb 99 bf
       -0.1424387942893449 -0.025191680963225906
000260 ad 8d 85 e3 e7 c4 c6 bf bd 16 08 db 3f 74 b1 3f
       -0.1778840886064307 0.06818007562113855
000270 96 a5 20 23 2b 6c c4 bf 34 cc 57 bb b3 fa c0 bf
       -0.15955104079447996 -0.13265082023244334
000280 8c ff 26 0e 24 5b a6 bf d6 75 e0 cb c6 03 c8 bf
       -0.043664099433498554 -0.18761525111123828
000290 99 5c 10 7a fe c5 ca bf 3e a4 d5 13 d7 b1 bd bf
       -0.20916729889060973 -0.11599487528077732
0002a0 f7 f8 4f 7b 90 06 88 bf 85 e1 06 2e 0c 77 ae bf
       -0.011731270564265801 -0.059502010935321294
0002b0 9d ee e3 a1 9c df ac 3f 2b 51 1c d9 c0 de c6 bf
       0.056393522989279556 -0.17867289162735153
0002c0 46 85 c9 26 24 5c c6 bf 85 a0 f8 17 7a 79 55 3f
       -0.17468692678361658 0.0013107006378821073
0002d0 45 48 3a 55 55 d2 af 3f c7 79 00 cd 5b b0 95 bf
       0.06215159097077153 -0.021180567157097287
0002e0 92 6f fe 96 43 3b 57 bf 01 f0 fd 08 03 fb c4 bf
       -0.001417938237842063 -0.1639102739244436
0002f0 37 b4 49 bb 7d 2a c2 3f 85 20 d9 b8 c8 04 bb bf
       0.1419217266551713 -0.1055417491235194
000300 1d d1 3e 14 50 1a a2 3f 4a 3a c0 10 24 19 a4 bf
       0.03535700080047575 -0.03925430969694739
000310 7e 1f af 77 8c 43 b2 bf d4 97 86 0a ee 27 b4 bf
       -0.0713432113835761 -0.07873428112961217
000320 3d 8f e3 4c bf a0 93 3f ba 09 3d c5 b5 09 da 3f
       0.0191678896598113 0.4068426538616695
000330 68 9f b8 d4 11 d1 af 3f ce b9 26 4c 46 58 c8 3f
       0.06214194986051674 0.1901939269859682
000340 75 ff 31 19 61 c4 b6 bf 0d f2 02 69 18 30 ab bf
       -0.08893401017303211 -0.05310131341818556
000350 8c 54 a8 00 ee bd de 3f 1d 85 98 d9 d9 5c ae 3f
       0.4803423887654581 0.05930214673231602
000360 1f 1e 6f 2d e6 36 c9 bf 1a 8d 0a 2c e1 99 b5 3f
       -0.19698788851222646 0.08437926602578152
000370 e9 f9 84 d7 42 45 c3 bf 2b 4e a4 b7 f5 2f ca 3f
       -0.15055118106279444 0.2045886179627002
000380 38 77 b0 71 d4 7f b0 bf 7a 70 fb 56 91 8a 9c bf
       -0.06445052886598723 -0.027872343954058888
000390 f2 5f bb 09 61 bc c0 bf e1 94 3a b2 3f 44 c4 bf
       -0.13074887252037076 -0.15833278849201007
0003a0 88 e5 3c bf 3d 25 b5 bf a6 0b f9 07 df 50 aa 3f
       -0.08259950560468188 0.05139824840855249
0003b0 81 c9 8e 30 8f a2 cd 3f 59 4b 93 29 72 80 cc bf
       0.23152341719612582 -0.2226698592190484
0003c0 c1 30 2a c3 68 65 c0 bf 8e a8 20 9d 78 48 63 3f
       -0.12809476403743328 0.002353892873562086
0003d0 5b 59 15 63 99 f7 a7 bf ff 38 7f 37 c0 6e cb bf
       -0.04681090673936935 -0.2143173476201312
0003e0 dc c5 bb 9b f7 4e a2 bf 84 13 d8 de 64 a0 b1 3f
       -0.03575872207683137 0.06885366859940062
0003f0 e1 79 6c f0 ee 42 b6 bf 97 8f ba 6e 80 bf c3 3f
       -0.08695882196159445 0.1542816677730314
000400 23 07 df 5e 36 85 9e bf 79 a0 c2 07 a0 f0 d3 3f
       -0.029805039921263387 0.3115615916999626
000410 47 2d 72 c1 13 b1 bb bf 22 84 20 a8 7a 0b 9b bf
       -0.10817073319247071 -0.026410976897867873
000420 38 6c cf 4a 15 4e b9 3f 8d 73 e1 bb 5e ef b9 3f
       0.09884770466253279 0.10130874716692358
000430 0a f9 c1 c1 f2 a3 ac 3f 80 17 35 a8 5e 06 b7 bf
       0.055938326026977306 -0.08994094473481873
000440 56 ea 3c c0 4d 7b 94 bf 28 7e cd a8 4d 17 7c 3f
       -0.02000161634280525 0.006858161313032997
000450 88 20 40 ff c3 01 af 3f f3 09 80 a6 d8 c8 a1 bf
       0.060560345562465534 -0.0347354605910545
000460 c1 19 6a 32 86 ee b2 bf 69 9a 2a 2f 65 c3 9d bf
       -0.07395209055730502 -0.029065686229524355
000470 81 07 74 69 fe 60 bb bf 22 e9 f5 ec bb 56 77 bf
       -0.10694875788251858 -0.005697950443727147
000480 15 db 67 00 ee 9f c6 bf 41 f2 1a f5 bd 62 b0 bf
       -0.17675566692170067 -0.06400668367400277
000490 62 ad 37 6d 9e bb c8 bf 92 a2 bb ca 62 f2 46 bf
       -0.19322567303548072 -0.0007002813703965319
0004a0 d3 79 3d 09 d6 b7 b6 3f 5e 14 a5 34 ae 8f a5 3f
       0.08874261594380721 0.042111820150730436
0004b0 f9 94 69 80 d3 c3 db 3f 17 ed 43 17 31 1f c8 3f
       0.4338272813823348 0.1884518970108295
0004c0 f3 79 68 4b 41 a7 b3 3f 4e c0 8b 4c 37 07 cf bf
       0.07677085963266687 -0.24240771520226406
0004d0 82 7d 8f 1f 95 15 b5 bf c9 fb 39 f4 06 79 ab 3f
       -0.08236057301063762 0.05365773898392196
0004e0 88 f4 66 da 40 59 ab 3f d8 78 56 ad 22 78 d5 3f
       0.053415323887272825 0.33545748641507833
0004f0 4e 3a 47 f6 3a ac cf 3f 8f 65 99 f1 a3 bc dd 3f
       0.24744355225853315 0.46463869661018803
000500 84 54 ef 04 29 36 a8 3f 92 d7 4c ee 00 9d c4 bf
       0.04728820977440143 -0.1610413707327863
000510 fd 37 31 94 d8 02 80 3f 8b 95 8a ea 84 87 b0 bf
       0.007817928335636987 -0.06456785894496002
000520 86 0f c7 0d 09 02 cc bf d4 d0 74 07 ff 9b d4 bf
       -0.21881211445554188 -0.3220212529006521
000530 fe bf 0f c5 72 8c d2 bf d2 b8 95 3c 74 14 a6 bf
       -0.28982228512086283 -0.043124802013026944
000540 66 aa 74 7b 47 18 af bf 91 f5 20 9b bd ab c0 bf
       -0.06073211080577749 -0.13024110865255215
000550 83 61 5b e4 e2 cb c9 bf b1 56 4b f6 8f 3d 75 bf
       -0.20153461599580788 -0.005185663558867113
000560 bd 77 62 db 7a 3a a3 bf 69 fb 19 73 1a 94 98 bf
       -0.03755554130587722 -0.024002469325292184
000570 b8 52 6a e4 e3 5d 84 bf a8 02 6a 1d 4c c7 c4 3f
       -0.009944706352407948 0.16233207164988994
000580 8b b8 3a b0 6f 02 90 bf a3 82 11 a1 30 c7 ce bf
       -0.015634293681323668 -0.24045379509609174
000590 f9 d3 f4 ca 72 18 b2 3f 6d e1 6e c5 a4 ef be 3f
       0.0706855531214642 0.12084417171616275
0005a0 54 49 ef 93 da 85 b6 bf 4d ad dd 8d 4d dc 94 bf
       -0.0879799472016079 -0.02037163904553312
0005b0 38 7d 22 fc a7 24 ad 3f ca 38 a8 62 30 d9 d3 bf
       0.05692028954330869 -0.31013116487964665
0005c0 3a b0 23 5f 08 9a b8 bf ca 94 f4 a9 b1 85 c4 3f
       -0.09610035250415275 0.16033001707652367
0005d0 c0 f1 09 c7 63 68 ba bf 80 c9 3e 0a eb 04 b8 3f
       -0.10315536126467517 0.0938250446331832
0005e0 0b 9b 85 19 82 b4 cb bf af 1b cd d3 93 37 91 3f
       -0.21644617315470102 0.016813573648757515
0005f0 ff 09 00 17 f0 02 7b bf 78 a2 24 c6 aa 73 ad bf
       -0.006594598628000713 -0.05752309483279289
000600 4c 3f e5 6d 8d 55 c7 bf 12 8f 2b b9 02 b9 b5 bf
       -0.1822983538245303 -0.08485428829913769
000610 5f 17 d2 26 8d 8a 98 bf f9 4a 75 8e 8f e0 b2 3f
       -0.023966031546044927 0.07373902538283152
000620 e2 e6 08 8a bd 1b ca bf 9b d2 21 03 88 7e 93 3f
       -0.20397156944255018 0.019037366095704483
000630 6f 0f 4e f1 9c 4f b8 bf 0c 87 48 3b 0e cb c5 bf
       -0.094964798843703 -0.17025926489537146
000640 b6 af 73 22 a2 12 a4 bf 9b 9c 16 a4 b6 00 b7 bf
       -0.03920466108851832 -0.08985463625013994
000650 bb e7 28 2f 34 ce aa bf 66 e0 d1 81 68 7d b8 3f
       -0.052354460484323316 0.09566357774190379
000660 94 76 a0 62 95 4b b7 bf 22 a4 94 1c 1b 7c c3 3f
       -0.09099706323510254 0.15222491164721058
000670 60 bb 15 9e 57 ae ba bf 16 08 07 a3 3c 6e c2 bf
       -0.10422275170797723 -0.14398916206670326
000680 5c 83 f0 8d 7f b8 9b bf 3d ca e2 1c 94 f7 c2 bf
       -0.02707099250631316 -0.14818049822277315
000690 e6 61 a7 8e 8d 07 b2 bf e9 a2 d7 ac c6 cc b6 bf
       -0.07042774899253565 -0.08906213493140637
0006a0 e1 f2 59 17 89 07 b1 bf c4 b1 2d 50 33 23 a1 3f
       -0.06652123279668444 0.033471683061040675
0006b0 85 ac 2f 01 73 25 bb 3f 4d 6a cf 2c 19 3f 91 bf
       0.10604018000565148 -0.016842263565062066
0006c0 d6 6d db 7f 44 c7 af bf 3c f7 92 4d 3f 78 af bf
       -0.06206716595417176 -0.061464288920872495
0006d0 52 76 35 1d f8 15 cf bf 90 7b ab 99 be 96 a4 bf
       -0.24285794664585808 -0.04021258951046669
0006e0 ca 06 8e 47 c9 d8 ce bf b6 17 b3 b7 23 3e a9 3f
       -0.24099079126249584 0.04930221192766686
0006f0 c1 d1 53 4e cd 4d b0 3f 49 44 23 bc 5e ac 9c 3f
       0.06368716394701492 0.0280012895898987
000700 8d d2 d6 5a 7d 6c bb bf ee 2e 87 74 90 a5 ba bf
       -0.10712417094948475 -0.10408881039546333
000710 c6 b7 8c 40 1c 07 a0 bf f8 f9 8d 9f be c8 94 3f
       -0.03130424774131728 0.02029702996105162
000720 a7 44 cc 8e bb 00 bd 3f 37 f8 d1 d0 26 32 c5 bf
       0.11329242931630522 -0.16559300609873315
000730 d8 f9 e4 60 77 57 8b bf 11 dc 5c 2a f2 49 71 3f
       -0.013350422520144997 0.004220910986808783
000740 56 89 fe 5e a2 26 a7 3f 92 7d 69 6e a9 a0 c2 bf
       0.04521663102720434 -0.1455280102845618
000750 cd 72 e3 eb 11 54 c0 bf 3d 38 20 22 b0 cf ad 3f
       -0.12756561296455118 0.05822515884948174
000760 8a 37 cb 99 b9 8d b3 3f 97 bf dc 0d 3c cb b5 bf
       0.07638130192500917 -0.08513236368594189
000770 33 1f af 4a 43 dd 92 bf cc d4 08 fb a3 78 bf bf
       -0.018422175820688124 -0.12293457869312191
000780 47 e0 19 c1 38 39 b0 bf 42 c5 44 65 fd 8a b3 3f
       -0.06337313379651831 0.07633956644419462
000790 78 49 95 7b 56 03 93 bf d8 ea 20 b5 2a 98 c3 bf
       -0.01856742028514577 -0.15308126300973046
0007a0 9d 1e f2 65 07 d9 a9 3f 78 06 69 39 69 6f c4 bf
       0.05048392409758871 -0.15964999488101106
0007b0 c1 ba 17 4c ad 16 bc bf 08 5b 58 88 ce ae b9 3f
       -0.10972102267963192 0.10032358959902521
0007c0 6c 27 97 6e 28 e1 bd bf b4 27 d6 a8 2f 98 9a 3f
       -0.11671688747369807 0.025971169166531374
0007d0 1b fc 0e 3e 94 b6 c5 bf 69 2c d6 ab 04 99 c1 bf
       -0.1696343710918605 -0.13748224630794262
0007e0 86 20 d5 e8 a4 f2 c4 bf 8d a8 bb eb a8 2a c6 bf
       -0.16365491265083082 -0.1731768752136457
0007f0 e4 cc b2 d2 47 ff a6 bf 54 23 97 4b 50 36 b9 bf
       -0.04491638609888485 -0.09848501058071452

layer2.bias f8 [100]
000000 22 27 b4 08 b0 21 c0 bf 8a 1b 63 d4 34 a7 c1 3f
       -0.12602806496607238 0.13791523333040018
000010 1e 62 c9 2d d8 ee d2 3f 87 83 c1 e5 9b b8 88 3f
       0.29582790824272986 0.012070863675207167
000020 01 fd bf e0 01 31 ae 3f 6d 6e de 50 a9 6c b2 bf
       0.058967646298691896 -0.07197054123246867
000030 98 60 be c8 cc 2c d0 bf 1f 25 e7 8c 7c f4 d1 bf
       -0.2527343712222403 -0.28054727325486967
000040 f2 60 40 0a 4c 7b a7 bf 5f 6a b2 ff 6f fc c5 bf
       -0.04586255669727447 -0.17176628098680433
000050 0c 02 aa 11 a0 32 6d bf 9b 89 30 a2 70 32 a6 3f
       -0.0035641790721572305 0.04335357646802437
000060 ba fd 93 55 24 1f c7 bf fb d4 52 da 8f 72 a4 bf
       -0.18063787630670253 -0.03993653812487171
000070 8e 6f 4e 10 86 71 b5 3f f0 23 2e e1 95 df c9 bf
       0.08376348398308961 -0.20213578696373657
000080 8e 2f 8f 78 04 2f bf 3f be 25 ed ab 59 93 ab bf
       0.12181117957442053 -0.05385856841764845
000090 b9 b6 e8 ba 75 07 ae 3f cf d3 97 56 4e 84 c2 bf
       0.058650664392513936 -0.14466265896012806
0000a0 d7 00 95 ab 55 d1 c3 3f af 28 c9 29 c2 27 cc 3f
       0.15482588651685233 0.21996333160706658
0000b0 61 c6 fc 7e 02 03 d2 3f cf c7 09 67 91 ff ca bf
       0.2814337005721424 -0.21092431574976309
0000c0 91 1d 6f bf a6 2d cb bf 5e 06 2c 7b 71 0a aa bf
       -0.2123306689011142 -0.05086092594684709
0000d0 e7 0b c0 54 8e bf b4 bf 25 99 64 f9 bf 91 d6 bf
       -0.08104791230293494 -0.3526458678701537
0000e0 88 1b a6 95 e5 9a 5f 3f 43 aa 2d fe 3a 67 c0 bf
       0.0019290201222206 -0.12815034304670023
0000f0 25 e3 14 f2 ed 11 c2 3f bd 4a 68 f9 f0 d2 c0 bf
       0.1411721641577738 -0.13143741777510867
000100 06 3b 43 1e d2 40 ad bf bb 19 9b a4 d3 a1 c4 bf
       -0.05713516826073399 -0.16118855988879752
000110 83 fd 51 a9 24 42 b9 3f 93 75 9f 7a fb e0 86 bf
       0.09866551526828542 -0.011171307258275564
000120 99 83 64 b9 50 27 d0 3f f4 ce da e6 84 cd ce bf
       0.2523996172404224 -0.24064694664195196
000130 77 58 39 bf 41 86 c8 bf 11 7b 31 1c 3b 11 c1 bf
       -0.19159719311818765 -0.13333834530472946
000140 ce 8b 13 5e 3a 17 a3 bf 98 ba 60 40 2a 5a c7 3f
       -0.03728659056084603 0.18243911879968233
000150 08 af 67 ec e4 d0 ac 3f 6b 1d d4 42 9e c0 c1 bf
       0.05628123651317024 -0.13869074118722877
000160 28 a5 f0 18 a6 da c0 3f 83 52 38 fb b4 d4 b4 3f
       0.1316726323869173 0.08137065060902597
000170 05 47 20 bd 6b ca 95 3f e1 53 29 81 1b 04 c3 3f
       0.02127998678049094 0.1485628491087985
000180 f3 59 45 f5 85 b7 c0 bf 73 40 cf f3 40 a3 a2 bf
       -0.13060068584555004 -0.03640177704039695
000190 c2 f7 48 ab 70 26 d3 bf 2e 52 fe b7 cb 9c d1 bf
       -0.29922119833997496 -0.27519505470380323
0001a0 65 ff bb 78 e4 36 d0 bf 82 9a 72 f9 08 d1 b6 3f
       -0.2533503703161755 0.08912712183028229
0001b0 c1 1b f5 94 d0 b6 cb bf 74 fe fd bb 7f 30 b8 3f
       -0.2165165641146967 0.094490035435223
0001c0 df a2 9d 3e 25 b8 c3 3f df 50 f3 c8 ab 8f 5c 3f
       0.1540571742764518 0.001743238219025271
0001d0 43 93 3d 50 a9 59 b1 bf fe 48 68 50 ca 76 cf bf
       -0.06777437409398339 -0.24581269193783578
0001e0 53 43 08 79 ef 5a d5 bf f4 bc da bf 95 f2 d3 bf
       -0.33367525882299737 -0.31168121085916245
0001f0 b4 5e 04 52 d4 87 c7 bf 4e 5f b4 d3 49 91 a6 3f
       -0.1838326836084342 0.044077212422222276
000200 e3 f2 30 3b 45 c8 c9 3f 2e a0 b6 b6 03 ae c3 3f
       0.20142426862903226 0.15374800130416716
000210 60 60 2e d8 e3 2c c6 3f d3 0e 53 6d 64 b1 ad bf
       0.17324493461342438 -0.05799402079131046
000220 bd 04 f6 90 a7 f2 c6 bf cd 41 3e 19 58 69 b3 bf
       -0.1792802293603354 -0.07582617393769127
000230 d2 d9 ee 66 24 a1 d1 bf 4b fb da 84 b6 a0 cc 3f
       -0.27546033908893464 0.2236545704563134
000240 d9 b0 9e b8 4b 2d ca 3f 02 40 29 ad ee 33 90 3f
       0.20450731768267508 0.01582310611621552
000250 07 d8 2f e5 c9 8c cf bf 07 91 2c 56 98 0b 54 3f
       -0.24648402872816197 0.0012234676039009644
000260 81 82 60 ec 4f 9c c3 3f 78 c3 d4 2b cc 00 72 bf
       0.15320776979298859 -0.004395291847047449
000270 8b 8e 45 c4 f6 a3 be 3f d3 46 65 38 2f 53 b9 3f
       0.11968939105786995 0.09892554404111857
000280 67 f9 0a 6a 17 41 73 bf 49 4b df ad a2 73 b1 bf
       -0.004700747930370098 -0.06817070717742725
000290 cd 5d 3e 9b 5a 51 ac 3f 6d 3c ef 7e 66 3d 98 3f
       0.055308181238781985 0.02367172384020615
0002a0 7c 9f 8f 7c 52 ee 78 3f 7b c2 15 5a 3f 41 cf bf
       0.006086656773710671 -0.2441786947124632
0002b0 b5 65 f6 a3 e9 7a b9 bf 11 b8 81 3e c6 2f c1 3f
       -0.09953174832334961 0.13427045871816337
0002c0 39 5a 5f 02 08 e2 82 3f e7 cd 6a a1 32 39 cc bf
       0.009220182964708378 -0.2204955375833457
0002d0 5a b5 46 8c bb 15 b6 3f 40 9a c3 18 4b db c0 bf
       0.08626911329948453 -0.13169230183776115
0002e0 aa c3 16 09 d8 2e b2 3f 76 01 64 ae de 0a bc 3f
       0.0710272810163263 0.10954086072525179
0002f0 86 5c 20 41 2d f2 c1 bf 6a fe fe 49 39 3d b3 3f
       -0.14020314865112854 0.0751529508261172
000300 39 35 2f 67 e3 33 a7 3f f3 e7 5b 8c e5 8e bc 3f
       0.04531775126052157 0.11155543019040674
000310 00 a8 00 8e 90 ef c6 3f eb e2 11 c8 97 d2 bc bf
       0.17918593343466682 -0.1125883925868824

layer3.weight f8 [100, 100]
000000 36 17 46 6b ab da 86 bf 94 db a5 eb 74 f6 c0 bf
       -0.011159266673313444 -0.13252126222843386
000010 e2 8f 5d 75 4b 54 af bf d7 2d fc 4b d6 d4 9d bf
       -0.06118999297794382 -0.029132221591721432
000020 0a ea c3 e6 63 7a b6 3f 6b fe 9d a4 df 8b a0 3f
       0.08780502685468874 0.03231715092169626
000030 56 b9 93 15 15 a9 c3 3f 0d 58 63 f1 c8 16 a7 3f
       0.15359748414580093 0.045095710245434
000040 14 70 22 51 99 bf ca 3f 6f f8 e9 e6 19 27 bd 3f
       0.20897213422438254 0.1138778866533998
000050 92 78 bf db 5c 7a ad 3f 86 7c 7e 02 6e 32 c9 bf
       0.05757417852849857 -0.19685149308950062
000060 00 aa 89 c1 a3 fb af 3f 70 2c cf 52 1a 0c c2 3f
       0.062466733336652425 0.14099434894010043
000070 d1 ae fd b1 c9 84 bc bf f0 99 9f 90 1b 92 a7 bf
       -0.11140118213159701 -0.04603658810065159
000080 87 b9 12 a4 56 00 a6 bf ee cf 47 a3 e3 76 83 3f
       -0.042971332100353136 0.009504106922555846
000090 1a fc 16 4b 5d c5 8f 3f 0f fb 29 6c 05 8c b6 3f
       0.015513161520059927 0.08807405367586461
0000a0 8c 13 05 63 00 16 aa bf b1 5c f8 63 98 5d c0 bf
       -0.05094910820711282 -0.12785630112987215
0000b0 49 59 99 c5 72 0e b5 bf 02 0b 2a 69 42 0b c5 3f
       -0.08225171398348609 0.1644061101433963
0000c0 26 ce 6d 63 d1 3c 6b bf 16 04 53 c3 c8 e8 c0 3f
       -0.003324898683269034 0.13210401093786633
0000d0 ea 14 c3 b9 ca 26 b0 bf 67 c6 53 a2 28 d2 c1 3f
       -0.06309191737371447 0.13922603536734643
0000e0 21 65 62 c9 9b 1d a5 bf 8a b8 07 3b c9 95 bb 3f
       -0.04124152024560091 0.1077543038479424
0000f0 96 02 6b 10 6b 1d ab bf aa 04 d3 a4 07 6f c6 3f
       -0.05295881820120944 0.17526336238919288
000100 98 7a 4b 3f 2f b5 bb 3f fb cc 50 74 11 6b ba 3f
       0.10823340697559514 0.10319623079049116
000110 d2 93 af 81 bc 35 b2 bf 5f 7b 6e 9e 6d b1 b5 bf
       -0.07113245168837004 -0.08473858945806743
000120 d9 48 0d af 08 38 b0 bf 65 e9 d7 57 73 b8 c6 3f
       -0.06335500978210308 0.17750398434857143
000130 bd cc 7a 6b 7d 51 ca 3f 36 61 cb 01 b3 f6 8a 3f
       0.20561187503844805 0.013165853969824153
000140 57 cc 3d ca ef 66 b1 3f 3c 22 a6 4a f7 9b b7 bf
       0.06797693908247147 -0.0922236020325124
000150 12 b8 93 ac 3e 18 91 3f 43 08 d7 a1 34 d0 b0 3f
       0.016694049151674113 0.06567696524783266
000160 61 02 a0 40 64 38 bc bf f6 e3 ec fa 74 86 c4 bf
       -0.11023546769866634 -0.16035330059256098
000170 c0 6f 29 9b 1d ff c5 bf 04 4b 4a a2 f3 f7 b0 bf
       -0.1718480117441441 -0.06628344261325131
000180 a2 0c 41 70 37 ec c7 3f 4b f0 2e e4 29 31 c1 bf
       0.18689625722081354 -0.13431285516515098
000190 dd 76 15 f9 0e a5 c4 3f 5a e7 64 b7 f7 62 bb 3f
       0.1612871853093826 0.1069788763751637
0001a0 6a d8 d1 2a 31 cf b0 3f 66 15 53 51 d9 12 bb bf
       0.06566149993327178 -0.10575636134588748
0001b0 a3 63 3d 44 b1 44 b4 3f 62 51 a3 56 c3 58 b9 bf
       0.07917316356669217 -0.09901066651520332
0001c0 c4 7a 3e 62 78 29 99 bf 40 24 77 39 b0 b1 a1 bf
       -0.024572258945790862 -0.034558779730624156
0001d0 95 5c d7 78 5b e2 ac bf 43 e6 94 8c 9b 1d c3 3f
       -0.05641446924317354 0.14934105266893213
0001e0 e0 59 bb 2d b9 8d 80 3f 63 00 ce 48 dd 8c c1 3f
       0.008082815845608715 0.13711134009281797
0001f0 b4 1b 68 31 16 c2 ba 3f f7 62 12 d0 da c0 c5 bf
       0.10452402788369747 -0.16994795951611483
000200 36 7f 8c 1e cc 4b c3 bf e5 d4 aa aa a8 8a b0 bf
       -0.15075065127984438 -0.06461576620752714
000210 1e 13 c5 7c ff 45 c0 bf 23 1e 07 77 e3 ee c1 3f
       -0.12713616935993682 0.14010279952911828
000220 02 37 5d d7 af 3e b0 bf d0 51 68 f1 13 6f b8 3f
       -0.06345652587807751 0.09544491428125146
000230 fd e9 e6 1c a4 31 cc 3f c6 f5 d5 8f 1a ff ba bf
       0.22026492511015752 -0.10545507442107924
000240 83 0c 8f 94 ca f4 a7 bf 86 b7 88 a4 65 0b a2 bf
       -0.04678948462926604 -0.03524320252868933
000250 66 46 0c 92 e1 a5 b2 3f a2 51 d2 52 ad 7e c2 3f
       0.07284364524482498 0.14449087661763566
000260 5b 9f 40 e5 2e 54 ca bf 8b 96 d2 e7 fb c6 91 3f
       -0.20569406694380174 0.017360626243905258
000270 99 b8 ea ae 4c 26 c6 bf b9 dc 3b 12 7c 4e bd bf
       -0.17304380932677502 -0.11447883076822309
000280 b1 15 0a 2b a7 40 bb bf 55 5b 76 2e 5b 2b cb bf
       -0.10645527649656718 -0.21226062554043304
000290 15 ee 2f bb d6 60 ca bf d4 12 b0 67 45 1f 99 bf
       -0.20608028545380877 -0.024533352330780314
0002a0 8e 75 fa 98 e9 db b3 bf 9d 93 63 90 26 1c b8 bf
       -0.07757434830496931 -0.09417954468842855
0002b0 07 78 e3 d6 04 b7 c6 3f 7f 45 fc 97 19 39 c1 bf
       0.17746029369931213 -0.13455505295909728
0002c0 56 41 35 ff c2 6f bb bf 91 55 32 0e 9f 59 bf 3f
       -0.1071740983072734 0.12246126267048953
0002d0 30 3d 59 69 a0 fe c3 bf 15 bb 49 6e 24 a2 b2 3f
       -0.1562080873868381 0.07278659527376548
0002e0 be 33 62 49 ab a4 c4 3f c1 6f c6 47 bb d1 bf bf
       0.16127530177291577 -0.12429399969408818
0002f0 ab 87 31 42 18 c6 b0 3f 05 53 e6 bc b4 99 b0 bf
       0.06552268615771932 -0.0648453675442618
000300 dd 8e cb f5 51 02 c7 bf 03 59 b9 d8 00 be a5 3f
       -0.17975830556598896 0.04246523519093339
000310 8c 47 df ce 79 8b c1 bf 7a 13 55 6b 3b 1d b1 3f
       -0.13706896401577884 0.06685229654710936
000320 8c 19 db a9 4b 38 bf 3f aa 7c 9c 31 99 e5 a4 bf
       0.12195275208350703 -0.04081419687849437
000330 64 a5 26 6a 2d 35 c9 3f 3b c7 17 5e c5 25 a3 bf
       0.196935345489048 -0.03739754460901997
000340 bb 88 5d 6e 6c cc b4 bf 36 ad 35 fd 51 dc c2 3f
       -0.08124425596682532 0.14734864104989648
000350 74 db 7d aa 4b f2 b0 bf 8d 95 73 8f e1 6e c6 bf
       -0.06619713699715907 -0.17525882248370941
000360 f5 93 18 0e 42 03 a9 bf 64 4f 1a 91 8e c4 aa 3f
       -0.048852981777862604 0.052280860150090175
000370 13 0e b4 6b c2 8a b1 3f 4e 9b 80 da 8b db c5 bf
       0.06852355126834934 -0.17076252144871734
000380 a9 bf d2 16 78 06 cc 3f 85 1a 39 22 2a b5 ca 3f
       0.21894742121139402 0.20865370436714073
000390 15 17 56 31 bd ea c4 3f 5e cc 33 8e 0a ad b2 3f
       0.16341366681097527 0.07295289966332194
0003a0 8f 40 9f 7b 82 50 bb 3f 31 b0 ed 8f 7b 12 b2 bf
       0.10669723051182899 -0.07059452308539062
0003b0 c3 01 16 49 47 fc a0 bf 06 91 e1 4d 7e 70 a7 bf
       -0.03317473189509059 -0.0457801313466764
0003c0 f3 b8 7e 8f 64 ed d0 bf e2 f4 36 80 a0 8d a4 bf
       -0.26448930752930194 -0.04014302792664083
0003d0 a3 d4 4e 83 90 a0 b9 bf 8c c6 6c d8 60 d6 a5 3f
       -0.100106269891358 0.04265120164781164
0003e0 7c 9d 1e 03 aa 0c be 3f 32 42 32 4f 6a aa b6 bf
       0.11738073898469809 -0.08853783067230195
0003f0 6d bd ce b2 09 f7 b7 3f 1b e5 8e 22 09 5a c0 bf
       0.09361324897212393 -0.1277476710072641
000400 08 68 8e f6 27 b9 98 bf cb c0 30 9a 3e 2c be 3f
       -0.02414381449089123 0.11786261810698588
000410 b8 4c 44 38 13 58 c4 bf c0 43 d8 6a 66 e2 91 3f
       -0.15893783805276995 0.017465210219657967
000420 69 53 a1 4b 37 2a ce 3f d2 f5 66 7c f1 c0 ca 3f
       0.2356633300102218 0.20901316236806494
000430 ec 7a 0f 2b 96 7c 8f bf 9a 8a 57 11 26 59 b0 3f
       -0.015374348820782889 0.06386030124080336
000440 34 0d db b2 c3 ba be bf a9 b3 ce 70 6d 76 c7 bf
       -0.12003729931443702 -0.1833016205613636
000450 a3 d4 d7 ae ea 01 cd 3f f9 ab 45 bc f5 3f ca bf
       0.22662099396953747 -0.20507690136886916
000460 01 c0 78 f2 d1 9c ad bf 27 fe 40 50 ee f2 a4 bf
       -0.05783706745967266 -0.04091591577207181
000470 97 ef 71 fc 60 df b1 bf c4 7d 14 a9 e9 1f b0 3f
       -0.06981474078378223 0.06298694971018565
000480 7c 52 07 f5 09 1a b0 3f 9f d0 79 ce 2f 5c bd 3f
       0.06289732200759518 0.11468790808595707
000490 18 ad c1 90 3d e1 af bf 0e ff 8e e6 d4 d6 b2 bf
       -0.06226532356307696 -0.07359057072516981
0004a0 a0 14 d3 f0 44 3b 84 bf 48 bf 45 f8 37 72 b6 3f
       -0.00987867221773292 0.08768033801402197
0004b0 6b 39 f7 17 ce df c7 bf 1f 35 cd 95 c5 64 b4 bf
       -0.18651748819543043 -0.0796626558996718
0004c0 f9 36 af 6d 24 1f 93 bf a1 33 90 68 92 90 c0 bf
       -0.018673485941511612 -0.1294119844973496
0004d0 27 e1 f0 ba 72 12 be bf a9 8b e0 f1 14 40 c1 3f
       -0.11746899665820774 0.13476812181860723
0004e0 d9 27 8e 79 e4 79 93 bf 8e 20 11 4c 4c a2 c4 3f
       -0.019019670409342247 0.16120294298366783
0004f0 66 70 1e 91 59 a0 8d 3f 91 06 04 de a8 93 a3 3f
       0.014465999356439063 0.03823592863228698
000500 51 5c 9b 56 71 c0 bf 3f 8d dc d3 53 06 80 99 bf
       0.12403019298959463 -0.024902438036374753
000510 86 8a 5b 3d 03 0a af bf 23 4d 0c 66 9e 04 c1 3f
       -0.06062326549524237 0.1329534529000763
000520 c7 90 d7 1b 46 ac b4 3f 1d a2 74 e0 7e 6e ca bf
       0.08075369052636737 -0.2064970584845164
000530 6b 1f d5 fd e9 62 bc bf 12 88 91 d6 9d dc c8 3f
       -0.1108843083103445 0.19423268296219526
000540 07 45 b5 e9 fc db b6 3f d8 b8 bf fa b1 82 6d bf
       0.08929424958957465 -0.003602359405696292
000550 84 59 95 08 95 f2 ab bf 9a e7 f8 4a 4c eb c8 3f
       -0.05458513002183721 0.19468072567707112
000560 02 ee 00 80 b5 2e c1 3f 73 a8 88 9c 1b 54 c4 3f
       0.13423794508149461 0.15881676810505815
000570 57 a1 24 25 8c 3e 6a 3f 2b a1 e8 11 26 a2 b8 bf
       0.0032036530693810117 -0.09622419297432276
000580 04 40 26 be 4b a0 ae 3f de f5 ea 23 f1 58 b7 3f
       0.05981671043548434 0.09120089651965865
000590 42 2b 9e aa 1e 24 90 3f 87 8a a5 38 84 de 97 3f
       0.015762786067664132 0.023309770543515042
0005a0 44 ee 63 de 74 d2 c8 bf 2c 25 60 59 c4 53 b2 bf
       -0.1939226232424166 -0.07159068281193431
0005b0 fc 42 1a d8 e1 9b a1 bf ab c9 78 0a 2d f4 c2 bf
       -0.034392411832532915 -0.14807665835685432
0005c0 6c de 74 f0 25 47 c2 bf cd d4 3e 71 0f 2f cb 3f
       -0.1427962707618805 0.2123736670452331
0005d0 54 a0 d5 a0 16 ad b9 3f 8a e2 30 39 73 2d b4 3f
       0.10029736925719251 0.07881851335776893
0005e0 d5 dc 2e b3 e6 e7 c3 3f cd 2a dc f8 11 c6 7f 3f
       0.15551456212208473 0.007757253840973544
0005f0 a1 49 b4 64 b1 a5 a2 bf a7 84 44 bf d4 20 c6 bf
       -0.03642038683223637 -0.17287692393532447
000600 fb 7f 41 29 30 e1 86 3f 04 9e 65 27 fd 9f d0 3f
       0.011171699770954993 0.2597649464355245
000610 9c 50 2b 3e 7d b5 bf bf 8c 3b 86 42 c2 d2 81 3f
       -0.12386305587580398 0.008702771811639719
000620 b8 5a e2 ad 99 83 cf bf 91 c5 4c 7a d1 bd c8 3f
       -0.24620362272681517 0.19329279395746515
000630 81 ed 71 5f 79 8d a0 3f 03 06 52 b9 9b 80 c0 3f
       0.03232936182117908 0.12892481373641837
000640 21 8c 86 14 a8 8e cb 3f ef 20 b6 fa 29 bc 92 3f
       0.21529103281236053 0.018295913626872936
000650 2b aa 84 e9 b0 3a b4 3f 4e 37 ed bd ec 01 b0 bf
       0.0790205545533033 -0.06252936970596787
000660 73 31 c1 37 bf ca c7 bf 25 87 93 51 25 38 c8 3f
       -0.1858748457183413 0.18921343310562935
000670 f5 02 e1 a6 aa bc 95 bf 20 dd 0e 07 5c 26 b0 bf
       -0.02122751849697387 -0.06308531925502736
000680 8b 26 de 44 71 9e bb bf 92 58 51 c9 71 fd 6c 3f
       -0.10788639003126314 0.003538820494706726
000690 07 5c 97 70 ce 80 a4 3f 86 1a 2a bc 26 e4 c1 bf
       0.04004521488575823 -0.13977512538641096
0006a0 e7 02 50 9f 0a 03 b5 3f 0b 61 06 4a 7b dc aa 3f
       0.08207765950647748 0.05246339110016337
0006b0 40 bc a5 25 ba 0d bd 3f 87 68 06 eb aa a8 8c 3f
       0.11349070948720996 0.013993583009142675
0006c0 23 af 4a 54 de 60 b2 3f 15 59 be 1e 9a 76 bb bf
       0.07179059560683902 -0.1072784733827102
0006d0 76 a1 4f e9 1b 38 a4 bf 67 2f 99 bf cf 3c c3 bf
       -0.039490577917436306 -0.15029332023038508
0006e0 c3 6c 14 d0 fe b9 c2 bf 8f 64 9a f2 05 fd b7 3f
       -0.14630112800737125 0.09370457814147158
0006f0 52 b3 a9 63 2a ae a0 3f 21 53 8e 00 5a d5 b0 3f
       0.03257877794826548 0.06575548661778587
000700 3f 6a e5 0d 9e a3 72 bf 42 f4 34 62 7a e9 aa bf
       -0.004550568961657008 -0.05256254624189484
000710 32 f2 8b ba 9b 37 b4 bf 52 d8 b7 b9 9f 1d bf bf
       -0.07897351555215762 -0.12154577526220692
000720 c1 a0 a9 df 25 13 b7 3f e9 a4 1d e5 5e d6 c3 3f
       0.09013592443955344 0.15497957408232502
000730 57 39 5d 65 c9 5b b5 bf 01 6e 6e 32 4f 0b b5 3f
       -0.08343180393896908 0.08220381718859217
000740 07 4b 6b 21 03 0a b5 3f 07 c9 d3 2b 91 46 b7 3f
       0.08218402448555305 0.09092051811220268
000750 04 b7 9a 39 ca 20 84 bf 6e c7 3c 88 7d d4 a0 bf
       -0.009828166850037963 -0.03287117279104633
000760 a8 a2 11 fc c7 06 b1 3f 12 1b 2a c5 16 f2 a4 3f
       0.06650972274804678 0.040909492080620904
000770 40 3d 31 05 38 47 c5 3f 4e 4f 9e ef bf 7c 76 bf
       0.16623592618496197 -0.00549006438258799
000780 98 1d 70 4b e1 87 b0 bf 87 3e 2f 19 4f f3 b8 3f
       -0.06457336513277878 0.09746260037285924
000790 7d ed e1 4d a9 dc a6 bf bd 71 35 3a 86 2d b2 bf
       -0.04465226245607832 -0.07100714608299703
0007a0 ef eb 99 fd 98 78 ac 3f ab 25 d9 73 59 f3 96 3f
       0.0556075868198248 0.022412679382147676
0007b0 35 ae fb ce 8b 10 b0 bf 2a 48 80 71 09 e8 95 bf
       -0.06275247386263845 -0.021392962982709353
0007c0 d8 10 05 6c b8 78 c1 3f d7 da c3 57 39 7b a6 bf
       0.136496594184911 -0.04390887447691732
0007d0 c6 10 c3 0e a6 aa ab bf 8c 86 6d 0c 27 dd 93 3f
       -0.05403632097434889 0.01939831746438485
0007e0 59 f8 d4 5f b0 81 b5 bf d9 cf b6 27 49 84 bf bf
       -0.0840101465191493 -0.12311227054198016
0007f0 cd 45 11 00 47 83 b8 bf 05 9b 44 94 76 3d 78 3f
       -0.09575313331267594 0.005917990875139227
