model_YYB_DGM_state_dict.pt (torch, 273290 bytes, 40 tensors)

W1 f8 [50, 3]
0.01319025741093808 0.14334998624291 0.07178729752527492 -0.25438967778648763 0.23072284924343342 0.06120333543648007 -0.10241059746136945 0.21095661062399507
0.3306996514940961 -0.10144974363036606 -0.11476985628546492 0.24227709852839174 -0.11008253579352544 0.13706360153116273 -0.13171667007489446 0.08520671593674388
0.16445542244575687 -0.01530393578359599 -0.22147428194984764 -0.10800065674589253 -0.49842752592593564 0.03593563693920557 -0.1275485133860463 0.12155925140451104
0.017529508482954488 -0.44976260273665786 0.42207082076372676 -0.08428692676938242 -0.14906595835821979 -0.17572757641083245 -0.12444570602324609 -0.31382917481825306
-0.0382638896501597 0.12288835701349883 0.03511217083469986 -0.0422906596707693 0.03392713090854993 0.3682851901997502 0.17436168506354263 0.06155969732080131
0.07484863630812216 0.004006445757031334 -0.36643043475172876 -0.02287571564018695 -0.30328214114483654 -0.13806695966319935 0.3201614451047182 -0.3847143512865918
0.045545431398428204 0.003915363984765135 0.35021204478795 -0.273422561137382 -0.16504714069608464 0.16323802813919833 0.19965796744538356 0.13884131171030453
0.4429723938668043 -0.0103000056651131 -0.06700795240628088 0.12003598923624094 0.4545211072522573 -0.1986275312417593 0.5141543712082757 0.13262849029718632
0.265157266461619 0.2254130846981807 0.018885980588790544 0.6056437104475754 0.06395265296314788 -0.02729943030419383 -0.35166971571604716 0.03070916195459029
-0.031629877997661315 0.11587991169109761 -0.1974594308208033 0.005862313514962047 -0.13735159215396517 -0.4366387481619009 0.058587855406541 -0.310459829803321
0.13003476337263004 0.3132745312052613 0.05408495891273442 0.12704626159798127 0.22141285403804742 -0.0191849838218188 -0.11237621098144979 -0.13379604660114902
-0.13757085943269473 -0.019237003271785014 0.3136439690713945 -0.225564099491312 0.032077105787127434 -0.034987083331860826 -0.08310701337695629 0.022901440720117898
-0.2631696587972002 -0.032704715439556144 -0.06176065642409305 -0.049855040214966825 -0.07099797349721862 0.007503021315405285 0.20183649554526653 -0.13664385348379562
-0.06357380649561296 -0.029204431495228195 0.017254666137146376 -0.0871041973738568 -0.34092636120178843 0.28169976918537853 6.760370899809153e-05 -0.04012858676758949
-0.4443414729530201 0.0570373086462433 -0.20113118353999393 0.06667064398233143 0.10999945246966734 -0.2784703964220247 0.19638134358018933 -0.17421340209066777
-0.095790974601188 0.02283254986037588 -0.18127576715055593 -0.08219993650638197 0.36184553072086945 0.08676983083803815 -0.23396903635479455 0.14941915072846096
-0.040968407763831295 0.0420683602193461 -0.020838256137292767 -0.2502228151879776 -0.14015771592078016 0.005751655461112678 -0.2589700293114655 0.06148511924849894
0.13797681443376986 -0.15288592317662322 0.2870815080937586 0.01654952091502298 0.08264790935860868 0.07960607813931418 0.06398699399574943 0.33044134652146173
-0.08143293409819548 -0.22080982763419982 0.4196627638123849 0.009175112566260886 0.32578672203777 0.07896986151342344
00000000: d57a a561 7e03 8b3f facd 65d7 4a59 c23f
00000010: b1a7 23ff a660 b23f b91b a2a4 eb47 d0bf
00000020: cf61 f889 5388 cd3f 642b 3628 0b56 af3f
00000030: 5543 dcb6 9437 babf f8a5 c04f a000 cb3f
00000040: b0ce fdde 2e2a d53f 4f7b 1443 9cf8 b9bf
00000050: 930c 50ab 8e61 bdbf 30e6 5f9b ef02 cf3f
00000060: 870c 187b 5e2e bcbf 552f 06d3 4c8b c13f
00000070: 0aa4 2783 17dc c0bf 770e 597a 1bd0 b53f
00000080: 41f6 8612 e00c c53f 7368 867d ab57 8fbf
00000090: 5099 f0ee 4459 ccbf a78d ab58 eea5 bbbf
000000a0: 28cc d190 3ce6 dfbf f462 d4e2 2766 a23f
000000b0: 17c0 d27a 8253 c0bf 8601 4fd1 811e bf3f
000000c0: 72d3 9866 41f3 913f 33f0 6d15 e9c8 dcbf
000000d0: 5dab f154 3503 db3f af70 f4f9 d393 b5bf
000000e0: c437 0ce4 9714 c3bf 8b4d d8c0 3d7e c6bf
000000f0: 565a 7f7d acdb bfbf 0b01 98f6 c615 d4bf
00000100: a093 5415 5397 a3bf 5da1 6e82 9c75 bf3f
00000110: 706b daf2 38fa a13f 23a8 6c10 1fa7 a5bf
00000120: f00e 669b e55e a13f 8d94 e00b fc91 d73f
00000130: b3fd 82d3 7b51 c63f 2a2f 7dad c084 af3f
00000140: 0cf5 17bd 4729 b33f 6c8e fe17 1069 703f
00000150: 9a22 61a3 9873 d7bf d854 304a bb6c 97bf
00000160: 3063 6b7f f968 d3bf 0faf 349a 2dac c1bf
00000170: 228d 0a6e 867d d43f 24fa 44f1 289f d8bf
00000180: b84a ad14 bb51 a73f 1f98 4384 8e09 703f
00000190: dce3 c1c7 df69 d63f 21b6 8457 c17f d1bf
000001a0: 6543 cbc3 4320 c5bf 2123 29d4 fbe4 c43f
000001b0: 2029 486c 648e c93f 7393 9056 8dc5 c13f
000001c0: 9214 2ce2 a859 dc3f ad9a d75b 2b18 85bf
000001d0: a82a 28e4 6e27 b1bf 79d7 1cb8 adba be3f
000001e0: ad5e bfb2 df16 dd3f a660 627f a06c c9bf
000001f0: 6ceb 2dde f373 e03f fe10 2c6a f8f9 c03f
00000200: 5bf6 ef2e 56f8 d03f c540 6f01 56da cc3f
00000210: e14e edb3 d856 933f 52d0 2ceb 6e61 e33f
00000220: b71a f878 335f b03f 8a7c 6cc1 61f4 9bbf
00000230: 599e ffb1 c181 d6bf 4350 21f9 3872 9f3f
00000240: 3821 2797 ca31 a0bf 9304 fa4e 4eaa bd3f
00000250: 80c0 d4c2 5946 c9bf 19e8 35cd 1403 783f
00000260: 6f6a 2daa bc94 c1bf 4364 e1a5 e3f1 dbbf
00000270: d2e6 d335 3aff ad3f 0087 eee7 92de d3bf
00000280: 5aa7 03a8 faa4 c03f a690 8c9e b00c d43f
00000290: 6aad 7813 06b1 ab3f d839 5249 0d43 c03f
000002a0: a3f3 80a3 4157 cc3f 0923 5b78 3aa5 93bf
000002b0: 5883 03f7 afc4 bcbf 2236 3e96 3a20 c1bf
000002c0: 57b1 1203 ec9b c1bf 0092 b36f ddb2 93bf
000002d0: 1ff4 6f27 be12 d43f 92c2 3bcf 48df ccbf
000002e0: e3b1 9c10 696c a03f 9db2 62b5 d3e9 a1bf
000002f0: f3b2 8550 8046 b5bf 9e5e b2ab 7973 973f
00000300: 4e57 758d c5d7 d0bf 65cb 7926 acbe a0bf
00000310: d6bc 0abf 179f afbf 3631 878e 9986 a9bf
00000320: 62b9 4056 ec2c b2bf 21d4 bbf2 7cbb 7e3f
00000330: 29ca c03d c7d5 c93f d5c6 f4b8 8b7d c1bf
00000340: 69e8 c77b 5f46 b0bf 385d ae38 c4e7 9dbf
00000350: afbd 0c0b 35ab 913f baa6 10ef 754c b6bf
00000360: 862e edcc bcd1 d5bf e648 fc77 5e07 d23f
00000370: c82a 7fe0 ceb8 113f 955d 9aef bb8b a4bf
00000380: 7bbd a537 1770 dcbf a92f 937e fe33 ad3f
00000390: 3c49 c1a7 aabe c9bf 2de3 81cb 5311 b13f
000003a0: 8764 ef92 ec28 bc3f 235a 627f 75d2 d1bf
000003b0: 9058 1c1c 0623 c93f 6e8d 40f0 9f4c c6bf
000003c0: 6f00 2adf c185 b8bf c508 bd7b 6a61 973f
000003d0: 8406 bc59 0b34 c7bf 4437 0717 0e0b b5bf
000003e0: ec97 2928 7a28 d73f 5994 ba31 8c36 b63f
000003f0: 36d2 b587 b2f2 cdbf c62d e3ae 2a20 c33f
00000400: 259a 07a7 cff9 a4bf dd47 adee fb89 a53f
00000410: aa1c 76b2 9f56 95bf b281 fc8d a603 d0bf
00000420: 2bb6 1423 b0f0 c1bf 8946 a741 0c8f 773f
00000430: aa5c a207 f792 d0bf 4bd6 b940 fa7a af3f
00000440: f0b5 cc68 39a9 c13f 95fb 0714 c491 c3bf
00000450: ad23 231e 8b5f d23f 6ec2 608c 5bf2 903f
00000460: c92a c7d3 6928 b53f 1fd2 2b5e 1061 b43f
00000470: 75c2 949e 7361 b03f 9093 2376 f325 d53f
00000480: f5e1 c4ec c9d8 b4bf 2e82 2916 7f43 ccbf
00000490: 2415 7b35 c1db da3f 710f 46c3 66ca 823f
000004a0: 91e3 278d b0d9 d43f 98de 916c 5e37 b43f

b1 f8 [50]
-0.001979726642983098 0.001930417302680923 0.0011094545763406301 0.0020033632630120754 0.0019494096904575796 0.0002783898300358108 0.0019277368977538075 -0.001965765840512017
-0.0019426999022318441 -0.0018790919586653511 -0.0012573461970078216 0.0018096846117154751 0.001913623769795069 -0.0018938237286099985 -0.0017908909861249493 -0.0018957151188142619
-0.0019669728652471586 -0.001954605014643809 0.001989879712263527 0.00195703322248171 0.0018753507924810372 -0.0011747223949430039 0.0014670055604242447 0.0019494110797067632
-0.0019276490375229188 -0.001959493073083067 0.0018545554052990807 -0.0015852156451853867 -0.001986396165675992 0.001923494859687716 -0.002002915678226041 0.0018587736907027031
0.0019898216831429516 -0.001979483476039367 -0.001874318507028331 -0.0019498708069191702 0.00206500518652829 -0.0011611060937641643 0.0016156155097853302 -0.0019480123007665675
-0.00013028815781962062 -0.0020002746411244905 -0.0019282835778415216 -0.0016340005066540063 0.0017794844772058489 -0.0018130191396575797 -0.0018731111670212267 -0.001750852913590436
0.0018443487680596296 0.0020013866077281334
00000000: 3fe4 f8a5 c937 60bf 747d b0cb c1a0 5f3f
00000010: 9d40 cbc7 632d 523f d9e9 4a76 5b69 603f
00000020: c244 7db7 6af0 5f3f 36d0 2d37 9b3e 323f
00000030: 9de1 97bb 8395 5f3f 2417 e47f 821a 60bf
00000040: 2120 f222 46d4 5fbf afa0 8da0 7bc9 5ebf
00000050: 8b00 f032 b199 54bf bd0f 4c0e 5ea6 5d3f
00000060: 9601 85e0 515a 5f3f 9225 a4be 4507 5fbf
00000070: 02b6 d48d 8a57 5dbf 1a92 059c 340f 5fbf
00000080: f67d 1b84 0a1d 60bf b9ec a993 1a03 60bf
00000090: 434c 3089 144d 603f 9f00 0236 3208 603f
000000a0: 417a 9f94 cab9 5e3f 5b84 2991 243f 53bf
000000b0: 4cb4 ec39 1109 583f 2efd 5c35 6cf0 5f3f
000000c0: 40c5 c164 2595 5fbf f0d7 4cd5 5a0d 60bf
000000d0: 84cb 1eb4 9162 5e3f 277b 9a56 e0f8 59bf
000000e0: 29f9 3052 c645 60bf a66a 0ce1 b883 5f3f
000000f0: a542 b52a 6b68 60bf 1a3b 950d 4374 5e3f
00000100: a920 ba61 f54c 603f e5a9 5c19 4737 60bf
00000110: aa89 282c 76b5 5ebf 2297 37d6 59f2 5fbf
00000120: e62d c037 a1ea 603f 9c37 cb2c 0806 53bf
00000130: d48c c1f1 6178 5a3f d395 ef47 8eea 5fbf
00000140: 6be7 f7c0 be13 21bf d12d 5545 e162 60bf
00000150: e51e dfb9 ce97 5fbf bde8 36af 7ec5 5abf
00000160: 5f9f 88e8 b227 5d3f d0c5 5b7a 5ab4 5dbf
00000170: 3f71 10cd 65b0 5ebf bd29 4100 9caf 5cbf
00000180: 53fa 0969 c237 5e3f 72e9 db40 3665 603f

W f8 [1, 50]
-0.23686510183772264 -0.27649599389651347 -0.15751487315722967 0.49734235736910465 0.39654154919461804 0.12300646575106859 0.11839966428663348 -0.18222594965968994
-0.12270826562544755 0.30933293614083746 0.11185730648150846 0.23442598771701373 -0.1356874585421526 -0.33343455056116567 -0.006831945634706199 0.3108163414619765
0.2819841272252905 -0.10468048846753353 0.18977384657301316 -0.059110418910920184 -0.23733997935300843 -0.30264558169625905 -0.10456188363418317 -0.25192992504523143
0.27684132544692647 -0.2581158733936585 -0.07252199225393194 0.11086079897511196 -0.2048359608836245 0.28290884475077177 -0.05187931557428161 0.1807396560626306
0.028280437850559174 0.11290932021560011 0.0031080241018304174 -0.11934514907608149 -0.11249413967571256 -0.02395368792026261 -0.38270193556487625 0.0862922268250878
0.1541967850655611 -0.12380431783202667 -0.020928486668192987 0.02661457527554078 0.16935919399904567 0.0284934842787175 0.17162732373099934 -0.08746990596664221
-0.0795875308716104 -0.13829886920249168
00000000: 1276 fa7c 9851 cebf b4ac d040 1cb2 d1bf
00000010: 9404 6c86 7229 c4bf df36 f409 75d4 df3f
00000020: a4f2 52ce ef60 d93f 23ee 980b 5a7d bf3f
00000030: a6ed f7bd 704f be3f 33ad 220f 2e53 c7bf
00000040: d767 cf13 cf69 bfbf 443c 135f 1ccc d33f
00000050: 4e1f 2831 aea2 bc3f 7cdd 49b7 ab01 ce3f
00000060: 413c 75e6 345e c1bf 0a11 81de fd56 d5bf
00000070: 5316 1b71 d0fb 7bbf 490f 6939 6ae4 d33f
00000080: 531e 1b27 070c d23f 1853 7f2a 57cc babf
00000090: 3e67 5568 824a c83f c288 2688 b843 aebf
000000a0: d05f ad0c 2861 cebf 5d84 ea92 8b5e d3bf
000000b0: 08f2 9d4e 91c4 babf f5fd 3cb1 9e1f d0bf
000000c0: 3174 bead c4b7 d13f aa78 b370 f884 d0bf
000000d0: dead f820 cd90 b2bf 5bac 0192 5f61 bc3f
000000e0: 861b 8594 1038 cabf 8509 fdb2 2d1b d23f
000000f0: 61f7 75f7 ec8f aabf 768c f01f 7a22 c73f
00000100: 3125 bd0e 8cf5 9c3f 0b56 bd0d a0e7 bc3f
00000110: fadb ebbb ff75 693f cecf 3758 678d bebf
00000120: 7a1a e67a 6acc bcbf f6c8 f1c8 5087 98bf
00000130: a17d 5742 307e d8bf 3cde 1c54 3f17 b63f
00000140: 6ba1 8062 b8bc c33f 5c30 31c8 a3b1 bfbf
00000150: 95bb 2df7 466e 95bf 5e1b 9fe9 d940 9b3f
00000160: 6d5c c0e3 8fad c53f ce35 815c 652d 9d3f
00000170: a127 4357 e2f7 c53f e3cb 8281 6d64 b6bf
00000180: 2751 4332 d95f b4bf b434 2600 c7b3 c1bf

b f8 [1]
0.0020065928456641327
00000000: 95a2 c054 2170 603f

layer1.Uzl f8 [50, 3]
0.2779504641997391 -0.14559510612207036 -0.3394640736599989 -0.006541142044818045 -0.3980005679739846 0.08386232814106019 -0.09427657999439738 0.23872896576031183
-0.09365234109681203 -0.009530558633158685 0.1470878050303474 -0.12054199584199259 -0.18342747970598888 -0.03138958912629583 0.10781008913320045 0.271024828411123
0.1732881733637022 0.02994950423540953 -0.061034701877888495 -0.1917347825808285 -0.07434294412782325 -0.09564074610802387 0.11031762289299415 -0.2181986635803622
-0.3531902523294757 0.3293268734311469 0.035460357806549846 0.15183253560966276 -0.13516933091032796 -0.057272467970475485 -0.21251398788036036 -0.1216561557676185
0.050772480593108814 -0.11219353128678865 0.231776277998152 0.42878070378055055 0.2234931267080402 0.1005348651129503 -0.23739556053537536 -0.07557503353132404
-0.14556969209438161 -0.060011701433460886 -0.29974354203810416 -0.035108247086196594 0.13883752984417996 -0.25846582145386515 0.41009001125212186 -0.5023047371455822
-0.04920985852937233 0.11661277966483459 0.27612579141711596 -0.342449813978799 -0.03262180263081385 0.06890256861840048 0.08484368319365994 0.48749166017806717
0.37434631799312096 -0.34043457093602403 0.09731431799232984 0.35879353358537325 0.04439345482959688 0.2766805705559704 0.06316056442541182 -0.08270628271744518
-0.14094930526886895 -0.1373111686355662 0.05753941572222988 0.047917256229577064 0.1525839165304646 0.2368946102344051 0.16643025749417512 -0.06614707153622504
0.1837231174210422 0.11865908932636868 0.032396169260647124 -0.06299456380925335 -0.1322626934788889 -0.03758469315432469 0.3616701866900144 0.2652871850143269
-0.0026887189188116523 -0.3134947112040099 0.35793465744408476 -0.18387956521264168 0.012677398150405172 -0.02475034372441965 0.06685678840259374 -0.0819296674885666
0.34589774205715396 -0.12571734787917968 -0.14665259796753224 -0.35649063253959185 0.049344872808084875 -0.14346681219116192 0.13152149019549636 0.02874399902420862
0.23914066926015576 0.1431877338331587 0.28144193942354767 0.12621159782518032 0.3582097051901044 -0.12175196897310665 -0.11917114345018813 0.08911659103805962
-0.29880218055974517 -0.010837850645596787 -0.10227862785486433 -0.22856665888093966 0.05553002245215525 -0.28246453985194964 -0.15056704828314527 0.15602556804790904
-0.0012914416603874972 -0.2512800470758108 -0.22677233387250026 -0.3154842905953911 0.05437312636161143 0.029018707576039606 0.03227564943972026 -0.1189052692779393
0.3296984853155718 -0.17434198509506244 -0.11863309941254908 -0.04535034552374788 0.27498406016548804 -0.08380181157196515 -0.2818978904118685 0.1107176337211552
-0.1083193384015164 0.12773786034806234 0.14506598347279379 0.0878956736880194 0.09739735158201503 0.11209204187454175 0.11157977887402304 -0.2983434209822085
0.22529846023881514 0.2615896765635029 0.021257772376633104 -0.23553431810938655 0.11943119724409045 -0.055220308993622916 -0.004062700237799181 0.06998577665828301
0.057004060860254765 0.028125049543303395 0.14610507025525882 0.05795219664901112 -0.28663406317920426 0.023897573241247756
00000000: 6656 69be f0c9 d13f 9f3f a045 dca2 c2bf
00000010: 2758 a285 c7b9 d5bf 0864 9372 e2ca 7abf
00000020: 4b36 cf5f d778 d9bf 4f76 bb64 0078 b53f
00000030: 4dcb da8b 8222 b8bf 6233 46b6 ab8e ce3f
00000040: 9463 348e 99f9 b7bf 0fdf 22ed c184 83bf
00000050: 4675 1ff0 c5d3 c23f db98 ef19 d7db bebf
00000060: c630 4339 8d7a c7bf 5cf2 76d5 4b12 a0bf
00000070: 5885 0127 7199 bb3f 9981 9b85 7858 d13f
00000080: 19ba b08e 4e2e c63f 5dd6 e334 15ab 9e3f
00000090: fe28 f9c0 f03f afbf b25c 58ee c38a c8bf
000000a0: a6a4 b7a1 2308 b3bf c8f1 b274 e97b b8bf
000000b0: 7674 7f96 c63d bc3f 5be5 0d0e efed cbbf
000000c0: 7959 c149 ab9a d6bf 4f2a c505 b113 d53f
000000d0: 4bcc 2a2a dc27 a23f d6c4 749f 3f6f c33f
000000e0: c24d d787 3a4d c1bf c2ee c921 d152 adbf
000000f0: 88c0 f189 a833 cbbf 5b06 619a db24 bfbf
00000100: 134f 5ebf d9fe a93f 1713 b31b b7b8 bcbf
00000110: 2fce fe56 d8aa cd3f 4a2c f99e 2471 db3f
00000120: a7c0 0b3b 6c9b cc3f a194 c425 a7bc b93f
00000130: f485 5b4c fa62 cebf 7b40 69a9 e258 b3bf
00000140: b7c5 6a15 07a2 c2bf 7d6c 118e dab9 aebf
00000150: 3a6a 8f89 ff2e d3bf 4936 1c4a b5f9 a1bf
00000160: c8af 119d 6dc5 c13f d1cc 913a b48a d0bf
00000170: ea9f af2c ea3e da3f 1e51 5562 e112 e0bf
00000180: 8283 0cda 0832 a9bf 2dc4 f4ca 55da bd3f
00000190: 0bfe ed82 0bac d13f bbda e39f b2ea d5bf
000001a0: e42f df0e ceb3 a0bf a790 d346 99a3 b13f
000001b0: b5c5 96cc 50b8 b53f 1f67 6238 1033 df3f
000001c0: 6324 4a42 4af5 d73f e245 2615 aec9 d5bf
000001d0: 6aa8 3555 97e9 b83f 3afd 3027 79f6 d63f
000001e0: af94 4c29 bdba a63f 327f 7e6c 22b5 d13f
000001f0: aea2 9a6e 4a2b b03f d0f5 712b 3d2c b5bf
00000200: 0409 4378 a00a c2bf 7a28 5591 6993 c1bf
00000210: d10e 8469 ce75 ad3f 7b15 d750 9c88 a83f
00000220: 9a6c b2a9 de87 c33f 8e18 c705 9052 ce3f
00000230: b64c 8030 964d c53f 0a69 f9b4 03ef b0bf
00000240: 7cd8 6b36 3d84 c73f 46a7 072c 7160 be3f
00000250: 3df6 fa0e 3b96 a03f 85f3 6267 6920 b0bf
00000260: 7181 7ce3 fbed c0bf 6325 db07 4d3e a3bf
00000270: 9a65 f1b5 9a25 d73f cacd eb19 77fa d03f
00000280: 52c0 61fa a606 66bf a1c5 051f 4c10 d4bf
00000290: 99f2 f4c3 66e8 d63f efd8 7e97 5d89 c7bf
000002a0: 1388 a293 9bf6 893f 02cf 7173 2758 99bf
000002b0: 5469 b4c7 861d b13f 1380 6fba 57f9 b4bf
000002c0: 7a53 7948 3023 d63f c528 d78c 8117 c0bf
000002d0: 2b6e 1228 83c5 c2bf 29a0 0516 bed0 d6bf
000002e0: f23b df2d bb43 a93f ae11 36d9 1e5d c2bf
000002f0: 0e30 8e39 b2d5 c03f f698 0f1f 116f 9d3f
00000300: 84d6 ce54 299c ce3f fa39 00c5 f953 c23f
00000310: 3c01 630d 2503 d23f a87c 849e b327 c03f
00000320: e6ae 3966 e8ec d63f b58d f614 232b bfbf
00000330: f3d7 be03 0082 bebf e31a 0a4c 58d0 b63f
00000340: e090 5e2e 931f d3bf 6477 a7b0 2732 86bf
00000350: ca65 b7a1 ee2e babf 79c0 6c1a ac41 cdbf
00000360: 359d c15c 6e6e ac3f 6c67 3c26 e613 d2bf
00000370: 449d 1df2 c745 c3bf 0984 0d54 a5f8 c33f
00000380: 782f 8cec b228 55bf 19fd 14e8 f814 d0bf
00000390: 8f5b cf36 e006 cdbf e392 a005 e530 d4bf
000003a0: 4440 025f cbd6 ab3f 578c 0b80 14b7 9d3f
000003b0: 1dfd 9915 6f86 a03f 3fee de62 9370 bebf
000003c0: c826 feac c719 d53f 1ec9 2692 d650 c6bf
000003d0: 3134 3322 bd5e bebf 460a c615 2938 a7bf
000003e0: 9840 55be 5699 d13f ac11 0c18 0974 b5bf
000003f0: f057 0873 9d0a d2bf 1a41 eca7 fd57 bc3f
00000400: 7f78 f5ef d0ba bbbf f0f5 53d6 b659 c03f
00000410: 858c 63ab 8591 c23f ae2e f3b3 5480 b63f
00000420: 4103 c367 08ef b83f 8436 fe65 10b2 bc3f
00000430: c8a9 280d 7e90 bc3f 251a 0601 0f18 d3bf
00000440: 934d 4877 94d6 cc3f 01ef 73a0 e2bd d03f
00000450: ebe4 92f4 98c4 953f e9c7 ae10 fd25 cebf
00000460: 1f16 49fe 0a93 be3f 7abe 671a d645 acbf
00000470: 6b0e 7aca 0ca4 70bf 62b7 ee7d 96ea b13f
00000480: 0e9a 44e2 a22f ad3f 7a8d f21f d0cc 9c3f
00000490: de57 4329 92b3 c23f 867f ad0a e9ab ad3f
000004a0: ce8d d165 3658 d2bf a285 19fe 9a78 983f

layer1.Wzl f8 [50, 50]
-0.10548206462756275 -0.009094684800263115 0.16064952960108397 0.12291241661445967 0.28051848580605504 -0.1672530850073449 -0.10513841315852997 -0.06387883723980478
0.12500763678665555 -0.20929185069736692 0.05045008562942939 0.04510389033375374 -0.015492554707658656 0.026111180330511248 -0.06945164915135289 -0.026449911550561287
0.013234694407760483 -0.04752146777467291 0.11226157214817223 -0.06388122561121165 -0.11693571792715653 0.1500682516883565 -0.12047125029022249 -0.26985314710391617
-0.11894243288301452 0.22189889666455595 -0.17290021115549536 0.11885747403928325 0.058165384619506474 0.02779892492603323 -0.1266039777056142 0.13145189426761825
-0.012147577941504008 0.15200506242868422 -0.04368830403009087 0.07286592381331347 -0.03834690233594336 0.05740371258455066 0.1515734602994009 0.09916936735749052
-0.061056887535322436 0.10852598372594358 0.003168024952931924 -0.3367280411996843 -0.04383971736886348 0.119611135836878 0.07359947302902232 -0.16612875987229975
-0.012626841836037303 0.23244973703438457 -0.158388276634559 -0.1077821159502402 0.0922685953111326 0.04218485931774331 -0.03316098511407156 -0.21256732600977232
-0.10359368067586514 0.11572852511743197 0.10682407667701281 0.14146945034946787 0.10818824280209909 -0.15764067694872283 -0.024008035160787457 -0.0010025959108051193
0.10045304691652944 -0.22039760613865245 0.12161145154294783 0.12457427936295698 0.07880737587205072 -0.01702893774997782 0.07203165298129978 -0.14842506610668593
0.07104575125757408 -0.007309963365197205 -0.09387439910034097 -0.05085616127572786 0.07900803835340678 0.10091280339651092 -0.14841652841032962 0.026259759573887195
0.06287375123770113 0.06568757844122927 -0.04251984558423133 -0.041205308464951025 0.10816109846208079 0.008742444458051512 0.07852126814058383 -0.05853221693675758
0.11625057849932355 0.016356235510561746 -0.09074716420060275 -0.20586653350005726 -0.1705498621413538 -0.023806717810028653 0.06690151128175233 -0.03376843042544624
-0.11385181993303402 -0.02924140045716886 0.21547551906856355 0.008899475303043735 0.04618701899064633 -0.13075694310587735 -0.03361016767180963 -0.2952444291813221
-0.06196705410932041 0.1372583897394634 0.05579849927398352 0.028981468509047804 -0.0001550675068523171 -0.2300364953301176 0.23604607224221702 -0.15997186059978116
-0.1284454481959752 -0.3649007089843476 -0.17735414347236508 -0.33592508296952994 0.0153013873053643 0.18585445126030153 -0.06120119125484581 -0.01821021356364294
-0.1759403957098736 0.06680445657661017 -0.10115738700037633 0.24766455610384808 0.1642356182556024 0.010103011484510684 -0.18339432365808797 0.09654952282153782
0.01668767632428949 0.16459588573529607 0.1470463637297575 -0.1438374088901418 -0.024889541544960078 0.039293959669305795 -0.08760672521408705 -0.19340908015497435
-0.008051855928344459 0.01879968166156542 0.39649862675914554 0.24460771851255164 -0.10387032821761222 -0.11195463417212227 -0.48785127265332273 0.18114668774156703
-0.23660954863526412 -0.24021442090003667 -0.12367929289639028 -0.18694671386242176 0.07505502533699192 -0.11493393773373183 -0.18709956510851827 0.04554759885592696
0.13521398782504573 0.3120713479773575 0.005281814654795351 -0.1430901037666773 0.1592606494614138 -0.043421176764711154 0.008071104702483192 -0.051038240429319905
-0.02706064953678812 -0.10498291502123451 -0.17094636285610468 0.06957264597543195 -0.19387612272672824 0.0445065336518526 0.07295705467568307 -0.22325817355412583
-0.09556296706043178 0.01115738790004941 -0.3103631386260378 -0.09331749112815553 0.08447301011128455 -0.19244358231743605 0.29680745643360823 -0.03841221834019832
-0.09562509977377567 -0.03378815653873378 0.01883715976869249 0.07582415097293849 0.008367623267987097 -0.08654959453000072 0.22008930984347994 -0.2026267714960665
0.20868731411135236 -0.04845039211541682 -0.0037080220991796433 -0.20548193208573393 0.07532838980823486 -0.16670274490966094 0.04924508256305162 0.07796058780575259
0.007858066802078921 0.005124540957958814 0.04332555748287584 -0.05477188006653281 0.16416398992348774 -0.19823998463030512 -0.05062288444083095 -0.013235640387271416
0.2991954514303477 -0.06047156883965963 -0.01766062326172893 -0.0060903866020941945 0.0025856275673240715 -0.0019759504964603535 -0.19922400948256694 0.1665907778414739
-0.15782439449232555 -0.14537004862784933 -0.006344671002765675 -0.1588926076648677 -0.12398498834445325 -0.2120852766350013 0.14731139555617842 -0.1442784340580896
-0.19807057677874548 0.07519224676230574 0.04421070841394226 0.11775804568103887 0.065222990402573 0.13757877839913774 0.08946157549041589 0.058524971590178165
-0.05421038866342746 -0.2619519641708903 0.1712199273859436 0.07321050811661169 0.05891558407661891 -0.011212197633914045 0.12632812483086725 -0.24657996180628078
-0.09646053207217915 -0.01856808659300804 0.0180039278322392 -0.034585324254459 0.08797085698769018 -0.32996403279140196 0.2444550930899546 -0.41932873332577664
0.13559169652797076 0.15648645608442766 0.018547317683744013 0.08423663571840398 0.06432304083538554 0.10432478630820488 -0.039971785360989116 -0.11527884176349329
-0.0545470427910001 0.13943602199145225 -0.15515923267175713 0.15107266170622605 -0.04227612575587436 -0.1984455790226682 -0.0017074011800653017 -0.07832900617664844
00000000: 23d3 e361 df00 bbbf 8ac6 46ee 3ba0 82bf
00000010: 7a91 e0ed 2990 c43f 7ca5 a129 3077 bf3f
00000020: f577 9dce 03f4 d13f e37d 2191 8c68 c5bf
00000030: 8db8 11de 59ea babf d6f9 d90c 5d5a b0bf
00000040: 02dd df0f 4000 c03f b941 084b 13ca cabf
00000050: 7ab4 b7f7 97d4 a93f a2ca cf6b db17 a73f
00000060: 4636 687e 8fba 8fbf 9269 51a6 e3bc 9a3f
00000070: b521 c251 95c7 b1bf 99f4 5d84 af15 9bbf
00000080: 4028 3b9d ca1a 8b3f 7e78 e6db bb54 a8bf
00000090: 6854 f9a4 2cbd bc3f f61b d41e 855a b0bf
000000a0: 393e 3bcc 7fef bdbf 81ae 95bc 6f35 c33f
000000b0: fccf 1a30 34d7 bebf 022d 6222 4645 d1bf
000000c0: 47d7 56e3 0273 bebf 13ac 18dc 2e67 cc3f
000000d0: 4832 3118 9821 c6bf a746 e283 716d be3f
000000e0: de6b 6671 dac7 ad3f e961 af45 5277 9c3f
000000f0: 1602 e523 8f34 c0bf bb36 7069 6ad3 c03f
00000100: c1fd df4f d4e0 88bf da93 fae1 e674 c33f
00000110: c6cb 0d3a 505e a6bf d860 c557 57a7 b23f
00000120: ea1e df86 34a2 a3bf 2d73 70f8 0464 ad3f
00000130: b4b7 7657 c266 c33f 22c0 90e5 2963 b93f
00000140: 0dcc 512e d942 afbf 0081 dede 5bc8 bb3f
00000150: 4ba9 1a72 d4f3 693f 7d52 26c5 f38c d5bf
00000160: 2ef5 bad0 2872 a6bf 5924 a8dc d59e be3f
00000170: 9d98 a941 6ad7 b23f decc 490b b543 c5bf
00000180: e57d e605 1adc 89bf c163 43b9 e9c0 cd3f
00000190: b88c 1b2a 1146 c4bf 1697 19d7 9b97 bbbf
000001a0: fe25 4f27 ea9e b73f 32e8 4ffe 4099 a53f
000001b0: 68db 2205 7afa a0bf 8b7f b4f8 6735 cbbf
000001c0: 463a 938e 1d85 babf bbfb 9776 62a0 bd3f
000001d0: 83cf c09b d258 bb3f e328 51c3 ab1b c23f
000001e0: a38f a584 39b2 bb3f e7cc 01d8 912d c4bf
000001f0: 0a5d 6df7 8f95 98bf 7904 7929 316d 50bf
00000200: 8f40 4a77 4ab7 b93f c4b8 3d1f fd35 ccbf
00000210: 5030 3297 ed21 bf3f 1263 c997 19e4 bf3f
00000220: 64d5 0d5e b82c b43f df18 e3aa 0870 91bf
00000230: 69dd d499 aa70 b23f 80dc 6ab2 97ff c2bf
00000240: b9c8 2bea 0d30 b23f 1c6a 6a59 0df1 7dbf
00000250: 4d4f 1112 2708 b8bf bb6d f59a d109 aabf
00000260: ca57 d9ec de39 b43f ebef 55e6 6bd5 b93f
00000270: f9a6 da13 50ff c2bf 4c5d 48a2 d6e3 9a3f
00000280: 81bf 5781 7e18 b03f 6694 28b1 e6d0 b03f
00000290: 6834 6e44 29c5 a5bf f99e 8eb8 dc18 a5bf
000002a0: 2915 981c 72b0 bb3f 0682 4608 8fe7 813f
000002b0: 024a b446 f819 b43f cff1 024b eff7 adbf
000002c0: 62b1 cb10 99c2 bd3f 7d05 6a62 b0bf 903f
000002d0: bc42 72c6 343b b7bf 0da0 5ca6 d559 cabf
000002e0: 9301 1ef0 93d4 c5bf e63b adc9 c960 98bf
000002f0: ed12 021b 7520 b13f c70b a180 184a a1bf
00000300: 8dd4 3393 6425 bdbf 4872 9c2a 75f1 9dbf
00000310: 387a bea9 b394 cb3f 596a 065b e339 823f
00000320: 9b0d 2130 d3a5 a73f b3ad 2ebd a4bc c0bf
00000330: b84f ed15 5a35 a1bf e43c eae3 48e5 d2bf
00000340: d871 a84d 25ba afbf cd2c 84d3 ae91 c13f
00000350: 2264 18f3 9e91 ac3f 5de3 be6d 51ad 9d3f
00000360: c0ab bfbd 3353 24bf e426 2afc d571 cdbf
00000370: ee95 50f8 c136 ce3f db35 c73a f579 c4bf
00000380: f22f a983 e670 c0bf c7ff d780 885a d7bf
00000390: 270f 0363 8ab3 c6bf 68a7 50eb cb7f d5bf
000003a0: 26d1 7a70 5556 8f3f 9050 fd22 14ca c73f
000003b0: 42e4 d435 c355 afbf e009 d6be b2a5 92bf
000003c0: 2342 cf02 3785 c6bf 613d 39cc 181a b13f
000003d0: be59 ea54 73e5 b9bf cc14 6ce0 78b3 cf3f
000003e0: f081 9f38 ac05 c53f 1431 563f e3b0 843f
000003f0: 6917 3117 7779 c7bf 4f81 f632 78b7 b83f
00000400: 6679 3c00 9316 913f 2106 255d 7a11 c53f
00000410: 1286 9b4d 6ad2 c23f e2f0 8fa3 4369 c2bf
00000420: 2cca cadb a47c 99bf 9c86 6b7f 561e a43f
00000430: fe43 b4f3 646d b6bf 67ed 01f5 a0c1 c8bf
00000440: 8322 13cf 7d7d 80bf 7e83 a547 3940 933f
00000450: 65b9 b5c6 3b60 d93f 9627 ae43 4e4f cf3f
00000460: 982c b8ee 3e97 babf 21a8 6714 0fa9 bcbf
00000470: 7ae9 568b f438 dfbf 077b d08d d02f c73f
00000480: e6a6 a7c0 3849 cebf c588 e59c 58bf cebf
00000490: dbb1 2e36 72a9 bfbf 6b1f 11b3 deed c7bf
000004a0: 7f0b 395f ce36 b33f 2752 c47f 4f6c bdbf
000004b0: 0653 9ee8 e0f2 c7bf b0bc fece 0352 a73f
000004c0: d6cc d523 b14e c13f 6f35 651a faf8 d33f
000004d0: 5e48 4b53 62a2 753f 6c91 07ca c650 c2bf
000004e0: b3fd 7c28 a762 c43f b308 51ec 4c3b a6bf
000004f0: c805 eb55 9587 803f 5d87 fa2a af21 aabf
00000500: a47a 1373 c9b5 9bbf c3aa a70a 29e0 babf
00000510: b526 eb06 92e1 c5bf 6c21 294f 83cf b13f
00000520: 0f15 4bcb eed0 c8bf 7a6e fc74 8fc9 a63f
00000530: f333 d843 50ad b23f 9565 fd4c b993 ccbf
00000540: 39b8 3b8a d076 b8bf 4db1 1d41 afd9 863f
00000550: 8618 925a fddc d3bf 6d4a 8ab4 a7e3 b7bf
00000560: d498 d2ef 05a0 b53f c371 30c6 fda1 c8bf
00000570: bbd7 a5b3 e4fe d23f e96f 132b c4aa a3bf
00000580: aa81 34f4 e27a b8bf 2ee8 a666 ae4c a1bf
00000590: 80ce 9f64 0c4a 933f 20fd ac28 3669 b33f
000005a0: b101 4062 0b23 813f ac08 fd3d 1d28 b6bf
000005b0: ef0c fdf1 e22b cc3f 5e51 6f8e acef c9bf
000005c0: 2163 9912 44b6 ca3f 336a 3a63 7dce a8bf
000005d0: 0326 c334 4960 6ebf 4712 1d61 3b4d cabf
000005e0: 20cc afaa b848 b33f 9f2c c5fa 8356 c5bf
000005f0: 93ba 31c6 a636 a93f 43ad 009f 39f5 b33f
00000600: 8ccf 65df e317 803f 29a4 247d 78fd 743f
00000610: 5499 f078 c42e a63f 559c 4053 0f0b acbf
00000620: 0a7d f35b 5303 c53f f893 5f85 ed5f c9bf
00000630: 3e82 3422 3eeb a9bf b8ee d694 491b 8bbf
00000640: d556 c0ad 0426 d33f 0d20 0225 21f6 aebf
00000650: 482b 585d a015 92bf ad75 6ab4 3bf2 78bf
00000660: 24df eb3a 742e 653f ca92 5858 de2f 60bf
00000670: 851e a71e 2c80 c9bf 7879 52bb d852 c53f
00000680: 5c82 6dfa 9633 c4bf 6957 565a 7c9b c2bf
00000690: e343 5fa7 defc 79bf 0596 bfcc 9756 c4bf
000006a0: ef65 22ee 7abd bfbf 0323 8e3f 9c25 cbbf
000006b0: c7f6 1e8d 19db c23f 5817 e639 b777 c2bf
000006c0: cb43 c86c 605a c9bf e8c1 c190 cc3f b33f
000006d0: 00b0 8a35 c9a2 a63f c87a 0a2b 6425 be3f
000006e0: 93f3 b932 74b2 b03f e688 ec70 2e9c c13f
000006f0: 68df fa2c f4e6 b63f 6852 f52d fcf6 ad3f
00000700: b563 d3cc 76c1 abbf fc29 cf2b d2c3 d0bf
00000710: 58e7 45da 88ea c53f 919a 1582 ecbd b23f
00000720: 02ea aaf5 2e2a ae3f d349 3bb1 6bf6 86bf
00000730: 9a56 5b1e 852b c03f aa48 e7a3 ee8f cfbf
00000740: 1dd2 9a2e a3b1 b8bf 8741 aa32 8303 93bf
00000750: 71bf f424 9f6f 923f ab5c 30e9 2ab5 a1bf
00000760: 8b62 c311 4285 b63f 8080 6c76 211e d5bf
00000770: 1cbc 14f3 4d4a cf3f 7711 fa2e 48d6 dabf
00000780: 7430 1997 115b c13f af24 9389 bf07 c43f
00000790: f053 856b 11fe 923f c61d 893b 8890 b53f
000007a0: b86a c48c 7977 b03f 221e 5b79 07b5 ba3f
000007b0: 81bf c68d 2e77 a4bf ac82 4b07 ea82 bdbf
000007c0: d2ff c209 97ed abbf 4537 2b21 0ad9 c13f
000007d0: 0cb3 fffa 41dc c3bf 6588 ac56 5956 c33f
000007e0: 00cf 0b63 37a5 a5bf 1715 f82b aa66 c9bf
000007f0: 27a8 b00e 5cf9 5bbf f35c dba7 5e0d b4bf

layer1.bzl f8 [50]
0.0019525835669503963 -0.001903671404178988 -0.0004911249094188487 0.0016312637277601997 -0.0019134606678405982 0.0007313730337414553 0.001939141323678867 0.0017153919927794655
0.0019588629080534454 -0.0012427835346762004 -9.936100033834608e-05 0.001976331155832315 0.0019470050222693052 0.0017781274119752508 -0.0016530124738237308 0.001986710202508505
0.000626612799377137 -0.0008095353887643043 0.00203029286805437 -0.0019073889591481156 0.0007207735881430513 0.0016578351889838321 -0.0020407597514976975 0.001927816311235708
0.0019606048847107993 0.0018194251128638907 0.0007220903182621415 -0.0019342199466887517 0.00010398091089341899 -0.0016127914499081853 -0.0018907563250708053 0.0019738031432045603
-0.001966230571998029 0.0019286752144616543 0.0019284026800890444 -0.0013010624713248333 -0.0014387145344106407 0.0019200256243499221 -0.0015865375938065706 0.0009906605543325705
-0.0019312941856013213 -0.0019904228310886193 -0.0019420577344254112 -0.0019161596675386341 -0.0012092642286717892 0.001894794534740857 0.0019378496092235555 0.0019310842462735033
0.00012447997013385347 -0.0018944964638661272
00000000: 3c3e 04a4 bafd 5f3f 7001 179b 9330 5fbf
00000010: c458 4cb6 da17 40bf 5e0f 2917 04ba 5a3f
00000020: 134c 65bf a259 5fbf c796 6ba1 33f7 473f
00000030: 814b 5224 59c5 5f3f bc4f 9020 e01a 5c3f
00000040: c4f6 1384 080c 603f b2d7 cba8 9c5c 54bf
00000050: d9bb e0fc 000c 1abf 3b8e c5b5 aa30 603f
00000060: 1cb2 54b9 54e6 5f3f 0494 48c5 0122 5d3f
00000070: 58fd f4a0 3c15 5bbf eebc 15eb 6e46 603f
00000080: a9a3 83bd 6888 443f 3471 8502 e086 4abf
00000090: 46ed 062f d5a1 603f 3598 d14c 2b40 5fbf
000000a0: 541c 947e 499e 473f 2155 cefa 7629 5b3f
000000b0: 799b 888c c8b7 60bf 98df 9a00 d995 5f3f
000000c0: a9d8 86bb af0f 603f 5d89 ddd6 38cf 5d3f
000000d0: c9e9 9d26 55a9 473f 2ce0 83da b4b0 5fbf
000000e0: c74f 6072 0a42 1b3f 4d83 16a2 896c 5abf
000000f0: 2635 2d25 68fa 5ebf 8b9d 5c7e 5d2b 603f
00000100: 9a9d 1900 7c1b 60bf df40 203e 7399 5f3f
00000110: 25b5 729c 4e98 5f3f 06d1 eb30 0d51 55bf
00000120: 1da1 e8f7 6792 57bf 7470 e6d0 2b75 5f3f
00000130: 38d2 12c5 6bfe 59bf 41bb aaab 213b 503f
00000140: aa63 6e57 6fa4 5fbf de20 df1e 384e 60bf
00000150: 1609 349d 94d1 5fbf 7795 c8c6 f464 5fbf
00000160: f69a 1e94 05d0 53bf 4e6a cc23 580b 5f3f
00000170: 103d 8e2c eebf 5f3f 8a89 bfeb 8da3 5f3f
00000180: 37bd 2ccd da50 203f da48 b316 180a 5fbf

layer1.Ugl f8 [50, 3]
-0.23798905013987032 -0.2849799307538552 0.08335121695683845 0.0778876932377294 0.15582907082194447 -0.09576543126830273 -0.3200569965323298 -0.2657868125863029
0.20521142839658765 0.21346782400258063 -0.13279544735663296 0.18760251154691557 0.43537375152544633 -0.10981727438192028 -0.017608349430488827 0.2607798267329559
-0.021689224655153508 -0.3278353629492865 -0.008426248690896502 0.10523538590705726 -0.3450525835180778 -0.1901048930412069 -0.16931859465340504 -0.05830798235563891
-0.14404910358733766 0.1592678230671664 -0.19096610312127446 -0.19810272094859488 0.2133331416612491 0.0634694714270482 -0.3254616137590582 0.20317651948899706
-0.21322198184280036 0.09858877027908919 -0.45588393914557324 0.09927387432706442 -0.32912073008267473 -0.09677312407909065 0.021318210330513447 0.20193585150695734
0.1269867644759477 -0.16414391339794815 -0.06140279324707361 0.011217715117954498 -0.19858960377676366 0.24379742691137501 -0.040023028599570874 -0.013508844848631137
0.17461267507708636 -0.10056992753591079 0.2610681991947921 -0.23388246357088596 -0.3684297215893263 0.33058802907706025 -0.08289506605550975 0.029003466626188537
0.07038502970489964 0.24388719111876994 -0.09230989490266464 0.19354115886511516 -0.19861978193363372 0.087383394967363 0.018209977110981088 -0.028265300278983784
0.47457678894513733 0.2501062408446907 -0.24352901607933508 0.01720327459815656 -0.46733862287696465 0.3344202975228338 0.17522453446599617 0.3013214495240862
0.17707441042278538 -0.02786891147335968 -0.10407339829379468 -0.3145945968742295 0.10942842985501103 -0.0372954731315604 -0.0153634113177552 -0.22840109247053259
-0.1315338971950842 -0.036351041004858455 0.16150988281901954 -0.16787807735402935 0.08719177656138155 -0.1095235217700466 0.11912935150362218 -0.3380790480452001
0.1746224135438442 -0.13752804126358847 0.04765509784861892 0.16276437330124782 -0.032460539234732896 -0.073723562263623 -0.2592550757440044 0.10919679785211522
0.0734065514080455 -0.14424995516725314 0.09619165264207874 0.04778319032592458 -0.15667868713036867 -0.2831751753895845 0.22781194904248603 -0.22350941697732907
-0.07488546969257767 -0.13752620897529239 -0.17380664476293362 -0.24947821528918182 0.15296810738410546 -0.09084436271945076 -0.1816145859692124 0.04450374580133148
-0.09750617197801 -0.12499567782421933 -0.04430388242340426 0.15223571178349993 0.02508700604915674 0.07497828185009874 0.2900635357362588 -0.04514734099084051
0.344282672835464 -0.021714416997159525 0.03133676330813442 0.1566626037762308 -0.04759625374838902 -0.08536675123966048 -0.029976694126372556 -0.16514419438531136
-0.08735532038099277 -0.19218476368845744 0.18731493044844874 -0.027384484078642992 -0.18489231951473728 -0.24913113861301972 0.19999864624688873 -0.1711464593275273
-0.14704403181034367 -0.05248012265680981 0.1408295623310689 -0.029166253870202115 -0.04114643766443973 0.0142820379684416 -0.2630646173911083 -0.03171027441834139
-0.053227571963835714 -0.04948038857200776 -0.2626868173942154 -0.020415569843871675 -0.1701191687081995 0.19489167756371856
00000000: 9213 94d9 6c76 cebf 70aa a676 1c3d d2bf
00000010: f052 e95e 8156 b53f 9a88 37a7 72f0 b33f
00000020: fe20 79fd 34f2 c33f 707b 6253 1584 b8bf
00000030: 0297 3d57 d07b d4bf 460a f1b0 a602 d1bf
00000040: fb48 dd3a 5e44 ca3f 6670 6be5 e952 cb3f
00000050: b42a baf3 70ff c0bf 51e8 deed 5b03 c83f
00000060: fcab 15de 29dd db3f bb96 0122 fc1c bcbf
00000070: be0f c353 ec07 92bf eb92 d1de 9db0 d03f
00000080: 1426 473a b335 96bf f8b9 952c 41fb d4bf
00000090: 4f62 71f4 c741 81bf d74d dacc b4f0 ba3f
000000a0: a911 676e 5715 d6bf bbf5 356d 5b55 c8bf
000000b0: 180e 5251 3bac c5bf 9b5d a03a 8bda adbf
000000c0: 5f7e 7676 3370 c2bf c575 b055 e362 c43f
000000d0: bb74 c6c7 9371 c8bf aa85 dc11 6e5b c9bf
000000e0: 9543 4b19 804e cb3f 0ad6 1208 893f b03f
000000f0: dbb4 ccf2 5cd4 d4bf cc9a 422d b001 ca3f
00000100: 13cd 669f db4a cbbf d8fe 1918 1d3d b93f
00000110: 96b8 59d4 332d ddbf 0cfb 943b 036a b93f
00000120: be01 0965 5010 d5bf 772b 0d9b 1fc6 b8bf
00000130: 8e18 b7e0 70d4 953f a75f 0eb3 08d9 c93f
00000140: 787a 3930 1a41 c03f b2d9 f0f1 aa02 c5bf
00000150: 8a2a c2d9 2f70 afbf 2128 8a3c 50f9 863f
00000160: 7afd c556 626b c9bf 9276 b70b c134 cf3f
00000170: 4314 d8fd e57d a4bf 8422 a776 86aa 8bbf
00000180: 1d2a 7648 b559 c63f da52 ba65 f3be b9bf
00000190: c14d 6464 57b5 d03f fd8a 124e dcef cdbf
000001a0: 466f 4641 5a94 d7bf cd71 55b1 5a28 d53f
000001b0: e64a b56d 9c38 b5bf d43a 85b2 15b3 9d3f
000001c0: 75e5 b5d8 c004 b23f 8a5b e20a b237 cf3f
000001d0: a242 b40b 9fa1 b7bf d5b7 e0e9 f4c5 c83f
000001e0: 902e df7d 5f6c c9bf 8e28 9917 c25e b63f
000001f0: ec3b 9ce0 a2a5 923f a34a 3d31 94f1 9cbf
00000200: 9c71 fd52 775f de3f 4205 3d9b bd01 d03f
00000210: e809 d873 f52b cfbf 8dfc 2137 bc9d 913f
00000220: eb82 5a41 e0e8 ddbf 93aa 3e64 2467 d53f
00000230: e87f 7eee c16d c63f 5183 d2c2 d948 d33f
00000240: 54b7 dcd0 5faa c63f 00ad 69fd aa89 9cbf
00000250: af30 0ee2 8da4 babf fead 4460 5122 d4bf
00000260: e2da 7a67 8003 bc3f b81d c76a 6418 a3bf
00000270: fd6a 5129 da76 8fbf c60b 443b 3f3c cdbf
00000280: 1358 624d 1ad6 c0bf 4535 9588 9a9c a2bf
00000290: 2720 5818 5bac c43f 8fb7 f961 077d c5bf
000002a0: 98af cf44 3352 b63f e424 25c8 bb09 bcbf
000002b0: 9ba5 b3dc 427f be3f dd48 b44d 16a3 d5bf
000002c0: 0be2 a8f9 065a c63f 5a49 c1d3 849a c1bf
000002d0: 16b8 7ebd 3f66 a83f a032 2486 76d5 c43f
000002e0: 8eef d8f4 aa9e a0bf e2eb dd20 8cdf b2bf
000002f0: c01e e999 a297 d0bf 584e 9a43 52f4 bb3f
00000300: 2e15 9c91 c5ca b23f e047 f253 c876 c2bf
00000310: a0f4 3e22 04a0 b83f ee2c 7fcf 0977 a83f
00000320: 5742 9a16 0c0e c4bf ce96 55c5 8a1f d2bf
00000330: 7443 6323 f128 cd3f 0001 22e2 f49b ccbf
00000340: d674 46b3 b12b b3bf 9e24 f274 759a c1bf
00000350: 00ca 8acf 4b3f c6bf 3da1 ddf3 e6ee cfbf
00000360: 1bdb 457d 7594 c33f caef e77e 9341 b7bf
00000370: bf6f 9b91 253f c7bf 774d 88e9 31c9 a63f
00000380: 95bf cd1b 2af6 b8bf cc78 657c b7ff bfbf
00000390: b64e 309c ffae a6bf 645b b2b5 757c c33f
000003a0: eb89 247a 68b0 993f 8bd9 74d4 c631 b33f
000003b0: 7ff5 efa5 6690 d23f c131 1d62 8d1d a7bf
000003c0: 2819 1a31 ba08 d63f cd03 6bdb 4d3c 96bf
000003d0: f350 244b 5f0b a03f a6d0 dc2b 850d c43f
000003e0: 8cdc 8542 895e a8bf cc77 bd6c 98da b5bf
000003f0: b2ec a8e3 35b2 9ebf c82c 01e9 7123 c5bf
00000400: d5ff 2a14 eb5c b6bf be6b 6aa5 8299 c8bf
00000410: a10f 2a86 eff9 c73f 7775 249e ad0a 9cbf
00000420: ec76 cc30 8daa c7bf 780b 6176 87e3 cfbf
00000430: def4 6f3e 8e99 c93f 7ea7 d18e 20e8 c5bf
00000440: b944 d9bd 56d2 c2bf d38b 00b5 acde aabf
00000450: c0ce 42fe b306 c23f e2d0 132a c2dd 9dbf
00000460: 4439 3b58 2511 a5bf 6f1e f5af e63f 8d3f
00000470: f67d 1bfa 0cd6 d0bf 4fde 253f 543c a0bf
00000480: d90a a9f1 a440 abbf 3098 6b55 7e55 a9bf
00000490: 481a 735e dccf d0bf 340a 3cb3 d1e7 94bf
000004a0: 4e20 0305 77c6 c5bf 2e0a b3e2 35f2 c83f
