model2_DGM_state_dict_100_30.pt (torch, 168956 bytes, 8 tensors)

layer1.weight f8 [100, 3]
0	0xbfc31f7a795dcad2	-0.1493981449708231
1	0xbfdfb8a382d61249	-0.49564445282911557
2	0x3fdd359ad73c07f4	0.45639678019517693
3	0xbfd7f38f8634a0a1	-0.3742407618142441
4	0xbfd9ec50e883a441	-0.40504858690707485
5	0x3fa2a339f00de94e	0.036401567986973235
6	0x3f83bd9d79bb3c76	0.009639005925605054
7	0x3fdd8133b04a4c55	0.4610108586868525
8	0x3fdcd9492457eccc	0.45076206731000634
9	0x3fd4ac215c6704be	0.3230060007445664
10	0xbfa4c4fb335c2b23	-0.04056534769013911
11	0xbfe30d8f1010b6d3	-0.5954051317000569
12	0xbfd4f2b531d70904	-0.3273137079924171
13	0x3fb1e7551b39473b	0.06993610300676505
14	0x3fd74aed0ff7dc41	0.36394812163729645
15	0x3f91a0763c7977fa	0.017213675919599304
16	0xbfc6b6dc4d5cf635	-0.17745546128746673
17	0x3fd728f8222f29fe	0.3618755658941665
18	0x3fdfca0760861976	0.49670586038737186
19	0x3fda705c790b54b7	0.4131079847405305
20	0xbf7f8def7b7704cd	-0.00770371959464562
21	0x3fcb8695605218d0	0.21504466250571008
22	0x3fc7f2042cd4f0c1	0.18707325161984126
23	0x3fe14e281b446afa	0.5407906086505527
24	0x3fb816c9a9728927	0.09409771334552329
25	0x3fc2e651b629f7e6	0.1476537837478979
26	0xbfe148df1646400f	-0.5401454386756103
27	0x3fde499fec52d430	0.4732436950537844
28	0x3fd833a6f9bc442c	0.37815260303711073
29	0x3fd218fea1d4daaf	0.2827755527863855
30	0xbfda2cdd6420b9ab	-0.40898833063229273
31	0x3fe33b056cc25b61	0.6009547352031
32	0x3fb394f347925cdd	0.07649155137402226
33	0x3fd4ff2cbe15c943	0.3280746322917773
34	0xbfd3877979b82ed0	-0.30514370810190616
35	0x3fe092470dbcf9c5	0.5178561466525983
36	0xbfb0f57b59f139eb	-0.06624575563294115
37	0x3fbfb40c41e0cb05	0.12384106262542723
38	0x3fd8be1a66228920	0.3866029736910992
39	0xbfd0c4b33a3defa2	-0.2620056217926906
40	0x3fd3777b862cfca6	0.3041676340398659
41	0xbfc5f07f828f1264	-0.17140191912598646
42	0x3fb851f40dabaa90	0.09500050863031562
43	0xbfc53e564f24e27a	-0.1659648786969859
44	0x3fe14f36839f8309	0.540919549061159
45	0xbfd14164fdedc884	-0.269616363503822
46	0x3fa5c1eae4c4508f	0.04249509851993693
47	0xbfdfbc05d26c6c14	-0.49585099744007377
48	0x3fd25bba56f1e8b9	0.2868486260482644
49	0x3fe1e0ff2b1ad633	0.558715423764346
50	0xbfd3701f905ed618	-0.30371846293141536
51	0x3f864e5a23ba414e	0.010891632285421917
52	0xbfd0afaf8381c69f	-0.2607229980704719
53	0x3f9634f6aa7206fe	0.02168641486469535
54	0xbfe4a5d4291132a8	-0.6452427675336212
55	0xbfb0969aab8e2ef9	-0.0647980374180256
56	0xbfd6024b543416fa	-0.3438900301265303
57	0xbfe2a63726560875	-0.5827899693251896
58	0x3fb16791b0341d81	0.06798658897252176
59	0x3fe09708ebb6725c	0.5184368709338503
60	0x3fc1ff88b8d58933	0.14061078095535037
61	0xbfd381b9b8ff0180	-0.30479281488444343
62	0xbfcc6003d9dde2e1	-0.22168014657997673
63	0xbfe1bbfc549b3bd6	-0.5541974689930338
64	0x3fd548bf3d81f9e8	0.3325651264821361
65	0xbfb20987cf7d3626	-0.07045792403842963
66	0xbfc9f418d2ae7fda	-0.20276174819173215
67	0x3fd1a700c64f34a8	0.2758180557837684
68	0x3fcb3b2756bde49b	0.21274272666395153
69	0x3fd272455dc7d787	0.28822454603447806
70	0x3fd5d8ac9291209d	0.34134973824667175
71	0x3fcb802641eb1b0e	0.21484831064864135
72	0x3fca53bd2be46373	0.20568050997897167
73	0xbfdb93ad31534b6c	-0.4308884603207648
74	0x3fb3bd41a0910f72	0.07710657281955749
75	0xbfdb9dbea965d1ca	-0.43150297682521155
76	0xbfd3f45ad54ffddc	-0.3117892344598354
77	0xbfcca47e90b69893	-0.22376997057034895
78	0x3fde77a37cabd89e	0.4760521619313155
79	0xbfe28b08f412a862	-0.579472042755935
80	0xbfb568fd489e8ce7	-0.08363326094563527
81	0x3fc0c682e4a95854	0.13105808415520193
82	0xbfd78364cebdb02a	-0.36739463986919196
83	0x3fd5792d85cd7ae6	0.33552110735574414
84	0xbfa7c51ccc348cfb	-0.04642572396030605
85	0x3f7552be66f8153e	0.005205863722499258
86	0x3fceb5d6137e8651	0.23992420150630037
87	0xbfce94ffa596dcda	-0.2389220770398655
88	0x3fc021f7f805b45d	0.1260366402670198
89	0x3fc9713b496eddde	0.19876805387114777
90	0x3fdd67436e6b773f	0.45942769797499133
91	0x3fd1f23a9b9ab3e5	0.28040948100789215
92	0xbfd7a12a35d4709b	-0.36921172386952045
93	0x3fe090c0f65007ca	0.5176701365273797
94	0xbfd37a88ee825ecf	-0.3043539361183151
95	0xbfdff4d64e602938	-0.4993186726939203
96	0xbfe2d33ac1a4c17b	-0.5882848531819457
97	0x3f964993dbf93f7e	0.021765051175236298
98	0xbfdedee176511738	-0.4823535590588679
99	0x3fd0a6d6fc1b72ba	0.26018309230657233
100	0x3fc23c2acedc7fff	0.14246115780497345
101	0xbfd04169f93a4255	-0.25399255121832215
102	0x3fcf1e1bde5e32f2	0.24310634954272065
103	0xbfe32a90cf0d0cf9	-0.5989460033382833
104	0xbfbcb1daac7f3f78	-0.11208883963922556
105	0xbfc5d64c3f780b8d	-0.17060235117977776
106	0xbfce0702c2bdf910	-0.23458895214930253
107	0xbfd278eec9722392	-0.28863114998289874
108	0x3fd73184159a88d6	0.36239721402865877
109	0xbfcba69c35927c4b	-0.21602203956442376
110	0xbfca89f72b7c7be4	-0.20733537314751438
111	0x3fdec518a27177a5	0.4807797991141974
112	0x3fd173154df265b5	0.2726491223525856
113	0xbfd240b5fa3cb26c	-0.2851996368142753
114	0x3fd80f1c967868db	0.3759223432003986
115	0xbfe0f32778d5fc05	-0.5296819076610296
116	0x3fde941d5dd47f81	0.47779020464985683
117	0x3fc908b2a2a87313	0.19557793562207645
118	0xbfb8fc68877b1138	-0.09760144527087256
119	0xbfd2db959c3e5955	-0.29465236910018194
120	0xbfab0cc08766d286	-0.05283166554310008
121	0xbfa442cbce839d56	-0.039572113951914886
122	0x3fdbdac160b51ed2	0.4352267689141459
123	0xbfd602fc8111d45d	-0.3439322719999092
124	0xbfd02a07f9172269	-0.2525653774760373
125	0xbf9f44ae4c66d4a2	-0.03053543416327343
126	0x3fcff98d639e9817	0.2498032318519001
127	0xbf78a22c060a7924	-0.006014034239937769
128	0x3fd39dde845bc35b	0.30651057172422264
129	0xbfe10f81c0000000	-0.5331429243087769
130	0x3fb5358100000000	0.08284765481948853
131	0x3fa1080600000000	0.033264338970184326
132	0x3fcdbd9460941521	0.23234801021332266
133	0x3fbc436b023d5a14	0.11040371708563895
134	0x3fa921498eed3187	0.04908208722790435
135	0x3fa8f33916b9a949	0.0487306442490359
136	0x3fd2f5b23fab8889	0.29624611108568694
137	0x3fc7316bcc490611	0.18119571184983888
138	0xbfd006e0cc654a0e	-0.2504198070575122
139	0xbfd99cc2b326f74b	-0.400192904427844
140	0xbfc46d98ca5d9bf5	-0.1595946300614909
141	0x3f85ff0281ada1c5	0.010740298826662173
142	0x3fc72bbbf5479fd2	0.18102216221382023
143	0xbf67bf27287a018e	-0.0028987660223835426
144	0xbfc1d50556861aa3	-0.1393133804778773
145	0x3fcacade4ff0c8d9	0.20931605246875654
146	0xbfd328283081c5ce	-0.2993259881687579
147	0xbfe070f0a91cc551	-0.5137866309143339
148	0x3fcc8c5d2dd9307f	0.22303356875125144
149	0x3fce71e4696bfa2a	0.23785071513698713
150	0xbfdb74243bf8be6a	-0.42896371704680425
151	0xbfc3afd9c8a1ac2f	-0.1538040380140457
152	0xbfd32c1d6a71c12b	-0.29956756014782354
153	0xbfe15cc8a02f9b1b	-0.5425761345512429
154	0xbfcd1e09b58a318f	-0.22747918476342163
155	0xbfd0d892ee211606	-0.26321862463768786
156	0xbfc672ca3299bcab	-0.17537810774544957
157	0x3fe2134a6e76f06e	0.5648548276435699
158	0xbfd053582542bee9	-0.2550869335054658
159	0xbfdaaaf37bf01fed	-0.41668402770346696
160	0x3f98a65ab5e7c7bf	0.02407209143888855
161	0xbfcda3cbdb9dcaa9	-0.23156116698699705
162	0xbfd5386171f1cf1d	-0.33156620147131993
163	0x3fbc06ceeae0222d	0.10947888597741758
164	0x3fe218bfc6e4fd51	0.5655211338670744
165	0x3fa183290077e303	0.034203797633329834
166	0xbfcf3627bb480d8b	-0.24384018559076667
167	0x3fb6542525d5ada1	0.08722145246217973
168	0xbfd2f4331b27d591	-0.29615476276315983
169	0xbfd0f4b3516baa0b	-0.2649353308794679
170	0x3fba15a015881def	0.1018924763267177
171	0xbfb7cf26be20baf4	-0.09300462858002928
172	0xbfdbb55f22074bbd	-0.43294504473777434
173	0xbfd065df4f31798a	-0.2562177918788612
174	0xbfc92eda15e2df64	-0.196742306410438
175	0xbfd5f73e75a1b996	-0.34321557509874745
176	0xbfd350066883ad31	-0.3017593403480588
177	0x3fd8a0a24710d673	0.3848043149949724
178	0xbfc4b471263a3313	-0.16175665251321245
179	0xbfddb41fe5cf057b	-0.46411893312696123
180	0x3fdd3c708c9c9fd1	0.45681394321081564
181	0x3fda0ad0e911765a	0.4069101596886405
182	0x3fb4024719fbeda4	0.07815975555779758
183	0xbfda721f89dc56c7	-0.4132155271812334
184	0x3fc24371f2ec08ec	0.14268326150347066
185	0xbfbf424d3c4066bf	-0.12210543366418401
186	0xbfd02091799e229e	-0.25198780895929385
187	0x3fc2b8e88b406445	0.1462679557742225
188	0xbfd9ea415a192cb6	-0.40492280768075817
189	0x3fd70571220a33d6	0.35970714878277243
190	0xbfb02f6ca8d347a1	-0.06322363969527924
191	0xbfdadc990706556d	-0.4197142189599024
192	0x3fc987a0bb2f5012	0.1994515336979253
193	0xbfc67521b5281248	-0.17544957490476265
194	0xbfd8893d1296c1a1	-0.38337637725183
195	0xbfbfdf583dc013b4	-0.12450171954703998
196	0xbfe1fb32aa39c391	-0.5619138073653734
197	0xbfb3beb184c0eae3	-0.07712850085310267
198	0x3fc5498546fa63d8	0.16630617109038215
199	0xbfe1ee31a047c555	-0.5603263979411773
200	0x3fd2d206ac778a2e	0.2940689739463406
201	0x3fe0abefc123a0ba	0.520988347268051
202	0xbfd84539f9ab5ba9	-0.3792252481629768
203	0x3fb620db1d398cf0	0.08643884147163639
204	0xbfdd72f2ba127955	-0.4601408784018493
205	0xbfded95a7bf753d9	-0.48201620203081813
206	0x3fcd5d7e54d4d40d	0.229415694638789
207	0xbfd9696b61c7c94d	-0.39705929325932204
208	0x3f95eb2fee0b8371	0.021404980568039137
209	0xbfdcaca271e153ae	-0.4480367767439998
210	0xbfcd78aacdc53775	-0.2302449707735225
211	0x3fcf9d14fe1964a9	0.24698126227557296
212	0x3fcc95998d6cceb7	0.22331542401808743
213	0x3fbbc3e390a6b9f8	0.10845777780080101
214	0x3fc81ec9aff8a60f	0.18843957035396428
215	0x3fc0bd25e790f606	0.13077234084077832
216	0x3fabf6421718e5cd	0.054613175696839635
217	0xbfb71d8a4a7f9304	-0.09029449766928727
218	0x3fdc1f32ae76fc9e	0.43940417325570447
219	0x3fd0eb34c959272c	0.26435584700503756
220	0x3f8d3983e088454a	0.014269857682878712
221	0x3fb390367d29bc76	0.07641926341760716
222	0x3fd64e6264867f7c	0.34853420082981024
223	0x3fc929e0b394e258	0.1965905072081735
224	0xbfd7db386c7295eb	-0.3727551516588778
225	0x3fbb90b4768db2f9	0.10767677206395011
226	0xbfa70f62e1cf651a	-0.04503926283332245
227	0xbfe145d90cfa4c18	-0.539776349398724
228	0xbfe2c8ab74e906d7	-0.5869958194163826
229	0xbfdd475b9944057a	-0.45748033492426254
230	0xbfd0dab8d9595847	-0.263349735503088
231	0x3fcb78cd3a03b87e	0.21462407429448044
232	0x3fdc2b1e5a4ca9b7	0.44013174837405294
233	0x3fc8cc82eb861aea	0.19374119281947993
234	0xbfe075d61592b4d4	-0.5143843098973329
235	0x3fce3bbec9df21a0	0.23619828087818195
236	0x3fd717ef0086ee88	0.36083579112503417
237	0xbfe131f7ff63fe1f	-0.5373496997926316
238	0x3fe09d848475e873	0.5192282282944362
239	0xbfd27ac527db1c10	-0.28874329464127957
240	0xbfb951dd423fe30c	-0.09890539996548514
241	0x3fbb6527f0802146	0.10701226827234675
242	0xbfc6bd86af405f31	-0.17765887791824178
243	0x3fd645bb52e41048	0.34800608725368365
244	0xbfa6a90b60c32846	-0.04425845676594568
245	0xbfba8a2597ad9b94	-0.10367045357780419
246	0xbfcc36d4642140e4	-0.22042326821475122
247	0xbfdf706fe2b1b266	-0.4912376130876396
248	0xbfc37b45f2b4a3ea	-0.1521995005689683
249	0x3fe4073e9cc058eb	0.6258843480634629
250	0xbfd77093c25cc26a	-0.36624616604516425
251	0xbfc7b103a158fcdd	-0.18508954408932868
252	0xbfd8ebe6d2f5d803	-0.38939829446405855
253	0x3fe0bcebe165661a	0.5230616953151099
254	0xbfdca1bb615f3b5c	-0.44737133511528326
255	0xbfdf46efcf78b831	-0.4887046362008532

layer1.bias f8 [100]
0	0x3fcb2c8e4b8e8ee7	0.21229723634052464
1	0x3fe067be6e05ec6f	0.5126640461816246
2	0xbfd702eae734b23a	-0.35955307558723215
3	0x3fd2a2dc056c34ef	0.29119015245016916
4	0xbfe0ffb1c645681e	-0.5312126991732418
5	0xbfe02848c365afc0	-0.5049175087310616
6	0x3fb7ac3eb4c2673b	0.09247199929305065
7	0xbfc54d363b9f30d5	-0.16641881858084298
8	0xbfd639e5d68d8f73	-0.3472838015788888
9	0xbfc1ecf8f8f10a88	-0.14004432826375912
10	0x3fe018fb9e7a07a1	0.5030496688125262
11	0x3fce06f9f39243de	0.23458790200359564
12	0xbfd6a34ca9aa5621	-0.3537170082939572
13	0xbfc393b1e5f149c6	-0.15294479110396092
14	0x3fd2f296080fc54a	0.29605627810731916
15	0xbfca43c2c4b38b88	-0.2051928959327507
16	0x3fe2f3756df77c82	0.5922190807140313
17	0xbfd608df5cc7f476	-0.3442915350022483
18	0x3fb680e07232a99c	0.08790400302920037
19	0x3fbf06dae761c1ab	0.12119835041972375
20	0xbfcbc3fec3c6dd91	-0.21691879805960615
21	0x3fe0bc2eadfe714b	0.5229714773482014
22	0xbfdf2adeff8752d7	-0.48699164346662144
23	0x3fb4fdba14ce2be4	0.08199656494086544
24	0x3fb18902d9781f37	0.06849687394435199
25	0x3fcc3dedbeec7251	0.2206399137729869
26	0x3fe420519fd5717c	0.6289451715233976
27	0x3fe36514fa91e5cd	0.6060891050284966
28	0x3fb68e2ed3c8edf8	0.08810703917054485
29	0xbfb8033469b17408	-0.09379890041732619
30	0xbfc8066d70bab10e	-0.1876961517749653
31	0x3fe36af2a7c4e226	0.6068051602115403
32	0x3fd495cb694a03a9	0.3216427353109404
33	0xbfd6947f43837783	-0.352813545161432
34	0x3fbda26b7ac38e75	0.11575958010831207
35	0x3fbca8776c979c2d	0.11194559479882633
36	0xbfdaab2305feec5f	-0.4166953619530371
37	0xbfe09eef718964eb	-0.5194012849343869
38	0x3fd30069e3ebbc36	0.29690024621862976
39	0xbfb9a0781d4afcc7	-0.10010481562766237
40	0x3fc422736cab43a0	0.15730135732749506
41	0x3fcc487c2ed3ecfd	0.22096206938281418
42	0xbfe157e7da8dcb2f	-0.5419806736593723
43	0xbfd47a5bc0000000	-0.31996816396713257
44	0xbfc7994adeec1f61	-0.184365614746862
45	0xbfc7c93409056ca0	-0.185827736287
46	0x3fcafe7555329b19	0.21089045200388837
47	0x3fe1d2a63a6946f9	0.5569640293926731
48	0x3fc244e1988658ca	0.14272708842754006
49	0xbfd81cab7e8a6a97	-0.3767498718022266
50	0xbfd51565fda2566f	-0.3294310547729315
51	0xbfd6a84ba535f995	-0.3540219415080171
52	0x3fccd0ef299e5b5f	0.22512616665036497
53	0xbfc71c62e69c8fa4	-0.18055378208475503
54	0x3fb0869b0c7e85c8	0.06455391936335453
55	0x3fdb6c286f301d20	0.4284764371700067
56	0x3fd1a58f3bf97ba7	0.27572995049370735
57	0x3fe0b6d1a6563aeb	0.5223167656675661
58	0xbfcd0be6dbceebc1	-0.22692571385218055
59	0xbfd5c46029f78df1	-0.3401108178934172
60	0xbfdabddc6d6905e9	-0.41783819851488474
61	0xbfda917282dbd1ff	-0.41512739924590386
62	0xbfcd3f26d1f8d8b8	-0.22848973515073623
63	0xbfdb2336c39e3440	-0.4240242872554667
64	0xbfcd5e9776f2e48a	-0.22944920833632337
65	0xbfe329cc2242d7c6	-0.5988522214090544
66	0x3fb5d3d1d5834207	0.08526336157525104
67	0xbfda9a212f02766f	-0.41565732565673036
68	0xbfdc40486d2b3525	-0.44142351780904426
69	0x3fdb1e59ef04706e	0.423727496543285
70	0x3fdcce876d35459a	0.4501055304036413
71	0x3fb08c001515ba35	0.06463623537795445
72	0x3fde2f2082278537	0.4716264029539902
73	0xbfdf18ea1a328d2e	-0.48589565809580193
74	0xbfd741a9f666ca0a	-0.3633828073754165
75	0xbfe0a24f6dd80adc	-0.5198132653607348
76	0x3fd27ac99a3d8961	0.2887443548444449
77	0x3fd63d7fdb9206c4	0.3475036281816808
78	0xbfe44eea853bbeeb	-0.6346333124365321
79	0xbfc2bd147575a35c	-0.14639526114776913
80	0xbfce386cb53d7697	-0.23609694337476547
81	0xbfcb70052550a29a	-0.2143560821725899
82	0xbfbc3ebfd5c2abb5	-0.1103324791790062
83	0xbfd2b91dadf4ade0	-0.2925485800539871
84	0x3fcfffa649744c43	0.24998930536875905
85	0x3fd8a16467e906a9	0.38485059878812905
86	0xbfbf0a3d73aeb17d	-0.12125000070836296
87	0x3fd8258e7b6929e3	0.3772922711547421
88	0xbfe1f3b613d95809	-0.5609999072719357
89	0xbfc604b80ceb59fa	-0.17201901083781462
90	0xbfdc79c221637d78	-0.4449315382061836
91	0xbfe134c990b4d83e	-0.5376937700555187
92	0x3fdce0f2d371b1b0	0.4512297692188225
93	0xbfce33bc173aec25	-0.23595381864819945
94	0xbfdb6352261b419d	-0.427937066281652
95	0x3fcd32740fdb06ae	0.22810221456716334
96	0x3fd97778ce5a27a0	0.39791698600367376
97	0x3f552c9612058ec9	0.00129236846267926
98	0xbfb8414240f731c2	-0.09474577032160084
99	0xbfe2be3b931700d1	-0.5857217667435412

layer2.weight f8 [100, 100]
0	0xbfba8a389c2d4e1c	-0.1036715871135176
1	0xbfb343627ad19e99	-0.07524695871836186
2	0xbf9fb353d31533d3	-0.030957517393563293
3	0xbfa690bd431d5da6	-0.04407302326461186
4	0x3fb24fc7f4e106e4	0.07152986267558564
5	0x3fb8e4a9549a9c6f	0.09723909678960906
6	0xbfb85f664651d11b	-0.09520568100726161
7	0x3fa80e04814a1b02	0.046981945784002846
8	0xbf91ce21c9a4be51	-0.01738789361223631
9	0x3f9be4f529a3de96	0.027240591684828695
10	0xbfb4ca4d32df5dff	-0.08121187679295615
11	0x3f8279bce397248c	0.00902125901747499
12	0x3fa916a7d19cb9a1	0.04900097306959884
13	0xbf9987975c4d0668	-0.024931302078817913
14	0xbf35dd63034bd453	-0.0003336302500394673
15	0xbf9c8cf383c0219d	-0.027881436268246785
16	0x3fb05e74a8449dec	0.06394127948862377
17	0xbf7d9a282c6c0d9c	-0.007227093627764882
18	0xbf6fd95c7176850d	-0.003887825539735551
19	0x3f9e69a74c51c01a	0.029699911149180115
20	0xbfc055a21baf199d	-0.12761331893689212
21	0x3f8313c549db088d	0.00931505328788187
22	0x3fbab7461f0cad75	0.10435903795285191
23	0xbfa3fd50ed16ce04	-0.03904202360299894
24	0xbfc37d2721d060ae	-0.1522568621737767
25	0xbf95c9f555523d77	-0.02127822240123353
26	0xbfb3756fb8aeae2c	-0.07601068743559186
27	0xbfb38b146000fdc1	-0.07634093612522631
28	0xbfc1d4db0fbff414	-0.1393083407309922
29	0xbfa1fa7141de860f	-0.035113848963430276
30	0x3fbc1998e4a97add	0.10976558287209622
31	0xbfc62340c93bf437	-0.17295083833588062
32	0x3fa7003a8eefeac3	0.04492362017477582
33	0x3fa778ed3e2e30c4	0.04584447273291084
34	0xbf907111eadc6184	-0.016056327781457394
35	0xbfb6db0ff1dbb746	-0.08928012518637471
36	0xbf6d3ae6e01cb99e	-0.0035681256566910255
37	0xbf996eef93849c9a	-0.02483724916342265
38	0xbfc1da3b81d0169b	-0.13947242582814998
39	0x3f9338fb272803d6	0.018772053017531785
40	0xbfa93b563edfdb4d	-0.04928082959661726
41	0xbfbf0edfa71748bb	-0.12132070378655417
42	0x3fb39279b865247b	0.07645378829796982
43	0x3fae9cb140000000	0.05978921800851822
44	0x3f9c5579a13e529f	0.027669811693686538
45	0x3fb4a83155a8c435	0.08069141713419088
46	0xbfb035166ef58e28	-0.0633100529571996
47	0xbfc4f93f71067274	-0.16385643976981934
48	0xbfa52b63e33b495f	-0.041346665847998613
49	0xbf7a37d088477f98	-0.006400885180909109
50	0xbf94136991e6af19	-0.019605302362534525
51	0x3f50194c07708d4e	0.0009825937720585212
52	0x3fb7303b3e87c217	0.09057970310801298
53	0xbfc0bac02be07895	-0.13069917814658952
54	0xbfc076d8b609452a	-0.1286269081925096
55	0x3f88dba71afc1234	0.012137704382902383
56	0xbf9badd82583e44b	-0.027030350961443166
57	0xbfc020d31564e9d6	-0.1260017256225427
58	0xbfbabcd2d8d6a25b	-0.10444371980578053
59	0x3fb0387447c53eeb	0.06336142303666363
60	0x3fbc11b146f19c05	0.10964496595407532
61	0x3fb3bbd6a7376374	0.07708493788176246
62	0x3f6236ec4091dd46	0.0022234548856051887
63	0xbfa00e37e7d5fcf0	-0.03135847764041866
64	0x3fb486a5df171038	0.08017956444297247
65	0xbfb1ab87f9ba3b18	-0.0690236077009384
66	0xbfba88032517ed4f	-0.10363788276292961
67	0x3f8c2e3a27a7fcb0	0.013760046324931302
68	0x3fa769cbb2c47d41	0.045729032108506214
69	0x3fab30f786ca9f80	0.05310796280292518
70	0x3f7f8b37032c4720	0.007701125042119533
71	0xbfc000fd90823d78	-0.1250302272423871
72	0xbfc34c93df231084	-0.15077446360931301
73	0x3f9cc5a61745c444	0.028097720308725607
74	0x3fc03d6827cab0da	0.12687398856122095
75	0x3fb73b8deb8ce097	0.09075247765292925
76	0xbfa2e4ddda47dbab	-0.03690236367759011
77	0x3f9a38e2129781d6	0.02560761679149145
78	0x3fc56b1c8fbd7ed0	0.16733128565373656
79	0x3fb6841d31d0d468	0.08795340028957954
80	0x3fc41fd13dc62cbb	0.15722098842920737
81	0x3fc069a041d91b06	0.1282234498523495
82	0xbfc28d9e3aae54e4	-0.14494684090883603
83	0xbf8b97c5ea850417	-0.013473077983350774
84	0x3f9c9ef0ac82551d	0.027950058488007124
85	0xbfb6e0a4a529435a	-0.08936528236632793
86	0x3fbc791977d93410	0.11122283149707379
87	0x3f984d440008fc63	0.02373224497045746
88	0x3fc58590e65edb35	0.16813861130295896
89	0xbfa71920acd966d9	-0.04511358365989588
90	0x3face204adc525c1	0.05641188260285502
91	0x3fb1d5f282da32a2	0.06967082686078155
92	0xbfc4cb66842fd59f	-0.16245728926120948
93	0xbfacc633e88c10e5	-0.056199667107678576
94	0x3fa3157ddead37d6	0.037273343498426634
95	0xbfac54dd1c0be994	-0.05533495871891883
96	0x3f597044eaad3cd8	0.001552645970793345
97	0xbfb54162383f66eb	-0.08302892564043034
98	0xbf79dc084c015a25	-0.00631335488295418
99	0x3f827319f88d36aa	0.009008601091092434
100	0x3f9055a29a38d0c2	0.01595167223258965
101	0x3fc1e229d0a4b70a	0.13971445739428417
102	0xbfaeee2128582c18	-0.06041053407178526
103	0x3f826d2be3a9ba50	0.008997290501807559
104	0xbfc030d0d988b094	-0.12648974057936313
105	0xbfb5d79ec8393162	-0.08532135380045738
106	0xbfb2c835d122a1f6	-0.07336746555177584
107	0x3fb8a3bd86854ce7	0.0962484792155923
108	0x3f84670021fa7814	0.009962082898081127
109	0xbf9e966a52960e17	-0.02987066392007706
110	0x3f6e57a0b8ff32a4	0.003703893577016908
111	0x3fa77a5a759048e1	0.045855357028033124
112	0xbfbd1f6112245005	-0.1137600583354584
113	0xbfb6321b305b095c	-0.0867020600372021
114	0xbf933e7d0f4dbbcc	-0.018793062266407465
115	0xbfad989da652f7ae	-0.05780499129603754
116	0x3fa748bee5b7a60c	0.045476880590126084
117	0x3fc36d805e28aad6	0.15177921865082195
118	0x3fbb0d11c4861bbe	0.10566817329355069
119	0xbf82378379342312	-0.00889494622835366
120	0x3f8d70e2eda2a72d	0.014375470044189232
121	0xbfa17eabd925786f	-0.03416955018723022
122	0xbfa9201b59e8c956	-0.04907308075452714
123	0x3fa414eed3efe862	0.03922220551608359
124	0x3fabb2dbc36833db	0.054098956683539
125	0x3fc2e9028e699485	0.14773590043765608
126	0x3fb9139156da3284	0.0979548298875646
127	0x3fc4354339d5d283	0.1578754455946588
128	0x3fc32815cd73bb08	0.14966080219115718
129	0xbfa06780cdd3f9b6	-0.032039666295520616
130	0x3f8e15fe078ac531	0.014690384488263849
131	0xbf9c87a056a8a91d	-0.02786112336085821
132	0x3fbcc6619b422c91	0.11240205803385296
133	0xbfc23257f86667f3	-0.1421613657847157
134	0x3f65fe1176cbb197	0.0026846257300034526
135	0xbfa041e91d3c3609	-0.03175285798907274
136	0x3fb0a7677be0f12d	0.06505438589460218
137	0xbfbc4340f0ae41ca	-0.11040120960229341
138	0x3fb0aedeb8c339df	0.06516830454641064
139	0x3fba9a15d3f7f9bb	0.1039136545659635
140	0xbf9e383bb0218442	-0.029511387467554558
141	0x3fbcf07176447f9b	0.11304387223617456
142	0x3faa5a90685259a1	0.051472199186878294
143	0xbfb8cbe1a0000000	-0.09686098247766495
144	0xbf94de4e9d31b2d7	-0.020379284233444785
145	0xbfaf244ecda0b5df	-0.06082388172249486
146	0xbfa360211210b20c	-0.03784278245470682
147	0x3fc3faf5783d25c2	0.15609615679777106
148	0xbfa681979f9d7326	-0.04395746062684784
149	0xbfb2fd855c28fef8	-0.07418092250827246
150	0xbf95a2bc783d2e58	-0.02112860187416596
151	0x3fc128b7f261cb13	0.13405513129290422
152	0xbf9f0be3457eec7d	-0.03031878577870061
153	0x3fb1183c66283ec1	0.06677606100151491
154	0x3f9328b631b6fae8	0.018709990295742523
155	0x3fc1947395970a40	0.13734288028907038
156	0x3fb999de6da773c5	0.1000041024885397
157	0x3f6f0793cb78c52c	0.00378779283689625
158	0xbfa5428358596428	-0.041523079428494036
159	0x3faac17253f0e7fc	0.05225713038130661
160	0xbfc194b619b35073	-0.13735080962090115
161	0xbf786ee6a148a719	-0.005965138338561515
162	0xbf8d4d7b57d64471	-0.014307941072532611
163	0xbfb6bf46b9dafbc1	-0.08885614430890511
164	0x3f9ff4fb91842f52	0.031207972294438342
165	0x3fc40ca02c97081b	0.15663530518764976
166	0x3fc5bab0cb56d605	0.16975984505340605
167	0x3fb3fb483aef661f	0.0780530113110207
168	0x3fc00031fb626163	0.12500595831512404
169	0x3f9c1e2b5fbf646e	0.027458837241145444
170	0x3fb3cb87f965b570	0.07732438887406601
171	0x3fabd0f5328f8598	0.05432859651751726
172	0x3fc03bf9c08034d5	0.12683030986264635
173	0xbfc0e5a4fdcbac90	-0.132008193896898
174	0xbfb1186ed71005f0	-0.06677906752158669
175	0x3f9e335730521849	0.029492723774204675
176	0x3fc08c212b8d4c1c	0.12927641512450883
177	0x3f975e41e8145859	0.022820501127249624
178	0xbf9e98a93096d31b	-0.029879230108878035
179	0x3f98a928caf21fd0	0.024082791697338568
180	0xbfbc995c8e311990	-0.11171511146048929
181	0xbfbab8ad9c098c94	-0.10438046512131144
182	0x3fc1911430f5955e	0.13723995581237153
183	0x3f931abc9a54d4e4	0.018656680030478948
184	0x3f9aa93da14e15b7	0.02603622719791129
185	0x3fc05fdc8d358eee	0.1279254617212397
186	0xbfaad7940b864c66	-0.052425981909572525
187	0xbfba1ba715b4e89e	-0.10198444633434398
188	0x3f39088ec4964d94	0.0003819798044670472
189	0x3fc25aaebb17ebef	0.14339241156980573
190	0xbfb4695d018a1c30	-0.07973271644196767
191	0xbfa895516d08511c	-0.04801420646632179
192	0x3fb41f42e62dc37b	0.07860200996016246
193	0x3fb40e2887b76eee	0.07834103883163454
194	0xbf9605280a490ba9	-0.021504045131461123
195	0x3fa01fa3510d76d6	0.03149137844478182
196	0xbf4e5923683aa1e5	-0.0009261534582565815
197	0x3f904e083d107619	0.015922669150418487
198	0xbf7d5dde2dd0cb73	-0.007169597517576831
199	0xbfa663ecd8ed38fe	-0.04373111866026312
200	0x3fa589b7b8fedb76	0.04206632741209308
201	0xbfb784f89d61edca	-0.09187272875163113
202	0xbfb345b445b96b6d	-0.07528235151532466
203	0xbfb24184ea79ba8c	-0.07131224369525507
204	0x3fa58d6336a35e96	0.04209432641954185
205	0x3fb8ba89b3b64c1b	0.09659634244444286
206	0xbfc041285724f132	-0.12698845152943644
207	0x3fa5027aca1553d6	0.041034543197987425
208	0xbf7841c2585321ae	-0.00592208782217833
209	0xbfbeebefa246dcfa	-0.12078759872280279
210	0xbfc0bca317127746	-0.13075674654549568
211	0x3f8c60be37e58273	0.013856397705866308
212	0x3fb1184888d6d36b	0.06677678433227434
213	0xbfa4aa9502bf7fc8	-0.04036393793626264
214	0xbfa4c35971ceb934	-0.04055289758922456
215	0x3f943c2161b3ebc6	0.019760629261309302
216	0xbfb70b1fdd310da8	-0.09001349592386154
217	0x3fc83e907a75353a	0.18940931300532232
218	0xbfb317cef29ee790	-0.07458203719479983
219	0x3f72d0a4a9c0072a	0.0045935089256106485
220	0x3fc87a3f33350531	0.19123067856166068
221	0xbf9d378ceb2723f7	-0.028532220699876345
222	0xbfb5a40af8339a27	-0.08453434524162927
223	0xbfbe059acebdb45d	-0.11727302119625578
224	0x3fb3b644ec1a028c	0.07699995769690754
225	0xbfafacbc881f26bb	-0.06186474954263362
226	0x3f95e9ddcc814c54	0.02139994202327629
227	0x3f90ff86198f2c66	0.016599746046079743
228	0x3f79677b679cefbf	0.006202203798064631
229	0x3fa5df6d0f40795b	0.04272023020915824
230	0xbfad4741e1962b52	-0.057184275424410416
231	0x3fa49c6d6e5a1cd3	0.04025594684667912
232	0x3f8ae2c4d405610a	0.013127839775436207
233	0x3fba79d54a2641e6	0.1034215265301622
234	0xbfa3740e40e12e44	-0.03799480955111936
235	0xbfb646e739f4a30b	-0.08701939740116076
236	0x3fb8842b95115591	0.09576675786350665
237	0x3fbd3e5334bd504b	0.11423225438676458
238	0x3f509abb7ad873e2	0.0010134535654124856
239	0xbf952f353692f917	-0.02068789620965913
240	0x3fa54631e4f51a4f	0.04155116958513771
241	0xbfb1b3240f2895ca	-0.06913972253877101
242	0x3fc079d04b782d85	0.12871745762855027
243	0x3fb3523620000000	0.07547319680452347
244	0x3fa8a99396e77677	0.04816876618472759
245	0x3f992d477f9ef18b	0.024586789287910398
246	0xbfc0aa562e0206bb	-0.13019826170425639
247	0xbf90bad0ea0445c3	-0.01633764675449868
248	0x3fa792babceccdbf	0.04604133182729297
249	0xbfb8a214415b54bb	-0.09622313113807739
250	0xbf835a4f90d1fa8a	-0.009449597937643679
251	0xbfb64fa4d1229f3a	-0.0871527681907737
252	0x3f6fc5de574cfa7d	0.003878530750085317
253	0xbfb8ab4bd02921b5	-0.09636377174422857
254	0x3fc08a7b8361c4f0	0.12922614970333468
255	0xbfb158f5a37becf7	-0.0677636646395746

layer2.bias f8 [100]
0	0x3f88d0a1e824b307	0.012116684815362001
1	0x3fb7cb602270df09	0.09294701424448361
2	0xbf92fa5e37c78f57	-0.018533203272354495
3	0x3fb0663a9091b8e3	0.06405988721391824
4	0xbfbe54d30a2b7242	-0.11848181722911824
5	0x3fa7ce6eb6b9a73f	0.04649682980091407
6	0x3fa81a5346f80d27	0.04707584611244391
7	0xbfbde9008078e77b	-0.11683657776384664
8	0x3f5561f793d9a598	0.001305095457974614
9	0xbfbe5e0ffe8863e7	-0.11862277950457632
10	0x3fbef77cdc240f98	0.12096386312992846
11	0x3f76c7e9b586eb08	0.005561745573170247
12	0x3f749a2701f60642	0.005029823659584988
13	0xbfacbab59d09556e	-0.05611197988461468
14	0x3fac557a0fd46168	0.05533963626129684
15	0x3fb1685da027469d	0.06799874458308826
16	0x3fc2fb9e1d1a6cbb	0.14830376072936766
17	0xbfae1bbb4e92cdaf	-0.05880532583378383
18	0xbf9953ae358af796	-0.0247332782916981
19	0xbfb950363ea957b4	-0.09888018636533397
20	0x3fa2b3a2f45b732b	0.03652676804424567
21	0xbfb1e4f2d250a23d	-0.06989972719805677
22	0x3fbb6b395a6b1700	0.10710485894659527
23	0xbfb0d0c988fe0cf4	-0.06568584055462506
24	0xbfc2457791f9976f	-0.14274496677097256
25	0xbf9aadc7b989fed4	-0.026053543757824496
26	0x3f97ed4d2342c01c	0.023366170193810473
27	0x3f99e01b86067094	0.025268964820143028
28	0xbfc3e0233c9757b5	-0.1552776380401021
29	0xbfbc9acbe9fa7026	-0.11173700773582648
30	0x3fc23626ed45f11d	0.1422775896607015
31	0x3fc5eb52a016237f	0.17124398056719412
32	0xbfa068102ef45b09	-0.03204393933463307
33	0xbfc006eef272d1b0	-0.12521159017854933
34	0x3fb9097b0f1f7e86	0.09780091399397337
35	0x3fb31b084f427edb	0.07463123259594388
36	0xbfc4a3de424be68e	-0.16125086056836263
37	0xbf9b2cf5389eb8a8	-0.026538688259898052
38	0x3f9cf10c3b942a34	0.028263274322890733
39	0xbfb7d0d37edbc87f	-0.09303018424160035
40	0xbfba6a0771ccfa99	-0.10318037536942838
41	0xbfb2efc324ce5150	-0.07397098206121666
42	0xbfb6e7dbd3bb6dbd	-0.0894753829883745
43	0x3fc5cbea697a8cbd	0.17028551245048176
44	0x3faf00d615ff39ef	0.06055325525777621
45	0xbfc48677f8fbb0fb	-0.16035365731602966
46	0xbfc50adb98049716	-0.16439385340452678
47	0xbfc35851fd27e519	-0.15113282071232773
48	0x3fb8c9c5f41de956	0.09682881555446463
49	0x3fad6effa3c09e68	0.0574874770539367
50	0x3fb360aed84283c7	0.07569401531010476
51	0x3fad90df8703e621	0.057745919448233936
52	0x3f758ee68ac3a2a8	0.005263233713983219
53	0x3fa9c6ccdc99c25a	0.050344850472246974
54	0x3faaf81de3a0c649	0.0526742306104891
55	0xbf84826a216bf00e	-0.010014371056506401
56	0xbf9a8424c07b958a	-0.025894712684836153
57	0xbfac352b0053d944	-0.05509313944814889
58	0xbf908fa138becc79	-0.016172904098948202
59	0xbf8b941805c50223	-0.013466060329506984
60	0xbfb1b1fd242d204d	-0.06912214406213586
61	0xbfbc480659d7c8d0	-0.11047401135855073
62	0xbfc43faeccef7834	-0.158193445268752
63	0x3fbf3fa1ed4f2fdc	0.122064705311629
64	0x3fa552a3ce0308dd	0.04164611711304798
65	0x3f90c2c81c7c4371	0.01636803315983876
66	0xbfb27260d826ff42	-0.07205777432591012
67	0xbfa798d2b41d084c	-0.046087822424411756
68	0xbfa0344af8dd3ae3	-0.03164896285908527
69	0x3fbd278229550866	0.11388410100065158
70	0x3fc061f7f963e782	0.1279897659040295
71	0xbfc23fd3b318ee0f	-0.1425728439806879
72	0x3fac9a3a7e8ac274	0.05586417002394209
73	0xbfad6246e5f0ec20	-0.057390418595297144
74	0xbfc6c6183594443e	-0.17792036644144277
75	0xbfb4e7e4bf9d2583	-0.08166341474602316
76	0x3fb24fd7fd1f4982	0.07153081826917254
77	0x3fb5422b6a6d6ff0	0.08304091785743117
78	0xbfc08c16aa20c0d1	-0.12927516276386666
79	0xbfc0da00cf1ff066	-0.13165292848123328
80	0x3fc1e50d25902a92	0.13980259260309374
81	0xbfb4d661eb88a28c	-0.08139621734938823
82	0xbfc400147d19c7bd	-0.1562524424403459
83	0x3fa6b7cbf65434c4	0.04437100774712513
84	0xbf9657a4def3d707	-0.021818710430088675
85	0x3fc264e2479c5ec1	0.1437037324583255
86	0xbfc02f05546895b9	-0.12643496152410963
87	0x3fb22f9b88533f71	0.07103893354655867
88	0xbfc1d869af01401b	-0.1394168953434026
89	0x3fac5b4c0ff754fb	0.055384041737548594
90	0x3fa1251fd76d9bcf	0.033486361548788694
91	0xbfba8b7d770fa392	-0.10369094998135456
92	0x3fc49ca336aa9277	0.16103019875767519
93	0x3fb56b7c1e855c0b	0.08367133851184876
94	0xbfc19c979998ba20	-0.137591314314208
95	0x3fb6d6d39dc6ccc6	0.08921549417464111
96	0x3fc42cf1352c202a	0.15762152763659404
97	0x3fc0e2c0b398e345	0.13191994447131541
98	0xbf7e5c3b00306fbe	-0.00741217658199028
99	0xbfaf97c3bb176707	-0.061704746807391735

layer3.weight f8 [100, 100]
0	0xbfab85409769d53c	-0.05375100944812991
1	0xbf75e449a2f06c12	-0.005344665186409097
2	0x3f972bf6c686f555	0.022628646723878394
3	0x3fa8563cd1376702	0.047532940425027106
4	0x3f9a3f6fd305b17a	0.025632617239737844
5	0xbfb271889f927c49	-0.07204488654905207
6	0x3fb76d09f3d89b42	0.09150755122446433
7	0x3fa8d6979d3cdc08	0.048512208885249264
8	0xbfa052e38216f619	-0.03188239062317794
9	0x3fac3f7d01af1b7a	0.05517187734181213
10	0xbf90fea16bd8ec33	-0.016596338469963178
11	0x3fb621fce6151b5c	0.08645611397979053
12	0xbfbdee42515d6747	-0.11691679464766223
13	0xbf8819b4b0651409	-0.011767779954093187
14	0xbfa879cf1a350735	-0.04780432886992828
15	0x3fb846edd0e6da91	0.09483229017392093
16	0xbf750d5111b1809c	-0.005139652897099858
17	0xbfb158d4242237c9	-0.06776166803521656
18	0x3fc033cd17f9f3ba	0.12658084555360266
19	0xbfbe1b8304bd1052	-0.11760729661642813
20	0x3fad002f85c9552a	0.056642041283945524
21	0x3fc3a8ce5be87e46	0.15358905303672737
22	0xbfae4876b292c1a9	-0.059146603868956156
23	0xbf8c620e0365fe7f	-0.013858899573050863
24	0xbfae12c5d481a1f2	-0.058736974898071184
25	0xbf72bf50c6040bdf	-0.0045769839491666955
26	0xbf94412caa56beab	-0.019779870888383993
27	0xbfa09ecda3b2479b	-0.03246157286879666
28	0x3fa13f4d259d0360	0.03368607601306084
29	0x3f74f9cfdd94da10	0.005121051764311449
30	0xbf933c5e88afc34c	-0.018784978001295458
31	0x3fc0605207055e97	0.12793946593113922
32	0x3fc1317ac0f418c5	0.13432249471242677
33	0xbfc2427c26a677bb	-0.1426539601060862
34	0xbfb7220497b91f08	-0.09036282257249806
35	0x3f79984b04836397	0.006248753583542397
36	0xbfc1d7cc88e99e53	-0.13939816174682793
37	0x3fa0ecd8588116a3	0.03305698471426168
38	0x3fa90d142d49d701	0.048927908447621966
39	0x3fb1e8cfe0afbe0c	0.06995867953786944
40	0x3f83b76915593f3a	0.009627171482094011
41	0x3fa64a3b58433a90	0.043535093807453795
42	0xbfb2e09f63bce89b	-0.0737399691105644
43	0x3fb685f481a00287	0.08798149265931886
44	0xbfab64bf829c4bab	-0.05350302190176789
45	0x3fa4b0fae4522c7c	0.0404127505981586
46	0xbf9e5309e0e154f9	-0.029613642073248212
47	0x3f7c8aa9453849ea	0.006968175137006297
48	0xbf184e1c579c4da7	-9.27166746829607e-05
49	0x3f8093713bb430e0	0.008093723902242222
50	0xbf811c0ab8e8e915	-0.008354266899108379
51	0x3f8f36acd220a20c	0.015241003191548884
52	0x3fabe4a65de5ede1	0.05447883506982599
53	0x3fb76cbda5f5fe4d	0.09150300313739841
54	0xbfc4196f9bff85ff	-0.15702624432655907
55	0xbf7ed4aa661116ce	-0.007527032489695619
56	0xbfb8ccebe3db9055	-0.09687685311252044
57	0x3fb9a3aa0502cf50	0.10015356657350805
58	0x3fa07c246b61074d	0.032197130306043854
59	0x3fa07c2705c76cbf	0.032197207885212624
60	0xbf9f77e35d9a3fa3	-0.03073077448658491
61	0x3fa04f77f82d2124	0.0318562975358552
62	0xbfaf1f70d76e052b	-0.06078674916990175
63	0x3f8e12bfc2e88d6b	0.014684198508865895
64	0xbfc2ec54e1d1c5d8	-0.14783726717318646
65	0xbfbea5797b28e5e9	-0.11971244103269608
66	0x3f91fd53325ac0f2	0.01756792063560026
67	0x3f9389c8decae8fc	0.01908029422586653
68	0xbfbd2bac510617cd	-0.11394764879341253
69	0x3faf3d707c50a7a4	0.061015620398691156
70	0x3fc1ef558e0dd9e4	0.14011640011058468
71	0x3fb6de2f88b41ed7	0.08932778441896559
72	0x3fbde93b04418c46	0.11684006551654233
73	0xbfb7d6213948bcad	-0.0931111111501532
74	0xbfb2490a0ee835c9	-0.07142699111883312
75	0xbfc2a42146a5ec71	-0.14563384961715856
76	0x3fa33e4ce9367dad	0.03758468958698855
77	0xbfbe47c3be0ad848	-0.11828254117685433
78	0xbfb319fa119836f3	-0.0746151249843157
79	0xbf98833d723baa9e	-0.02393814096186963
80	0x3fbf7ea8068867b0	0.12302637252324078
81	0x3fb623452103e071	0.0864756780246141
82	0xbfb217f3e3dd3957	-0.07067798913087607
83	0xbf734ad55ebcd546	-0.004710038639861585
84	0x3f9b517f96004910	0.026678079157201273
85	0x3fc29e5952bd0403	0.14545742549856308
86	0xbfbdccd8450e9501	-0.11640693365059819
87	0x3f84cfdb0905c024	0.01016207810673115
88	0xbf798651ab3b5f80	-0.006231612223665084
89	0xbfb949a4e1c766e6	-0.0987799693315555
90	0xbf73a7b0ba26ad90	-0.004798593845787194
91	0xbfc30f972fea575e	-0.14891328658694197
92	0x3fc05bb461380006	0.12779860255250258
93	0x3fbb80331522758b	0.10742491975766748
94	0x3fa6808aebfdb2f7	0.043949452693459116
95	0x3fbae3b661a65299	0.10503711589837862
96	0xbf93fdaeb1615739	-0.019522409035139552
97	0x3fbf27bb7fe20667	0.12170001861707079
98	0xbfc174adc1cafbf3	-0.1363732525114468
99	0xbfbd0e03e4661695	-0.11349510503904477
100	0xbf941705ee166638	-0.01961907640143165
101	0x3fb8ef592c5d5769	0.09740216572876438
102	0xbfbedb679b293c90	-0.12053535020935358
103	0x3fc0baf18534ef96	0.13070506099927276
104	0x3f6ce260457ff3f5	0.0035259132673659496
105	0xbfa975905a5cdd46	-0.04972506621418886
106	0x3fbac8c55f93e884	0.10462602218095368
107	0xbfb0c679a0a71696	-0.06552848980126166
108	0xbfabc59cb2b2422b	-0.05424203568793858
109	0xbfa8234bdd1e9195	-0.04714428972445998
110	0x3fa14f82173baba6	0.033809724174566555
111	0x3fc380dd1f248546	0.1523701097549212
112	0xbfb8fdf40e40e930	-0.09762502048480282
113	0xbfbe76e707863f0d	-0.11900180753422891
114	0x3f713683da9d916a	0.004202380232389261
115	0x3fc0e6d82c791317	0.13204481288462297
116	0xbf99f0d0f9c8f92b	-0.02533270382468193
117	0xbfc5cbd9d31ab01f	-0.17028353507828428
118	0x3fc33b21dfce04d3	0.15024207523314334
119	0xbfb97c106f4afdef	-0.09954931943047261
120	0x3fc5588e1fa683c6	0.16676498933250467
121	0x3fbebd69ffcc6ac6	0.1200777291782443
122	0x3f9d1df243b8ef92	0.028434548743674855
123	0xbfc472a31f06fe4c	-0.1597484494686675
124	0xbfaae945c85a6734	-0.052560978610200954
125	0x3fbdefff3f96c398	0.11694331457580487
126	0x3f95ea594b0e3376	0.02140178223230601
127	0x3fbe89d68f559846	0.11929074286817451
128	0xbfbf9bfacff6cc1a	-0.1234738118862854
129	0xbfabb14e344698f4	-0.05408710849887824
130	0x3fa267e44eb6151a	0.03594888172941975
131	0xbf8b98ac4b91980b	-0.013474794441389567
132	0x3fb4985da4679862	0.080449917447909
133	0xbfc1040b1732262f	-0.13293589241611545
134	0x3fc1f1a843b18c61	0.14018729501103436
135	0xbf978a0f4a8f2fca	-0.022987593579997946
136	0xbfbd3dd0eb9ed979	-0.11422448875859982
137	0x3fb0d6aa006398b6	0.06577551373956933
138	0x3fc46ea8075feac7	0.15962696418849573
139	0xbf73844e54c08869	-0.00476484869071401
140	0xbfb2359618be3083	-0.0711301622779406
141	0xbfa3607682cce4b7	-0.037845328776208324
142	0x3f96054be59cf5b2	0.021504579438660527
143	0x3f8542cc11c15484	0.010381311694951607
144	0xbf9bc11f4d2c4708	-0.027103890500320055
145	0x3f75b498b6b64668	0.005299183404888198
146	0x3fb2f0af9da31801	0.07398507689057966
147	0x3f8812e44195103e	0.011754782916462255
148	0x3faf708a70089926	0.06140549295041557
149	0x3fa92673fa390680	0.04912149838902469
150	0x3f8b64cd4801bf6f	0.013375858077978113
151	0xbfb9f8289a891009	-0.10144284985386788
152	0xbf6327e2fc6581f1	-0.002338355380899986
153	0x3fb048910979ee9a	0.06360727769236477
154	0xbfab5d7b4dee73f2	-0.05344758344947555
155	0x3f92a9537a259dfe	0.018224052744157497
156	0xbfc35bb55d472d42	-0.15123621992675323
157	0xbf97653d18e20c48	-0.02284713234304217
158	0x3f8fbb813adcdb0f	0.015494355782363493
159	0x3f895a28ce43ff39	0.012378996653296436
160	0xbf93afb4fdf75542	-0.0192249565132745
161	0x3f929c2034a8c22f	0.018173697675765318
162	0xbfc56afc69307fe0	-0.16732745300487206
163	0x3fc267469b039733	0.1437767273811744
164	0x3f9a40b2fa4d9a67	0.025637432601252643
165	0xbfaef8e657fb43f9	-0.0604927046202945
166	0x3f843b9cab541eee	0.009879325846227496
167	0xbfb24104f93c6dad	-0.0713046177374312
168	0x3fa63d484491619a	0.04343629681597179
169	0x3fc288c9ce715208	0.14479944782455356
170	0x3fc21c6d441b6304	0.14149251771484483
171	0xbfbaa4abca996950	-0.10407518097182344
172	0xbfb4844f3245e1d1	-0.08014388062827683
173	0xbfbfecf2a2b1fdfc	-0.12470928642323281
174	0xbfb007e228de3bec	-0.0626202916885032
175	0xbfae76b57e041a62	-0.05949942744523608
176	0x3fc1634891449037	0.1358423909488253
177	0x3faf0bf40e4ff22a	0.060638071772676064
178	0xbfc546c2297c08d5	-0.16622187638865307
179	0xbf87994538d7e420	-0.011522808835239984
180	0x3fc442e95be1f9fa	0.15829197870694128
181	0xbfae748f470ff053	-0.0594830297704624
182	0xbfc2ab8859677385	-0.1458597599547852
183	0xbfa72ab056836642	-0.04524756485052396
184	0x3fbf3d1a8900fb99	0.1220261177522687
185	0x3fb00959e1f6fa27	0.06264268652646675
186	0xbfacbb5bb1913599	-0.05611692946022657
187	0x3fc5403869031cfa	0.16602234962031287
188	0xbfbdbecb37f362b4	-0.11619253269180768
189	0xbf8503c3f4737643	-0.010261088273575974
190	0x3fb2478424b5de82	0.07140375038386007
191	0xbf9e04d03b8736f9	-0.029315236695587086
192	0x3f9c7ec2dc742986	0.027827305512837984
193	0x3f796329ea4acb86	0.006198085528626223
194	0xbfb49514e26addd0	-0.08039980438012795
195	0xbf9d512ca8784673	-0.0286299684358426
196	0x3fbb22db26181eb5	0.10600061111483224
197	0x3fb51136b600b38a	0.08229391044069537
198	0xbfad8f62a579085b	-0.05773456830913012
199	0xbfc58264acec7dfb	-0.16804178660912314
200	0x3fc02aecb7ffd0c5	0.12630995735492526
201	0xbfc3ba0755df4266	-0.1541146439835927
202	0x3fb0c012f6c36b11	0.06543081783767614
203	0xbfa89d40eafb4099	-0.048074749645480704
204	0x3fb6f49b44c50e2a	0.08966989926289473
205	0xbfb8fa6db0484a0f	-0.09757123521584553
206	0xbfc001d689e50322	-0.12505609257825606
207	0xbfc00805aab697e9	-0.12524481616600205
208	0xbfa8ce807b19391a	-0.048450484301257826
209	0xbf882ec71ae3754c	-0.011807971485206757
210	0xbfbda86d71b7cdab	-0.11585124994581146
211	0xbfc23070470f5613	-0.14210322828027752
212	0x3fb2eeb0e452c573	0.07395463537502227
213	0x3fc1ae13367e3b37	0.1381248489455744
214	0x3f994f5dc8d52ed4	0.02471682108197977
215	0xbf971289347d834b	-0.022531646565201496
216	0xbfb991a5d45aaae1	-0.0998786586230085
217	0x3f946056212b9772	0.01989874436812706
218	0x3faccbe2349bcbf0	0.05624300853914821
219	0x3fb97cdb82a5e5d2	0.0995614236798226
220	0xbfc1d16eb8227fb2	-0.13920387259440542
221	0x3fb52eb68c810b36	0.08274403505587888
222	0xbfb0dc06a05bd908	-0.0658573285580567
223	0xbfb2ce9da202798e	-0.07346520619691985
224	0x3fab55577054eaa0	0.05338547941433558
225	0x3faab50d933a8428	0.0521625749800097
226	0x3f93c809295428a8	0.01931776346922534
227	0xbf9af54e2856bc48	-0.026326390468679045
228	0xbfb9f4b59a1a52fe	-0.10139021885181518
229	0x3fb14115eb633a4f	0.06739937779205117
230	0xbfb268ceadfb1449	-0.07191173312738032
231	0xbfc2b777432186f2	-0.1462239339626233
232	0xbfb5ccb3606a681a	-0.08515473464868287
233	0x3fb0afe44dc7d036	0.06518389605463501
234	0xbfa5f27265855013	-0.04286534775988584
235	0xbfb859f35bc432fd	-0.0951225375212736
236	0x3f9ee2ca8d0ebd05	0.03016201482722371
237	0x3fb8e7b7296a2470	0.09728569756602368
238	0xbfb16ccab99d335d	-0.06806628257363685
239	0x3fa3b86a861f6be3	0.038516358253865034
240	0x3fa209871b56ca66	0.03522894104698508
241	0xbfbcd7581ea8ce5e	-0.11266089199562532
242	0x3fb1fe01e9c8629d	0.07028209645830903
243	0xbf4dd4354fe6961b	-0.0009103069603965704
244	0xbfb301224a019027	-0.07423605257787412
245	0x3fbfa42be16254e2	0.12359880688230221
246	0xbfa5deda352241d0	-0.04271585367780839
247	0x3fa2401b3cb65757	0.03564534298054294
248	0xbfb12416a18b070a	-0.06695691532061346
249	0xbf7753e67db55c70	-0.005695247989328953
250	0xbfa09d9688ba10b0	-0.03245230120686082
251	0xbfad2680706dfb3f	-0.056934369777982934
252	0x3fb041002c2bc339	0.06349183157341266
253	0xbfc0021822411dc9	-0.12506391213012893
254	0x3fb222648f1b0f7a	0.07083729261199592
255	0xbfa1e656e0759225	-0.034960474872409976

layer3.bias f8 [100]
0	0x3fbe24f6ac10fd94	0.11775151921118826
1	0x3fbd9c1c83ad89ff	0.11566332068245087
2	0xbf97db2dc32af3ce	-0.023297038113685713
3	0xbfbd2f99cf4da92f	-0.11400758086316352
4	0xbfba095fe685fbf6	-0.10170554521572214
5	0x3fc513718f70031b	0.1646558714274072
6	0x3fbdab9faba16ce1	0.11590002002906231
7	0xbfc2ede22beb4f09	-0.14788462776652292
8	0x3fb2778928b8e69f	0.07213647121616383
9	0xbf9243486fe205f5	-0.017834789112844935
10	0x3fb8da12fe7ee94e	0.09707754815363964
11	0xbf924dd7fb81169b	-0.017875075078583973
12	0xbfb0e6664ea5052d	-0.06601561946901731
13	0xbfc6db570399831f	-0.17856872249378683
14	0x3fc580c21fc0023e	0.16799189138693466
15	0xbfaf406932eef62d	-0.061038291423283965
16	0x3fa009a4e1938821	0.03132357839218992
17	0xbfb81b402b4406b6	-0.09416581207554028
18	0xbfaa8c08a4f62973	-0.05184962285700836
19	0xbfa95b1bd47ef4fa	-0.04952322930282978
20	0x3fc248f25eda0df5	0.14285115844187116
21	0x3fb958a41b054531	0.09900880489046383
22	0x3fbb545c8303f8c5	0.10675600241299595
23	0xbfbcc23ee330c272	-0.11233895346300374
24	0xbfa16c92602e261c	-0.03403146194530057
25	0x3fa152feb1b97443	0.03383632583129572
26	0x3fc2f2c13b4747ce	0.1480332889028077
27	0xbfc29b92daa7f9d1	-0.14537273098535633
28	0xbfb5b4ec2ebfc175	-0.08479190961202739
29	0xbfc36154e1aa604f	-0.15140782374214942
30	0x3fb1c86c4651de37	0.06946446148673933
31	0xbf58f31eb962f1ec	-0.0015228080788310906
32	0x3f957067f67cceed	0.020936607760815674
33	0xbfb40ff4d1c5a06d	-0.07836847421060762
34	0x3fc1f2c46ab39f29	0.1402211686138284
35	0xbf9b3f7ea11662af	-0.026609400350568076
36	0xbfb69ec5d46a1b62	-0.08836018024349593
37	0x3f55e666bc95ec9d	0.001336670235416538
38	0xbf9918019d254c93	-0.024505639282619795
39	0xbf96f8fa7f50bc07	-0.022434152622903294
40	0x3f89c63216bc8e71	0.012585059470047373
41	0xbfbb9d164bf32ad1	-0.10786570886845516
42	0xbfc3a8d57e5f3653	-0.1535899035501865
43	0xbfb916f970517ac9	-0.09800681106706145
44	0x3fbc0a1689f61985	0.1095289313144346
45	0x3f8f30e3643bcac4	0.015229965683351117
46	0xbfaec6e3fa827a6b	-0.06011116440753458
47	0xbfc0d10d7dd40166	-0.13137978214218576
48	0x3fb52c024c95c33c	0.08270277375937679
49	0x3fbf58cf9d382c22	0.12244889820446805
50	0x3fc012d15ee1af1d	0.125574275330444
51	0xbfb1788f00000000	-0.06824582815170288
52	0x3fbd18ac0e2106d0	0.1136577162260679
53	0xbfc391e8b7b6dbdf	-0.1528902909319347
54	0xbf9ef1c9aacf7a8f	-0.03021922211689315
55	0x3fc0d4034b37d53f	0.13147011921652482
56	0xbfc12a9fded91573	-0.13411329632996746
57	0xbfc3a4c33b5cde11	-0.15346565626690326
58	0xbfb3f05e2da64e27	-0.07788647284024162
59	0xbfbe6a8ac3e0fc31	-0.1188132026882023
60	0xbf9f46f15286befb	-0.03054406229210736
61	0xbf74a0ad353199ab	-0.00503604563991759
62	0x3fc174e433d5ffa4	0.1363797429185044
63	0x3f6e9f4a3e345613	0.003738064771492197
64	0xbfc0f37ce26b3a69	-0.13243065887077712
65	0xbfa39a75ec7b6aa0	-0.03828781615967114
66	0xbfbe5da5498ef9ce	-0.11861641927587316
67	0xbfb829549cf1d02a	-0.09438065368323181
68	0x3f8501e5157be988	0.010257520406857137
69	0x3fb161900524ed8f	0.06789493680564916
70	0x3f964865e5697e42	0.021760551573946303
71	0xbfc35dfbe107caaa	-0.15130566108526483
72	0xbfc216eb5ad5f8af	-0.14132444320052204
73	0xbfbf507a2bb65e87	-0.12232173506924414
74	0xbfbc4e2fabee7520	-0.11056802699609536
75	0xbf8f2d5e246ff30c	-0.015223250853517743
76	0x3fbb579f9590afec	0.10680577661031493
77	0x3fb07ae911d49e58	0.06437546429935403
78	0xbfb4022aba8f25a0	-0.0781580644098967
79	0xbfaae70b4706691a	-0.052543976230668046
80	0xbf7441cf646c9a24	-0.004945573927023026
81	0x3fc1464b13d81b67	0.13495768040612718
82	0xbfc44c24b9f17fa3	-0.15857371405854534
83	0xbf9f0fc55cbd222f	-0.030333598885848353
84	0xbf99588ab84d2967	-0.024751822947373905
85	0xbf9f731840e3653a	-0.030712489090409557
86	0xbfc865b1118f83a2	-0.19060338361216816
87	0xbfacf78088961aee	-0.05657579104722808
88	0xbfbac00cb2de7161	-0.1044929444019025
89	0x3fb8cad97c46d9fd	0.09684523853398015
90	0xbfc523fed5d89979	-0.1651609939737673
91	0x3f83fe1ba35cc4a4	0.009762016222881371
92	0xbf9b8d65ac5b431e	-0.026906574864201997
93	0x3fba42d23680eb4e	0.10258210974363388
94	0x3f86f06947c3feb8	0.01120073557149169
95	0x3fb4424b74ef6f77	0.07913657765260305
96	0x3fb923bf789a8b1a	0.09820172018457321
97	0xbfa4dfa4fd7157e5	-0.04076877206595934
98	0xbfbcf00ce500b8e7	-0.1130378779496116
99	0x3fc0b4254f943846	0.13049761186306535
