model2_DGM_state_dict_5000.pt (torch, 168932 bytes, 8 tensors)

layer1.weight f8 [100, 3]
0	0xbfdef838734b6073	-0.4839001775667448
1	0x3fc5fac40023ae75	0.17171525961690617
2	0xbfbc8e499af4ae77	-0.11154613526439926
3	0xbfe1ab4678666923	-0.552157626301128
4	0x3fda7d51259404ad	0.4138987414335798
5	0xbfb337cad527e4c2	-0.07507007316589223
6	0x3fe79a060941b19e	0.737551706389741
7	0x3fd6397b83327825	0.34725845157834306
8	0xbfbd10715a8da580	-0.11353214703344428
9	0xbfe3d6dbfc160597	-0.619977943759454
10	0x3fd27298709ddcb1	0.2882443523189507
11	0xbfa9a00d3cddf316	-0.05004922264104132
12	0xbfd5c4ac51f031b7	-0.3401289749315554
13	0xbfc13139ebf5871f	-0.1343147661346444
14	0xbf91aaa2f082c027	-0.017252489022837516
15	0x3fe2612326ea8dcc	0.574357582100157
16	0xbfe11a395bc38fb5	-0.5344511787666223
17	0xbfbe5664aeeb227a	-0.11850575705023828
18	0xbfd3e73ed9378d2c	-0.310989105344748
19	0x3fc960763acd054d	0.19825628157745215
20	0xbfdbafcc83f9de1f	-0.43260491264615725
21	0x3fd5c792dd1ea3b1	0.3403060111400534
22	0x3fd93efc93f98441	0.3944693989815882
23	0xbfaed5198e520ef3	-0.06021957266150748
24	0xbfd2564f10a7aa54	-0.2865178740163732
25	0x3fb486145b624cc5	0.0801708911042623
26	0x3fdc5d3439d5ea9e	0.44318872116097363
27	0xbfd44959cd9c630f	-0.31697697714985024
28	0xbfba5740fbb696a2	-0.10289388795225787
29	0xbfe265ae6fb6f356	-0.5749122793127792
30	0x3fcfaa301ecc6396	0.2473812246687685
31	0x3fd4f225fccacace	0.3272795647309693
32	0x3fce3c41b777bb5a	0.23621388872512733
33	0x3fe1c67a0c3f95d1	0.5554781188226859
34	0xbfbaaefc4a728e28	-0.10423256700101347
35	0x3fd26d8b076ae0a3	0.2879359791218212
36	0xbfd0d966502d33e4	-0.2632690222715708
37	0x3fdf975763993028	0.4936121437683618
38	0xbfbf0fc4955923f6	-0.12133434911915217
39	0x3fd3ff9895780352	0.3124753436714417
40	0xbfe154bc0687b8a1	-0.5415935637991148
41	0xbfd25da5ce5e7ab6	-0.28696580079296596
42	0xbfb84c9636f06371	-0.09491862145695308
43	0x3fda1e23f68f8317	0.4080896289652158
44	0xbfcb0816d8806507	-0.21118436404575666
45	0xbfc7538a6e999947	-0.1822369613684691
46	0x3f8ba0d662ba14f6	0.013490366828828187
47	0xbf8fc026fe84249b	-0.015503220216958538
48	0xbfe43ce1374f1d3a	-0.6324316101317102
49	0x3fd2acdc9a06a7e6	0.2918006424102927
50	0x3fa2853958751ed8	0.0361726685028409
51	0xbfe162aa70ac9851	-0.543294162813945
52	0x3fd8d8502abd282d	0.3882027070400252
53	0x3fc5136adfb9b80b	0.1646550743493552
54	0xbfcf40bb0ad52ec2	-0.24416292218153585
55	0xbfdb453e76725e76	-0.42610131804529006
56	0xbfc1850020bc9744	-0.136871353134831
57	0xbfe3b589e2336bba	-0.6159104745851132
58	0x3fd07307521b2772	0.2570207883660408
59	0x3fc6276d1206c25f	0.17307818775363423
60	0xbfcc06baf320a464	-0.218955391611675
61	0x3fd837a98eec4b9c	0.37839735944106123
62	0xbfd241c59ef8054c	-0.2852644016675938
63	0xbfd3239ed5ccd91b	-0.29904909972118937
64	0x3fd4cf3356605a69	0.32514651713555637
65	0xbfb94cf3a6252a8c	-0.09883044058111973
66	0x3fdfeeb36f711c39	0.49894414790145764
67	0x3fb659689479b684	0.08730176567925169
68	0xbfd3082a23e19860	-0.297373328247323
69	0x3fe3fb0b8bd43615	0.6243951540979561
70	0x3fde5a8a6ec99463	0.47427616900524167
71	0xbfe36b745c04abc6	-0.6068670079451912
72	0xbfdb1e71eb4cbba4	-0.42373321512689643
73	0x3fb7bcdeee6c96ba	0.09272569008734424
74	0xbfccea8d1ba7da75	-0.22590793466925488
75	0x3fce79e8764ca976	0.23809533859577997
76	0x3f5fce70adf9b448	0.0019413090120921229
77	0x3fc34c6ae4d9dcb8	0.1507695786892549
78	0xbfcb5495e9a3bc8f	-0.21351884754355807
79	0x3fc15973c78a76e2	0.13554236643988476
80	0xbfd6d93b160155cf	-0.357008716096371
81	0xbfb8305c648a8b09	-0.09448792891138792
82	0x3fd6e8da81910e41	0.35796225216856575
83	0xbfe083f16c2611ec	-0.5161063301352988
84	0xbfe5bf9d3fe61483	-0.6796404121420355
85	0x3fe0bd75d1030f71	0.5231274683251127
86	0xbfc1ed774b6aa8ae	-0.1400593870396895
87	0x3fe137d0729cfda7	0.5380632628002119
88	0xbfdbc94891d3e15e	-0.4341603683565348
89	0x3fdcfb0dfc95eabb	0.4528231588989617
90	0x3fcf3287a743e377	0.24372955004926286
91	0x3f82dca1a0c2c69f	0.00920988342145118
92	0xbfc1f30b40232c80	-0.14022961265286327
93	0xbfdb9ae953bdd604	-0.4313300435818237
94	0x3fd612c7d306b4b8	0.3448962746432005
95	0xbfb405836d5ad42f	-0.07820912761492659
96	0xbfe7b043780f1954	-0.7402665467168767
97	0x3fd007181c81a21c	0.2504329946882835
98	0x3fc81995c378318e	0.18828079265984993
99	0x3fe025a9de7f4a37	0.5045976014756154
100	0xbfd8842ea6819b23	-0.38306776295068995
101	0xbfc04626d260fac9	-0.12714085838702818
102	0x3fb8f8ad15113576	0.097544496196141
103	0x3fd4b0bf5a346b8a	0.32328780945834323
104	0xbfdc15c203a16428	-0.4388279948667013
105	0x3fa57b801d20261d	0.041957858615273326
106	0xbfa4582594ccbf9b	-0.039735006727254794
107	0xbf9b2a0f635183c3	-0.026527634083666884
108	0xbf7bfadbd83de898	-0.00683103443940971
109	0xbfc84ccd458e1482	-0.18984380623092895
110	0xbfd09e05d93ebb3c	-0.25964494910560965
111	0x3fe96186b5cdb120	0.7931550551270767
112	0x3fdc7b97a81adcec	0.4450434819841138
113	0xbfcbaf5ff9cfc0b6	-0.21628951738194296
114	0x3fd05cd1460d68a3	0.25566512909939315
115	0x3fd60238aacc9cf7	0.34388558082214565
116	0x3fcb088661dbce24	0.21119766023876807
117	0x3fd5b81e53b1bd90	0.33936269925376283
118	0xbfd704dcfcfe7a52	-0.35967182833147604
119	0x3fd0db4810b32b09	0.2633838809094163
120	0xbfe6da58456e8c2d	-0.7141534191217765
121	0x3fc6b2e753acc4b3	0.1773347052162869
122	0xbfcba32a09480bcd	-0.2159168763465388
123	0xbfe861987c068a84	-0.761913530576138
124	0x3fd3b2fc9edb9548	0.30779948724223916
125	0xbfd5fafaa78b8d1d	-0.34344354974582975
126	0xbfdfcc91d4311b1b	-0.4968609401880017
127	0xbfcbd7c452de4aad	-0.21752218290619876
128	0x3fdccfce28f19b20	0.45018342970290526
129	0x3fe6400e5a33511a	0.6953193437316572
130	0xbfcde3a65f017015	-0.2335098232168781
131	0x3fb5c22572ea1835	0.08499368720558283
132	0xbfdc082e7a57e51b	-0.4379993624457527
133	0x3fc1b66496ee4e0e	0.13837869043037226
134	0x3fb9febc7c378357	0.10154321701658141
135	0x3fd69a40e9614a15	0.3531648902036591
136	0xbf9eb98a882a8851	-0.030004658280298028
137	0xbfc8068ecae6b6ad	-0.1877001276711118
138	0x3fd917cc9792d5c8	0.3920775871477784
139	0x3fd2bc0b36912deb	0.2927272827989486
140	0xbfe12043909b0378	-0.5351884674383731
141	0xbfb285111196a93a	-0.07234293631942004
142	0x3fda0c53905c92ba	0.40700234506429533
143	0xbfde9f98388b92dc	-0.47849088212960367
144	0x3fd88cc678227225	0.38359224063768443
145	0x3fd1a5e01daefc50	0.2757492341879173
146	0x3fe07d3dd08e6a30	0.5152882645955454
147	0xbfc6083e40000000	-0.17212656140327454
148	0x3f80d33000000000	0.00821530818939209
149	0x3f85eef000000000	0.010709643363952637
150	0xbfe83f6cb134f656	-0.7577422581741284
151	0xbfcdf8fcb9e9acac	-0.2341609866883564
152	0x3fd1e4d8dbedb3b2	0.2795927188624844
153	0xbfd67a8ce1e218d4	-0.35122987803368955
154	0x3fb1a756386f163d	0.06895960691243715
155	0x3fd2a71795f8e7d1	0.291448494393646
156	0x3fb1552058cfc0d8	0.06770517509699248
157	0xbfc90c8ecd2bc4db	-0.1956957341967954
158	0xbfe3f88006516bd0	-0.6240844844245377
159	0xbfe27b931145f3ce	-0.5775847756736938
160	0xbfc6d96782ea3f9e	-0.17850965397201163
161	0x3fc6ca118b4cc29f	0.17804164220571736
162	0xbfdee2b910502b08	-0.4825880679424448
163	0x3fe00a24021193ec	0.5012378731158811
164	0x3fd9eb02501c4931	0.4049688131646177
165	0x3fc5b8046bf12488	0.16967826147655196
166	0xbfb5961fef8c9498	-0.08432197187774404
167	0x3fb9309783307a57	0.09839770272126579
168	0x3fb10f892ae392d2	0.06664330765813567
169	0x3fd1de9ab3c0baf0	0.27921168855657097
170	0x3fcb0620f6e64a42	0.2111245351375875
171	0xbfe730452760a969	-0.7246423501103837
172	0xbf9d0d790b341c9c	-0.028371707257090692
173	0x3fdd00c103750562	0.45317101800545434
174	0x3fd054cb857d63a9	0.25517547641862365
175	0x3fd15e4fbcc2068c	0.271381315549754
176	0xbfcbac75a6e5ac43	-0.2162005486419237
177	0xbfd44fd532976055	-0.3173726076179311
178	0x3fb13d50a83f8575	0.06734184367771497
179	0xbfe30d77fe92707c	-0.5953941318616809
180	0xbfd90717639d482d	-0.3910578224941926
181	0xbfabe709cab76f58	-0.0544970569569318
182	0x3fd2b52f0afd5b29	0.2923085791893976
183	0xbfd7ca49b9c0284a	-0.3717216791125152
184	0xbfb6700bb4b5d31a	-0.08764718210097691
185	0x3fcc5267b4f0e752	0.22126480422030653
186	0xbfe72b8163b8a61e	-0.7240607211762755
187	0x3fddf8e21b849cef	0.46831562697702983
188	0xbfbb5a5545308c79	-0.10684712351990013
189	0xbfdb0b30ed7e53f3	-0.4225580519935754
190	0x3fdb43229a403ef8	0.4259726053578414
191	0xbfb1382fd76e6cb9	-0.0672635937648235
192	0xbfd2b8a868ac1673	-0.2925206205548882
193	0x3fc8043ec0748f1a	0.18762955090743888
194	0xbf6281bd70f0810f	-0.002259130480084199
195	0x3fe3f035306dc1e5	0.6230722375749421
196	0xbfdb7db1f5b7c12a	-0.4295468234622769
197	0xbfc994ede6b7c410	-0.19985746160048778
198	0xbfe44a03f22c8489	-0.6340350847205097
199	0x3fc856a8c555197f	0.1901446307694634
200	0x3fb0c18e22fd878a	0.06545341829544618
201	0xbfd8640e37a67452	-0.3811069053134065
202	0x3fdb97cfd507ea1e	0.4311408596401253
203	0x3fd8962c7929cbc2	0.3841658766970647
204	0xbfd75d566c226831	-0.3650718742370627
205	0x3fbd15af3381deac	0.11361212737562693
206	0xbfc046e56ce1a870	-0.1271635800979456
207	0x3f7612aae4647dd0	0.005388896510595001
208	0xbfd489b1cec6fb24	-0.3209042090710901
209	0x3fc5c38da07be34d	0.1700303109753584
210	0x3fa616e770c2c7c2	0.04314349414325093
211	0x3fb7786bf1434fc1	0.09168123855789558
212	0xbfd619a55bd1a7f9	-0.34531530348488065
213	0x3fe2129204ea67f4	0.5647668930062069
214	0x3fcaeb085fb494de	0.21029762909998956
215	0x3fcf65057035f6a8	0.24527042368929597
216	0x3fbcd27569eeb1ac	0.11258634411087226
217	0x3fc12b5f70e9bba2	0.13413613332110425
218	0x3fb7c6128d9bdb04	0.09286609608885149
219	0x3f9923b092e9ad91	0.02455020806011771
220	0xbfda338fd6b51408	-0.4093970867873513
221	0xbfdf62f75d9b3686	-0.49041542187919906
222	0x3fc8eb1c6068cafa	0.19467501361358314
223	0xbfd4cf94ddea6b42	-0.3251697699685573
224	0x3fd4c0bad98c149e	0.3242632984623216
225	0xbfcb400fb8c282d1	-0.21289249917483358
226	0x3fdd6aebcc7852ad	0.45965094535612644
227	0xbfe2d9a0ed71c04c	-0.5890659940323615
228	0x3fe2b0fab3ef5d05	0.5841039194446301
229	0x3fd967031cffb6c5	0.3969123633568013
230	0x3f942fbc6be40bd0	0.019713348469860226
231	0x3fe94250c59cdc7f	0.7893451556800669
232	0xbfc2b8c87fe6e21a	-0.14626413579186776
233	0xbfa4feba57695792	-0.04100591961893864
234	0xbfd8baf0a1f3234b	-0.3864099103489493
235	0xbfbba5d617026c9e	-0.10799921094660411
236	0x3f9eb015896203e4	0.02996858263987069
237	0x3fde3f524af84839	0.47261483498835194
238	0x3fa84485c04f4119	0.04739778492478503
239	0x3fc00f930afb5cc2	0.12547529255127726
240	0x3fb93fa36664aaa2	0.09862729310831722
241	0x3f956d702301fd86	0.020925285469727516
242	0xbfe520fb24a77b9e	-0.6602760044005327
243	0xbfe1f5b878e78d7b	-0.5612451898017946
244	0x3fd16ee583ee558f	0.27239358791242635
245	0xbf843eb6dc2721eb	-0.009885243028194565
246	0xbfd6227421dd95c8	-0.3458528834074426
247	0xbf933aa22595922e	-0.01877835611721162
248	0xbfe498ae32138f59	-0.6436377504401022
249	0x3fe0bcadf7cb314a	0.5230321731301413
250	0x3fb60745a60d6085	0.08604846290598019
251	0xbf8a8e1f365d1810	-0.012966388556048286
252	0xbfc237a8ab24aaff	-0.14232357365229828
253	0xbfc7b8b84ef70049	-0.18532470565515016
254	0xbfca7177a40eee11	-0.20658774862919008
255	0x3fd8ea914ba5b758	0.3893168677085348

layer1.bias f8 [100]
0	0xbfe4697903d22177	-0.6378750872254803
1	0x3fccdc921394fcef	0.2254812808623465
2	0x3fdb7a92b4194819	0.4293562659050863
3	0xbfd61bae086c40a4	-0.3454394418959146
4	0x3fe329539f20c189	0.5987947566955408
5	0xbfe34f03e9709473	-0.6033954200144208
6	0x3fcf6d5127fe7f01	0.24552359059179454
7	0x3fef8ef015c44daa	0.9861984658368119
8	0xbfbd4427bc2f9a0f	-0.11432121605285082
9	0xbfc7faa643450672	-0.18733671459817774
10	0xbfc90add75c22b61	-0.1956440758698035
11	0x3fe6e1945c43be0a	0.7150365640681582
12	0x3fe1daf2c4d02a90	0.5579770893103433
13	0x3fd8006a48325000	0.37502533960764595
14	0x3fd0fffb745dc39f	0.2656239162816351
15	0x3fe8ae698b341397	0.7712905615631936
16	0x3fd52a4c74dc57ce	0.3307067052095335
17	0x3fd31a0a49e37162	0.2984643670622714
18	0x3fde3aea037dfcd5	0.4723458322623178
19	0xbfda60a777e2322a	-0.4121493025529924
20	0xbfd95e2f574ea144	-0.39637359167183583
21	0x3fe28084f306ab57	0.5781883951761796
22	0xbfd0dcfdcf1dcdc5	-0.2634882471677112
23	0xbfd0c3f3cea379f7	-0.2619599836306458
24	0x3fe7ad3301f6508a	0.7398924864123881
25	0x3fe2ad67663c9260	0.5836674687203178
26	0x3fc9240c5a0dd3ed	0.19641260525864315
27	0xbfe7a772f20bea97	-0.7391905524703642
28	0x3fe255be592746ec	0.5729667416837549
29	0x3fd4109a1597b987	0.313513299070927
30	0x3fc6b5f83ea75780	0.17742827471982636
31	0xbfe93888381f1196	-0.7881508918876985
32	0xbfe398225d7b102c	-0.6123210740847802
33	0xbfdde51bf40203fb	-0.46710871533292647
34	0x3fe56d5392ba4a5f	0.6695955148482645
35	0xbfd67613755c6d2a	-0.3509567876914895
36	0xbfcd1fff1c1eec5c	-0.2275389563854756
37	0x3fe48d1c7769878d	0.6422254879255306
38	0xbfd6edfd1fb560b5	-0.35827568146261096
39	0x3fe368bf5c44dabf	0.6065365602615528
40	0x3fc521c9234c0732	0.16509355758176408
41	0xbfc970f9622cc771	-0.19876019757935695
42	0x3fc2c2ca03cd41b2	0.14656949220308274
43	0xbfe80597e6e7cbd0	-0.7506827840683119
44	0xbfdfc83b5f30a4c4	-0.496596186598776
45	0x3fca59df1a8246d2	0.20586766046886013
46	0xbfe3e97298c57716	-0.6222470268073461
47	0xbfd21ec438737e15	-0.2831278373032274
48	0x3fe391c8f36d387d	0.6115460161615968
49	0xbfe0149900000000	-0.5025143623352051
50	0xbfe98151ec52cb35	-0.7970361343089737
51	0xbfe9d47fcc8dc374	-0.8071898455801674
52	0xbfa3dd2198078a44	-0.0387964723666028
53	0xbfebc371a53f0cc4	-0.8676079013315747
54	0xbfd3ed6c66e7bd33	-0.31136617707575737
55	0x3fe7a9291ba19468	0.7393994846030525
56	0xbfe55e09d5af1392	-0.6677292989266894
57	0xbfdbd5c3a489e971	-0.43492213314279754
58	0x3fe96f3ce12bf155	0.794828834331876
59	0xbf5c98f103735734	-0.0017454484603169453
60	0xbfee0418b899aea1	-0.9380000691866891
61	0xbfe7a0a97c3ab197	-0.7383620668747878
62	0x3fc033e3458e44e8	0.12658348938251796
63	0x3fbf8fe19da0c90b	0.12328920458165642
64	0xbfda47ea240518b9	-0.4106393195874137
65	0xbfe1d2515ebea1da	-0.5569235659104905
66	0xbfd8213b5c7187c9	-0.3770283129471151
67	0x3f46991981784f8b	0.0006896376170879443
68	0xbfe847d4e2393737	-0.7587685030391417
69	0x3f93abbdaeb3af6c	0.019209827220876205
70	0xbfcde2994a297a26	-0.233477746211933
71	0x3fefe1d499790336	0.996317195655229
72	0x3fe843381c718f73	0.7582054667986838
73	0xbfe342745b695d9e	-0.6018621240026965
74	0xbfb5d86df725e3cb	-0.08533370288741009
75	0xbfdc9c735a59d805	-0.44704898665747833
76	0x3fe5ef96775cfdf5	0.6854965525926092
77	0xbfd007cee394abaa	-0.2504765722721297
78	0x3fe36516b897560f	0.6060899358078035
79	0x3fda6e7ddb38b7ac	0.4129938736758685
80	0x3fde7eeacb4eae13	0.4764964089797285
81	0x3fd5ec3288243c60	0.34254134459565044
82	0x3fb3ac3dd85ad827	0.07684694797612278
83	0xbfd5b4995fc58f48	-0.3391478953619651
84	0x3fe52156d660521c	0.660319727614993
85	0x3fe3b30ad1e855f0	0.6156057452923829
86	0xbfe7cf3c211bfde9	-0.7440472265879495
87	0xbfeaa3a8a293bda5	-0.8324778724035481
88	0xbfede48d72a611ef	-0.9341494788391723
89	0xbfe3e1b8c5a2e514	-0.6213039264759197
90	0x3fd0b10cc4bdb23a	0.2608062669085346
91	0x3fe6e459202a5258	0.7153745296696554
92	0xbfc466b197ceee79	-0.15938396370426114
93	0xbfe799c176a3e847	-0.7375190083687436
94	0x3fb0cb7dceba35ed	0.06560503289275461
95	0xbfada979d0a8fa6a	-0.05793362304801948
96	0x3fe668dc4f8d08f7	0.7003003648499363
97	0xbfd55a202828bc54	-0.3336258308581297
98	0xbfdff643c0de9544	-0.4994058021059866
99	0x3fd54f0e5400bd8c	0.3329501934376473

layer2.weight f8 [100, 100]
0	0x3fce5cd3680320f8	0.23720781878206032
1	0x3fa208fbaee3e750	0.03522478589907385
2	0xbfa4edea981360e0	-0.04087765795128617
3	0x3f9cc5b269e21b78	0.028097903931235874
4	0xbfc7082a2cd2dd8d	-0.17993666828781976
5	0xbfc88d424ecd56ec	-0.1918108830238262
6	0x3f6f3beda7666285	0.003812755744729226
7	0x3f875a406b901f77	0.011402610094606065
8	0x3fd0dc132907038b	0.2634323025377447
9	0xbf94eeed09a77e75	-0.02044268008637436
10	0x3fc78700528ce2ff	0.18380741148737198
11	0x3f89e5fdc1e0e25f	0.012645704726410743
12	0xbfb7a98835afa9f9	-0.0924306040830415
13	0xbfb2427dcfba0ba6	-0.07132707902387256
14	0xbf9124034000bd35	-0.01673894003050443
15	0xbfc68c1624eba86c	-0.17615010073433568
16	0xbfb1b73a7507c8db	-0.06920209271609983
17	0xbfa308a5cd9aa869	-0.03717535147491519
18	0xbfa54a3332800729	-0.041581725992740744
19	0x3fbcf4790bf4bd2c	0.11310535947699368
20	0x3fbd3ff7767b4fc6	0.11425730364436423
21	0xbfb5e78d8e00a1c6	-0.08556446759087696
22	0xbfaa794550bccdb0	-0.051706472497609623
23	0x3fab0e07664260ba	0.052841407044242186
24	0xbfc7c06222fde112	-0.18555857380466328
25	0xbfba27e7f07158ac	-0.10217141742882302
26	0xbfc0cc1e1a1d02a7	-0.13122917437614953
27	0x3fb61f03466a6b06	0.08641071766980354
28	0x3f917cbc7e6e5e5a	0.017077393738502124
29	0x3fc234e718828f51	0.14223946282174407
30	0xbfc4a97ae2810674	-0.1614221197105966
31	0x3fa0b36006457c61	0.03261852337413341
32	0x3f8f257caff97836	0.015208219642939818
33	0xbfaad96485bed354	-0.05243982441553521
34	0xbfc608274d09b098	-0.17212382566083728
35	0xbfc3408a37833079	-0.15040710173196084
36	0xbf91130636e20a7d	-0.016674134349623494
37	0xbfc9114bff6901eb	-0.1958403584594771
38	0x3fb89104ba7687c5	0.09596280624694405
39	0x3fae875d8db374aa	0.059626506373868196
40	0xbfbd7c2fd62ab5b1	-0.11517619112665646
41	0xbfc2a96f919ada6a	-0.1457957707368281
42	0x3fbfb89ceb643389	0.12391072031841878
43	0x3fa924011230c77d	0.049102815123105416
44	0x3fc4105bd3a847bd	0.1567492278559807
45	0xbfb2e9dd7f3fb799	-0.07388100010550004
46	0xbfa7d0112a1aeae6	-0.0465093006036648
47	0x3fc40b2674fe7471	0.15659027779193793
48	0x3fc2d871b2c50cea	0.14723035077086105
49	0xbfb81641a0000000	-0.09408960491418839
50	0x3f8470651797f5d2	0.009980001242179268
51	0x3fce1e4f567e211b	0.2352999851539231
52	0xbfc989a3da6c5215	-0.1995129410285165
53	0x3fb2d29241cbd7bf	0.07352556330064795
54	0x3f9c7ae80b14916b	0.027812600780764123
55	0xbf6220c7cc3de900	-0.0022128965665021427
56	0x3fb2e22b1e8152ed	0.07376355643038908
57	0x3fb4cdf509741d9c	0.08126765709686484
58	0xbfc02d2a2416ebfa	-0.12637831461128696
59	0xbfaa4900750aeaa5	-0.05133820942633819
60	0x3fbca720727c0451	0.11192515177755637
61	0x3f99c453d5697bbf	0.02516299238265751
62	0x3fb4b4667321bdb3	0.08087768851122838
63	0x3fb0e0443207a7fd	0.06592203351434019
64	0x3fc35154c2b5d0ab	0.15091952807745676
65	0xbf7ae77eac8d8f16	-0.006568426914643563
66	0x3fb42edbea110c90	0.07884001221195747
67	0x3fc37ed2ddcd3898	0.1523078520789951
68	0x3fcedf0f4bb3a884	0.2411822433126113
69	0x3fd127bc81ce87f1	0.2680503146785887
70	0xbfba479bd6ec71de	-0.10265516278418071
71	0xbf8f0474d9987126	-0.01514521874474235
72	0x3f902d383032469a	0.015797498647379095
73	0xbf761a1fc0a6f21d	-0.005396007569683306
74	0x3fb97ee4a5a5a2e9	0.09959248584858539
75	0x3fb3f9f0faa58a1b	0.07803255194952678
76	0xbfc30adce85d53bd	-0.14876901002813084
77	0xbfbb736a6b8bd61b	-0.10722985387459298
78	0xbfc22c8456bf396e	-0.14198354945842645
79	0xbf9bf0be2fc00cc5	-0.02728554884380398
80	0xbfc92e7a0feef41c	-0.19673085954664848
81	0x3fa2d225b2446ca4	0.036759546290533934
82	0xbfb770228e81bf59	-0.09155479411287838
83	0x3fc822bc6f52d854	0.18856006084178267
84	0xbfcf7c8c513fa168	-0.24598840682234457
85	0xbfd1ea4ef75e5133	-0.27992605359146977
86	0x3fc09b06ec22a959	0.12973104982422504
87	0x3fd1f4b5e6d713ee	0.2805609468744582
88	0xbfc156aed7c2a1ee	-0.13545785460634313
89	0x3fb8a22dc66f97a9	0.09622465223910005
90	0xbfb76f162e5d013d	-0.09153879768291957
91	0xbfd44045a31210c6	-0.31642285275325965
92	0x3fa38f71076594c3	0.03820374694149955
93	0x3fc38a9ee944de6b	0.15266786947335062
94	0xbf8c48bd6eaf08bc	-0.013810615482615744
95	0x3fa2fb255a8d8069	0.03707234125499854
96	0xbf8826671d72d335	-0.011791997514913536
97	0x3fcc4f2dc67f7e33	0.22116634552274803
98	0xbfba2a94e24dd9df	-0.10221224331858235
99	0xbfa8bc1c9c519cd5	-0.048310178834805186
100	0xbfc0ec63a5cab2ab	-0.1322140273599833
101	0x3fbc180157778ce4	0.10974129090714119
102	0xbfba16912458dd3d	-0.10190684449559213
103	0x3fa79625bb10f7da	0.04606740864299726
104	0xbfcaf759073f8f2f	-0.21067345479888774
105	0xbfc3397970c5367d	-0.1501914787899529
106	0xbfbce877d6deee71	-0.11292218204374095
107	0x3f7d43edc1cf947c	0.007144860018319151
108	0x3fd07030227add3e	0.25684741370374187
109	0xbf9a93766b27211b	-0.025953150072184444
110	0x3fb49ad92ab63376	0.08048779766813915
111	0xbf84d4d2ccefc91f	-0.010171553496523487
112	0xbfb531849216b608	-0.08278683249110241
113	0xbfcb39660aef899f	-0.21268916639298838
114	0x3faaebc478442510	0.052580012970859014
115	0x3f7d6fbb21709093	0.0071866330900186735
116	0x3faec169da96f84d	0.06006937783557529
117	0xbf5731c701407a61	-0.001415676441872592
118	0xbfb51c8cca011b14	-0.08246688777681427
119	0x3fa95c61b6a1c57b	0.0495329413833003
120	0x3fa8b33c96c5bfe1	0.04824246731266136
121	0xbfb3b88be29e9789	-0.07703470499708777
122	0xbfb0a5e75ee111e0	-0.06503149095903593
123	0xbf84a6ca72a36e88	-0.010083753226744166
124	0xbfd0e3e735475e7e	-0.2639101047802582
125	0xbfd11c26a9acb165	-0.26734320230277425
126	0xbfbeff25a5c545ff	-0.12108073517926952
127	0x3fb0b53f2fea4194	0.06526560706902834
128	0xbf9590e86c6daf6b	-0.021060592287013884
129	0xbfc285bf5d53699f	-0.14470665032315552
130	0xbfd11f9775021a8d	-0.26755320002158883
131	0xbfa15684a23d429a	-0.03386320572338271
132	0xbfab99d75f3960d0	-0.05390809094814275
133	0xbfb771f795eb5373	-0.09158275041711565
134	0xbfb3060b5f1ed10c	-0.0743109805324062
135	0x3f9711b7cbcf34ab	0.022528526129282394
136	0x3f6cff50e6f7342f	0.0035397129174499424
137	0xbfac8673753429ad	-0.05571327977857563
138	0x3fbe283815b01ffc	0.11780119447223564
139	0xbfc3f111ef10e68e	-0.15579437420983705
140	0x3fa8656becc0ac3e	0.04764878525778514
141	0x3fa5815049561474	0.04200220961778536
142	0x3fc54742e0cd1741	0.16623722054117177
143	0xbfb54433af53d2c4	-0.08307192831473303
144	0x3fb196d7cb5d97f5	0.06870793070774524
145	0xbfc3735b37671265	-0.15195789532858153
146	0x3fb8e36c76c26f53	0.09722021006967667
147	0x3fadd54a57697c5f	0.05826790158311534
148	0xbfb4d1f0605a0e8a	-0.08132841446245656
149	0x3fac788b40000000	0.05560717731714249
150	0x3f970ffd77e82518	0.022521934932261706
151	0x3fcd9a31af9aa96f	0.23126813005849153
152	0xbfc085ab9850cd8a	-0.12907929360663345
153	0x3f96aebce898d876	0.02215094728145358
154	0x3fb6eae32a820d08	0.08952159679215665
155	0xbfb7f385457b7c99	-0.09355957933756755
156	0xbfb87b2b0fdaafb7	-0.0956293977457666
157	0x3fc0321b90ca1692	0.12652916497988947
158	0xbfbbb1af3f4f6d4f	-0.10818000121746717
159	0x3fa6c8a5e553b4b2	0.04449957298661768
160	0x3fbb109869aa37cc	0.10572197513303577
161	0xbfbede820f05bd16	-0.1205827032733747
162	0x3fa0c8bf1455613a	0.03278157351695872
163	0xbfae68d21edeb1f2	-0.05939346911268108
164	0xbfbf29de942f5a1e	-0.12173262708470431
165	0xbfc23998404b53f9	-0.14238265170447997
166	0x3fb61b36e89d62da	0.08635276011535656
167	0x3faf296f3a3dd3df	0.0608629950137709
168	0xbfb24e052c6d9194	-0.07150299391429932
169	0x3fc65927af72f596	0.17459579531525254
170	0x3fb3f0ff59501917	0.07789607935419372
171	0xbfbca872d2fe09fa	-0.11194532061748666
172	0x3fb109deef09fcdb	0.06655686698831025
173	0xbfb9c9510ef04164	-0.10072809805592936
174	0xbfabf13385709440	-0.054574594534905874
175	0x3fc2fbef6ab86249	0.1483134528250665
176	0x3fa381f9167d02ec	0.038100990290791475
177	0xbfd18466218df227	-0.2737059905701095
178	0x3faa507cb21b157c	0.0513953177847197
179	0xbfc5e10941a58bf1	-0.17093005853084223
180	0xbfc6ab6d842c0717	-0.17710656121931187
181	0x3fb044abf1fbb19a	0.06354784639160585
182	0xbfcbb558fe29a915	-0.2164717904118524
183	0xbf9f4e3595ac0303	-0.030571782360314447
184	0xbfbf8ba8aa3bd4d9	-0.12322477489563556
185	0xbfa8c96f34583941	-0.04841182245228249
186	0xbf7f109eb2b988e8	-0.007584209360716999
187	0x3fc1c3ee49fcf4ee	0.13879183399868772
188	0xbf985d5764c3b899	-0.023793569111994903
189	0x3fc5f20f1414d8ca	0.17144955139673917
190	0xbfc1441de6a17cd8	-0.13489125977773742
191	0xbfd0901088df9690	-0.25879300467054467
192	0xbfa70875fb09ecfb	-0.04498642625272883
193	0x3fad3636be07d8ba	0.0570542437525758
194	0xbf9400dfdfdb95f0	-0.019534585989182618
195	0xbfb477f92fe2220d	-0.0799556486036936
196	0xbfc046f4141d1dff	-0.12716532690158996
197	0xbf9031f459dad97a	-0.015815561279589364
198	0xbf984ba21413d4c7	-0.02372601745169758
199	0xbfb6ab0d2e5cbffc	-0.08854753858463477
200	0xbfaf41b7677184b1	-0.061048251511928504
201	0xbf914b9b8d42bd0c	-0.01688998269736168
202	0x3faba1f182f22d64	0.05396990512334801
203	0xbfb6333f95f670f2	-0.08671948825071121
204	0x3fc13903c4572b05	0.13455245100916371
205	0x3fc32b4296c4a742	0.1497576938793888
206	0xbfb4c0f03e0cc717	-0.08106900706186725
207	0xbfafb2454f0fa3a6	-0.061906972790729584
208	0x3fca55997aab84e8	0.20573729028459486
209	0x3fa8b2aab5468c3c	0.04823811972462308
210	0x3fb9d60371f7f25c	0.10092183620867828
211	0x3fd020df56cc5faa	0.2520063731803882
212	0x3fb5a64a605353bd	0.08456864215561573
213	0x3fb83056b237a74c	0.09448758936892182
214	0x3fb81b84185771e4	0.09416986078526396
215	0xbf9be98ab4be317d	-0.027258078843759293
216	0xbfc380fd8b5ee43a	-0.15237397484978193
217	0xbfaaa874cacecb0a	-0.052066468960580606
218	0x3fc43c67a160749e	0.15809340839124258
219	0xbf8fcbd73f2d5823	-0.015525514235985643
220	0xbfbe85f6ad5d1c28	-0.11923162205231164
221	0x3f97c3607bea9280	0.023206241191149335
222	0xbf95b899c78e3738	-0.021212008290198286
223	0x3fb5eefcf0e3110a	0.08567791825322871
224	0x3fc0b0aa94842123	0.1303914284874362
225	0x3fcaf8cb10aff2f1	0.21071756663140875
226	0xbfb2eb7423af7483	-0.07390523787712948
227	0xbfbd929496160b68	-0.11551788963519771
228	0xbfb770d351f4d276	-0.09156533003699416
229	0x3fc6d7814286cb46	0.17845168827406094
230	0x3fa9b875182e567d	0.050235423280509096
231	0xbfb70f33438fbe6a	-0.0900756874032084
232	0x3fbc112fd05e01ca	0.10963724934663968
233	0x3fb14bc6b446d868	0.06756250287330234
234	0xbfa2a6f2626912b1	-0.036429953110688536
235	0x3fa910bd58888605	0.0489558382580633
236	0x3f949830d6ac1e43	0.02011181173568689
237	0xbfa6e7fe8ad10200	-0.044738726086965386
238	0x3fa77e96beb508ed	0.04588767126053193
239	0x3fd022916a8fe052	0.2521098652500814
240	0xbf957c8eaa250982	-0.020982960829550652
241	0xbfb6a77aed2cc09d	-0.08849304476166471
242	0x3fcbfe8fc4fb95a4	0.21870610349939767
243	0x3fc8b4bf79ac1a3b	0.19301598969487252
244	0xbfc1dbfa528c6ed9	-0.1395256903714344
245	0x3fbe83d8e43011de	0.11919932909956496
246	0x3f6eff88fa66c7cc	0.003783957991992692
247	0x3f8721a6d649ad4d	0.01129465428785772
248	0x3fb9f203f097b639	0.10134911178439489
249	0x3f79f27a00000000	0.006334759294986725
250	0x3fa5d68467bc342e	0.042652261412606016
251	0x3fabeba526d6240f	0.054532204619199935
252	0x3fb62f02c1494742	0.08665482729818755
253	0x3fb3917a3d56ac1d	0.07643856046222237
254	0xbf96f51de804cf2e	-0.022419421469023586
255	0x3fc4aeacbd955cf2	0.16158065087322587

layer2.bias f8 [100]
0	0xbfd292dcdf5edce1	-0.29021379292994537
1	0xbfb128cbb5068f68	-0.06702874345370236
2	0x3f7b07c678fbc5d7	0.006599211963235394
3	0xbfbb566a1507d82f	-0.10678732884829921
4	0x3fcaab9f8988e7e6	0.20836252418104023
5	0xbfd16d9102fb867c	-0.2723124055029087
6	0x3fd011a4f399816e	0.25107692517305835
7	0x3fd316b0478f9df6	0.2982598017538004
8	0xbfb531d29d278970	-0.08279148422983496
9	0xbf915c454a0d88f1	-0.01695354713900427
10	0x3f805cff86dea037	0.007989879897493874
11	0x3fb8eb02049e8ea5	0.09733593571450656
12	0x3fc5785c6b9adb66	0.1677356267370797
13	0xbfc72bb79003ca52	-0.1810216382214827
14	0x3fce4fe8d2c175ef	0.23681364336782404
15	0x3fd02f3e4affebac	0.2528835041445585
16	0x3fb48173919782b2	0.08010027222145302
17	0xbfb192c4f8191492	-0.06864577347831105
18	0xbfc6ad373a16ccd4	-0.17716112457637812
19	0x3fb3a8d4a4d587c8	0.0767949011256227
20	0x3fce3a215de43c83	0.23614899715946444
21	0x3fc1251b8c776636	0.13394493445120909
22	0xbfc39914e542b903	-0.1531091803967187
23	0x3fcdcc9056296b49	0.2328052921974069
24	0x3fa497e4cc4d7ef8	0.040221357287689885
25	0x3fbbe61681732a97	0.10897961292645629
26	0xbfcc0baae090fa5d	-0.2191060635104404
27	0xbf653f8aa2c3f8ba	-0.0025937755327723718
28	0x3fb12e579a7d8ffe	0.06711337587108798
29	0xbf9286dca9c8df21	-0.018092582571824004
30	0x3fbdebdf67191a55	0.11688038126985963
31	0xbfc5f3e58953fcd0	-0.17150563436005095
32	0xbfd0599917841385	-0.25546862884976235
33	0xbfc1b1e3a731fcb5	-0.13824124969321408
34	0xbfb3622c5fa1b8cb	-0.07571675619849143
35	0xbfcd1e51b95e0c15	-0.22748776961461262
36	0x3fab531586d0f27d	0.05336825628953521
37	0x3fc5025d8da15ed5	0.16413468757195085
38	0xbfba63f9d33b1f67	-0.10308801085477413
39	0x3fbd127330f7c7c1	0.11356277413849993
40	0xbfbaa2cd2896edf2	-0.10404665223079926
41	0x3fb80ccc99f84fa5	0.0939453006652103
42	0xbfa1832ec187b7ab	-0.03420396912029785
43	0xbfd152655fca9838	-0.2706540523016687
44	0xbfc19dfd2a419821	-0.13763393939297067
45	0x3fbcedd4409c2238	0.11300398423566882
46	0x3fb8ce592db2ab99	0.09689862600013867
47	0x3fcca91d73cca764	0.22391098169583323
48	0xbfa9a41d5edb733b	-0.050080221013308855
49	0x3fc3cdec0da21f36	0.15472174325645377
50	0x3fb8b9e0d320d18f	0.09658627657410633
51	0x3fbb0f601cf91273	0.10570336062762369
52	0x3fb18c1fe40289f8	0.06854438130043394
53	0xbfaa838471dd1c8a	-0.05178464784563015
54	0xbfc64c1696f6451c	-0.17419702883902566
55	0x3fc62a8c1b8ae237	0.17317344040726976
56	0xbfc4e52d1e2fb994	-0.16324390386530452
57	0xbfc8fab74db79142	-0.1951512460210641
58	0x3fd35a69df74e602	0.30239340612351395
59	0x3fc005a24e08d97f	0.12517193613320995
60	0xbfb5cc46fced7aa1	-0.08514827418319239
61	0xbfd47ec723b6496a	-0.32023790824418674
62	0x3fc3b6d44bc8a0f2	0.15401700687767278
63	0xbfa3a47fb29d708a	-0.038364401391590766
64	0xbf8ef3de1ae6555f	-0.015113578029551432
65	0x3fcc7ceb73f3f671	0.22256224786535797
66	0xbfba97f8065ad6bf	-0.10388136057994311
67	0x3fb56018d94f41b7	0.08349757485780783
68	0xbfaa1e29878e4b37	-0.051011369511931574
69	0x3fbebdb832912d51	0.12008239016102108
70	0xbfd59d4891b8266c	-0.33772482138065274
71	0x3fcb19316b8e2f35	0.21170633079270265
72	0x3fd283058dc8808a	0.28924692960755094
73	0x3fd4ad4850cec15c	0.3230763234269227
74	0x3fcaaac592981ce6	0.20833654077453118
75	0xbfd253534eb100c5	-0.28633577999790943
76	0x3fa2b9ea2393a6b2	0.036574665873400206
77	0x3fd10adc3b8cb12b	0.266287859109769
78	0x3fa79ade5bd908cd	0.04610342856587266
79	0x3f93e32c8f792d88	0.01942128778163757
80	0x3fc80b1c4deb3096	0.18783906750320928
81	0xbfcdddf69e9324c4	-0.23333628409299056
82	0x3fb5636f5b9f07c5	0.0835485075649834
83	0xbfcd70a30f5eb92c	-0.22999990702141682
84	0x3fbacf0b8e5d92fb	0.10472175813408661
85	0x3fd34abd0ccd0159	0.3014366745956259
86	0xbf62425396c57a9a	-0.002228892573995123
87	0xbfca714f5ba31baf	-0.20658294653386863
88	0xbfa9395fac705691	-0.04926585178342891
89	0xbfd3ee37d84c5f36	-0.3114146816528661
90	0x3fb256f37767d7a9	0.07163926758934615
91	0x3fb591e5523d7ba9	0.08425744302574735
92	0xbf864b8671ff7902	-0.010886240343037649
93	0xbfd0e90962944e2b	-0.2642234289826059
94	0xbfbedd4df284fe34	-0.12056433840643238
95	0xbfc181baad18852c	-0.13677152110998614
96	0xbf97635be7a7164b	-0.02283996201892639
97	0x3fc506415e01f85f	0.16425339784831558
98	0xbf8e999aafa0008e	-0.014941414341592709
99	0xbfccba4c6e7f3ee8	-0.2244353808914561

layer3.weight f8 [100, 100]
0	0x3f977f35000bb8ad	0.022946193816942784
1	0xbf712fd423a2f309	-0.004196003597993999
2	0xbfa470439b8898db	-0.039919007049592024
3	0x3fa79e6f276d3912	0.046130631983588924
4	0x3fa25b702a6b6f8f	0.03585386770075082
5	0xbfbe4bf45559dfae	-0.1183464725853571
6	0x3fa8aba157edd810	0.048184434875040094
7	0xbf98b178e2d700d4	-0.02411450275917633
8	0xbfc55dc406ec90bf	-0.16692400301065466
9	0x3fac9b2e18476a7c	0.055871429885617524
10	0x3f9afc9a70d6c4a2	0.026354230057851986
11	0xbfc025d2f6aa2e27	-0.12615429920366347
12	0xbfa802ebb4308969	-0.0468972833116535
13	0x3f95ccc568857fe6	0.02128895235489372
14	0xbfb133cebe3f4ae2	-0.06719677109439773
15	0x3fca67a98f772478	0.20628852372309203
16	0xbf8aa66ebd1f5529	-0.013012757441098604
17	0xbf9f518fbd6b19fa	-0.030584569870166313
18	0x3fb1295b46ff082e	0.06703730090433233
19	0xbfa8cdf08139029d	-0.048446193479781054
20	0x3fa0bf6d8f212626	0.03271047947107446
21	0x3fc2257bb75e2625	0.14176889852051136
22	0xbfc935319d108044	-0.1969358460346503
23	0xbf8468b0f7fa825f	-0.009965307777123287
24	0x3fb5c54f48829c1c	0.08504195709484502
25	0x3fbca15d7f198ddf	0.11183723786375975
26	0x3fb20888019f922a	0.07044267692214903
27	0x3fbe6fdbc5e1a745	0.11889432507601068
28	0x3fbcce0d40814bcf	0.11251910042601242
29	0xbfac0c331a44eaad	-0.05478057571095483
30	0xbfc6b699c695d0f5	-0.1774475307135003
31	0x3f8ed1a01936ff74	0.015048266191001615
32	0x3f97bc4432eabdd6	0.023179116828655776
33	0x3f704809bfc1ca1c	0.003974950868825402
34	0xbfae62554304383e	-0.05934397166321091
35	0x3fab3070bdc14971	0.053103945887999944
36	0x3fc103f17a0eb220	0.1329328390105653
37	0x3fae1bd17d88df02	0.05880598695187979
38	0xbfc5a283bfa0b55a	-0.1690220533068139
39	0xbfc01174811c4487	-0.12553268722743757
40	0x3f8e7c75d63c7d5e	0.014885826683495192
41	0x3fc0f0ffffd3f959	0.1323547362480422
42	0x3f95fcd6d73fbe46	0.021472317588573618
43	0xbfc6cf6bd474b865	-0.17820499299836282
44	0xbfc82766dd2f6786	-0.18870244789178175
45	0x3fb37292bdd66042	0.0759669984312277
46	0xbfc31c236655229c	-0.1492962121649456
47	0xbf77a1845d46d15a	-0.005769269035614444
48	0xbfa339adb2f3e260	-0.037549427122887336
49	0xbf88ca95cb1bd90c	-0.012105150471580582
50	0xbfaffbc0932b2962	-0.06246759220592214
51	0xbfcb5e3a4380d623	-0.21381309791620237
52	0x3fb8ac6eb9a2f7c5	0.09638111145156276
53	0xbfc11effdcbe5f70	-0.13375852850435477
54	0xbfbc7be9a3ea068c	-0.1112657571011601
55	0xbfab2102ce746f90	-0.05298622865868119
56	0xbfc26ddb37e3dd00	-0.14397754887588832
57	0xbfc56873ad39665d	-0.16725011785711077
58	0xbfa0f370cbf64990	-0.033107304475510024
59	0xbfafa20083adf5f8	-0.06178285224357788
60	0xbfc530048da1cdad	-0.16552788653971842
61	0xbfbaafb2e8f5ba9a	-0.10424345195290599
62	0x3fbcc330a80cb99d	0.11235336401725822
63	0x3fbdc3023d86b367	0.11625684740165597
64	0x3f99242385ffa9b3	0.024551920941954197
65	0x3f8c904632c3832d	0.013947056221185495
66	0xbfbd1924a5fa9dec	-0.11366490413876534
67	0x3fb3afd6f195f5bb	0.07690184972849227
68	0x3faee7849c807d6e	0.0603600922624946
69	0xbfa7ae0ef1f0cff0	-0.04624983504655222
70	0xbfbe5e0d1a6f65bc	-0.11862260718716916
71	0xbfc4900b7d4dd2cc	-0.16064590090140596
72	0x3f44ac614d4dd700	0.0006309008700628727
73	0xbfb267dc67a90fdc	-0.07189729243060533
74	0x3fb61359120c15d7	0.08623272600751562
75	0x3fb73cc9c88f7fad	0.09077130457398992
76	0xbfc1008405edb09e	-0.13282823838688257
77	0x3f8a3a8a8d936e1c	0.012806971021226458
78	0x3fa0b43c651d842b	0.03262509092633822
79	0xbfc9078427ebaf00	-0.19554187726259187
80	0xbf54d80de7697227	-0.0012722144871509884
81	0xbfc6eb6d98bc183e	-0.17905969579459396
82	0xbf90115add50aa64	-0.015691203840257364
83	0xbfb7b6c5519cbf25	-0.09263261072623814
84	0x3fad3c5dd8a4d008	0.057101185508514674
85	0x3fae209db1b6e238	0.058842590278292695
86	0xbfb44add51e0fc08	-0.0792673420810247
87	0xbfb3a55410e47301	-0.0767414609185373
88	0xbfa196361012a285	-0.03434914537621573
89	0xbfbdf03055930329	-0.11694624032226088
90	0x3fc1b4621b682f14	0.13831735933524014
91	0x3fc402f99a33704a	0.1563407900747527
92	0x3fb0f52ecfd85cd2	0.06624119352669602
93	0xbfb0818a13e296db	-0.06447661385990548
94	0xbf8ae169eea8009a	-0.013125255199156794
95	0xbfbaebd0dbb98a11	-0.10516076435445877
96	0x3fd2049bad89a1c5	0.28153125712426813
97	0xbf8cde12e51f604c	-0.01409544717527935
98	0x3fbd54c48e398f23	0.1145747039059271
99	0xbfc07482d155d9bb	-0.12855563374951182
100	0x3fcca34da843203f	0.2237336227028681
101	0x3fb4fbc9aef0c3b4	0.08196697731979335
102	0xbfc6a7afbeda7f88	-0.17699238604563683
103	0xbfc1f1a2d13f666d	-0.14018664567156539
104	0x3fb432a225ce31c3	0.07889760420784513
105	0x3fb38987033ffa6f	0.076317251485287
106	0xbfbd50e09f5721b1	-0.11451534166474776
107	0x3fb189eb7d8c37c8	0.0685107404244426
108	0x3fc3192a4ae8fed8	0.1492054811260377
109	0x3fc7972f87f04dde	0.1843013204348684
110	0xbfc32ed2ec233b24	-0.14986645250470432
111	0xbfa413b0945f1664	-0.03921272097754239
112	0x3f830f18a5581afb	0.009306137605574962
113	0xbfc89148b93eb6f4	-0.1919337181583881
114	0xbfc02476a6ca034c	-0.12611277717589997
115	0x3fb162d1a9fb1c94	0.06791410827564653
116	0xbfa8a5e290ad23d7	-0.04814060226505717
117	0x3fb3ac150ccc32b0	0.076844516395975
118	0x3fb95e7952c64389	0.09909780760632549
119	0xbfae8b70f79bf505	-0.059657602525456745
120	0xbf87e14ac064173a	-0.011660179134661431
121	0x3fcac6d4c8981701	0.20919284624704207
122	0xbfc459b7a8337af9	-0.1589879580778513
123	0xbfc6f6dc5f868634	-0.17940859474497162
124	0x3f99a9b1b1b6cc4a	0.025061394187741372
125	0xbfb2e8e59b4cba99	-0.07386622468468786
126	0xbfb324456f6c5b47	-0.07477220506949066
127	0xbf78014ae1f1fefd	-0.0058606076337353015
128	0x3fc2646f5ec423e5	0.1436900341725781
129	0x3fbea211cbcecb38	0.11966048455978473
130	0xbfc26d8ad1a02873	-0.14396796451211777
131	0xbf988f2c503d020d	-0.023983662030561393
132	0x3fc0d095b9fb1374	0.13136550503818578
133	0x3f9a85797a5cfae7	0.025899789899308436
134	0xbfc33b5ac84dfde2	-0.15024885921955816
135	0x3fac28ba63580f78	0.05499823057837622
136	0x3fa0e6cc5797b8d7	0.03301085061308278
137	0xbfc0aa5a6d819095	-0.13019876811006684
138	0x3fa15ee079859fa1	0.03392697795317124
139	0xbfbcff8d2d09bdd1	-0.11327440595208961
140	0xbfd0806fcd6d612c	-0.25783915578132865
141	0x3fc373636a5a8d1e	0.15195887272884873
142	0x3fbbbb863dbab620	0.10833014494956972
143	0xbfc01b8ec52b98a8	-0.12584099414306604
144	0xbfc0d386344c03e6	-0.13145520738183264
145	0x3fd0196fd7dac79c	0.2515525443987998
146	0xbfc685ed266d24e8	-0.17596210838590953
147	0xbfb21514caa4c3ae	-0.07063417384485035
148	0x3fb9065db7507bb5	0.09775338864754597
149	0xbfc6566dd8f7781c	-0.1745126065642929
150	0xbfa82271152b6abf	-0.04713776954095782
151	0xbf9e0e90ea74c107	-0.029352440176070107
152	0x3f9dbb20f6f52405	0.029034152100653205
153	0xbfa3b2dd67a12a8b	-0.038474005603878224
154	0x3fc54e150e91f87a	0.16644538127360758
155	0xbfcb9682fc24aeba	-0.21553075133976113
156	0x3f7d0134c74ef951	0.007081228414732203
157	0x3fc641a1196c1000	0.1738778471118394
158	0xbfa7da621636a154	-0.04658800622138651
159	0xbfbcc62e81816a7f	-0.11239901220089087
160	0xbfbcb0a9d7007e25	-0.11207067011900358
161	0x3fafb633b46a38d5	0.061936965726191374
162	0x3fc29c72b8028885	0.14539941773279366
163	0x3fa8eb4a96a58590	0.04867013062426928
164	0x3faa7537d4b4e6f3	0.05167555305020057
165	0xbf9ee044e658308c	-0.030152393874275193
166	0x3fc07f87c1a53ad8	0.12889191584914417
167	0x3fc16cec685b96e2	0.136136580425208
168	0xbfb4181f7f2370ce	-0.07849308828321286
169	0x3fc18bc5b90cc98b	0.13707801376001458
170	0xbf980a9a09c2eedc	-0.023477942319671694
171	0x3fb2d972bb711f5a	0.07363049579828154
172	0x3fbc56fdb6d33d24	0.11070237840180092
173	0xbfb836754be86f4f	-0.09458096602651021
174	0xbfc8d88f0595c2ff	-0.19410884640412715
175	0xbfaf18d4ce999abd	-0.0607363226125037
176	0xbfb7807a85bdc4a3	-0.0918041779057313
177	0xbfb3f612f983cd8d	-0.0779735430876853
178	0xbf8479faf54b001f	-0.009998283968684572
179	0xbfc6838b1aeed8c7	-0.1758893853672758
180	0x3f75a688682d83bb	0.005285771216990416
181	0xbfbb573a7f91b4cb	-0.10679975141984525
182	0xbfb82abe07d4e1d0	-0.09440219584656195
183	0x3f9332bc117d2995	0.01874822479957457
184	0xbfb4789746f1141d	-0.07996507150626582
185	0xbfcd44df967dd585	-0.22866434906215374
186	0xbfade66c61e75e9e	-0.0583986157905063
187	0x3fba9f2130eeda62	0.10399062580732157
188	0xbf9988b800712316	-0.024935603167509056
189	0xbfa7557ed2a5962b	-0.04557415315029475
190	0xbf8e38283185b4ff	-0.014755548487949797
191	0x3fbe8ca8fabc9f7c	0.11933380242828479
192	0x3fb477f1d3888a86	0.0799552098692776
193	0xbfb2f1c7e2a78393	-0.07400178226045133
194	0x3fbfa5661dd1b91e	0.12361753681191032
195	0x3fc36475ac1c7726	0.15150328544489716
196	0x3fad209c340cc7ae	0.056889420846700886
197	0xbf7d39e3dd3ea578	-0.007135286421467206
198	0xbfcd9c8bfb4965ab	-0.2313399292932393
199	0x3faf791416b7ec87	0.061470630429505006
200	0x3fb27775241c7804	0.07213527804967163
201	0x3f9daea3fbe2ef2f	0.028986513375215125
202	0xbfca97688585090d	-0.2077456142379294
203	0x3fb43eb2e8bcb4fd	0.07908170873698235
204	0x3f8fec461b5b90b9	0.015587375364198729
205	0xbfbe4deeaba8c239	-0.11837665263079424
206	0xbfa7aafe918219be	-0.04622645879958352
207	0x3fcc2076e21950ff	0.21974073448166817
208	0x3fb8fcd5b8a8825a	0.0976079536271838
209	0x3fa4b3bfc7d6b819	0.0404338771289618
210	0xbfbe6cdd778bb1b1	-0.118848649679143
211	0xbf90119177b8ecc4	-0.015692017490647428
212	0x3fc04607cbd5b14d	0.12713715985172272
213	0xbfc02858961fcf56	-0.12623126344953545
214	0x3fc176e438155302	0.13644078005258825
215	0x3fc05ea3a1aaa17c	0.12788815873978965
216	0x3fc92dde7d26fd23	0.19671231375648643
217	0x3fc9258460c49f19	0.19645743107798166
218	0x3fa57da286a4012e	0.04197414296686684
219	0xbfbb561eb619e36d	-0.10678283639744075
220	0x3fb3f8ddc28a0c9d	0.07801614760869531
221	0x3fd00bb2567e68de	0.2507139057794471
222	0xbf9aafd91be38c21	-0.02606143219680857
223	0xbf98454cd62c7ddf	-0.02370185906613453
224	0xbfa43b6f9d2210d8	-0.03951596062782564
225	0x3fafe9732aef69a2	0.06232795619117161
226	0x3fb7e8be98b45070	0.09339514949925998
227	0x3fb04d97a2e6ffee	0.06368396498783088
228	0x3fcbd166979fd6e3	0.21732790378125974
229	0x3f83a68c1341956e	0.009595007264759228
230	0x3fbe09af7d5e1d6a	0.11733528910382565
231	0xbfb5a5407c4d9513	-0.08455279383413865
232	0xbf86d0f8bf97ce2e	-0.011140769335702929
233	0xbfbf4f7692c245c1	-0.12230626185398476
234	0x3fc27c20de2d6559	0.14441309784414605
235	0x3f937235876b9e92	0.01899036063232857
236	0x3fb478f833d2af0d	0.07997084870538292
237	0x3fb2f7261186c7ac	0.07408368995564157
238	0x3fd19012495c344c	0.274418422356409
239	0xbfa060c90c0b028c	-0.031988413543790534
240	0x3fad0e59918187ea	0.05675010586925551
241	0x3fd223a412db6e0b	0.28342534867781016
242	0x3fad542c9ee02051	0.05728282393835172
243	0xbfd4c21d075d18c3	-0.3243477413092359
244	0x3fc16a2e51aa2c8e	0.1360528849366784
245	0x3fa5045ae8c646c0	0.04104885188566021
246	0xbfb63839962c43e1	-0.08679542461710767
247	0xbf86bda2b2e6b9e7	-0.011103888592370615
248	0x3fc6df9636480079	0.17869832659198773
249	0xbf91c377186f95ea	-0.017347203127334433
250	0xbfc95247014cb9f1	-0.19782340587103378
251	0xbfa854df9e1f868a	-0.04752253346647446
252	0xbfabf679e54914c7	-0.054614838828038574
253	0xbfc01ab2d6035ea0	-0.12581477594243484
254	0x3fc7a50d7771a539	0.18472450573180213
255	0xbfb4de9f9783e7d2	-0.08152196358778888

layer3.bias f8 [100]
0	0x3fb0d038c4f681fc	0.06567721184411107
1	0x3fa8086f3af55dc6	0.046939350077703376
2	0xbfc2f82ce3c7b9da	-0.1481987106521519
3	0x3fa248577fb87ad5	0.03570817407693531
4	0xbfba50a336590951	-0.10279293133593127
5	0xbfa8e27fd898b203	-0.04860305327415306
6	0x3fb02de4c9b56626	0.06320028233076211
7	0x3fa9154e30f8364a	0.04899067256711172
8	0xbfd09e5be376250b	-0.2596654626182306
9	0xbfc3a817197319aa	-0.153567206789558
10	0x3f989f11ca58eb9f	0.024044301963140332
11	0x3fc20a9979c1abac	0.1409484714998518
12	0xbf8651a9c436bc0c	-0.010897947597952061
13	0xbfc1ca76e75d47f8	-0.13899122521485174
14	0xbfabefa457fd7a72	-0.05456269811724192
15	0xbfb5d03e27c3d70f	-0.08520878287148669
16	0x3fb63dd4d20b9692	0.08688097122247943
17	0xbfc9eec8a6a7b4e6	-0.20259960305649044
18	0xbfc79e9e896734c5	-0.18452817639482624
19	0x3fa7720fd2f5ae9a	0.045792097570339155
20	0xbfc4f51e8065f8a5	-0.16373044270944095
21	0xbfb61fd63bf5253d	-0.08642329181488591
22	0xbfc7f0c3dad33e03	-0.18703506645987042
23	0xbfbc869c537423c4	-0.11142899548953183
24	0xbfcbd605967e123c	-0.21746892784371308
25	0x3fb42bf0848e49a0	0.07879546390748837
26	0xbfbada67d0bd169b	-0.10489510389478555
27	0x3f81ab67c57e8147	0.008627711023848973
28	0xbfc1f3df2acf243c	-0.14025487509050716
29	0xbfbab5effb998515	-0.10433864491053087
30	0x3fc4af98bf90a08a	0.16160878518826777
31	0xbfa7d5e998b89675	-0.04655389775534228
32	0xbfc4751cdef1b582	-0.15982399831720434
33	0xbfb3ad1e530f36af	-0.07686032798593588
34	0x3fb2a82f469bbf7b	0.07287879442060145
35	0xbfccaec66cb2ea42	-0.2240837126499447
36	0x3f911abfba5cc9f9	0.01670360159841697
37	0xbfb15cbccf522271	-0.06782131253761194
38	0xbfcc7626053362c9	-0.22235560659352974
39	0xbfa86cef50a0ce6a	-0.047706106750777647
40	0xbfc7629a77ecb187	-0.18269663673107692
41	0xbfd32a534ec9590b	-0.29945833868022537
42	0xbfc4bc7363fbc4f0	-0.16200106031423145
43	0xbfcef1122c18835a	-0.2417319026290226
44	0xbfc945f3cfb5fe19	-0.19744727747091487
45	0xbfb2b2d162aa3df6	-0.07304104479612036
46	0x3fbc705392184f0a	0.111088965575899
47	0x3fac7da6bf881245	0.05564614379912717
48	0xbfb7202abcdac489	-0.09033457861620965
49	0x3fbaedfb1c37cfa9	0.10519380034366911
50	0x3fb5e68904b51309	0.08554893841671797
51	0xbfa829943ae5edd8	-0.047192222776142934
52	0xbfcf7ee3c217f554	-0.24605986573434768
53	0xbfbf9a79256cf325	-0.12345082439146589
54	0xbfc81a1cd7cd0047	-0.188296895381429
55	0x3fc46f855e1c1942	0.15965334983065743
56	0xbfb44fd195c8bbfa	-0.07934293658102823
57	0xbf8924b021c7196d	-0.012277008086027686
58	0xbfbd8c6e657c8aa8	-0.11542406060884025
59	0x3f8ca02af64d8cb7	0.01397737087399374
60	0xbfb994d257eabdf9	-0.09992708822641551
61	0xbfc15818685e108a	-0.13550095649782562
62	0xbfb41e1497ad815c	-0.07858399107999986
63	0xbfc21a4691ad0c73	-0.14142686951717884
64	0xbfabff27fb111737	-0.05468106212405959
65	0xbfb756430490b80b	-0.09116000043351861
66	0xbfc6b5623d774f90	-0.17741039277336457
67	0xbfa633165f36495d	-0.04335851585632853
68	0xbfc88044721d0334	-0.19141440936984966
69	0x3f9356b717a15f61	0.0188854797528103
70	0xbfcd3f4a0674219a	-0.228493931914511
71	0x3fb8ac5b936dd6ac	0.09637997006742677
72	0x3fa69b19cc1a3473	0.044152074971045695
73	0xbfca7f9d15c7e1f6	-0.20701945842280595
74	0x3fa285d81f777600	0.036177400437491514
75	0xbfc5aabed1c58bf4	-0.16927323572880904
76	0xbfc323b646921aab	-0.1495273441871253
77	0x3f9233654c1e1e99	0.01777418400845807
78	0x3fb46e2a1ff3d622	0.07980597763147348
79	0x3fc13cd779ed0525	0.13466924146090622
80	0x3fb14e5aee966a8f	0.06760185551540075
81	0xbfc651cb1540175c	-0.17437113320937214
82	0xbfb19e70153e12fb	-0.06882381933798946
83	0xbfa9094dc676b6a3	-0.04889910743382344
84	0xbfb0c56eb014212b	-0.0655125789527388
85	0xbfb7281a9bd5683a	-0.09045568756610659
86	0xbfb0527d2c27246f	-0.06375868156386998
87	0xbfbf4b691237e9bb	-0.12224442190919309
88	0xbfcd9a60523f5aae	-0.23127368942251308
89	0xbfc511929575a9b9	-0.16459877298195894
90	0xbfc01545dffa6cb7	-0.1256491988795909
91	0xbfba3575211624a9	-0.10237819726730159
92	0xbfc63b9621d73682	-0.17369343426110012
93	0xbfb5452ed4b6e5a9	-0.08308689778541258
94	0xbf6c7b6072e527e4	-0.0034767993703654788
95	0xbfc686bf75ead2ef	-0.1759871793525671
96	0xbfc9337cd233259d	-0.19688377631818535
97	0xbfbeec8db32fdd29	-0.12079702019388051
98	0x3fa5d3e0b4a18662	0.04263212399451956
99	0xbfb562dd5ef87436	-0.08353980606666842

output.weight f8 [1, 100]
0	0x3faab05053741023	0.052126417338542085
1	0x3fc3074c07b49b83	0.14866018654103294
2	0x3fac1c2ecfc059be	0.05490251813914736
3	0x3fb506658117c119	0.08212885286025474
4	0x3fb08da6f6971e08	0.06466144104262395
5	0xbfc1d1566d103880	-0.13920097661361197
6	0x3fc0449ed94a60c4	0.12709413156404115
7	0x3fbee1a25c4eb95b	0.12063040498353443
8	0xbfd07c713a5ad40f	-0.25759535502157943
9	0xbfcd3341b8468287	-0.22812673089812938
10	0x3fcfb5bc6c0300b6	0.2477336432839416
11	0x3fd7b86bd462b037	0.3706311773373758
12	0x3fc51cd576771e5c	0.16494243893088167
13	0xbfc1a33770f73a2e	-0.13779347434906825
14	0x3fb6fd60e6184e39	0.08980374925186475
15	0x3fbe7374ed8ed1cb	0.11894923019173757
16	0x3fbaeb239703298c	0.10515043675255792
17	0xbfc55781943cc452	-0.16673297632363188
18	0xbfcf72b0a22638dd	-0.24568756024786512
19	0x3fd6bdd906881a49	0.35533738744598914
20	0x3fb44ebc91a61fdd	0.07932642513162542
21	0x3fc00666c304f956	0.1251953556292828
22	0xbfc7342e4577466b	-0.18127993003740825
23	0x3fb21b44e45e108a	0.07072859359147024
24	0xbfc3a79146aa90ec	-0.1535512538004079
25	0x3fb8d8b25b88d4ba	0.09705652937630563
26	0xbfc0c34c4253d35b	-0.1309600185265037
27	0x3fbc0e4ca867c099	0.10959319220978826
28	0x3fb5e0f2ce07295d	0.08546369104366165
29	0x3fb321def1894255	0.07473557850722419
30	0xbfcea985c824d475	-0.23954841873788593
31	0xbfc0cdb6d33766c6	-0.13127789796162953
32	0xbfb7f3d98dc6c815	-0.0935646029600153
33	0xbfcb218b7aefcedd	-0.21196120741625793
34	0x3fc09293bc31be32	0.12947317780661788
35	0xbf9a4759362dafe3	-0.02566279786280735
36	0x3fb77cf0ee83724c	0.09175020049173915
37	0x3fb9afcb9b2c0e05	0.10033867395764424
38	0xbfccbd5fb8b8dc3b	-0.22452923316606807
39	0x3fb8231d89908965	0.09428581818113953
40	0xbfc135cb9bcc6f60	-0.13445420367576855
41	0xbfcc7abf60ded1a1	-0.22249595861434293
42	0xbfc75c3044c8d681	-0.182500871263688
43	0xbfc5dc815acdf2b6	-0.1707917874699853
44	0xbfc8ea44e84f20b5	-0.19464932769029067
45	0xbfcbec59fe023401	-0.21815037634624448
46	0x3fb6c1d89ae89a19	0.08889535695980334
47	0x3fb68435f039f1c9	0.08795487513447776
48	0xbfb1faf5dbbb10ad	-0.07023560156364068
49	0x3fa68c8f10f99e96	0.044041128942635385
50	0x3fc12054698ed196	0.13379912523454313
51	0x3fba3ba5a1c981b0	0.10247264099007825
52	0xbfc927cfc3d37d37	-0.1965274530584595
53	0xbfb6781ebf3860da	-0.08777038734877199
54	0xbfc36b8d86f29d50	-0.15171975220912737
55	0x3fd1481778f58729	0.27002512752925384
56	0xbfc8e3bcdddfa484	-0.19445000489875863
57	0xbfbe056cc52d21e9	-0.11727027715563278
58	0x3fc0cbaac6ef00fd	0.131215426574279
59	0x3fc7cd5a4519e7a1	0.18595436452943395
60	0xbfc8cb6c58336a0a	-0.19370798403436168
61	0xbfc6ee556d14bc2a	-0.1791483671781589
62	0x3fc9641af0a173dc	0.1983674693064178
63	0xbfb630bbf6591bcf	-0.08668112530095516
64	0xbfc9741cad53a16e	-0.19885595763413327
65	0x3fc5d0d28058061b	0.1704352499655649
66	0xbfc7e6eb1e4705be	-0.1867345712508221
67	0x3fbf9a11fd22bb5b	0.12344467573232747
68	0xbfc0704fabee9306	-0.12842746634591878
69	0x3fbc082f3103b638	0.10949988314288184
70	0xbfd019c6e185b7d2	-0.2515732958189548
71	0x3fd79d44484aa276	0.3689737993213734
72	0x3fc79ba550bf5739	0.1844374317431006
73	0xbfc175d8697c866f	-0.13640885496811303
74	0x3fc4c84d08db68a7	0.162362698864688
75	0xbfd184b96b8cf118	-0.27372584822639245
76	0xbfc5c88b4a590516	-0.17018262033710901
77	0x3fc1f8b17d9c3c3d	0.14040201791110177
78	0x3fbfeae6227524ac	0.12467802373170639
79	0x3f804bf1b7680579	0.007957352075211631
80	0x3fb5c406866d4429	0.08502236158280198
81	0xbfc42b0fdc65642a	-0.1575641466286311
82	0x3fc2c49d9f948821	0.14662523548128184
83	0xbfcac88e9a8034c6	-0.20924551528916008
84	0x3fc65a942271b412	0.17463924104541256
85	0x3fa84e87527474d7	0.04747412568597447
86	0x3fc13c6838bb3e27	0.134655978871238
87	0xbfcc4b0cfad596f4	-0.22104036567468877
88	0xbfd11bbafeb4b5d9	-0.26731753228781724
89	0xbfc4c151d48a7df9	-0.16214964750268715
90	0xbfce296402558a70	-0.2356381427190004
91	0xbfc13a39354ff766	-0.13458933928626066
92	0xbfc4814dddf1dbbe	-0.1601960500445027
93	0xbfc6d31d81cb62cf	-0.17831772649403496
94	0xbfc3ae9464892b73	-0.15376524838424252
95	0xbfc52a97abdd24a0	-0.1653623189143092
96	0xbfbb9781e4837c9b	-0.10778056935258677
97	0xbfc6bd4a01a40a5e	-0.17765164451710097
98	0x3f901d9bace34ce0	0.01573794596408795
99	0xbfc0398680c16c68	-0.1267555359544048

output.bias f8 [1]
0	0x3fc09e6c7bf43385	0.1298347096675593
