model2_DGM_state_dict_100_40.pt (torch, 168956 bytes, 8 tensors)

layer1.weight f8 [100, 3]
0	0xbfc31f7a797082df	-0.14939814500487267
1	0xbfdfb8a382ac230d	-0.4956444526765587
2	0x3fdd359ad7365180	0.4563967801743942
3	0xbfd7f38f861aeece	-0.3742407617207676
4	0xbfd9ec50e88e1fe0	-0.4050485869452114
5	0x3fa2a339eff733a2	0.03640156797664608
6	0x3f83bd9d800517d6	0.009639006108624597
7	0x3fdd8133b080d4a6	0.4610108588852405
8	0x3fdcd9492444c1ff	0.4507620672402765
9	0x3fd4ac215c30b4e8	0.32300600054698103
10	0xbfa4c4fb34cc7090	-0.04056534785760946
11	0xbfe30d8f10136003	-0.5954051317194174
12	0xbfd4f2b531f3e2c3	-0.32731370809737487
13	0x3fb1e7551bb03b63	0.06993610311495284
14	0x3fd74aed0fdbc064	0.3639481215350371
15	0x3f91a0763b99ad51	0.017213675868714976
16	0xbfc6b6dc4d21e63c	-0.17745546118003286
17	0x3fd728f8222ff0b9	0.3618755658969906
18	0x3fdfca0760ae20be	0.4967058605329945
19	0x3fda705c78fd9ff3	0.41310798469066795
20	0xbf7f8def71944b15	-0.007703719450790532
21	0x3fcb869560a9a77f	0.215044662664976
22	0x3fc7f2042d38e9da	0.18707325180169115
23	0x3fe14e281b455d97	0.5407906086574482
24	0x3fb816c9a9a6fd67	0.09409771339323002
25	0x3fc2e651b6729484	0.14765378387997796
26	0xbfe148df163fe480	-0.5401454386293523
27	0x3fde499fec7fd2d7	0.4732436952174743
28	0x3fd833a6f9ef0357	0.37815260322172634
29	0x3fd218fea1ca8eaf	0.2827755527489257
30	0xbfda2cdd6466a557	-0.40898833088666237
31	0x3fe33b056ca93b8a	0.6009547350202962
32	0x3fb394f347b5a1bf	0.0764915514060993
33	0x3fd4ff2cbdfa3473	0.3280746321914371
34	0xbfd3877979bf176f	-0.3051437081270398
35	0x3fe092470db58a5f	0.5178561465985004
36	0xbfb0f57b59fa35f4	-0.06624575564111251
37	0x3fbfb40c42512609	0.12384106272761398
38	0x3fd8be1a661784cc	0.3866029736510199
39	0xbfd0c4b33a0d57b8	-0.2620056216159088
40	0x3fd3777b8648ff04	0.30416763414176295
41	0xbfc5f07f82ba0ef0	-0.17140191920417847
42	0x3fb851f40d491a22	0.09500050854067202
43	0xbfc53e564f6a0e2a	-0.16596487882280658
44	0x3fe14f3683a58c90	0.5409195491050856
45	0xbfd14164fdf1792c	-0.2696163635172464
46	0x3fa5c1eae5827374	0.04249509860640091
47	0xbfdfbc05d2629f92	-0.49585099740442573
48	0x3fd25bba56da742e	0.2868486259629347
49	0x3fe1e0ff2b02998c	0.5587154235879992
50	0xbfd3701f9047a92e	-0.3037184628471036
51	0x3f864e5a27935f23	0.0108916323974167
52	0xbfd0afaf83a26d09	-0.2607229981892521
53	0x3f9634f6aaeb5b32	0.021686414892282353
54	0xbfe4a5d42900e84b	-0.6452427674150923
55	0xbfb0969aab4395c8	-0.06479803735017875
56	0xbfd6024b5439e380	-0.34389003014762665
57	0xbfe2a637265c05bb	-0.5827899693687678
58	0x3fb16791b0c20a1b	0.06798658910160109
59	0x3fe09708eba96578	0.5184368708388964
60	0x3fc1ff88b8a14267	0.14061078086025988
61	0xbfd381b9b903c188	-0.3047928149017243
62	0xbfcc6003d9cb4c2c	-0.22168014654616408
63	0xbfe1bbfc54b2f31f	-0.5541974691655901
64	0x3fd548bf3d54de48	0.3325651263180345
65	0xbfb20987cf66aefe	-0.07045792401794057
66	0xbfc9f418d291137d	-0.2027617481382115
67	0x3fd1a700c65935c1	0.2758180558201638
68	0x3fcb3b2756cd0b83	0.2127427266915128
69	0x3fd272455d8aaa5d	0.28822454581191953
70	0x3fd5d8ac926b9e39	0.3413497381102136
71	0x3fcb802641ee9923	0.21484831065499418
72	0x3fca53bd2bb056ee	0.20568050988429526
73	0xbfdb93ad3139b7fd	-0.43088846022772015
74	0x3fb3bd41a0566735	0.0771065727662091
75	0xbfdb9dbea951f784	-0.4315029767529881
76	0xbfd3f45ad52d965f	-0.3117892343346735
77	0xbfcca47e90be1b3b	-0.22376997058401024
78	0x3fde77a37c88dc21	0.47605216180403614
79	0xbfe28b08f40e7916	-0.5794720427254869
80	0xbfb568fd48b8e28e	-0.08363326096958643
81	0x3fc0c682e4873082	0.13105808409307335
82	0xbfd78364cec3a309	-0.36739463989083326
83	0x3fd5792d85dd57f0	0.335521107413455
84	0xbfa7c51ccc3de08c	-0.04642572396454722
85	0x3f7552be6e06b39b	0.005205863825193636
86	0x3fceb5d6134e29e6	0.2399242014183322
87	0xbfce94ffa59ba219	-0.23892207704854299
88	0x3fc021f7f82c5e59	0.1260366403373492
89	0x3fc9713b49663882	0.1987680538554209
90	0x3fdd67436e9832e1	0.4594276981377288
91	0x3fd1f23a9bb85117	0.2804094811156274
92	0xbfd7a12a35e167fb	-0.3692117239166916
93	0x3fe090c0f63bd979	0.5176701363805442
94	0xbfd37a88eec1e6e0	-0.3043539363494414
95	0xbfdff4d64e4e5489	-0.4993186726290522
96	0xbfe2d33ac1993f42	-0.588284853098209
97	0x3f964993dc3ae567	0.021765051190162945
98	0xbfdedee176535706	-0.4823535590670506
99	0x3fd0a6d6fc4c3bd6	0.26018309248405325
100	0x3fc23c2acf2ddeda	0.14246115795298558
101	0xbfd04169f956141e	-0.2539925513195288
102	0x3fcf1e1bde0fd915	0.24310634940020096
103	0xbfe32a90cf08d18f	-0.5989460033074908
104	0xbfbcb1daac9463e3	-0.11208883965845433
105	0xbfc5d64c3f80851e	-0.17060235119519346
106	0xbfce0702c28cdca5	-0.23458895205997013
107	0xbfd278eec9763b24	-0.2886311499977856
108	0x3fd7318415950c96	0.3623972140087032
109	0xbfcba69c35cb84a6	-0.21602203966816552
110	0xbfca89f72b7cc51b	-0.2073353731480346
111	0x3fdec518a2ad7537	0.4807797993324416
112	0x3fd173154e209f11	0.27264912252074774
113	0xbfd240b5fa4dabf2	-0.2851996368760289
114	0x3fd80f1c966eedee	0.3759223431659099
115	0xbfe0f32778d8c798	-0.5296819076813675
116	0x3fde941d5db8732b	0.4777902045478181
117	0x3fc908b2a25f800b	0.19557793548938238
118	0xbfb8fc6887204c81	-0.09760144518831916
119	0xbfd2db959c4fa1aa	-0.2946523691630555
120	0xbfab0cc086cf4f04	-0.052831665474199624
121	0xbfa442cbcd56daeb	-0.039572113815145325
122	0x3fdbdac160b55448	0.43522676891490564
123	0xbfd602fc80f9eb76	-0.34393227191292597
124	0xbfd02a07f90eb118	-0.25256537744532315
125	0xbf9f44ae4b9cc859	-0.030535434117333036
126	0x3fcff98d63a52186	0.24980323186379055
127	0xbf78a22bfbff9489	-0.006014034093799422
128	0x3fd39dde8462e724	0.306510571750197
129	0xbfe10f81c0000000	-0.5331429243087769
130	0x3fb5358100000000	0.08284765481948853
131	0x3fa1080600000000	0.033264338970184326
132	0x3fcdbd9460fefea1	0.23234801040779465
133	0x3fbc436b031203c8	0.11040371727905474
134	0x3fa921498dcd2cef	0.049082087096928954
135	0x3fa8f33917dc406a	0.04873064438118109
136	0x3fd2f5b23fd802d4	0.2962461112474959
137	0x3fc7316bcc5b3db1	0.18119571188297592
138	0xbfd006e0cc5a8401	-0.25041980701831795
139	0xbfd99cc2b3145f8e	-0.40019290436020405
140	0xbfc46d98ca3b9aa5	-0.15959462999963595
141	0x3f85ff027c0cf6ef	0.01074029866287726
142	0x3fc72bbbf4d23a20	0.18102216200027588
143	0xbf67bf271f6ec88e	-0.002898765956580957
144	0xbfc1d50556df98ed	-0.1393133806406647
145	0x3fcacade4fbdc0e5	0.20931605237593157
146	0xbfd32828306b68a7	-0.2993259880873986
147	0xbfe070f0a91b5959	-0.5137866309039892
148	0x3fcc8c5d2dd87713	0.22303356874993394
149	0x3fce71e4699a08db	0.23785071522076504
150	0xbfdb74243c101743	-0.42896371713174036
151	0xbfc3afd9c86820d1	-0.15380403790937305
152	0xbfd32c1d6a76fd90	-0.2995675601668717
153	0xbfe15cc8a02cd71c	-0.5425761345311204
154	0xbfcd1e09b569cb78	-0.22747918470448858
155	0xbfd0d892ee41200d	-0.2632186247542457
156	0xbfc672ca321ef588	-0.1753781075221179
157	0x3fe2134a6e898265	0.5648548277786857
158	0xbfd053582551ecf3	-0.25508693356068973
159	0xbfdaaaf37bd84128	-0.4166840276166277
160	0x3f98a65ab7eb6139	0.024072091556122308
161	0xbfcda3cbdbc1f3db	-0.23156116705277338
162	0xbfd5386171d82726	-0.33156620137798354
163	0x3fbc06ceeb616e88	0.10947888609501366
164	0x3fe218bfc6e55fd5	0.5655211338698743
165	0x3fa18328ffc928f0	0.03420379755387326
166	0xbfcf3627bb393220	-0.24384018556374176
167	0x3fb6542525cba04e	0.08722145245303745
168	0xbfd2f4331b41cd45	-0.2961547628576294
169	0xbfd0f4b3514e547a	-0.26493533077275055
170	0x3fba15a01559a7ec	0.10189247628446169
171	0xbfb7cf26bdae6d47	-0.09300462847607092
172	0xbfdbb55f21f62158	-0.43294504467532624
173	0xbfd065df4f1cf73f	-0.25621779180425003
174	0xbfc92eda161e2cce	-0.19674230651830843
175	0xbfd5f73e7587ebcc	-0.34321557500487354
176	0xbfd35006687d7266	-0.3017593403253954
177	0x3fd8a0a2470675c3	0.3848043149572186
178	0xbfc4b471265609c3	-0.1617566525638506
179	0xbfddb41fe5d3370f	-0.4641189331422177
180	0x3fdd3c708cd515d1	0.45681394341621934
181	0x3fda0ad0e93c0dd5	0.4069101598435883
182	0x3fb402471a260064	0.07815975559606297
183	0xbfda721f89df29d0	-0.41321552719150834
184	0x3fc24371f2e67688	0.14268326149333554
185	0xbfbf424d3c2d795f	-0.12210543364696978
186	0xbfd020917987bd38	-0.25198780887781735
187	0x3fc2b8e88b6d5e75	0.14626795585603572
188	0xbfd9ea415a22b33b	-0.4049228077154116
189	0x3fd7057122270532	0.359707148887611
190	0xbfb02f6ca8d30028	-0.06322363969502531
191	0xbfdadc990714b7c1	-0.41971421901223144
192	0x3fc987a0baedaac3	0.1994515335785164
193	0xbfc67521b53ba591	-0.17544957494036997
194	0xbfd8893d129a927f	-0.3833763772657121
195	0xbfbfdf583df698fa	-0.12450171959662618
196	0xbfe1fb32aa3f0e07	-0.5619138074038695
197	0xbfb3beb184846308	-0.07712850079805034
198	0x3fc5498546e82f88	0.16630617105726864
199	0xbfe1ee31a031928b	-0.5603263977796628
200	0x3fd2d206ac72389a	0.2940689739269914
201	0x3fe0abefc11c7c8e	0.5209883472160912
202	0xbfd84539f9ada3af	-0.3792252481712763
203	0x3fb620db1d04ad85	0.08643884142354892
204	0xbfdd72f2ba1d525a	-0.46014087844131313
205	0xbfded95a7be9ded0	-0.48201620198186124
206	0x3fcd5d7e54d6a097	0.22941569464206132
207	0xbfd9696b61c5841f	-0.397059293251063
208	0x3f95eb2fec4c4ebe	0.021404980466356298
209	0xbfdcaca271c87100	-0.448036776653467
210	0xbfcd78aace010b7d	-0.23024497088234944
211	0x3fcf9d14fd9cb2fe	0.24698126204875587
212	0x3fcc95998d93db9b	0.2233154240891196
213	0x3fbbc3e38fc4d7f5	0.10845777759536175
214	0x3fc81ec9af8c9e4b	0.18843957015745824
215	0x3fc0bd25e7a751d1	0.13077234088144832
216	0x3fabf64216150441	0.05461317557865942
217	0xbfb71d8a4b5b17f7	-0.09029449786893894
218	0x3fdc1f32ae80c40e	0.43940417329128045
219	0x3fd0eb34c9479a03	0.2643558469411859
220	0x3f8d3983ddcb4277	0.014269857603182985
221	0x3fb390367cd7c511	0.07641926334305917
222	0x3fd64e6264b588e4	0.3485342010009289
223	0x3fc929e0b3f5938d	0.19659050738405562
224	0xbfd7db386c8be0a4	-0.37275515175088914
225	0x3fbb90b4769f494e	0.10767677207994561
226	0xbfa70f62e231ec02	-0.04503926287812733
227	0xbfe145d90cf8614d	-0.5397763493847748
228	0xbfe2c8ab74de82ac	-0.5869958193398666
229	0xbfdd475b992d57b6	-0.45748033484175765
230	0xbfd0dab8d958cab4	-0.2633497355010761
231	0x3fcb78cd39b24534	0.21462407414632312
232	0x3fdc2b1e5a1117ef	0.4401317481573405
233	0x3fc8cc82ebbcebbb	0.1937411929191891
234	0xbfe075d61594a770	-0.5143843099115042
235	0x3fce3bbec9da98d3	0.23619828086993397
236	0x3fd717ef008a8d8d	0.3608357911382079
237	0xbfe131f7ff4fa844	-0.5373496996446723
238	0x3fe09d84847eddc9	0.5192282283596167
239	0xbfd27ac527fa4ecb	-0.28874329475477784
240	0xbfb951dd41c2649d	-0.09890539985134912
241	0x3fbb6527f0ff8b5a	0.10701226838822944
242	0xbfc6bd86af5ea2f7	-0.17765887797329302
243	0x3fd645bb531173b9	0.34800608741880584
244	0xbfa6a90b5f8cf6db	-0.04425845662488622
245	0xbfba8a2597c5e673	-0.10367045359989806
246	0xbfcc36d464586c5d	-0.22042326831510453
247	0xbfdf706fe2a5be57	-0.49123761304415353
248	0xbfc37b45f2b0ddfd	-0.152199500562105
249	0x3fe4073e9cb05a05	0.6258843479470789
250	0xbfd77093c259fe22	-0.36624616603509896
251	0xbfc7b103a17dbd58	-0.18508954415617995
252	0xbfd8ebe6d2d8e71f	-0.3893982943587719
253	0x3fe0bcebe156431a	0.5230616952049758
254	0xbfdca1bb616ee8e3	-0.4473713351723189
255	0xbfdf46efcf6e503e	-0.4887046361629962

layer1.bias f8 [100]
0	0x3fcb2c8e4b609211	0.2122972362568736
1	0x3fe067be6e0fa4dd	0.5126640462523501
2	0xbfd702eae7179340	-0.35955307548129056
3	0x3fd2a2dc0536f5cd	0.2911901522564591
4	0xbfe0ffb1c659b45c	-0.5312126993209279
5	0xbfe02848c372f3b8	-0.5049175088275808
6	0x3fb7ac3eb573cbb3	0.09247199945438815
7	0xbfc54d363b75d2b9	-0.16641881850559573
8	0xbfd639e5d68e9d04	-0.34728380158271954
9	0xbfc1ecf8f8beb810	-0.14004432817222368
10	0x3fe018fb9e60229a	0.5030496686241179
11	0x3fce06f9f3407b58	0.2345879018548327
12	0xbfd6a34ca9b6669b	-0.3537170083378471
13	0xbfc393b1e5b4e81e	-0.15294479099412767
14	0x3fd2f29607e0defc	0.2960562779366993
15	0xbfca43c2c44efc72	-0.20519289574983507
16	0x3fe2f3756de63331	0.5922190805882562
17	0xbfd608df5cdd95b2	-0.34429153508093713
18	0x3fb680e0728e69d7	0.08790400311264733
19	0x3fbf06dae6f6a16f	0.1211983503222933
20	0xbfcbc3fec3f1fe63	-0.2169187981380559
21	0x3fe0bc2eade49548	0.5229714771600493
22	0xbfdf2adeff83b331	-0.48699164345343876
23	0x3fb4fdba1415818d	0.08199656477291324
24	0x3fb18902d924da3d	0.06849687386861887
25	0x3fcc3dedbf053976	0.22063991381805764
26	0x3fe420519fd23d29	0.6289451715000826
27	0x3fe36514fa7c1033	0.6060891048696305
28	0x3fb68e2ed3807723	0.08810703910463906
29	0xbfb8033469eaf4a9	-0.09379890046962437
30	0xbfc8066d70417693	-0.18769615155445205
31	0x3fe36af2a7b654ce	0.6068051601056597
32	0x3fd495cb695a42d9	0.321642735370046
33	0xbfd6947f434d88cb	-0.3528135449652267
34	0x3fbda26b7a70c393	0.11575958003301272
35	0x3fbca8776cc4b885	0.11194559483985429
36	0xbfdaab2306083718	-0.41669536198684076
37	0xbfe09eef7168a779	-0.5194012846961719
38	0x3fd30069e3c85399	0.29690024608981386
39	0xbfb9a0781cca3ff5	-0.10010481551057622
40	0x3fc422736c9bb00d	0.15730135729916164
41	0x3fcc487c2f02d56c	0.22096206946813923
42	0xbfe157e7da9595c3	-0.5419806737160616
43	0xbfd47a5bc0000000	-0.31996816396713257
44	0xbfc7994ade9e65c7	-0.18436561460548104
45	0xbfc7c93408e3f9ef	-0.18582773622615842
46	0x3fcafe755556129b	0.21089045206840215
47	0x3fe1d2a63a5b35f1	0.5569640292903256
48	0x3fc244e1981bd877	0.14272708823381539
49	0xbfd81cab7e897a38	-0.3767498717988107
50	0xbfd51565fda91f05	-0.32943105479760987
51	0xbfd6a84ba51fe95e	-0.3540219414277511
52	0x3fccd0ef2a1ba250	0.22512616687824272
53	0xbfc71c62e682509f	-0.18055378203701353
54	0x3fb0869b0cc6498e	0.06455391942862418
55	0x3fdb6c286f167363	0.4284764370766451
56	0x3fd1a58f3c105ab4	0.27572995057691263
57	0x3fe0b6d1a65f7692	0.5223167657347452
58	0xbfcd0be6dc0e4922	-0.22692571396744038
59	0xbfd5c46029f06b30	-0.34011081786745745
60	0xbfdabddc6d36fe37	-0.41783819833287644
61	0xbfda917282dcc1f7	-0.415127399249314
62	0xbfcd3f26d1c40757	-0.22848973505466105
63	0xbfdb2336c38e679b	-0.42402428719798885
64	0xbfcd5e9776fe5ab6	-0.22944920835717192
65	0xbfe329cc224eaf0d	-0.5988522214952084
66	0x3fb5d3d1d52bc106	0.08526336149566668
67	0xbfda9a212f175d6a	-0.41565732573277236
68	0xbfdc40486d467ed1	-0.44142351790831663
69	0x3fdb1e59eee9e348	0.4237274964466917
70	0x3fdcce876d1afbe0	0.45010553030800615
71	0x3fb08c001469ee16	0.06463623522170567
72	0x3fde2f2081fc9216	0.47162640279774004
73	0xbfdf18ea1a3fd6e0	-0.48589565814414293
74	0xbfd741a9f63245cc	-0.36338280718436233
75	0xbfe0a24f6dd78ddb	-0.519813265357182
76	0x3fd27ac99a508852	0.28874435491355144
77	0x3fd63d7fdb643348	0.34750362801496637
78	0xbfe44eea8544364e	-0.6346333124981329
79	0xbfc2bd14754e9d6e	-0.1463952610767864
80	0xbfce386cb5352ab0	-0.23609694335967424
81	0xbfcb700524c07c05	-0.21435608191038127
82	0xbfbc3ebfd5e8272f	-0.11033247921309618
83	0xbfd2b91dae0aa23c	-0.2925485801338572
84	0x3fcfffa64964484f	0.24998930533962713
85	0x3fd8a16467f119cd	0.3848505988175049
86	0xbfbf0a3d73971ac7	-0.12125000068690915
87	0x3fd8258e7b3b39ba	0.3772922709876202
88	0xbfe1f3b613e43fac	-0.5609999073512788
89	0xbfc604b80d26fd80	-0.1720190109462969
90	0xbfdc79c22140c68e	-0.44493153807989294
91	0xbfe134c990b38097	-0.5376937700457515
92	0x3fdce0f2d371a660	0.45122976921866176
93	0xbfce33bc175bbc0c	-0.23595381870788434
94	0xbfdb635225e13de5	-0.4279370660705964
95	0x3fcd32740fcd9824	0.22810221454273105
96	0x3fd97778ce2405ba	0.3979169858067412
97	0x3f552c961eceac43	0.0012923685091930238
98	0xbfb841424173503e	-0.09474577043448648
99	0xbfe2be3b931dc8e6	-0.5857217667928836

layer2.weight f8 [100, 100]
0	0xbfba8a389c5d90c9	-0.10367158715741022
1	0xbfb343627b4e6df9	-0.07524695883187595
2	0xbf9fb353cffb422b	-0.030957517213041335
3	0xbfa690bd41a7cfaf	-0.04407302309473892
4	0x3fb24fc7f57b5fad	0.07152986281596325
5	0x3fb8e4a954d0bf54	0.09723909683884574
6	0xbfb85f6645969ec5	-0.09520568083700727
7	0x3fa80e04822b541e	0.046981945886422447
8	0xbf91ce21c7c1a8c7	-0.017387893502395693
9	0x3f9be4f52ce4080f	0.02724059187404043
10	0xbfb4ca4d324842ed	-0.08121187665552627
11	0x3f8279bce387b184	0.009021259015718604
12	0x3fa916a7d2a1e111	0.04900097318835795
13	0xbf9987975ac2aaa8	-0.024931301989151194
14	0xbf35dd62fa2f5e83	-0.000333630241752904
15	0xbf9c8cf38224413f	-0.027881436174596926
16	0x3fb05e74a9136ffa	0.06394127967672594
17	0xbf7d9a2829b4f188	-0.0072270935882524714
18	0xbf6fd95c57f6a5b8	-0.003887825354202259
19	0x3f9e69a74d23115d	0.029699911196773388
20	0xbfc055a21b62e66b	-0.12761331879828516
21	0x3f8313c54ecbb7ce	0.00931505343165986
22	0x3fbab7461f9866ce	0.10435903807993016
23	0xbfa3fd50eb9a3885	-0.039042023429929386
24	0xbfc37d2722035ede	-0.1522568622665323
25	0xbf95c9f5535b5613	-0.021278222286886427
26	0xbfb3756fb8cd4cf2	-0.07601068746344078
27	0xbfb38b14601c86f5	-0.07634093615027011
28	0xbfc1d4db0facb901	-0.13930834069601164
29	0xbfa1fa714048a0ac	-0.035113848778850126
30	0x3fbc1998e54df48f	0.1097655830216857
31	0xbfc62340c9156774	-0.17295083826575885
32	0x3fa7003a9092ed55	0.04492362036531953
33	0x3fa778ed3f17c38b	0.0458444728391277
34	0xbf907111ebaba303	-0.016056327828581917
35	0xbfb6db0ff1796a69	-0.08928012509697116
36	0xbf6d3ae6ce8a3fd2	-0.0035681255288366543
37	0xbf996eef9178e022	-0.024837249044338823
38	0xbfc1da3b81e18f44	-0.13947242585993014
39	0x3f9338fb29550200	0.018772053144177292
40	0xbfa93b563ea9a614	-0.04928082957196636
41	0xbfbf0edfa761552a	-0.12132070385390095
42	0x3fb39279b8ae9f47	0.0764537883647992
43	0x3fae9cb140000000	0.05978921800851822
44	0x3f9c5579a40e93ee	0.02766981185745359
45	0x3fb4a831566aa6d5	0.0806914173105285
46	0xbfb035166ef98611	-0.06331005296080884
47	0xbfc4f93f70cc4316	-0.1638564396639814
48	0xbfa52b63e1c9ae7f	-0.04134666567992173
49	0xbf7a37d07d9bf1dd	-0.006400885025638262
50	0xbf941369919d1da2	-0.019605302345807048
51	0x3f50194c03c605cf	0.000982593758721218
52	0x3fb7303b3f287f06	0.09057970325420336
53	0xbfc0bac02bbfb880	-0.13069917808701703
54	0xbfc076d8b5ec171a	-0.12862690813943162
55	0x3f88dba71abb711d	0.012137704375554887
56	0xbf9badd827aa05f4	-0.027030351086528584
57	0xbfc020d31561c420	-0.12600172561681777
58	0xbfbabcd2d8b5aac1	-0.10444371977579704
59	0x3fb0387447fb8fc7	0.06336142308606361
60	0x3fbc11b147b0b7dd	0.10964496612788772
61	0x3fb3bbd6a73db98c	0.0770849378875253
62	0x3f6236ec4eb5f030	0.0022234549884938767
63	0xbfa00e37e737eba3	-0.031358477568537844
64	0x3fb486a5df6f0258	0.08017956452295871
65	0xbfb1ab87f9c9bbfa	-0.06902360771503871
66	0xbfba88032568a44a	-0.10363788283633926
67	0x3f8c2e3a269ba8ce	0.013760046294425978
68	0x3fa769cbb2fd7098	0.045729032134404324
69	0x3fab30f7887e66f5	0.053107963001094584
70	0x3f7f8b370d3bf3a3	0.007701125188529642
71	0xbfc000fd9021a97e	-0.12503022706671268
72	0xbfc34c93df1be2c0	-0.1507744635962549
73	0x3f9cc5a6173b678f	0.02809772030636953
74	0x3fc03d682811511b	0.12687398868968888
75	0x3fb73b8debb96720	0.09075247769342498
76	0xbfa2e4ddd9fe1bee	-0.03690236364405296
77	0x3f9a38e21527ffd3	0.02560761694076048
78	0x3fc56b1c90107ee3	0.1673312858047132
79	0x3fb6841d32123a7d	0.08795340034905937
80	0x3fc41fd13de71357	0.1572209884890536
81	0x3fc069a042095e2f	0.1282234499401382
82	0xbfc28d9e3abcd5c4	-0.1449468409352176
83	0xbf8b97c5eac68b4d	-0.013473077990800464
84	0x3f9c9ef0aee2b40f	0.027950058626334647
85	0xbfb6e0a4a457ab1d	-0.08936528217570268
86	0x3fbc7919783e87e2	0.11122283158923055
87	0x3f984d4402e76ae7	0.023732245137447896
88	0x3fc58590e65e69eb	0.168138611302154
89	0xbfa71920ad6d8f04	-0.04511358372726984
90	0x3face204ae6e581e	0.056411882679796785
91	0x3fb1d5f282e5f3aa	0.06967082687147177
92	0xbfc4cb6683f32211	-0.1624572891507943
93	0xbfacc633e776171e	-0.056199666981269866
94	0x3fa3157ddf7c7428	0.037273343592666486
95	0xbfac54dd1a77bb8d	-0.05533495853511914
96	0x3f59704510e7a11a	0.0015526461098663348
97	0xbfb5416237bbac08	-0.08302892552062258
98	0xbf79dc084e4c5599	-0.006313354916320257
99	0x3f827319fefe908e	0.009008601278601949
100	0x3f9055a298df4364	0.01595167215402017
101	0x3fc1e229d060ecc4	0.13971445727097465
102	0xbfaeee212992cfbd	-0.06041053421486662
103	0x3f826d2bdf14eaa5	0.008997290368474362
104	0xbfc030d0d9dade44	-0.1264897407288449
105	0xbfb5d79ec8b6979d	-0.08532135391450742
106	0xbfb2c835d1fde4bc	-0.0733674657511924
107	0x3fb8a3bd85ea3f84	0.09624847907457307
108	0x3f8467001f0a47a2	0.009962082812567111
109	0xbf9e966a55c53200	-0.0298706641054185
110	0x3f6e57a0a11e9d7b	0.00370389340328686
111	0x3fa77a5a748acefa	0.04585535690912752
112	0xbfbd1f611277a012	-0.11376005841123085
113	0xbfb6321b30db7b87	-0.08670206015402303
114	0xbf933e7d11902a74	-0.01879306239792773
115	0xbfad989da6c57cd1	-0.05780499134811524
116	0x3fa748bee3e4afd9	0.04547688037777648
117	0x3fc36d805e4c2c74	0.15177921871540756
118	0x3fbb0d11c45ac62b	0.1056681732541384
119	0xbf8237837d06d438	-0.008894946339618057
120	0x3f8d70e2e935ea58	0.014375469915411873
121	0xbfa17eabda94f5db	-0.03416955035434529
122	0xbfa9201b5a319735	-0.04907308078763465
123	0x3fa414eed255bf71	0.03922220532956445
124	0x3fabb2dbc385c315	0.054098956696981094
125	0x3fc2e9028e1efb5b	0.14773590030196257
126	0x3fb91391562d0514	0.09795482973006059
127	0x3fc4354339993441	0.15787544548439494
128	0x3fc32815cd2f911f	0.1496608020671681
129	0xbfa06780ce4f804f	-0.032039666351693634
130	0x3f8e15fe02ededcd	0.014690384354017727
131	0xbf9c87a05941ee74	-0.02786112351212329
132	0x3fbcc6619aeda02e	0.11240205795695665
133	0xbfc23257f899d197	-0.14216136587823477
134	0x3f65fe11657b614b	0.0026846256040295217
135	0xbfa041e91e2e759a	-0.03175285809923452
136	0x3fb0a7677b708b90	0.06505438579237777
137	0xbfbc4340f1268c25	-0.11040120971169694
138	0x3fb0aedeb85027cd	0.06516830444175455
139	0x3fba9a15d3a41a26	0.10391365448968112
140	0xbf9e383bb2472f3f	-0.029511387592534574
141	0x3fbcf07175f33793	0.11304387216224958
142	0x3faa5a90677ba0f5	0.05147219908923432
143	0xbfb8cbe1a0000000	-0.09686098247766495
144	0xbf94de4ea03f8207	-0.020379284411207645
145	0xbfaf244ecefe3e2f	-0.060823881881443824
146	0xbfa3602112e4d610	-0.037842782551177234
147	0x3fc3faf577cdd822	0.15609615659531167
148	0xbfa68197a0dbf9c3	-0.04395746077169662
149	0xbfb2fd855c6ad35b	-0.07418092256814417
150	0xbf95a2bc79527fde	-0.021128601937220874
151	0x3fc128b7f25e29fa	0.1340551312863026
152	0xbf9f0be348a8cb75	-0.030318785962843948
153	0x3fb1183c6617b771	0.06677606098648227
154	0x3f9328b62fd88786	0.018709990186955426
155	0x3fc194739550bc2e	0.1373428801611864
156	0x3fb999de6d8b5f8b	0.100004102463002
157	0x3f6f0793bb2e669b	0.003787792718367223
158	0xbfa542835959b8d4	-0.041523079545059766
159	0x3faac172538e4dd1	0.05225713033646751
160	0xbfc194b61a128534	-0.13735080979408
161	0xbf786ee6a1a5338a	-0.005965138343822294
162	0xbf8d4d7b59d29ec5	-0.014307941130325639
163	0xbfb6bf46ba1c68a1	-0.08885614436840907
164	0x3f9ff4fb90c86da6	0.03120797225174745
165	0x3fc40ca02cd32bae	0.1566353052970419
166	0x3fc5bab0cb4fabd9	0.16975984504037347
167	0x3fb3fb483b8c4286	0.0780530114536849
168	0x3fc00031fb6e591e	0.12500595833689315
169	0x3f9c1e2b5df5d0fe	0.027458837137104723
170	0x3fb3cb87f8ac93b6	0.07732438870568967
171	0x3fabd0f530f9dbc8	0.05432859633304293
172	0x3fc03bf9c03534b4	0.12683030972622122
173	0xbfc0e5a4fdc52676	-0.1320081938850312
174	0xbfb1186ed787a153	-0.0667790676303686
175	0x3f9e33572fd7a213	0.029492723746360094
176	0x3fc08c212b3c9d29	0.12927641497774658
177	0x3f975e41e4da0f9f	0.022820500939374374
178	0xbf9e98a931cbf089	-0.02987923017916264
179	0x3f98a928c9565805	0.024082791603710536
180	0xbfbc995c8e6a7d3c	-0.1117151115126846
181	0xbfbab8ad9c7104cd	-0.10438046521541651
182	0x3fc1911430ded3b6	0.13723995577097775
183	0x3f931abc9826e021	0.01865667990361442
184	0x3f9aa93d9e9505f0	0.026036227039417825
185	0x3fc05fdc8d12197d	0.1279254616567406
186	0xbfaad7940c08d967	-0.052425981968940154
187	0xbfba1ba7167bc374	-0.10198444651520139
188	0x3f39088eebf0c9e0	0.00038197984025880975
189	0x3fc25aaebb619804	0.14339241170381467
190	0xbfb4695d01df33fa	-0.07973271651935923
191	0xbfa895516d22e09a	-0.048014206478400115
192	0x3fb41f42e557cf43	0.07860200976557245
193	0x3fb40e28875b7287	0.07834103874797381
194	0xbf9605280c07c458	-0.021504045233033814
195	0x3fa01fa350a27d86	0.031491378396135736
196	0xbf4e5923caf07335	-0.000926153637809435
197	0x3f904e083bc0a8d7	0.015922669074066
198	0xbf7d5dde2afdf253	-0.007169597476487671
199	0xbfa663ecd98e4fb4	-0.04373111873351779
200	0x3fa589b7b851fb44	0.04206632733347829
201	0xbfb784f89d65c6f4	-0.09187272875513114
202	0xbfb345b4458894e4	-0.07528235147090673
203	0xbfb24184e9d46041	-0.07131224354486766
204	0x3fa58d6336e1a745	0.042094326447865295
205	0x3fb8ba89b3a60c45	0.09659634242966415
206	0xbfc0412856c73925	-0.12698845135896267
207	0x3fa5027aca37cbec	0.04103454321366215
208	0xbf7841c2530fdb6c	-0.0059220877455946445
209	0xbfbeebefa1cf0ba2	-0.12078759861382918
210	0xbfc0bca316db452b	-0.13075674644509525
211	0x3f8c60be363abc2e	0.013856397657347665
212	0x3fb11848889dfc00	0.06677678428057732
213	0xbfa4aa95024d221e	-0.04036393788425506
214	0xbfa4c35972839836	-0.04055289767147523
215	0x3f943c21630c0b2e	0.01976062933955374
216	0xbfb70b1fdc6ab20d	-0.09001349574345614
217	0x3fc83e907aad266b	0.1894093131070805
218	0xbfb317cef20e78b8	-0.0745820370634388
219	0x3f72d0a4a4a2c379	0.004593508851187583
220	0x3fc87a3f336cca45	0.19123067866310542
221	0xbf9d378ce7d2e336	-0.02853222050609646
222	0xbfb5a40af8289489	-0.08453434523160487
223	0xbfbe059ace5ae138	-0.11727302110637516
224	0x3fb3b644ec222383	0.07699995770430061
225	0xbfafacbc874e4c86	-0.06186474944765856
226	0x3f95e9ddcd566451	0.021399942071728188
227	0x3f90ff8618aaea18	0.016599745994179654
228	0x3f79677b631bdf96	0.0062022037325205805
229	0x3fa5df6d0ef9dd75	0.04272023017704899
230	0xbfad4741e05ac2e1	-0.057184275280979475
231	0x3fa49c6d6f558997	0.040255946961013915
232	0x3f8ae2c4d8061f2f	0.01312783989193597
233	0x3fba79d54aff7502	0.10342152672770413
234	0xbfa3740e4068638d	-0.03799480949618959
235	0xbfb646e7396f823f	-0.08701939728008144
236	0x3fb8842b957a6b0b	0.09576675795907989
237	0x3fbd3e5335914510	0.11423225457953756
238	0x3f509abb6f61daf4	0.0010134535237093486
239	0xbf952f35342e1db0	-0.020687896070311573
240	0x3fa54631e457536d	0.04155116951338909
241	0xbfb1b3240ef13bba	-0.06913972248842884
242	0x3fc079d04b7d24e8	0.12871745763758402
243	0x3fb3523620000000	0.07547319680452347
244	0x3fa8a993982d49d3	0.04816876633289593
245	0x3f992d4780f38637	0.024586789365349495
246	0xbfc0aa562dd98075	-0.13019826163054274
247	0xbf90bad0e987bf1c	-0.01633764672618475
248	0x3fa792babd7db987	0.04604133189319542
249	0xbfb8a2144134e479	-0.09622313110311777
250	0xbf835a4f8c480517	-0.009449597805544259
251	0xbfb64fa4d0a22744	-0.08715276807393219
252	0x3f6fc5de6ea487e3	0.0038785309199207293
253	0xbfb8ab4bd042b49a	-0.09636377176748781
254	0x3fc08a7b834506e2	0.12922614965105256
255	0xbfb158f5a3587a5a	-0.0677636646073351

layer2.bias f8 [100]
0	0x3f88d0a1e9aad97c	0.012116684859716946
1	0x3fb7cb6021b311b6	0.09294701407185965
2	0xbf92fa5e374522ba	-0.01853320324269945
3	0x3fb0663a900ecb33	0.0640598870948395
4	0xbfbe54d309ef01bf	-0.11848181717414884
5	0x3fa7ce6eb80d4a6f	0.0464968299553633
6	0x3fa81a5347c06d71	0.04707584620356443
7	0xbfbde900802fad18	-0.11683657769724609
8	0x3f5561f77f9387ba	0.00130509538421862
9	0xbfbe5e0ffe0fb813	-0.1186227793948265
10	0x3fbef77cdc6ea65d	0.12096386319776671
11	0x3f76c7e9a99771d7	0.005561745399486693
12	0x3f749a270cf1a609	0.005029823819407316
13	0xbfacbab59c342237	-0.05611197978766252
14	0x3fac557a0eb39c6d	0.0553396361299797
15	0x3fb1685d9fb2e2fa	0.06799874447723289
16	0x3fc2fb9e1d60dc0d	0.1483037608574879
17	0xbfae1bbb4d33cd30	-0.05880532567416663
18	0xbf9953ae36f4006c	-0.024733278373787845
19	0xbfb950363eeaee64	-0.09888018642498647
20	0x3fa2b3a2f294ff0d	0.03652676783758411
21	0xbfb1e4f2d33c0a77	-0.06989972741215832
22	0x3fbb6b3959d2e5fd	0.10710485880817795
23	0xbfb0d0c988df8c3f	-0.06568584052688296
24	0xbfc2457791c2180a	-0.14274496667002295
25	0xbf9aadc7bd83a652	-0.026053543989212287
26	0x3f97ed4d21a89b0f	0.02336617010055436
27	0x3f99e01b8227958d	0.025268964594848554
28	0xbfc3e0233c7f8cec	-0.15527763799682448
29	0xbfbc9acbea0df582	-0.11173700775358067
30	0x3fc23626ed2a0fb7	0.14227758960998724
31	0x3fc5eb529ffb9966	0.17124398051891915
32	0xbfa068102ee08968	-0.032043939325620496
33	0xbfc006eef26353b9	-0.12521159015036945
34	0x3fb9097b0eb264b1	0.09780091389474667
35	0x3fb31b084edfeeb9	0.07463123250630134
36	0xbfc4a3de42421065	-0.16125086055047003
37	0xbf9b2cf539cab7c0	-0.02653868832810935
38	0x3f9cf10c390e9b54	0.028263274176107814
39	0xbfb7d0d37f73028a	-0.09303018437914026
40	0xbfba6a077180ceca	-0.10318037530015114
41	0xbfb2efc3249f4fa5	-0.07397098201846448
42	0xbfb6e7dbd3418438	-0.08947538287749601
43	0x3fc5cbea69449fac	0.17028551235239087
44	0x3faf00d61415623b	0.06055325503502159
45	0xbfc48677f8ebd9cd	-0.16035365728721587
46	0xbfc50adb97e9fd53	-0.1643938533561405
47	0xbfc35851fd23dbfd	-0.15113282070498704
48	0x3fb8c9c5f3f52d2f	0.09682881551741639
49	0x3fad6effa2c5de42	0.057487476939908536
50	0x3fb360aed7acedd3	0.07569401517405731
51	0x3fad90df879d01ed	0.05774591951785966
52	0x3f758ee68e6ef550	0.0052632337673775426
53	0x3fa9c6ccda925865	0.05034485023604488
54	0x3faaf81de4dda225	0.05267423075457981
55	0xbf84826a2521550a	-0.010014371164440056
56	0xbf9a8424be5eeebe	-0.025894712561906223
57	0xbfac352b01cd2d52	-0.055093139619737955
58	0xbf908fa13cd50024	-0.016172904336826957
59	0xbf8b9417fea364a3	-0.013466060121958561
60	0xbfb1b1fd2404cad5	-0.06912214402545243
61	0xbfbc480659582905	-0.1104740112424772
62	0xbfc43faeccd6dd22	-0.15819344522399442
63	0x3fbf3fa1ece20d25	0.12206470521237074
64	0x3fa552a3cfa5221b	0.04164611730317721
65	0x3f90c2c81f4aa116	0.016368033323176233
66	0xbfb27260d7fdda3b	-0.07205777428848929
67	0xbfa798d2b33d84a1	-0.04608782232276921
68	0xbfa0344af80e0c7f	-0.03164896276487016
69	0x3fbd27822874b9dc	0.11388410079664574
70	0x3fc061f7f9917c63	0.12798976598694187
71	0xbfc23fd3b33cd371	-0.1425728440459824
72	0x3fac9a3a7cd68fcb	0.055864169825582254
73	0xbfad6246e572edd8	-0.05739041853800203
74	0xbfc6c618356de61a	-0.17792036637165226
75	0xbfb4e7e4bf769fba	-0.08166341471098706
76	0x3fb24fd7fc946b5f	0.07153081814287308
77	0x3fb5422b6a19c7f2	0.08304091778134629
78	0xbfc08c16a9f66fd0	-0.12927516268689354
79	0xbfc0da00cf07fbd0	-0.13165292843765863
80	0x3fc1e50d25522a03	0.13980259249031243
81	0xbfb4d661eb17defb	-0.08139621724683004
82	0xbfc400147cf278be	-0.156252442368844
83	0x3fa6b7cbf716a009	0.044371007835536665
84	0xbf9657a4de5061be	-0.021818710392922595
85	0x3fc264e2478dcb28	0.1437037324318109
86	0xbfc02f05544d3647	-0.12643496147431874
87	0x3fb22f9b87954c36	0.07103893337380005
88	0xbfc1d869aedea919	-0.13941689528048398
89	0x3fac5b4c0f3298b6	0.05538404164808368
90	0x3fa1251fd69f0808	0.033486361454848235
91	0xbfba8b7d76ce5094	-0.10369094992194255
92	0x3fc49ca336d53303	0.1610301988352135
93	0x3fb56b7c1dfee852	0.08367133838956534
94	0xbfc19c9799924a15	-0.13759131430249796
95	0x3fb6d6d39d0bc0f0	0.08921549400452355
96	0x3fc42cf1354a7f9e	0.15762152769184196
97	0x3fc0e2c0b38b8ef1	0.13191994444706936
98	0xbf7e5c3afaadde68	-0.0074121765018087885
99	0xbfaf97c3bb0f336e	-0.0617047468036621

layer3.weight f8 [100, 100]
0	0xbfab854096671169	-0.05375100933045724
1	0xbf75e449a97ed2d8	-0.005344665281815174
2	0x3f972bf6c91d88fc	0.02262864687453091
3	0x3fa8563cd07548a7	0.0475329403367522
4	0x3f9a3f6fd57c4bbd	0.02563261738312027
5	0xbfb271889ea4266d	-0.0720448863322873
6	0x3fb76d09f3372077	0.09150755107759943
7	0x3fa8d6979e1c43c2	0.04851220898684218
8	0xbfa052e383ca4954	-0.03188239082114089
9	0x3fac3f7d024579ee	0.05517187741019201
10	0xbf90fea16eb95f5f	-0.016596338637412496
11	0x3fb621fce5a58c56	0.0864561138783285
12	0xbfbdee4250c1d2ac	-0.1169167945061626
13	0xbf8819b4af2e66fa	-0.011767779918773414
14	0xbfa879cf1addf4e9	-0.04780432894674808
15	0x3fb846edd051a1d6	0.09483229003820468
16	0xbf750d511c1ca3bd	-0.005139653048709056
17	0xbfb158d423ce0983	-0.06776166795865461
18	0x3fc033cd17c5d574	0.1265808454588001
19	0xbfbe1b830437d104	-0.11760729649524043
20	0x3fad002f85b3d4c3	0.05664204127416774
21	0x3fc3a8ce5bd910aa	0.1535890530086637
22	0xbfae4876b421299f	-0.05914660405013027
23	0xbf8c620e0001a99a	-0.013858899474332987
24	0xbfae12c5d37b2b77	-0.058736974778716915
25	0xbf72bf50ce2e53c3	-0.004576984067985404
26	0xbf94412caca64cf3	-0.019779871022888206
27	0xbfa09ecda4e42539	-0.032461573007888274
28	0x3fa13f4d26a925c9	0.033686076134994254
29	0x3f74f9cfe64f0b97	0.005121051891310644
30	0xbf933c5e8bd742eb	-0.018784978184899364
31	0x3fc0605206ca924d	0.12793946582418628
32	0x3fc1317ac0e222a3	0.13432249467975507
33	0xbfc2427c26793cab	-0.142653960023812
34	0xbfb72204981132bb	-0.09036282265260358
35	0x3f79984afa40c956	0.006248753434237328
36	0xbfc1d7cc88b38be0	-0.1393981616484714
37	0x3fa0ecd856de61c6	0.03305698452385601
38	0x3fa90d142c37f1ad	0.04892790832306857
39	0x3fb1e8cfe0ba2f15	0.06995867954736597
40	0x3f83b76918245093	0.009627171563387804
41	0x3fa64a3b593b2c8f	0.04353509392020626
42	0xbfb2e09f633373aa	-0.07373996898554816
43	0x3fb685f48160e2e7	0.08798149260190834
44	0xbfab64bf82f5dc9b	-0.05350302194249786
45	0x3fa4b0fae57c9f83	0.04041275073387764
46	0xbf9e5309df0cfa57	-0.029613641966756834
47	0x3f7c8aa9488feaa2	0.006968175185643107
48	0xbf184e1ec8c7073c	-9.271681682945521e-05
49	0x3f809371355872ae	0.008093723717189274
50	0xbf811c0abb9762f5	-0.008354266977151673
51	0x3f8f36acd6ab1b32	0.01524100332370679
52	0x3fabe4a65cc49e61	0.054478834938262784
53	0x3fb76cbda593f1dd	0.09150300304822374
54	0xbfc4196f9c0b50ca	-0.15702624434800888
55	0xbf7ed4aa6de1a3e5	-0.0075270326034137846
56	0xbfb8ccebe37be4b5	-0.0968768530255087
57	0x3fb9a3aa04950950	0.10015356647366969
58	0x3fa07c246c64056e	0.032197130423820094
59	0x3fa07c2706663241	0.03219720795741355
60	0xbf9f77e35b8c24b2	-0.030730774366962428
61	0x3fa04f77f9738baf	0.031856297684292094
62	0xbfaf1f70d6cab85a	-0.06078674909564148
63	0x3f8e12bfbc8653b7	0.014684198323075976
64	0xbfc2ec54e1f41a40	-0.14783726723563184
65	0xbfbea5797b265fea	-0.11971244103040105
66	0x3f91fd5334851aa6	0.01756792076164495
67	0x3f9389c8e090d4fa	0.01908029432907641
68	0xbfbd2bac51a01635	-0.11394764893346905
69	0x3faf3d707be857fa	0.06101562035125592
70	0x3fc1ef558dc23471	0.1401163999729849
71	0x3fb6de2f88941ff4	0.08932778438986572
72	0x3fbde93b03dbb0d6	0.11684006542390377
73	0xbfb7d62138c4f2d3	-0.09311111103029228
74	0xbfb2490a0e756a39	-0.07142699101442752
75	0xbfc2a4214664b5fb	-0.14563384949853728
76	0x3fa33e4ce8aacd3f	0.03758468952346527
77	0xbfbe47c3beb65b41	-0.11828254133284323
78	0xbfb319fa10fc6221	-0.07461512484258793
79	0xbf98833d6fb8a393	-0.0239381408156621
80	0x3fbf7ea805ff1553	0.12302637239834739
81	0x3fb6234520a75630	0.08647567794044941
82	0xbfb217f3e34f8747	-0.07067798900200471
83	0xbf734ad55708ef3d	-0.004710038527772129
84	0x3f9b517f92fbf2b4	0.026678078981592093
85	0x3fc29e59528edf54	0.14545742541462892
86	0xbfbdccd8447c8ce9	-0.11640693351778321
87	0x3f84cfdb02d941e6	0.010162077927049883
88	0xbf798651a21d55f7	-0.006231612090990427
89	0xbfb949a4e225b881	-0.09877996941733792
90	0xbf73a7b0bf705302	-0.004798593922733076
91	0xbfc30f972faf8c02	-0.14891328647999563
92	0x3fc05bb460e8c68c	0.12779860240839402
93	0x3fbb8033146ee965	0.10742491959437002
94	0x3fa6808aec6932e0	0.0439494527423443
95	0x3fbae3b661f278cc	0.10503711596763593
96	0xbf93fdaeb4416a75	-0.01952240920250366
97	0x3fbf27bb7f2d4f2d	0.12170001845271079
98	0xbfc174adc1971b73	-0.13637325241708317
99	0xbfbd0e03e3baaa91	-0.11349510488313742
100	0xbf941705ec23cb11	-0.019619076288061758
101	0x3fb8ef592c05b1d3	0.09740216564905006
102	0xbfbedb679b0abc25	-0.1205353501816125
103	0x3fc0baf184fbc3be	0.13070506089527884
104	0x3f6ce26040bdcba6	0.0035259132327438323
105	0xbfa9759058c12250	-0.04972506602695559
106	0x3fbac8c55e98ee88	0.10462602195269188
107	0xbfb0c679a07b4e55	-0.06552848976144195
108	0xbfabc59cb37dccbd	-0.054242035780498445
109	0xbfa8234bddb00f53	-0.047144289790621706
110	0x3fa14f821651e32f	0.033809724068254325
111	0x3fc380dd1ef6f406	0.15237010967203463
112	0xbfb8fdf40da83901	-0.09762502034593369
113	0xbfbe76e707c05596	-0.11900180758705967
114	0x3f713683d5435342	0.004202380154499976
115	0x3fc0e6d82c2ac9d7	0.13204481274222132
116	0xbf99f0d0fb84fb01	-0.02533270392563747
117	0xbfc5cbd9d31e0a7b	-0.1702835350843833
118	0x3fc33b21dfe9d7d2	0.15024207528375527
119	0xbfb97c106e8bb5ec	-0.09954931925650329
120	0x3fc5588e1fd796d7	0.16676498942177062
121	0x3fbebd69fff547cf	0.12007772921540937
122	0x3f9d1df241f4a589	0.028434548640836197
123	0xbfc472a31f2adfdb	-0.15974844953393483
124	0xbfaae945c67a095f	-0.052560978391755546
125	0x3fbdefff3f692f01	0.11694331453434971
126	0x3f95ea5947319e0d	0.021401782007528115
127	0x3fbe89d68f6144a1	0.11929074287879128
128	0xbfbf9bfad0253932	-0.12347381192850973
129	0xbfabb14e32d73058	-0.05408710833180014
130	0x3fa267e44e365e74	0.035948881671342386
131	0xbf8b98ac505c4b1f	-0.013474794580849157
132	0x3fb4985da4d9ebcb	0.08044991755188773
133	0xbfc1040b17168439	-0.13293589236585193
134	0x3fc1f1a84388786f	0.14018729493631407
135	0xbf978a0f4e2bd1c0	-0.022987593790235072
136	0xbfbd3dd0ebd70ce2	-0.11422448880971417
137	0x3fb0d6aa000132c0	0.06577551365007661
138	0x3fc46ea806ebf131	0.15962696397753853
139	0xbf73844e53ef8744	-0.004764848678833481
140	0xbfb235961860062b	-0.07113016219229766
141	0xbfa36076814c5f63	-0.0378453286013485
142	0x3f96054be6a89a90	0.02150457949951573
143	0x3f8542cc155b79f9	0.010381311799787506
144	0xbf9bc11f4dcf3e97	-0.027103890537374466
145	0x3f75b498c3e735c0	0.005299183596844725
146	0x3fb2f0af9dd39904	0.07398507693469375
147	0x3f8812e443233fea	0.011754782961730787
148	0x3faf708a7049ffe5	0.06140549298015666
149	0x3fa92673f9366b05	0.04912149827142368
150	0x3f8b64cd45567dc7	0.013375858000300845
151	0xbfb9f8289a4e95f2	-0.10144284980068344
152	0xbf6327e315f89b2b	-0.0023383555669797182
153	0x3fb0489109135762	0.06360727759905907
154	0xbfab5d7b4df2d9d2	-0.0534475834514755
155	0x3f92a953768604e1	0.018224052533246108
156	0xbfc35bb55d2bf571	-0.15123621987724392
157	0xbf97653d1a565c5a	-0.022847132427696294
158	0x3f8fbb813e9419e1	0.015494355890507574
159	0x3f895a28ccb774fd	0.01237899660821506
160	0xbf93afb4fe1dd331	-0.019224956522026552
161	0x3f929c2033db87f5	0.018173697629102
162	0xbfc56afc6902b7ee	-0.16732745292159684
163	0x3fc267469adf04d1	0.14377672731465066
164	0x3f9a40b2f85f8c9e	0.025637432488917804
165	0xbfaef8e6590f9d91	-0.06049270474596392
166	0x3f843b9cab2940a9	0.009879325841353941
167	0xbfb24104f97c9bda	-0.07130461779580291
168	0x3fa63d48427db56a	0.04343629657419508
169	0x3fc288c9ce547366	0.14479944777203996
170	0x3fc21c6d43b8b288	0.14149251753532988
171	0xbfbaa4abcadeeae2	-0.1040751810350389
172	0xbfb4844f326ecb04	-0.08014388066548511
173	0xbfbfecf2a2622c10	-0.12470928635063694
174	0xbfb007e2289ed3d9	-0.06262029163083528
175	0xbfae76b57e0f4fda	-0.05949942745033328
176	0x3fc163489120e534	0.13584239088394556
177	0x3faf0bf40c825c9a	0.06063807156277186
178	0xbfc546c229887785	-0.16622187641126743
179	0xbf87994535f5d70e	-0.011522808751333293
180	0x3fc442e95c0a2729	0.1582919787800219
181	0xbfae748f488165bd	-0.059483029938472744
182	0xbfc2ab88598afddc	-0.1458597600194328
183	0xbfa72ab0566c18bc	-0.04524756483992706
184	0x3fbf3d1a882734d7	0.12202611755420222
185	0x3fb00959e21f8050	0.06264268656332317
186	0xbfacbb5bb1cb1af3	-0.05611692948655458
187	0x3fc5403868b6ab1b	0.16602234948126057
188	0xbfbdbecb370efd48	-0.11619253248408257
189	0xbf8503c3f50d1e8c	-0.010261088291044794
190	0x3fb247842426f8be	0.07140375025389553
191	0xbf9e04d03c2e077d	-0.029315236733516315
192	0x3f9c7ec2d95c4f21	0.027827305332791433
193	0x3f796329e2d267ad	0.006198085419919436
194	0xbfb49514e22fdcf0	-0.08039980432646465
195	0xbf9d512ca73e6a8b	-0.028629968364479324
196	0x3fbb22db25b3d9eb	0.10600061102363838
197	0x3fb51136b5e35305	0.08229391041397711
198	0xbfad8f62a4c8154c	-0.057734568228662825
199	0xbfc58264acde066e	-0.16804178658280783
200	0x3fc02aecb7ffd0c5	0.12630995735492526
201	0xbfc3ba0755df4266	-0.1541146439835927
202	0x3fb0c012f6c36b11	0.06543081783767614
203	0xbfa89d40eafb4099	-0.048074749645480704
204	0x3fb6f49b44c50e2a	0.08966989926289473
205	0xbfb8fa6db0484a0f	-0.09757123521584553
206	0xbfc001d689e50322	-0.12505609257825606
207	0xbfc00805aab697e9	-0.12524481616600205
208	0xbfa8ce807b19391a	-0.048450484301257826
209	0xbf882ec71ae3754c	-0.011807971485206757
210	0xbfbda86d71b7cdab	-0.11585124994581146
211	0xbfc23070470f5613	-0.14210322828027752
212	0x3fb2eeb0e452c573	0.07395463537502227
213	0x3fc1ae13367e3b37	0.1381248489455744
214	0x3f994f5dc8d52ed4	0.02471682108197977
215	0xbf971289347d834b	-0.022531646565201496
216	0xbfb991a5d45aaae1	-0.0998786586230085
217	0x3f946056212b9772	0.01989874436812706
218	0x3faccbe2349bcbf0	0.05624300853914821
219	0x3fb97cdb82a5e5d2	0.0995614236798226
220	0xbfc1d16eb8227fb2	-0.13920387259440542
221	0x3fb52eb68c810b36	0.08274403505587888
222	0xbfb0dc06a05bd908	-0.0658573285580567
223	0xbfb2ce9da202798e	-0.07346520619691985
224	0x3fab55577054eaa0	0.05338547941433558
225	0x3faab50d933a8428	0.0521625749800097
226	0x3f93c809295428a8	0.01931776346922534
227	0xbf9af54e2856bc48	-0.026326390468679045
228	0xbfb9f4b59a1a52fe	-0.10139021885181518
229	0x3fb14115eb633a4f	0.06739937779205117
230	0xbfb268ceadfb1449	-0.07191173312738032
231	0xbfc2b777432186f2	-0.1462239339626233
232	0xbfb5ccb3606a681a	-0.08515473464868287
233	0x3fb0afe44dc7d036	0.06518389605463501
234	0xbfa5f27265855013	-0.04286534775988584
235	0xbfb859f35bc432fd	-0.0951225375212736
236	0x3f9ee2ca8d0ebd05	0.03016201482722371
237	0x3fb8e7b7296a2470	0.09728569756602368
238	0xbfb16ccab99d335d	-0.06806628257363685
239	0x3fa3b86a861f6be3	0.038516358253865034
240	0x3fa209871b56ca66	0.03522894104698508
241	0xbfbcd7581ea8ce5e	-0.11266089199562532
242	0x3fb1fe01e9c8629d	0.07028209645830903
243	0xbf4dd4354fe69624	-0.0009103069603965713
244	0xbfb301224a019027	-0.07423605257787412
245	0x3fbfa42be16254e2	0.12359880688230221
246	0xbfa5deda352241d0	-0.04271585367780839
247	0x3fa2401b3cb65757	0.03564534298054294
248	0xbfb12416a18b070a	-0.06695691532061346
249	0xbf7753e67db55c70	-0.005695247989328953
250	0xbfa09d9688ba10b0	-0.03245230120686082
251	0xbfad2680706dfb3f	-0.056934369777982934
252	0x3fb041002c2bc339	0.06349183157341266
253	0xbfc0021822411dc9	-0.12506391213012893
254	0x3fb222648f1b0f7a	0.07083729261199592
255	0xbfa1e656e0759225	-0.034960474872409976

layer3.bias f8 [100]
0	0x3fbe24f6ab77c148	0.11775151907182135
1	0x3fbd9c1c82e5cc59	0.11566332050078766
2	0xbf97db2dc32af3ce	-0.023297038113685713
3	0xbfbd2f99cf80f413	-0.11400758090981382
4	0xbfba095fe6873ced	-0.10170554521686244
5	0x3fc513718f09a8a0	0.16465587124122738
6	0x3fbdab9faa9dd93a	0.11590001979297862
7	0xbfc2ede22c00bcb6	-0.147884627805501
8	0x3fb277892831b2cf	0.07213647109319797
9	0xbf9243486fe205f5	-0.017834789112844935
10	0x3fb8da12fdee49bb	0.09707754802210548
11	0xbf924dd7ff16cacd	-0.01787507528724568
12	0xbfb0e6664ea74149	-0.06601561947104985
13	0xbfc6db5703c090ce	-0.17856872256482464
14	0x3fc580c21f4e7570	0.16799189118038838
15	0xbfaf4069346417c9	-0.06103829159296443
16	0x3fa009a4e04830a1	0.03132357824151311
17	0xbfb81b402b4406b6	-0.09416581207554028
18	0xbfaa8c08a60ae801	-0.05184962298285712
19	0xbfa95b1bd47ef4fa	-0.04952322930282978
20	0x3fc248f25e602370	0.14285115822010708
21	0x3fb958a41a679d98	0.09900880474707774
22	0x3fbb545c825f9051	0.10675600226346772
23	0xbfbcc23ee330c272	-0.11233895346300374
24	0xbfa16c92602e261c	-0.03403146194530057
25	0x3fa152feb1b97443	0.03383632583129572
26	0x3fc2f2c13ae7eb30	0.14803328872934562
27	0xbfc29b92dac32688	-0.14537273103478676
28	0xbfb5b4ec2eec6f7f	-0.08479190965266346
29	0xbfc36154e1aa604f	-0.15140782374214942
30	0x3fb1c86c45a6f93f	0.06946446133131177
31	0xbf58f31eeebe1451	-0.0015228082729390644
32	0x3f957067f67cceed	0.020936607760815674
33	0xbfb40ff4d1c823d4	-0.07836847421289345
34	0x3fc1f2c46a3fe7db	0.14022116840334217
35	0xbf9b3f7ea45068ed	-0.026609400538384276
36	0xbfb69ec5d46b2419	-0.08836018024443638
37	0x3f55e66693abbd79	0.0013366700865694288
38	0xbf991801a05f0754	-0.024505639470368948
39	0xbf96f8fa7f453755	-0.022434152620284326
40	0x3f89c63216bc8e71	0.012585059470047373
41	0xbfbb9d164bf32ad1	-0.10786570886845516
42	0xbfc3a8d57e5fd853	-0.1535899035513376
43	0xbfb916f970517ac9	-0.09800681106706145
44	0x3fbc0a168944d434	0.10952893115320778
45	0x3f8f30e3643bcac4	0.015229965683351117
46	0xbfaec6e3fad0aabb	-0.06011116444309069
47	0xbfc0d10d7dd700b2	-0.13137978214763774
48	0x3fb52c024bc3846e	0.08270277356815978
49	0x3fbf58cf9c935227	0.1224488980545365
50	0x3fc012d15e75173a	0.12557427513291392
51	0xbfb1788f00000000	-0.06824582815170288
52	0x3fbd18ac0d30e5bc	0.11365771600767166
53	0xbfc391e8b7b6dbdf	-0.1528902909319347
54	0xbf9ef1c9add6042c	-0.0302192222930026
55	0x3fc0d4034ad8ed5e	0.13147011904389222
56	0xbfc12a9fded91573	-0.13411329632996746
57	0xbfc3a4c33b848cc0	-0.15346565633908504
58	0xbfb3f05e2da64e27	-0.07788647284024162
59	0xbfbe6a8ac403fa68	-0.11881320272002827
60	0xbf9f46f153661109	-0.030544062342884568
61	0xbf74a0ad36ea2bf0	-0.005036045664961172
62	0x3fc174e4335366eb	0.13637974268095063
63	0x3f6e9f4a280e2b38	0.0037380646103363467
64	0xbfc0f37ce2a8e1cb	-0.1324306589829248
65	0xbfa39a75ee50c043	-0.03828781637309977
66	0xbfbe5da549a76fe1	-0.11861641929812052
67	0xbfb829549cf31f5c	-0.09438065368442267
68	0x3f8501e50f186ebe	0.010257520220924628
69	0x3fb161900524ed8f	0.06789493680564916
70	0x3f964865e1dc6d7e	0.02176055136724874
71	0xbfc35dfbe125b34d	-0.1513056611396685
72	0xbfc216eb5ae6a675	-0.1413244432308606
73	0xbfbf507a2bb79ee8	-0.12232173507038235
74	0xbfbc4e2fabee7520	-0.11056802699609536
75	0xbf8f2d5e24834480	-0.015223250855713966
76	0x3fbb579f94c93c99	0.10680577642891577
77	0x3fb07ae91129efdd	0.06437546414412006
78	0xbfb4022ab9f3ce7c	-0.07815806426861543
79	0xbfaae70b470a0dc9	-0.052543976232324825
80	0xbf7441cf6f2d1cc9	-0.004945574083485124
81	0x3fc1464b1382e89a	0.13495768025115212
82	0xbfc44c24b9f23854	-0.15857371405985765
83	0xbf9f0fc55e35b1d7	-0.030333598971468447
84	0xbf99588aba9719ae	-0.024751823080600914
85	0xbf9f731843336b3f	-0.03071248922502012
86	0xbfc865b111b7e88c	-0.19060338368564478
87	0xbfacf780885a6ed8	-0.0565757910200923
88	0xbfbac00cb2de7161	-0.1044929444019025
89	0x3fb8cad97b65e9f1	0.09684523832940052
90	0xbfc523fed5e9cd03	-0.16516099400505632
91	0x3f83fe1ba1e22b01	0.009762016179839518
92	0xbf9b8d65af20df14	-0.026906575025548454
93	0x3fba42d235b556f6	0.10258210955847943
94	0x3f86f069412325f9	0.01120073537858256
95	0x3fb4424b74ef6f77	0.07913657765260305
96	0x3fb923bf77f35160	0.09820172003248251
97	0xbfa4dfa4ff19cdbb	-0.04076877225898153
98	0xbfbcf00ce4fe7775	-0.11303787794756011
99	0x3fc0b4254f389600	0.1304976116963843
