model2_DGM_state_dict_100_10.pt (torch, 168956 bytes, 8 tensors)

layer1.weight f8 [100, 3]
0	0xbfc31f7a78f0bb6c	-0.14939814477244384
1	0xbfdfb8a384872d50	-0.49564445440474447
2	0x3fdd359ad724a5f9	0.45639678011011103
3	0xbfd7f38f870279bb	-0.37424076256311495
4	0xbfd9ec50e839b478	-0.40504858663809484
5	0x3fa2a339f4b6a912	0.03640156852937272
6	0x3f83bd9d324db5f5	0.009639003846781494
7	0x3fdd8133ae00855f	0.4610108565558075
8	0x3fdcd949250d21a0	0.45076206796923124
9	0x3fd4ac215ed4141f	0.3230060030039698
10	0xbfa4c4fb24d84f1a	-0.04056534600036184
11	0xbfe30d8f0fdfa0e2	-0.5954051313429114
12	0xbfd4f2b530c22eea	-0.32731370698523554
13	0x3fb1e75516a79860	0.06993610194294453
14	0x3fd74aed10faed75	0.36394812257977743
15	0x3f91a076437c03f5	0.017213676327632006
16	0xbfc6b6dc4ff2028e	-0.17745546248990646
17	0x3fd728f821d329ad	0.3618755655594679
18	0x3fdfca075f0f5b08	0.4967058590240616
19	0x3fda705c79d25c3f	0.4131079854645953
20	0xbf7f8defe43df3ca	-0.007703721119352866
21	0x3fcb86955c4b8c7e	0.21504466063115396
22	0x3fc7f20428b6f9ca	0.18707324970269062
23	0x3fe14e281b17e2fd	0.5407906083265456
24	0x3fb816c9a80cd325	0.09409771302018706
25	0x3fc2e651b35c519b	0.1476537824425009
26	0xbfe148df169e9a36	-0.5401454393184568
27	0x3fde499fea4435b1	0.47324369313795517
28	0x3fd833a6f78c01b3	0.37815260099889797
29	0x3fd218fea23d8ca4	0.2827755531672642
30	0xbfda2cdd60d562c9	-0.4089883275642419
31	0x3fe33b056dd0a13b	0.6009547371695939
32	0x3fb394f34602cd10	0.076491551010623
33	0x3fd4ff2cbf28a1e7	0.32807463329166214
34	0xbfd38779798bd2ea	-0.30514370794052914
35	0x3fe092470e2a9bdc	0.5178561474502845
36	0xbfb0f57b59cfe227	-0.06624575560261602
37	0x3fbfb40c3ddd334a	0.12384106169083711
38	0x3fd8be1a6683c194	0.3866029740447854
39	0xbfd0c4b33c0f4b94	-0.26200562348565737
40	0x3fd3777b854a4470	0.3041676332150649
41	0xbfc5f07f8101a487	-0.17140191840306704
42	0x3fb851f411efbbba	0.09500050962354481
43	0xbfc53e564c62dcab	-0.1659648774127381
44	0x3fe14f36837b16fb	0.5409195487961534
45	0xbfd14164fdaf7a3b	-0.2696163632771548
46	0x3fa5c1eadc86315b	0.04249509756036459
47	0xbfdfbc05d2eadb96	-0.4958509979000437
48	0x3fd25bba57d6bd34	0.2868486268807431
49	0x3fe1e0ff2c17d22b	0.5587154256050487
50	0xbfd3701f91461677	-0.30371846377270323
51	0x3f864e59f953ab69	0.010891631051398414
52	0xbfd0afaf8240ff8f	-0.2607229969034898
53	0x3f9634f69f708b6d	0.02168641422407396
54	0xbfe4a5d429cfab43	-0.645242768919481
55	0xbfb0969aaed7f4a1	-0.06479803818361286
56	0xbfd6024b53cfe29e	-0.34389002976198835
57	0xbfe2a63726224f7f	-0.5827899689488588
58	0x3fb16791ac1f5135	0.06798658802228348
59	0x3fe09708ec2682d1	0.5184368717492253
60	0x3fc1ff88bb778fd5	0.14061078218139636
61	0xbfd381b9b92a7949	-0.30479281504257877
62	0xbfcc6003dac4ee02	-0.22168014700024236
63	0xbfe1bbfc53b174a8	-0.5541974672920746
64	0x3fd548bf3f3a121e	0.33256512808319083
65	0xbfb20987d05fd1a5	-0.07045792424452786
66	0xbfc9f418d3e795ca	-0.2027617487612317
67	0x3fd1a700c5efa2eb	0.27581805543608934
68	0x3fcb3b27564c8818	0.2127427264577484
69	0x3fd2724560790654	0.28822454854171053
70	0x3fd5d8ac93c7a343	0.3413497393763018
71	0x3fcb8026424af41b	0.21484831082298758
72	0x3fca53bd2dcfbeb4	0.20568051087274386
73	0xbfdb93ad3290f09d	-0.43088846147635157
74	0x3fb3bd41a1a47df1	0.0771065730700611
75	0xbfdb9dbeaa4c7f30	-0.4315029776644108
76	0xbfd3f45ad69fac02	-0.3117892356810331
77	0xbfcca47e8fdbe653	-0.22376997017254271
78	0x3fde77a37e587253	0.47605216349055474
79	0xbfe28b08f45a2b6a	-0.5794720432762521
80	0xbfb568fd46769799	-0.08363326044363219
81	0x3fc0c682e60a90b1	0.13105808479770567
82	0xbfd78364cea7b46b	-0.3673946397892169
83	0x3fd5792d85864cd8	0.33552110709679317
84	0xbfa7c51ccafb6e80	-0.04642572381791599
85	0x3f7552be14254ce9	0.005205862517260609
86	0x3fceb5d6155bbe2a	0.23992420237435513
87	0xbfce94ffa5667775	-0.23892207695183357
88	0x3fc021f7f6a7e177	0.12603663963069398
89	0x3fc9713b49e8559b	0.19876805409209627
90	0x3fdd67436c7d980e	0.45942769617829604
91	0x3fd1f23a9abd8a01	0.28040948020330353
92	0xbfd7a12a355849f1	-0.3692117234178616
93	0x3fe090c0f73ea102	0.5176701382634123
94	0xbfd37a88ebed08f9	-0.30435393371239133
95	0xbfdff4d64eadefb0	-0.49931867297686505
96	0xbfe2d33ac22f164a	-0.5882848541884382
97	0x3f964993d72133bf	0.021765050893282508
98	0xbfdedee17623152f	-0.48235355889149195
99	0x3fd0a6d6fa09cb59	0.26018309037970294
100	0x3fc23c2acb8d6912	0.14246115626412653
101	0xbfd04169f858cb33	-0.25399255039808394
102	0x3fcf1e1be1f4c551	0.24310635121359295
103	0xbfe32a90cf4b9341	-0.5989460037932092
104	0xbfbcb1daaae370a9	-0.1120888392646885
105	0xbfc5d64c3f0d8ae6	-0.17060235098605075
106	0xbfce0702c5006ab3	-0.23458895320148584
107	0xbfd278eec8e77c10	-0.28863114947847723
108	0x3fd7318415b10101	0.362397214110402
109	0xbfcba69c335e30e9	-0.2160220385379781
110	0xbfca89f72c35b467	-0.20733537348442896
111	0x3fdec5189fccb201	0.48077979665211507
112	0x3fd173154c0b15a5	0.27264912057975216
113	0xbfd240b5f99cf389	-0.285199636233124
114	0x3fd80f1c96dbcaa8	0.3759223435619483
115	0xbfe0f32778c05e93	-0.5296819075037597
116	0x3fde941d5edd5a86	0.4777902056133957
117	0x3fc908b2a5eb74bb	0.19557793714094437
118	0xbfb8fc688b05b6a8	-0.09760144609546251
119	0xbfd2db959bbfdace	-0.29465236863999855
120	0xbfab0cc08f8c0f96	-0.052831666491356774
121	0xbfa442cbd71edd5a	-0.039572114953837015
122	0x3fdbdac160534603	0.43522676855818093
123	0xbfd602fc820a6b7a	-0.3439322729042754
124	0xbfd02a07f96c462f	-0.25256537778577387
125	0xbf9f44ae4cabc62e	-0.030535434178949376
126	0x3fcff98d62feebd9	0.24980323156145692
127	0xbf78a22c766c63e9	-0.0060140358753182155
128	0x3fd39dde83adf011	0.3065105710918497
129	0xbfe10f81c0000000	-0.5331429243087769
130	0x3fb5358100000000	0.08284765481948853
131	0x3fa1080600000000	0.033264338970184326
132	0x3fcdbd945bc6f6e5	0.23234800797756985
133	0x3fbc436af9a01f21	0.1104037150799937
134	0x3fa92149984e49dc	0.04908208831979596
135	0x3fa8f3390a56e033	0.0487306428071296
136	0x3fd2f5b23dd2e9b1	0.29624610936630363
137	0x3fc7316bcb508ff3	0.18119571139789023
138	0xbfd006e0cca06347	-0.2504198072725114
139	0xbfd99cc2b401d1e3	-0.4001929052240298
140	0xbfc46d98cafaa3ba	-0.15959463034712745
141	0x3f85ff02c0137549	0.010740300642675964
142	0x3fc72bbbfa1095da	0.1810221644420114
143	0xbf67bf275474d197	-0.002898766342378244
144	0xbfc1d5055313de19	-0.1393133788730985
145	0x3fcacade519d8b4f	0.20931605324866573
146	0xbfd32828316cca22	-0.2993259890237444
147	0xbfe070f0a9166e6c	-0.5137866308682084
148	0x3fcc8c5d2e51e96f	0.22303356897084423
149	0x3fce71e467a060af	0.23785071430098045
150	0xbfdb74243af92ef0	-0.42896371611708073
151	0xbfc3afd9cb2c136f	-0.15380403919712246
152	0xbfd32c1d6a4852dc	-0.29956755999709883
153	0xbfe15cc8a020fd77	-0.542576134444899
154	0xbfcd1e09b71c761f	-0.22747918549514254
155	0xbfd0d892ece225ab	-0.26321862347739494
156	0xbfc672ca37edd7a9	-0.1753781102267429
157	0x3fe2134a6dd55634	0.5648548264677573
158	0xbfd0535824aff66c	-0.2550869329714718
159	0xbfdaaaf37cdfb9be	-0.41668402857512976
160	0x3f98a65aa120106f	0.024072090229325157
161	0xbfcda3cbda10695d	-0.23156116626416692
162	0xbfd5386173046422	-0.3315662024702438
163	0x3fbc06cee666ad6a	0.10947888493563132
164	0x3fe218bfc6ce79ec	0.5655211337032688
165	0x3fa18329084fb289	0.0342037985463764
166	0xbfcf3627bc400ed4	-0.24384018604188518
167	0x3fb65425278e6275	0.08722145286299983
168	0xbfd2f4331a4696b6	-0.29615476194372137
169	0xbfd0f4b352641fc8	-0.2649353317833598
170	0x3fba15a016b4a700	0.10189247660005307
171	0xbfb7cf26c231f2ad	-0.09300462952701123
172	0xbfdbb55f22d52e63	-0.43294504548678087
173	0xbfd065df4f7859c8	-0.25621779213670637
174	0xbfc92eda1351edfe	-0.1967423052154657
175	0xbfd5f73e76bf9f2d	-0.3432155761388341
176	0xbfd350066880747a	-0.3017593403363389
177	0x3fd8a0a247c2e68b	0.38480431564276135
178	0xbfc4b47124c9a974	-0.1617566518428465
179	0xbfddb41fe5daeda8	-0.4641189331702784
180	0x3fdd3c708a1e098e	0.4568139408876498
181	0x3fda0ad0e7820a53	0.4069101582355518
182	0x3fb4024717e9b055	0.07815975507554758
183	0xbfda721f89f9d25d	-0.41321552728849104
184	0x3fc24371f289b7cf	0.14268326132463335
185	0xbfbf424d3bf8f7c4	-0.12210543359921561
186	0xbfd020917aaec07d	-0.25198780995106757
187	0x3fc2b8e8893aabc9	0.14626795483249413
188	0xbfd9ea41597c8b02	-0.40492280711093553
189	0x3fd7057121074d42	0.3597071478408972
190	0xbfb02f6ca7c9ae30	-0.063223639453718
191	0xbfdadc9906cab48a	-0.4197142187429753
192	0x3fc987a0bdfc35a2	0.19945153500195284
193	0xbfc67521b4703181	-0.17544957457029045
194	0xbfd8893d12a1d150	-0.38337637729207064
195	0xbfbfdf583bb9bc39	-0.12450171907561093
196	0xbfe1fb32aa256120	-0.5619138072170564
197	0xbfb3beb1881b0344	-0.07712850163353574
198	0x3fc54985476cc2f2	0.16630617129842268
199	0xbfe1ee31a13f4a05	-0.5603263997421101
200	0x3fd2d206ac496494	0.2940689737784592
201	0x3fe0abefc1432d3b	0.520988347497599
202	0xbfd84539f9bef5c6	-0.3792252482342885
203	0x3fb620db1d4412a1	0.0864388414812063
204	0xbfdd72f2b9c6bd58	-0.4601408781263294
205	0xbfded95a7c6438e9	-0.482016202426975
206	0x3fcd5d7e54172440	0.22941569429375086
207	0xbfd9696b6210d1d8	-0.3970592935250159
208	0x3f95eb2ffcc09d6f	0.02140498142412411
209	0xbfdcaca272d2ce97	-0.4480367776224993
210	0xbfcd78aacb4641c8	-0.23024496961126162
211	0x3fcf9d1503938403	0.24698126482601887
212	0x3fcc95998c0e7dd3	0.22331542338086638
213	0x3fbbc3e39afda113	0.10845778020814505
214	0x3fc81ec9b47affbf	0.18843957245371531
215	0x3fc0bd25e6e19221	0.13077234052174538
216	0x3fabf642227a8683	0.05461317702180415
217	0xbfb71d8a41422887	-0.09029449551795397
218	0x3fdc1f32ae376bf2	0.4394041730244559
219	0x3fd0eb34ca0e2428	0.26435584766346887
220	0x3f8d3983fcff1720	0.014269858511294198
221	0x3fb3903680735a69	0.07641926418305335
222	0x3fd64e626291727d	0.34853419900699817
223	0x3fc929e0afc3bd19	0.1965905054307562
224	0xbfd7db386bb30ec3	-0.37275515096210315
225	0x3fbb90b476b31de7	0.10767677209798131
226	0xbfa70f62dc0f331c	-0.045039262163845545
227	0xbfe145d90d2d209f	-0.5397763497685623
228	0xbfe2c8ab755f9e01	-0.5869958202792419
229	0xbfdd475b9a17c021	-0.45748033569452856
230	0xbfd0dab8d9396b11	-0.2633497353869397
231	0x3fcb78cd3d76a0d9	0.21462407590048008
232	0x3fdc2b1e5ce152a2	0.4401317507775194
233	0x3fc8cc82e95dd15d	0.19374119181487517
234	0xbfe075d6156df263	-0.514384309629872
235	0x3fce3bbeca727840	0.2361982811461889
236	0x3fd717ef006f73f9	0.360835791039619
237	0xbfe131f80017c97b	-0.5373497011008078
238	0x3fe09d848437e6d0	0.5192282278432803
239	0xbfd27ac526c0f4f7	-0.28874329361481393
240	0xbfb951dd46d64e53	-0.09890540103361305
241	0x3fbb6527ebd24483	0.10701226718289729
242	0xbfc6bd86ae6fd829	-0.17765887753893253
243	0x3fd645bb50e67ee9	0.3480060853998866
244	0xbfa6a90b6d97e501	-0.044258458259671236
245	0xbfba8a25984a74b3	-0.10367045372045673
246	0xbfcc36d46167e768	-0.22042326694627978
247	0xbfdf706fe38702c7	-0.4912376138636713
248	0xbfc37b45f2bbb9d8	-0.15219950058185705
249	0x3fe4073e9d7288f5	0.6258843493599487
250	0xbfd77093c2c9b630	-0.3662461664415302
251	0xbfc7b103a0b4933d	-0.1850895437902639
252	0xbfd8ebe6d3fcddd9	-0.3893982954209299
253	0x3fe0bcebe201f04a	0.5230616964540868
254	0xbfdca1bb60e246bb	-0.4473713346606975
255	0xbfdf46efd01d498c	-0.48870463679954734

layer1.bias f8 [100]
0	0x3fcb2c8e4d6eab55	0.21229723721384156
1	0x3fe067be6d9f8b99	0.5126640454367247
2	0xbfd702eae86d423f	-0.3595530767243282
3	0x3fd2a2dc07a7355b	0.29119015452746105
4	0xbfe0ffb1c56d02ea	-0.5312126975987586
5	0xbfe02848c2d2cca9	-0.5049175076623175
6	0x3fb7ac3ead79e903	0.09247199759730411
7	0xbfc54d363d6a8399	-0.1664188194163472
8	0xbfd639e5d6437942	-0.347283801309363
9	0xbfc1ecf8fb104f3e	-0.1400443292519586
10	0x3fe018fb9f81a3be	0.5030496707305401
11	0x3fce06f9f70f55b9	0.23458790362808005
12	0xbfd6a34ca93f3f4d	-0.35371700790436905
13	0xbfc393b1e7a44ede	-0.1529447918952575
14	0x3fd2f2960a2b015d	0.29605628006904344
15	0xbfca43c2c8504336	-0.20519289761480203
16	0x3fe2f3756ea57da2	0.5922190819800799
17	0xbfd608df5bc3794e	-0.34429153405462365
18	0x3fb680e06dc09d43	0.08790400199415153
19	0x3fbf06daeb92b403	0.12119835139556305
20	0xbfcbc3fec18baceb	-0.21691879702061753
21	0x3fe0bc2eaf0850a0	0.5229714792826776
22	0xbfdf2adeffa8c074	-0.48699164358823244
23	0x3fb4fdba1c36ca61	0.08199656666583045
24	0x3fb18902dd28da8b	0.06849687480358051
25	0x3fcc3dedbd83e2a8	0.22063991311712994
26	0x3fe420519ffdfe3d	0.6289451718184363
27	0x3fe36514fb78904a	0.6060891067068124
28	0x3fb68e2ed78f1354	0.08810704004924946
29	0xbfb803346773796d	-0.0937988998952954
30	0xbfc8066d75c68a42	-0.18769615412482393
31	0x3fe36af2a85d7719	0.6068051613217192
32	0x3fd495cb6873e0f5	0.32164273453191977
33	0xbfd6947f457a8d24	-0.3528135469916427
34	0x3fbda26b7ead9827	0.1157595810196602
35	0x3fbca87769de4c41	0.11194559416462459
36	0xbfdaab2305666bbb	-0.4166953613982362
37	0xbfe09eef72f83511	-0.5194012876033033
38	0x3fd30069e5806821	0.2969002476908163
39	0xbfb9a07821889b23	-0.10010481661502672
40	0x3fc422736d1ef24b	0.15730135753791993
41	0x3fcc487c2cafdd26	0.22096206838589544
42	0xbfe157e7da3aa8b9	-0.5419806730544884
43	0xbfd47a5bc0000000	-0.31996816396713257
44	0xbfc7994ae1e71108	-0.18436561613464897
45	0xbfc7c9340a5af266	-0.1858277369082259
46	0x3fcafe7553add4c3	0.21089045129671122
47	0x3fe1d2a63ae235a2	0.5569640302725711
48	0x3fc244e19c4994a2	0.14272709017965207
49	0xbfd81cab7e768e0e	-0.376749871729971
50	0xbfd51565fd395ad9	-0.32943105439100645
51	0xbfd6a84ba5c95438	-0.354021942044088
52	0x3fccd0ef247143dc	0.22512616424003695
53	0xbfc71c62e8129915	-0.18055378276512415
54	0x3fb0869b09b05a9d	0.06455391871018397
55	0x3fdb6c287046a2b2	0.428476438183263
56	0x3fd1a58f3ac9de59	0.27572994938916434
57	0x3fe0b6d1a5f1d244	0.522316764936996
58	0xbfcd0be6d94cf6c5	-0.22692571268446762
59	0xbfd5c46029e764cb	-0.34011081783462477
60	0xbfdabddc6f61f3d7	-0.41783820035180724
61	0xbfda917282af8602	-0.41512739908475293
62	0xbfcd3f26d3c4f182	-0.2284897359876475
63	0xbfdb2336c3ea8ca5	-0.42402428753320925
64	0xbfcd5e977600f56c	-0.2294492078962479
65	0xbfe329cc21b74572	-0.5988522203935374
66	0x3fb5d3d1d9452f2e	0.08526336245011798
67	0xbfda9a212e11e2d8	-0.41565732478151807
68	0xbfdc40486bfa4ba6	-0.4414235166997805
69	0x3fdb1e59efc46641	0.42372749724163233
70	0x3fdcce876e367699	0.45010553133929815
71	0x3fb08c001c5f41c7	0.06463623707464371
72	0x3fde2f20841eea28	0.471626404785328
73	0xbfdf18ea19aa357f	-0.48589565759979075
74	0xbfd741a9f84e92c1	-0.3633828091499645
75	0xbfe0a24f6db893b6	-0.5198132651317937
76	0x3fd27ac9994cd96a	0.28874435396882936
77	0x3fd63d7fdd7190ea	0.34750362992623585
78	0xbfe44eea84d99219	-0.6346333117222144
79	0xbfc2bd14765939dc	-0.1463952615617491
80	0xbfce386cb500ca27	-0.23609694326440087
81	0xbfcb70052bb96dc6	-0.21435608515717613
82	0xbfbc3ebfd319cfde	-0.11033247855976877
83	0xbfd2b91dace542b6	-0.29254857906657195
84	0x3fcfffa64a9ca1d5	0.24998930590778792
85	0x3fd8a164675621ac	0.38485059825373
86	0xbfbf0a3d736bf5ba	-0.12125000064766925
87	0x3fd8258e7d66c3f3	0.3772922730086627
88	0xbfe1f3b613607cf1	-0.5609999063925938
89	0xbfc604b80a5c5e94	-0.17201900964640926
90	0xbfdc79c22265b744	-0.44493153914560346
91	0xbfe134c9909906e9	-0.5376937698531182
92	0x3fdce0f2d33bb9ca	0.4512297690224868
93	0xbfce33bc169f09ef	-0.23595381836464877
94	0xbfdb635228a43d7f	-0.42793706864264175
95	0x3fcd32740fcf5eb4	0.2281022145459609
96	0x3fd97778d0879bd1	0.39791698803167913
97	0x3f552c95653090a7	0.0012923678339200968
98	0xbfb841423ba2a363	-0.09474576908054426
99	0xbfe2be3b92de54a2	-0.5857217663311938

layer2.weight f8 [100, 100]
0	0xbfba8a389c41feda	-0.1036715871323354
1	0xbfb34362777b1334	-0.07524695794115815
2	0xbf9fb353f6a6510c	-0.030957519463826563
3	0xbfa690bd5135f4a6	-0.044073024905608535
4	0x3fb24fc7ee4bf642	0.07152986114302798
5	0x3fb8e4a9512bae6b	0.0972390959902271
6	0xbfb85f664e191604	-0.09520568281831038
7	0x3fa80e04761144b9	0.04698194447758781
8	0xbf91ce21dd9d3bc4	-0.01738789477468196
9	0x3f9be4f504e62eb7	0.027240589546223073
10	0xbfb4ca4d3888e267	-0.08121187811128437
11	0x3f8279bcd6637d0f	0.009021258633252786
12	0x3fa916a7c6b8def5	0.04900097180182953
13	0xbf9987976ae59ab8	-0.024931302928417692
14	0xbf35dd64feae914c	-0.00033363071150406954
15	0xbf9c8cf3955e3227	-0.02788143729371675
16	0x3fb05e74a0099b6a	0.06394127757230952
17	0xbf7d9a2861922269	-0.007227094401181058
18	0xbf6fd95d872a7c11	-0.0038878275602907205
19	0x3f9e69a73ef8c46f	0.029699910372248114
20	0xbfc055a21e223f17	-0.12761332007766477
21	0x3f8313c51d057f0a	0.009315051983036966
22	0x3fbab74618d52bcc	0.1043590365053852
23	0xbfa3fd50fc91ad89	-0.03904202540510499
24	0xbfc37d2720c8c013	-0.15225686169424132
25	0xbf95c9f56744e705	-0.021278223445938788
26	0xbfb3756fb8fb0a38	-0.07601068750504048
27	0xbfb38b1460c43442	-0.07634093630277142
28	0xbfc1d4db1136f541	-0.13930834141312157
29	0xbfa1fa7152c5a30f	-0.03511385093117358
30	0x3fbc1998de32a2e1	0.10976558136702465
31	0xbfc62340ca733f03	-0.1729508389021178
32	0x3fa7003a7de96571	0.044923618192750044
33	0x3fa778ed33f56e66	0.045844471542946505
34	0xbf907111ea2e6b95	-0.016056327741903315
35	0xbfb6db0ff3ebebdf	-0.08928012566677478
36	0xbf6d3ae777469159	-0.003568126756549866
37	0xbf996eefaa05db00	-0.024837250473377814
38	0xbfc1da3b820d904d	-0.13947242593997303
39	0x3f9338fb119ff95f	0.01877205176423879
40	0xbfa93b564409a364	-0.04928083019769394
41	0xbfbf0edfa58876c2	-0.12132070342382931
42	0x3fb39279b44460f1	0.07645378733684872
43	0x3fae9cb140000000	0.05978921800851822
44	0x3f9c557980a48aaf	0.027669809796075636
45	0x3fb4a8314d019288	0.08069141511948363
46	0xbfb035166f9815ef	-0.06331005310502012
47	0xbfc4f93f72f9a467	-0.16385644067784996
48	0xbfa52b63f0fd5ecf	-0.041346667449656864
49	0xbf7a37d0fde7f173	-0.006400886892603419
50	0xbf9413699407b534	-0.0196053024864586
51	0x3f50194c5af6523b	0.0009825940759117374
52	0x3fb7303b38c910c8	0.09057970177042585
53	0xbfc0bac02dd19e4d	-0.13069917905089526
54	0xbfc076d8b7d2ccf0	-0.1286269090247525
55	0x3f88dba70f1e8817	0.012137704037574122
56	0xbf9badd817bb726b	-0.027030350159167698
57	0xbfc020d315e380c8	-0.1260017258528079
58	0xbfbabcd2d86cd6d3	-0.1044437197095605
59	0x3fb0387445213143	0.0633614224217967
60	0x3fbc11b13ea53cd1	0.10964496402197034
61	0x3fb3bbd6a67bb6a2	0.07708493771107297
62	0x3f6236eba89ba550	0.0022234537799376355
63	0xbfa00e37eefc0e6d	-0.031358478472637376
64	0x3fb486a5db295bd8	0.08017956352828948
65	0xbfb1ab87fafcfd8c	-0.06902360799448654
66	0xbfba880323e39978	-0.10363788248250738
67	0x3f8c2e3a227209d0	0.01376004617327889
68	0x3fa769cbad63baa8	0.045729031482428184
69	0x3fab30f775cf41c3	0.05310796082597193
70	0x3f7f8b36a30f73ed	0.00770112364349716
71	0xbfc000fd946b664f	-0.12503022906348568
72	0xbfc34c93e0312818	-0.15077446410060769
73	0x3f9cc5a617a2ef27	0.02809772032990945
74	0x3fc03d6824d73f81	0.12687398718707857
75	0x3fb73b8de9128f02	0.09075247707601977
76	0xbfa2e4dddd5a9ceb	-0.03690236403536481
77	0x3f9a38e1f95dc5a3	0.02560761532317247
78	0x3fc56b1c8c18fe69	0.16733128395752608
79	0x3fb6841d2f92778f	0.08795339976719972
80	0x3fc41fd13c146864	0.15722098764018988
81	0x3fc069a03f9d09e3	0.1282234488117658
82	0xbfc28d9e3acf20b8	-0.14494684096849197
83	0xbf8b97c5f41fba8b	-0.013473078262874047
84	0x3f9c9ef096c4a31c	0.02795005722251452
85	0xbfb6e0a4adcfea34	-0.08936528438054198
86	0x3fbc79197367463d	0.1112228304621334
87	0x3f984d43e3579834	0.023732243300308833
88	0x3fc58590e657ba63	0.16813861128999283
89	0xbfa71920ab1414af	-0.04511358345374938
90	0x3face204a57cf999	0.0564118816387122
91	0x3fb1d5f2813d3e4d	0.06967082648520169
92	0xbfc4cb6686b9bb5a	-0.16245729044336593
93	0xbfacc633f3df042c	-0.056199668425968546
94	0x3fa3157dd54e0794	0.037273342407402016
95	0xbfac54dd2c035ffc	-0.055334960577681586
96	0x3f59704365b8354a	0.0015526445557754892
97	0xbfb541623d43e0f4	-0.08302892680865509
98	0xbf79dc0851078725	-0.006313354956064808
99	0x3f827319b10042bb	0.009008599008695986
100	0x3f9055a2abfeadfd	0.01595167326710899
101	0x3fc1e229d389e6d5	0.1397144587424949
102	0xbfaeee211c022c39	-0.060410532635693355
103	0x3f826d2c153bbd66	0.0089972919444949
104	0xbfc030d0d5ca084b	-0.12648973883557554
105	0xbfb5d79ec2191acd	-0.08532135237428946
106	0xbfb2c835c7a4ba29	-0.07336746334178969
107	0x3fb8a3bd8cfff3f3	0.09624848072412799
108	0x3f846700442e806a	0.00996208389352678
109	0xbf9e966a2fcf71fd	-0.029870661895857954
110	0x3f6e57a1ac755a5d	0.00370389534843278
111	0x3fa77a5a81ec3145	0.0458553584668118
112	0xbfbd1f610eb9161a	-0.11376005753944476
113	0xbfb6321b2af7f684	-0.08670205878294196
114	0xbf933e7cf4b60bb0	-0.01879306071851844
115	0xbfad989da056809b	-0.05780499059915308
116	0x3fa748befa122304	0.04547688295958177
117	0x3fc36d805c9150af	0.1517792179098527
118	0x3fbb0d11c6c2f921	0.10566817381456818
119	0xbf8237834cb5c576	-0.008894944933419007
120	0x3f8d70e319d781cd	0.014375471330766576
121	0xbfa17eabcb4f310b	-0.034169548576388285
122	0xbfa9201b57fb495f	-0.049073080530109385
123	0x3fa414eee54608a8	0.03922220753430966
124	0x3fabb2dbc2e2769d	0.05409895662272144
125	0x3fc2e90291641820	0.14773590182466112
126	0x3fb913915e086419	0.09795483155939201
127	0x3fc435433cb6c669	0.157875446935168
128	0x3fc32815d081317e	0.14966080361262962
129	0xbfa06780c94e8ebc	-0.0320396657691879
130	0x3f8e15fe39e1cd78	0.014690385953349802
131	0xbf9c87a03af2ffbb	-0.027861121747946287
132	0x3fbcc6619eccebc9	0.1124020588585345
133	0xbfc23257f60ea253	-0.14216136469373683
134	0x3f65fe121b6cd2e5	0.002684626927840094
135	0xbfa041e91344a667	-0.03175285682875711
136	0x3fb0a76780a9c90a	0.06505438700859059
137	0xbfbc4340eb5d57de	-0.11040120836454956
138	0x3fb0aedebe2a5a86	0.06516830580435781
139	0x3fba9a15d7a715fb	0.10391365542371737
140	0xbf9e383b97138102	-0.029511386009176917
141	0x3fbcf0717958bae7	0.11304387295306705
142	0x3faa5a9072bdb18a	0.05147220039984564
143	0xbfb8cbe1a0000000	-0.09686098247766495
144	0xbf94de4e7bb98610	-0.020379282285267364
145	0xbfaf244ebf67d880	-0.06082388006682127
146	0xbfa360210a7f88ab	-0.0378427815737877
147	0x3fc3faf57d01ace2	0.15609615901789825
148	0xbfa68197926a5f2a	-0.04395745909022104
149	0xbfb2fd855a4f3125	-0.07418092207735023
150	0xbf95a2bc6ce9b44c	-0.021128601214901274
151	0x3fc128b7f2693693	0.13405513130640098
152	0xbf9f0be3248c6d0d	-0.030318783860917842
153	0x3fb1183c67ddb6e2	0.06677606139939088
154	0x3f9328b64664e94f	0.01870999149944313
155	0x3fc1947398d192a4	0.13734288179252474
156	0x3fb999de70001c62	0.10000410303483556
157	0x3f6f079468231743	0.0037877939767864423
158	0xbfa542834e9dd85b	-0.04152307829547005
159	0x3faac17259185e43	0.05225713098132847
160	0xbfc194b615bb3c3d	-0.1373508077726643
161	0xbf786ee693fdd1f9	-0.005965138145132881
162	0xbf8d4d7b3e12db62	-0.014307940322721261
163	0xbfb6bf46b6b0de48	-0.08885614357210969
164	0x3f9ff4fb9b823430	0.031207972876064527
165	0x3fc40ca02a2e569d	0.15663530406589113
166	0x3fc5bab0cc53934e	0.16975984551313633
167	0x3fb3fb4834cf2f9c	0.07805300988473934
168	0x3fc00031fa180f67	0.125005957714275
169	0x3f9c1e2b72a56a7c	0.027458838341184663
170	0x3fb3cb8800c74aa4	0.07732439059263158
171	0x3fabd0f543913271	0.054328598497339516
172	0x3fc03bf9c3e9e7c0	0.12683031145189538
173	0xbfc0e5a4fe067518	-0.13200819400382424
174	0xbfb1186ed1c3a668	-0.06677906628797248
175	0x3f9e3357384fbc26	0.02949272423932938
176	0x3fc08c212ebd305c	0.129276416608607
177	0x3f975e420aeff341	0.022820503156242514
178	0xbf9e98a9275a2e88	-0.029879229571220495
179	0x3f98a928dc064d48	0.02408279269145666
180	0xbfbc995c8b27c53f	-0.11171511075351236
181	0xbfbab8ad97258b0d	-0.10438046398261865
182	0x3fc1911431c7b891	0.1372399561946094
183	0x3f931abcaea7e477	0.018656681213518014
184	0x3f9aa93dbe0eaac0	0.02603622887151391
185	0x3fc05fdc8e950c23	0.12792546236059463
186	0xbfaad79404c0877a	-0.05242598112114556
187	0xbfba1ba70d84d3a4	-0.10198444442796856
188	0x3f39088cfe29f035	0.0003819793911714637
189	0x3fc25aaeb8847e4b	0.14339241037031267
190	0xbfb4695cfd7bf847	-0.07973271549778459
191	0xbfa8955169ec4380	-0.048014206104318724
192	0x3fb41f42ef655504	0.07860201210617751
193	0x3fb40e288c0d2b7e	0.07834103984093407
194	0xbf960527f7404988	-0.021504044023524155
195	0x3fa01fa355c15f45	0.03149137899225577
196	0xbf4e591f58900c08	-0.0009261515671145091
197	0x3f904e084c51d3c4	0.015922670038395884
198	0xbf7d5dde2a45cd81	-0.007169597466020306
199	0xbfa663ecd337bb14	-0.04373111799565357
200	0x3fa589b7c053858d	0.04206632826550125
201	0xbfb784f89c1fe6bc	-0.09187272845874878
202	0xbfb345b446efc579	-0.07528235179758792
203	0xbfb24184f03f631e	-0.07131224503917763
204	0x3fa58d633419be97	0.042094326124126606
205	0x3fb8ba89b3db6899	0.09659634247819539
206	0xbfc041285ad327b9	-0.1269884532433119
207	0x3fa5027ac8ae36ef	0.041034543034681785
208	0xbf7841c27703e129	-0.005922088268782746
209	0xbfbeebefa6be4032	-0.12078759976270773
210	0xbfc0bca318e93e7c	-0.13075674740183618
211	0x3f8c60be47f58918	0.013856398173349535
212	0x3fb118488b92e994	0.06677678496899936
213	0xbfa4aa95051ed1ff	-0.040363938212440324
214	0xbfa4c35969e5a57f	-0.04055289666832617
215	0x3f943c215988170f	0.01976062878568202
216	0xbfb70b1fe4fd3c99	-0.09001349773937974
217	0x3fc83e90782f2887	0.18940931194658026
218	0xbfb317cef7b14911	-0.07458203837567036
219	0x3f72d0a4de774ebc	0.004593509692728478
220	0x3fc87a3f3140802a	0.19123067765122076
221	0xbf9d378d0e8f8526	-0.028532222760877655
222	0xbfb5a40af827903d	-0.08453434523068011
223	0xbfbe059ad1ffed7b	-0.11727302195497728
224	0x3fb3b644ec53d967	0.07699995774951206
225	0xbfafacbc8f3e0c5d	-0.061864750371591205
226	0x3f95e9ddc8125148	0.021399941765211566
227	0x3f90ff86249a252b	0.0165997466888587
228	0x3f79677b97e288bd	0.006202204500512729
229	0x3fa5df6d138a0105	0.04272023070825707
230	0xbfad4741eaca9b65	-0.05718427649599426
231	0x3fa49c6d6652079d	0.04025594591168089
232	0x3f8ae2c4b0e8d5a7	0.01312783875355701
233	0x3fba79d542f68423	0.10342152485692728
234	0xbfa3740e447d3e1d	-0.037994809971334066
235	0xbfb646e73e492c82	-0.08701939840936926
236	0x3fb8842b9110e15d	0.09576675693177124
237	0x3fbd3e532c4fc5ab	0.11423225242449202
238	0x3f509abc01d44514	0.001013454056480183
239	0xbf952f354c94b57b	-0.02068789749062237
240	0x3fa54631eba38ec5	0.041551170362962554
241	0xbfb1b324109ab858	-0.06913972287540682
242	0x3fc079d04ab27001	0.12871745726886277
243	0x3fb3523620000000	0.07547319680452347
244	0x3fa8a9938a5b91dc	0.04816876472412776
245	0x3f992d4774b24898	0.024586788652023545
246	0xbfc0aa562f453e76	-0.13019826229218595
247	0xbf90bad0eb85e02e	-0.016337646842174695
248	0x3fa792bab9940264	0.046041331437668004
249	0xbfb8a21441e5e09f	-0.09622313126408465
250	0xbf835a4fb6802308	-0.009449599034284897
251	0xbfb64fa4d5a28681	-0.08715276923842376
252	0x3f6fc5dd85b799f7	0.0038785292251646247
253	0xbfb8ab4bcf028a63	-0.09636377147629953
254	0x3fc08a7b848a5756	0.12922615024279577
255	0xbfb158f5a409eecd	-0.06776366476872937

layer2.bias f8 [100]
0	0x3f88d0a1db036493	0.0121166844332257
1	0x3fb7cb602a4a7953	0.09294701607220661
2	0xbf92fa5e37e17808	-0.018533203278245508
3	0x3fb0663a95781d73	0.06405988835478187
4	0xbfbe54d30ba489e6	-0.11848181757208173
5	0x3fa7ce6ea81cace2	0.04649682809971424
6	0x3fa81a53408775e8	0.04707584536275161
7	0xbfbde90083647e8e	-0.1168365784437759
8	0x3f5561f88391e880	0.0013050963300700602
9	0xbfbe5e100314c835	-0.11862278056358451
10	0x3fbef77cd8abafd1	0.1209638623219569
11	0x3f76c7ea28c26b55	0.005561747250022749
12	0x3f749a269a106c09	0.0050298221476863325
13	0xbfacbab5a403d434	-0.05611198069701864
14	0x3fac557a1aa01f5e	0.05533963751810121
15	0x3fb1685da4f45706	0.06799874570091555
16	0x3fc2fb9e1a352501	0.14830375938098686
17	0xbfae1bbb5b5b1a64	-0.05880532732185342
18	0xbf9953ae29df9839	-0.024733277612448232
19	0xbfb950363d2e6bc7	-0.09888018602070679
20	0x3fa2b3a30870f157	0.03652677038232593
21	0xbfb1e4f2c804b92f	-0.06989972480071026
22	0x3fbb6b39607ec9cc	0.10710486036149475
23	0xbfb0d0c98982a1bb	-0.06568584067520693
24	0xbfc24577945b77a0	-0.1427449678803301
25	0xbf9aadc78f9be165	-0.02605354131716932
26	0x3f97ed4d34152cee	0.02336617117297817
27	0x3f99e01bad791bba	0.025268967116314413
28	0xbfc3e0233d036193	-0.15527763823662308
29	0xbfbc9acbe8baa182	-0.11173700744496354
30	0x3fc23626ee55c3b8	0.14227759015514407
31	0x3fc5eb52a14f9b3c	0.1712439811373886
32	0xbfa06810302b950a	-0.03204393947616253
33	0xbfc006eef300ee67	-0.12521159043704985
34	0x3fb9097b137c9f4c	0.09780091500999538
35	0x3fb31b0853911d54	0.07463123359877005
36	0xbfc4a3de426198e2	-0.1612508606078285
37	0xbf9b2cf52cfb21e6	-0.026538687582417973
38	0x3f9cf10c55d8029c	0.02826327585171616
39	0xbfb7d0d37886b0b6	-0.09303018276722494
40	0xbfba6a07748c2e72	-0.10318037600898736
41	0xbfb2efc326e96bfd	-0.07397098255152908
42	0xbfb6e7dbd7d7a626	-0.08947538394536333
43	0x3fc5cbea6b3eaee1	0.17028551327290756
44	0x3faf00d62c4b3d43	0.06055325785348
45	0xbfc48677f9b039b8	-0.16035365764441933
46	0xbfc50adb9908c484	-0.16439385387778682
47	0xbfc35851fcd74c32	-0.15113282056572214
48	0x3fb8c9c5f4ccd28d	0.09682881571354525
49	0x3fad6effae9b87f3	0.057487478317639694
50	0x3fb360aedda3a8bc	0.07569401656261027
51	0x3fad90df82dbd663	0.05774591896435479
52	0x3f758ee66f2a3f8c	0.005263233312362458
53	0x3fa9c6ccf476805a	0.0503448532501813
54	0x3faaf81dd65fb57c	0.052674229067501493
55	0xbf848269fc8cbb1f	-0.010014369983392833
56	0xbf9a8424d61cd5ca	-0.02589471394386126
57	0xbfac352af1d350e0	-0.05509313775988445
58	0xbf908fa10a92872c	-0.016172901411329807
59	0xbf8b94184586136a	-0.013466062184997536
60	0xbfb1b1fd250efe4b	-0.06912214426756084
61	0xbfbc48065df6f3e1	-0.11047401231822064
62	0xbfc43faece202597	-0.15819344582295677
63	0x3fbf3fa1f1975bc4	0.12206470630859118
64	0x3fa552a3bbafe8c1	0.041646114979771116
65	0x3f90c2c8013c35f9	0.01636803157366804
66	0xbfb27260d8cc0944	-0.0720577744760123
67	0xbfa798d2bbbcb714	-0.04608782331193431
68	0xbfa0344b0203a008	-0.031648963924283235
69	0x3fbd2782333854e2	0.1138841033028544
70	0x3fc061f7f7db890b	0.12798976519031444
71	0xbfc23fd3b1925c68	-0.1425728432702471
72	0x3fac9a3a90c4915b	0.05586417214570601
73	0xbfad6246e99873c5	-0.05739041902072687
74	0xbfc6c61836d1d017	-0.17792036701905609
75	0xbfb4e7e4c00852f9	-0.0816634148435006
76	0x3fb24fd80144383c	0.07153081923408505
77	0x3fb5422b6d8725c2	0.08304091857930643
78	0xbfc08c16ab46d25c	-0.1292751632987742
79	0xbfc0da00cf97b258	-0.13165292869907108
80	0x3fc1e50d2793c866	0.13980259354099472
81	0xbfb4d661f052cde1	-0.08139621846458268
82	0xbfc400147e361257	-0.15625244295746896
83	0x3fa6b7cbf10f8455	0.04437100713381229
84	0xbf9657a4e5b3854c	-0.021818710822917795
85	0x3fc264e247b0cd87	0.14370373249549237
86	0xbfc02f0554f82e5f	-0.12643496178530975
87	0x3fb22f9b8fd7f340	0.07103893529706529
88	0xbfc1d869b039fe17	-0.1394168959122772
89	0x3fac5b4c17b7b233	0.05538404263993293
90	0x3fa1251fe04702f7	0.033486362578974686
91	0xbfba8b7d78eb060e	-0.10369095041371443
92	0x3fc49ca334c38903	0.16103019787176018
93	0x3fb56b7c24355492	0.0836713398360465
94	0xbfc19c9799f01f56	-0.13759131447317924
95	0x3fb6d6d3a5fdfc99	0.08921549608747838
96	0x3fc42cf133a49a97	0.15762152692442008
97	0x3fc0e2c0b3efb7f1	0.13191994462925963
98	0xbf7e5c3b2ec923c8	-0.007412177260058557
99	0xbfaf97c3ba5b850c	-0.06170474672195256

layer3.weight f8 [100, 100]
0	0xbfab8540a2cbc060	-0.05375101077322664
1	0xbf75e4495677e108	-0.005344664073611456
2	0x3f972bf6a9addffe	0.022628645044704847
3	0x3fa8563cd99741c9	0.047532941399939306
4	0x3f9a3f6fb7c90d81	0.025632615654342942
5	0xbfb27188a9f1c11d	-0.07204488896400503
6	0x3fb76d09fae94dfd	0.09150755286946573
7	0x3fa8d69793b1b184	0.04851220777422596
8	0xbfa052e36f49ddb7	-0.03188238843443563
9	0x3fac3f7cfb704edf	0.05517187661476241
10	0xbf90fea14ba7aa0b	-0.01659633659611796
11	0x3fb621fceb492983	0.08645611519128775
12	0xbfbdee425835bdd2	-0.11691679624140441
13	0xbf8819b4bfcb33ee	-0.011767780402260865
14	0xbfa879cf120cb6d9	-0.04780432792027307
15	0x3fb846edd7057bd0	0.0948322915987625
16	0xbf750d509dc32b67	-0.005139651210081953
17	0xbfb158d427da14f8	-0.06776166890093183
18	0x3fc033cd1a3d9202	0.12658084660792218
19	0xbfbe1b830a6e4d13	-0.11760729794177775
20	0x3fad002f8836fd8a	0.05664204156664272
21	0x3fc3a8ce5c65054c	0.15358905326324146
22	0xbfae4876a1324a87	-0.05914660184602832
23	0xbf8c620e295bba4d	-0.013858900677829267
24	0xbfae12c5dfe7c8be	-0.05873697622509287
25	0xbf72bf507778ad0f	-0.00457698280619502
26	0xbf94412c909da3c5	-0.01977986939110445
27	0xbfa09ecd961fdde0	-0.03246157128881655
28	0x3fa13f4d1a2e1a38	0.03368607468205592
29	0x3f74f9cf7d0e0126	0.005121050359662404
30	0xbf933c5e659a79be	-0.01878497595918715
31	0x3fc0605209a1d229	0.12793946714704532
32	0x3fc1317ac1ba8e78	0.13432249507342298
33	0xbfc2427c28995fc4	-0.14265396101359162
34	0xbfb7220494480500	-0.09036282177114074
35	0x3f79984b774dc301	0.00624875525396429
36	0xbfc1d7cc8b33333d	-0.13939816281199482
37	0x3fa0ecd869ef7135	0.03305698674350525
38	0x3fa90d14396b967f	0.04892790985995265
39	0x3fb1e8cfdfba9709	0.06995867931490464
40	0x3f83b768f5ebaf8a	0.009627170567419591
41	0x3fa64a3b4d910cc0	0.04353509256227417
42	0xbfb2e09f69a6b5fd	-0.07373997048735954
43	0x3fb685f4845d641e	0.08798149329722135
44	0xbfab64bf7fde775a	-0.053503021582612845
45	0x3fa4b0fad7744dae	0.040412749100279796
46	0xbf9e5309f63375a6	-0.029613643314282755
47	0x3f7c8aa924211a89	0.006968174655475176
48	0xbf184e0178f3ce37	-9.271511065716489e-05
49	0x3f8093718294d7c6	0.008093725965050324
50	0xbf811c0a9b41c10b	-0.008354266036093813
51	0x3f8f36aca1b67632	0.015241001782494743
52	0x3fabe4a66a6052f0	0.05447883652246854
53	0x3fb76cbda9730252	0.09150300394959146
54	0xbfc4196f9b46e716	-0.1570262439907359
55	0xbf7ed4aa0d79e81a	-0.007527031200533352
56	0xbfb8ccebe8338e25	-0.09687685412387077
57	0x3fb9a3aa0996ce89	0.10015356763943307
58	0x3fa07c245fde4da8	0.03219712896602839
59	0x3fa07c270011ae3e	0.03219720722048834
60	0xbf9f77e374252cbb	-0.0307307757987416
61	0x3fa04f77ea5fba6d	0.03185629592905035
62	0xbfaf1f70de9949ee	-0.06078675000448529
63	0x3f8e12c009fb2e62	0.014684200577355703
64	0xbfc2ec54e025f8a3	-0.1478372663950199
65	0xbfbea5797b78a4c6	-0.11971244110522425
66	0x3f91fd531a769c09	0.01756791924495008
67	0x3f9389c8cb1dceda	0.019080293080562118
68	0xbfbd2bac4a85ccf0	-0.11394764727974738
69	0x3faf3d7080b7fb91	0.0610156209113405
70	0x3fc1ef55915850ca	0.14011640164301858
71	0x3fb6de2f8989ff88	0.08932778461348623
72	0x3fbde93b0806b923	0.1168400663943641
73	0xbfb7d6213f36aeb0	-0.09311111253071647
74	0xbfb2490a13b66132	-0.07142699223766583
75	0xbfc2a42149720bb3	-0.14563385091977707
76	0x3fa33e4cef4711a6	0.03758469029301929
77	0xbfbe47c3b6760007	-0.11828253941166632
78	0xbfb319fa185441b5	-0.07461512655232279
79	0xbf98833d8d8ba06f	-0.023938142551657323
80	0x3fbf7ea80c788f64	0.12302637390581378
81	0x3fb6234523703a9f	0.0864756785888212
82	0xbfb217f3e9fa3d39	-0.07067799055424907
83	0xbf734ad5b0c89076	-0.004710039833785476
84	0x3f9b517fb7d29b6f	0.026678081125875715
85	0x3fc29e5954bd480a	0.14545742643036902
86	0xbfbdccd84b12f5a9	-0.11640693505156342
87	0x3f84cfdb4d6a10f6	0.010162080097196196
88	0xbf798652112de4e3	-0.006231613707194247
89	0xbfb949a4dd765cad	-0.09877996832652754
90	0xbf73a7b082646ad9	-0.0047985930343894196
91	0xbfc30f97325264e3	-0.1489132877075355
92	0x3fc05bb464ac698f	0.1277986041612391
93	0x3fbb80331cc5e071	0.1074249215361094
94	0x3fa6808ae6d85dac	0.043949452094405345
95	0x3fbae3b65e9de376	0.1050371151922159
96	0xbf93fdae911c8169	-0.01952240715684309
97	0x3fbf27bb87d68ab3	0.12170002046927202
98	0xbfc174adc41b5c31	-0.13637325358897237
99	0xbfbd0e03ebd45d43	-0.1134951067691548
100	0xbf941705fb77e236	-0.019619077180296617
101	0x3fb8ef592f3dabce	0.09740216639845231
102	0xbfbedb679b4d3df1	-0.12053535024210028
103	0x3fc0baf186b1b34b	0.13070506169187932
104	0x3f6ce2608c622f31	0.0035259137831128652
105	0xbfa975906d5a8896	-0.049725068425020044
106	0x3fbac8c569d2f02d	0.1046260245665855
107	0xbfb0c679a08f5c4c	-0.06552848977968145
108	0xbfabc59ca83d2432	-0.05424203447052668
109	0xbfa8234bd51c4d6b	-0.047144288792106824
110	0x3fa14f82200182c9	0.03380972519585652
111	0x3fc380dd20e6fcdc	0.15237011057431615
112	0xbfb8fdf413b7e16b	-0.0976250217571583
113	0xbfbe76e703e83754	-0.11900180669200938
114	0x3f713684164ef843	0.004202381101036381
115	0x3fc0e6d82ead5c65	0.13204481391105385
116	0xbf99f0d0e700c883	-0.02533270273142608
117	0xbfc5cbd9d228ac34	-0.170283534638061
118	0x3fc33b21dea939a9	0.15024207470055487
119	0xbfb97c1075fdbf22	-0.09954932099003291
120	0x3fc5588e1d95f98c	0.1667649883710961
121	0x3fbebd69fdefb835	0.12007772874469043
122	0x3f9d1df255aebd82	0.02843454978909455
123	0xbfc472a31d3b31a4	-0.1597484486322972
124	0xbfaae945db8b6a6f	-0.05256098084438043
125	0x3fbdefff3ff2df83	0.11694331465957757
126	0x3f95ea597545c662	0.021401784689663812
127	0x3fbe89d68f374aaf	0.11929074284061401
128	0xbfbf9bfaccf2b1b8	-0.12347381118406175
129	0xbfabb14e40693b7b	-0.05408710991161222
130	0x3fa267e452d81cf7	0.035948882210556414
131	0xbf8b98ac275af385	-0.013474793387439519
132	0x3fb4985da0070274	0.08044991642874227
133	0xbfc1040b1784606b	-0.13293589256568636
134	0x3fc1f1a8444552e4	0.1401872952798363
135	0xbf978a0f2472c3cb	-0.02298759136164445
136	0xbfbd3dd0e8e382f3	-0.11422448812255563
137	0x3fb0d6aa038d575e	0.06577551447602789
138	0x3fc46ea80c77428f	0.15962696655926265
139	0xbf73844e52c1cf99	-0.0047648486616828295
140	0xbfb235961a8861a1	-0.07113016269466367
141	0xbfa360768f63d1ad	-0.037845330241825216
142	0x3f96054bddf8c824	0.021504578993877158
143	0x3f8542cbeb486872	0.010381310575258793
144	0xbf9bc11f455ee4ef	-0.027103890046167697
145	0x3f75b4983f06875d	0.005299181663220268
146	0x3fb2f0af9c569200	0.07398507658815134
147	0x3f8812e42fea513a	0.011754782402285547
148	0x3faf708a6be85000	0.06140549247007243
149	0x3fa9267405bd4a28	0.04912149972974006
150	0x3f8b64cd57131e8b	0.013375858516510483
151	0xbfb9f8289bdd9dd7	-0.10144285016359987
152	0xbf6327e217d8e8b1	-0.0023383537179855964
153	0x3fb048910e3c95ca	0.06360727880072328
154	0xbfab5d7b4ec9df23	-0.05344758354925563
155	0x3f92a953a1f4bcfb	0.018224055061350147
156	0xbfc35bb55d89c389	-0.15123622004787432
157	0xbf97653d0d8dc128	-0.022847131683591787
158	0x3f8fbb8110a21365	0.015494354553320109
159	0x3f895a28e8cd38ff	0.012378997425596781
160	0xbf93afb4fd6fe6fd	-0.019224956482481115
161	0x3f929c20411def87	0.018173698400900242
162	0xbfc56afc6a04c6da	-0.16732745339100213
163	0x3fc267469c1a6b2f	0.14377672788835968
164	0x3f9a40b30ed1ef79	0.025637433795494744
165	0xbfaef8e64c323ff2	-0.060492703248314586
166	0x3f843b9cafb9f285	0.009879325974219153
167	0xbfb24104f5e492c0	-0.07130461695903545
168	0x3fa63d485afeee53	0.043436299426926304
169	0x3fc288c9cfd4c80e	0.1447994484711334
170	0x3fc21c6d4790fdd6	0.14149251932575052
171	0xbfbaa4abc66ef511	-0.1040751800018891
172	0xbfb4844f2f7a1871	-0.0801438799772727
173	0xbfbfecf2a5144bf7	-0.12470928697830162
174	0xbfb007e22a0ca83b	-0.06262029196355538
175	0xbfae76b57ae43399	-0.05949942708148299
176	0x3fc16348924c9a99	0.13584239142911228
177	0x3faf0bf421a15e3f	0.060638074021593706
178	0xbfc546c228e2804f	-0.16622187610937764
179	0xbf8799454c1eeeb0	-0.011522809396289219
180	0x3fc442e959ecd09f	0.15829197779533374
181	0xbfae748f386c7b80	-0.05948302806631656
182	0xbfc2ab8857a8b352	-0.14585975914215027
183	0xbfa72ab0556186f3	-0.0452475647187053
184	0x3fbf3d1a92b49428	0.12202612001108604
185	0x3fb00959dfe653e3	0.06264268604566285
186	0xbfacbb5bacfca710	-0.05611692892700948
187	0x3fc540386bb1456c	0.16602235086842698
188	0xbfbdbecb40a30965	-0.11619253471420661
189	0xbf8503c3f5a8215d	-0.010261088308667505
190	0x3fb2478428d537ea	0.07140375134369462
191	0xbf9e04d03232a333	-0.0293152361524875
192	0x3f9c7ec2f927ddae	0.02782730718351239
193	0x3f79632a30f92a1d	0.0061980865571720474
194	0xbfb49514e349cef8	-0.08039980458289253
195	0xbf9d512cb178d7af	-0.028629968959840543
196	0x3fbb22db29c02149	0.10600061196612844
197	0x3fb51136b722d6fb	0.08229391070457474
198	0xbfad8f62a9e8fb83	-0.05773456882570029
199	0xbfc58264ad2ce523	-0.16804178672627143
200	0x3fc02aecb7ffd0c4	0.12630995735492523
201	0xbfc3ba0755df4265	-0.15411464398359268
202	0x3fb0c012f6c36b11	0.06543081783767614
203	0xbfa89d40eafb4099	-0.048074749645480704
204	0x3fb6f49b44c50e25	0.08966989926289466
205	0xbfb8fa6db0484a0f	-0.09757123521584553
206	0xbfc001d689e50321	-0.12505609257825603
207	0xbfc00805aab697e9	-0.12524481616600205
208	0xbfa8ce807b193917	-0.048450484301257805
209	0xbf882ec71ae3755e	-0.011807971485206788
210	0xbfbda86d71b7cda7	-0.1158512499458114
211	0xbfc23070470f5612	-0.1421032282802775
212	0x3fb2eeb0e452c56f	0.07395463537502221
213	0x3fc1ae13367e3b37	0.1381248489455744
214	0x3f994f5dc8d52ee9	0.024716821081979843
215	0xbf971289347d8356	-0.022531646565201534
216	0xbfb991a5d45aaade	-0.09987865862300846
217	0x3f946056212b9780	0.019898744368127108
218	0x3faccbe2349bcbed	0.05624300853914819
219	0x3fb97cdb82a5e5d1	0.09956142367982258
220	0xbfc1d16eb8227fb1	-0.1392038725944054
221	0x3fb52eb68c810b34	0.08274403505587885
222	0xbfb0dc06a05bd905	-0.06585732855805666
223	0xbfb2ce9da202798e	-0.07346520619691985
224	0x3fab55577054eaa0	0.05338547941433558
225	0x3faab50d933a842d	0.052162574980009736
226	0x3f93c809295428be	0.019317763469225417
227	0xbf9af54e2856bc35	-0.02632639046867898
228	0xbfb9f4b59a1a52fe	-0.10139021885181518
229	0x3fb14115eb633a4d	0.06739937779205114
230	0xbfb268ceadfb1449	-0.07191173312738032
231	0xbfc2b777432186f2	-0.1462239339626233
232	0xbfb5ccb3606a681a	-0.08515473464868287
233	0x3fb0afe44dc7d035	0.065183896054635
234	0xbfa5f2726585501d	-0.04286534775988591
235	0xbfb859f35bc432f8	-0.09512253752127353
236	0x3f9ee2ca8d0ebcfa	0.030162014827223672
237	0x3fb8e7b7296a246e	0.09728569756602365
238	0xbfb16ccab99d3359	-0.0680662825736368
239	0x3fa3b86a861f6be8	0.03851635825386507
240	0x3fa209871b56ca68	0.035228941046985096
241	0xbfbcd7581ea8ce5b	-0.11266089199562528
242	0x3fb1fe01e9c86299	0.07028209645830898
243	0xbf4dd4354fe69384	-0.0009103069603964985
244	0xbfb301224a019027	-0.07423605257787412
245	0x3fbfa42be16254e0	0.12359880688230218
246	0xbfa5deda352241d9	-0.04271585367780845
247	0x3fa2401b3cb6575b	0.03564534298054297
248	0xbfb12416a18b0707	-0.06695691532061342
249	0xbf7753e67db55c2a	-0.005695247989328892
250	0xbfa09d9688ba10b5	-0.03245230120686086
251	0xbfad2680706dfb39	-0.05693436977798289
252	0x3fb041002c2bc339	0.06349183157341266
253	0xbfc0021822411dc9	-0.12506391213012893
254	0x3fb222648f1b0f7a	0.07083729261199592
255	0xbfa1e656e075921e	-0.03496047487240993

layer3.bias f8 [100]
0	0x3fbe24f6b2bd3bf1	0.11775152076482677
1	0x3fbd9c1c8bc5db50	0.11566332256721279
2	0xbf97db2dc32af3ba	-0.023297038113685643
3	0xbfbd2f99cd83dea3	-0.11400758044680485
4	0xbfba095fe62c0d1a	-0.10170554513392852
5	0x3fc5137193cb1843	0.1646558734557307
6	0x3fbdab9fb785d624	0.11590002279793815
7	0xbfc2ede22b0bcecb	-0.14788462735997707
8	0x3fb277892ebeefd1	0.07213647261863733
9	0xbf9243486fe205dd	-0.01783478911284485
10	0x3fb8da1304cb8040	0.09707754962028137
11	0xbf924dd7d2956423	-0.01787507269668621
12	0xbfb0e6664e04b77d	-0.06601561932322215
13	0xbfc6db57023a79ef	-0.17856872185525627
14	0x3fc580c2248ad168	0.16799189361848765
15	0xbfaf406922ff60b5	-0.06103828956810401
16	0x3fa009a4efb43d3f	0.03132358003687807
17	0xbfb81b402b4406a2	-0.09416581207554
18	0xbfaa8c0899158882	-0.05184962147429052
19	0xbfa95b1bd47ef4f1	-0.049523229302829715
20	0x3fc248f2645d179f	0.14285116100853387
21	0x3fb958a421e9ba89	0.09900880649522938
22	0x3fbb545c89c138db	0.10675600398210199
23	0xbfbcc23ee330c270	-0.11233895346300371
24	0xbfa16c92602e25f5	-0.0340314619453003
25	0x3fa152feb1b9744a	0.03383632583129577
26	0x3fc2f2c13f1e5b8d	0.1480332906910146
27	0xbfc29b92d9a02af3	-0.14537273050549224
28	0xbfb5b4ec2cadc540	-0.08479190913000867
29	0xbfc36154e1aa604e	-0.1514078237421494
30	0x3fb1c86c4daf8de1	0.06946446320176093
31	0xbf58f31c6a040da3	-0.0015228059274371229
32	0x3f957067f67ccef4	0.020936607760815698
33	0xbfb40ff4d11158ae	-0.07836847404664368
34	0x3fc1f2c46fd8b84d	0.1402211710096161
35	0xbf9b3f7e7e76abbe	-0.026609398335192706
36	0xbfb69ec5d41feef2	-0.08836018017603545
37	0x3f55e668705c49f1	0.001336671820756249
38	0xbf9918017b180e15	-0.024505637300547962
39	0xbf96f8fa7f64e6eb	-0.022434152627488862
40	0x3f89c63216bc8f16	0.01258505947004766
41	0xbfbb9d164bf32ac4	-0.10786570886845498
42	0xbfc3a8d57e31d267	-0.153589903467622
43	0xbfb916f970517ac8	-0.09800681106706144
44	0x3fbc0a16919c8f6d	0.10952893309564411
45	0x3f8f30e3643bcae8	0.01522996568335118
46	0xbfaec6e3f7acb527	-0.060111164077492334
47	0xbfc0d10d7d7caf7a	-0.1313797819833516
48	0x3fb52c0255b4a2cd	0.08270277588293169
49	0x3fbf58cfa4241bf1	0.12244889981603514
50	0x3fc012d163985d70	0.12557427752538386
51	0xbfb1788f00000000	-0.06824582815170288
52	0x3fbd18ac18f80c8f	0.11365771874993612
53	0xbfc391e8b7b6dbdf	-0.1528902909319347
54	0xbf9ef1c98b5a2695	-0.030219220285778354
55	0x3fc0d4034f02a501	0.13147012098242075
56	0xbfc12a9fded91573	-0.13411329632996746
57	0xbfc3a4c339dd6dc5	-0.1534656555694324
58	0xbfb3f05e2da64e23	-0.07788647284024157
59	0xbfbe6a8ac2a9c8de	-0.1188132024051671
60	0xbf9f46f149835df0	-0.0305440617674701
61	0xbf74a0ad2295998b	-0.0050360453691155145
62	0x3fc174e43a04a42a	0.13637974579731466
63	0x3f6e9f4b2c0246f2	0.003738066501747344
64	0xbfc0f37ce016b87d	-0.1324306577857363
65	0xbfa39a75d78e0b10	-0.03828781372341983
66	0xbfbe5da54857fcea	-0.11861641899303135
67	0xbfb829549c93e461	-0.09438065359781113
68	0x3f8501e55c1014fa	0.010257522460970215
69	0x3fb161900524ed94	0.06789493680564923
70	0x3f9648660db2ec53	0.021760553918948777
71	0xbfc35dfbdfd2fdd9	-0.1513056605235608
72	0xbfc216eb5a2bf16d	-0.14132444289124227
73	0xbfbf507a2b5c9a49	-0.12232173498760192
74	0xbfbc4e2fabee7507	-0.11056802699609501
75	0xbf8f2d5e1f063fd5	-0.015223250695981886
76	0x3fbb579f9e2fa6a1	0.10680577861753672
77	0x3fb07ae918898bdb	0.06437546586089075
78	0xbfb4022abfbe7cb2	-0.0781580656171055
79	0xbfaae70b46011344	-0.05254397611182651
80	0xbf7441ceeb633267	-0.004945572165706658
81	0x3fc1464b17701179	0.13495768207952688
82	0xbfc44c24b9bdbfa9	-0.1585737139644128
83	0xbf9f0fc54e58a63e	-0.03033359804809365
84	0xbf99588aa011985e	-0.02475182153684618
85	0xbf9f731825fb7327	-0.03071248752427205
86	0xbfc865b10fbd6006	-0.19060338276426608
87	0xbfacf7808a641003	-0.056575791257301965
88	0xbfbac00cb2de714c	-0.10449294440190221
89	0x3fb8cad985b4b3a2	0.0968452407293641
90	0xbfc523fed4c40c9a	-0.16516099347072527
91	0x3f83fe1bb231c4a7	0.0097620166545503
92	0xbf9b8d658e632ed4	-0.02690657311977314
93	0x3fba42d23f57dd88	0.10258211180177146
94	0x3f86f069927509de	0.011200737745302666
95	0x3fb4424b74ef6f77	0.07913657765260305
96	0x3fb923bf801bf7f1	0.09820172193209921
97	0xbfa4dfa4eae1b289	-0.040768769905160936
98	0xbfbcf00ce4931dba	-0.11303787784992539
99	0x3fc0b425538053e5	0.13049761368952698
