model2_DGM_state_dict_1000_40.pt (torch, 168968 bytes, 8 tensors)

layer1.weight f8 [100, 3]
000000 21 a2 1f e9 3a 09 ca 3f 36 fe 44 62 01 9d b8 3f
       0.20340668089853955 0.09614571236760913
000010 f3 46 3c 83 c7 8f de 3f d8 4a 50 a5 5f e9 57 3f
       0.47752559486353546 0.0014594491997327787
000020 7f d9 95 a1 d0 eb d0 bf ee 9c e4 2f 6c e8 cf 3f
       -0.2643930032712873 0.24928047503019662
000030 c2 83 9a 11 b2 33 a8 bf d5 9d 7b 67 34 d7 dc 3f
       -0.04726940598380437 0.4506350527358028
000040 08 5f 9e e1 39 f6 db bf d0 f6 76 60 77 6a e0 3f
       -0.4369034484202392 0.5129963764263383
000050 83 15 19 43 2c e0 7e 3f 88 27 03 25 61 3e d1 3f
       0.007538006686052315 0.2694323407600838
000060 f5 8d de 94 02 3b e0 3f 2c 7b ff 04 9a 1e 9d bf
       0.5072033794025957 -0.028437048487712932
000070 ef 3d 27 03 56 d5 d3 bf 0a 2b b3 18 19 f1 c3 bf
       -0.30989599521578176 -0.15579522806213958
000080 ef 84 af d7 86 df cf 3f 0a 46 94 7d 9d c4 8b bf
       0.24900899440311927 -0.01355860747802053
000090 66 90 2e b4 78 3a d8 bf 4f 47 81 fe 77 d0 d9 3f
       -0.37856881709945467 0.40334892133715966
0000a0 28 f3 fb cd ae f7 84 3f 47 e3 a3 43 e2 10 dc 3f
       0.010238042508257175 0.4385305080937098
0000b0 64 ea fc e8 b8 86 d8 3f 42 21 35 1f 0f dc d8 3f
       0.38322279694299355 0.38843133971797184
0000c0 02 8e 37 e3 42 c5 c5 bf 4c ff 29 67 76 7e dc bf
       -0.170082436509901 -0.4452186591588443
0000d0 0c 1c 92 9f b7 38 c1 bf 26 42 97 46 b1 96 dd 3f
       -0.1345433739809042 0.462322539268856
0000e0 2f da 9c 67 77 63 c5 3f b1 ad d7 bd 5a d0 c1 bf
       0.16709797438825677 -0.13917097348835974
0000f0 fb d9 07 cf 29 05 c8 3f b6 ed ea 55 bd f2 c7 bf
       0.18765757187766482 -0.18709532447051708
000100 29 a2 07 f6 5f b8 b7 bf f3 e7 85 3c 5e 07 c5 3f
       -0.09265708691203457 0.1642873569033437
000110 2c 84 32 c3 91 5b d7 3f 3d e5 15 6a b9 58 b8 bf
       0.364963951704399 -0.09510382499674548
000120 ef 80 4a 0a ad 3d ca 3f c7 4a ed aa 5e 6f b9 bf
       0.2050072002648515 -0.09935561821957171
000130 9b 4c c9 df eb fb c6 3f 74 20 13 ed b7 51 e4 bf
       0.1795630305010477 -0.6349753980985171
000140 a4 ab f7 94 50 2f cf bf 7d 45 c5 dc ed f6 d3 bf
       -0.24363143228341955 -0.3119463592493828
000150 a8 53 f5 b8 40 0b d5 bf 61 c0 fd a0 bd 0b cd bf
       -0.32881181776365986 -0.22692079888247732
000160 39 86 ea 8b 92 df 90 3f 93 f7 ce 54 90 e0 e3 bf
       0.016477861203958197 -0.6211625725188575
000170 8e 06 e3 a3 04 5f d3 3f 15 7f 88 75 58 07 cb 3f
       0.3026744461495604 0.21116166819501161
000180 7f 5e c6 01 05 02 e4 bf d8 fa 8a a4 46 5c da 3f
       -0.6252465281167615 0.4118820769180451
000190 ee a3 6a b0 f2 40 dd bf 25 6b 5c c5 5e 81 c3 bf
       -0.45708911159687104 -0.1523855651547247
0001a0 2d 98 50 ae 37 d8 d9 3f ed 40 72 43 af 8f cd 3f
       0.4038218691151794 0.23094740670467875
0001b0 a4 de db b9 ff 2f d2 bf 44 00 cb 32 03 0b c6 3f
       -0.2841796221759785 0.17221107463956475
0001c0 f2 da 35 35 da 66 dd 3f e0 23 c0 03 b9 9a c2 bf
       0.45940261074376487 -0.14534676249630163
0001d0 08 f8 bb ed 70 b8 a6 bf 2a a9 4d d0 28 98 d9 bf
       -0.04437592412976704 -0.3999120744907879
0001e0 47 f4 51 cb 03 6d d3 bf 38 74 bf d3 5f 62 e0 3f
       -0.3035287366436176 0.5120085845661668
0001f0 04 de 50 7a f1 f6 d0 3f 1d 5a d6 f0 06 7d ca 3f
       0.2650722212306109 0.20694052466997528
000200 5b 30 77 e2 e5 ed ca bf a1 1b bf a0 5b de aa 3f
       -0.21038507039918639 0.052477706310632095
000210 bd 9a 09 db 91 19 71 bf e0 21 96 42 1b ba d6 bf
       -0.004174775837418818 -0.3551090383776039
000220 9d b9 6a 78 f2 83 d8 3f c2 b5 46 e0 31 4d df 3f
       0.383053414911865 0.48908659841512414
000230 c7 e7 63 ff 58 1d cb bf 16 9f a8 6a 81 76 ac 3f
       -0.21183311910846056 0.055591625470979775
000240 8c 72 25 2b f8 4c d1 bf d9 5d 1f ee f0 05 e1 bf
       -0.2703228398657209 -0.5319752360182363
000250 c9 f3 75 5d e2 2e d1 3f c4 35 76 ca 92 eb cc 3f
       0.2684865868284843 0.22593912969425223
000260 df 52 d0 41 f8 08 e4 bf 46 9d fa fc b2 dd b3 bf
       -0.6260949407029236 -0.07760161091083714
000270 21 72 7a 8c 33 30 d9 bf d7 3b 71 8f 31 36 b7 3f
       -0.3935669776781499 0.09067067863473653
000280 e6 d2 6c 77 5d 30 e1 bf 1d b1 81 6f d5 49 b6 3f
       -0.5371539433022832 0.08706411335305515
000290 3b 7c 27 71 0f b5 df 3f 71 36 02 25 cb 72 a8 3f
       0.49542604494303405 0.04775080515638031
0002a0 17 25 79 13 b3 d0 dd 3f 89 89 29 32 fe cb cc bf
       0.4658630075615106 -0.22497537087754108
0002b0 07 bb 31 e7 08 24 c9 bf d7 2a ed 3a 0e 34 c9 bf
       -0.19641219414503316 -0.19690111043231326
0002c0 ce 5d eb 87 94 52 cb bf 28 c7 22 5b 50 f4 cc bf
       -0.21345764767350633 -0.22620586824410194
0002d0 25 b7 ea 5d 5f 71 cc bf da 0a e5 d7 70 80 da bf
       -0.22220985494407688 -0.4140894039484643
0002e0 6d c1 ba 5c 03 e2 bd bf ca 9f e4 bd d5 2e d2 bf
       -0.11672993673233174 -0.28410857719654514
0002f0 9d b7 3d 50 c9 b9 d9 3f 4d 34 b6 ef b7 1a d8 3f
       0.4019645007709814 0.3766307679114263
000300 6d 79 97 5d cf 2a c3 bf e0 77 45 ec 70 a5 a9 3f
       -0.1497439581862169 0.05009034046337013
000310 df 82 28 a9 03 25 88 bf e1 be 6c 92 e8 d6 82 bf
       -0.011789349174308792 -0.009198967903642554
000320 30 f6 57 1b 2a a2 da 3f 58 77 54 8e b5 f7 b6 bf
       0.41614773435853447 -0.0897172424779148
000330 b8 b0 37 50 da da b4 bf 7f 40 ea a5 fc 52 b0 3f
       -0.08146442850528757 0.0637662797037155
000340 70 c9 d4 89 1b cc c7 3f 5e 32 03 50 10 12 c9 3f
       0.18591636877097129 0.19586376101360065
000350 ec c2 ab 5e 8e 03 d4 bf 9b 9d a8 a4 5e e7 dd 3f
       -0.3127170490761688 0.46724668579050793
000360 5a 04 8b bb 86 a2 e0 bf d7 5b 59 bb 37 4a cf bf
       -0.5198396361303239 -0.24445244453337864
000370 4b ed 19 fc 1f b7 e2 3f 00 00 00 80 05 fc da bf
       0.5848541187146251 -0.42163217067718506
000380 00 00 00 00 ae 9a a4 bf 00 00 00 00 4a a4 ad bf
       -0.04024261236190796 -0.05789405107498169
000390 f2 3e a6 ce d0 02 b4 3f 2e 26 98 c3 dc 5c d4 bf
       0.07816796345855062 -0.31816786862381974
0003a0 fa 64 f6 e4 11 bf d5 3f 97 bb 90 58 01 ef bd bf
       0.3397869811975195 -0.11692818081131261
0003b0 45 d8 25 c3 66 76 e2 bf 89 97 39 0a ff 67 dd 3f
       -0.576953297756298 0.4594724273541649
0003c0 be 08 68 7a 2a 51 a4 bf c9 df f0 c6 26 94 d5 bf
       -0.03968174690455005 -0.3371674483091707
0003d0 95 39 20 1e ef b4 d6 bf 0f bf 14 19 c7 2b d2 3f
       -0.3547933382223161 0.28392198037453026
0003e0 3d 58 08 d9 5b cc d8 bf 8b c7 fc f3 a9 b1 c5 3f
       -0.3874730700930547 0.16948437131355507
0003f0 09 07 bf 98 5a 73 ba 3f f8 77 4e 94 2b af b9 3f
       0.1033226607242136 0.1003291356159649
000400 0e ba e1 2e 27 f7 d7 bf 0f 2c 21 df 23 03 dd 3f
       -0.3744600255803626 0.4533166579246321
000410 49 bb cf d3 0b b0 cd bf 1a c4 58 11 ba b3 b3 bf
       -0.23193500368457823 -0.07696116374496889
000420 aa b3 b5 1d 04 d9 d0 3f 63 e6 2b cd 1c 0b 8d 3f
       0.2632456102499484 0.014181351672493741
000430 e6 b6 84 7a 9c 37 d0 3f 82 ee 55 ed 12 9c 9d bf
       0.2533942409962563 -0.028915687309093226
000440 ea c6 a5 01 02 17 d7 3f 2b 3c 11 86 9a 42 b7 3f
       0.360779286965324 0.09086004040840183
000450 7e 00 0e ce 6a c5 d0 bf dd a8 97 12 75 8d d4 3f
       -0.26204939005402383 0.3211338693205457
000460 10 ca bd ed 51 29 bb bf 24 19 fa 45 35 4a d1 bf
       -0.10609924368126422 -0.270154302918302
000470 5a 54 19 d1 0b bb a2 bf 69 24 b2 f5 06 c7 dd bf
       -0.0365832989452108 -0.46527265542733304
000480 6b cf 9a ba 24 b7 e0 bf 4c a9 3f a9 bb 88 c6 3f
       -0.5223563809035857 0.1760477615747028
000490 2c fc 44 76 89 b0 c1 3f 41 36 78 35 95 53 b7 3f
       0.13819998049618343 0.09111912303361526
0004a0 ad 90 67 ac 5b 0b bc bf f5 96 81 7f 67 74 d7 bf
       -0.10954831084342471 -0.36647975398805893
0004b0 6c b8 b5 c5 a5 92 e0 3f 73 72 08 f1 0e 40 c9 bf
       0.5179013120193878 -0.19726740616978908
0004c0 95 66 87 43 d5 f5 b6 3f ca be 5e 19 eb 30 d8 3f
       0.08968861483244901 0.3779857394938345
0004d0 ee 87 6c 5c e1 65 93 bf d5 63 98 a4 65 a7 c9 3f
       -0.01894333006487863 0.20042105233076649
0004e0 5f bc 19 28 bb a4 de 3f 71 0e a0 28 9f 79 ad 3f
       0.47880438724582136 0.057568525036938996
0004f0 3a 4c ce 0a b7 5d dd 3f 65 72 ac ee ad dc c3 bf
       0.4588449101949582 -0.15517210153565766
000500 86 83 76 26 cf 1d da bf e9 d8 7f 10 fe 6e e0 3f
       -0.4080694079985324 0.5135488817457176
000510 30 32 30 dc 73 29 cb bf bd 05 ce 1e b9 4b cf 3f
       -0.21220253230457464 0.2444983864225331
000520 4f 67 0b 42 f5 6d c9 3f b8 9f 9c f0 1c a4 a5 bf
       0.19866815304595284 -0.0422677081790534
000530 13 be 56 45 1c 6a d0 3f 13 f7 be 07 c1 8c 8d bf
       0.2564764668595398 -0.014428623246085992
000540 f1 d3 cc d1 3c 25 ca 3f a9 4b 3a a9 47 93 b9 bf
       0.20426140064378687 -0.09990356332336482
000550 e4 f1 3b 5f 65 9c c6 3f 00 4c ab 32 3b ff cc 3f
       0.17664782667260603 0.22653903936461006
000560 36 e9 65 5f b0 42 a6 3f 24 c1 50 2c 23 be bb bf
       0.043477546353602056 -0.10837001640243621
000570 e3 c4 3c b1 9e 20 dc bf 35 fb 34 f3 d9 9c af 3f
       -0.4394909602006704 0.06174355596384943
000580 22 2c df 98 7d 79 be bf 91 5f 4a d8 d9 91 e4 3f
       -0.11904129965039137 0.6428040718483193
000590 5a 53 44 2d d2 24 e1 bf 6d f5 ca bf c8 bd df 3f
       -0.5357447513693885 0.4959585068680415
0005a0 1c e0 e2 73 95 ef cf bf 9c 49 86 db e5 4f d3 bf
       -0.2494990173197501 -0.3017515796465433
0005b0 03 47 6a 6f 5f 30 dd 3f f2 5c 07 d6 64 5f c1 3f
       0.4560774410284553 0.1357236905157389
0005c0 98 12 70 69 b8 f3 d5 3f 07 81 35 cb 63 ed 90 bf
       0.3430005101838929 -0.016530570295231885
0005d0 42 00 c8 c9 92 75 d5 bf 00 55 62 cc 9e af ba 3f
       -0.33530111031723575 0.10424225320669578
0005e0 49 36 6f e1 c6 d8 ba bf 72 f4 b3 7d cf 0e c1 3f
       -0.10487025264520712 0.13326448095168392
0005f0 81 c3 92 be 40 92 d9 bf 6c fe c9 72 1c c6 d1 3f
       -0.39955156908677486 0.27771674356333764
000600 b3 fc fa f0 f9 f8 dd 3f 6a 56 7d 37 35 fe d6 bf
       0.46832130940669997 -0.35926561755090936
000610 8b 19 08 27 d7 da d7 bf 5d d7 6e ed c1 c2 c1 bf
       -0.37273196040805406 -0.13875602811247748
000620 19 2d 59 d7 d9 f1 db 3f a0 2c dc 9d 9d 71 ba 3f
       0.43663641004668957 0.10329613784795066
000630 32 73 b2 e6 75 21 d5 bf 5f d9 df b0 63 5b d0 3f
       -0.3301672699833943 0.2555779673852125
000640 de e1 b0 47 d6 0b cb bf 16 31 9b 70 fd ec d6 3f
       -0.21129873753103728 0.3582147216482253
000650 d3 44 d7 6f 95 c3 d4 3f 8e 3a 7a 38 6f 79 a3 3f
       0.3244374839969854 0.0380358463709075
000660 65 3c ff 51 4c c8 e2 bf c8 82 8e e2 7c 43 c1 3f
       -0.5869504548553662 0.13487206518495598
000670 ff fe 6d 27 00 ff c0 bf e8 86 bb 1d 9b 21 c6 bf
       -0.1327820007827469 -0.1729005713632923
000680 1f 5f 3c 2a 29 a7 c6 bf bd d8 05 d2 8b eb bc bf
       -0.1769763427953359 -0.11296914937506393
000690 85 33 79 44 95 44 c6 bf ef 93 19 2a c1 c5 d6 3f
       -0.1739679893820744 0.35581997977561647
0006a0 ed 8e 69 0f c1 4c c5 bf 62 6d 41 51 5f ad e0 3f
       -0.16640485050731205 0.5211636149428325
0006b0 d6 d1 99 c1 3e e8 d0 3f 7b 40 f6 51 73 6e c7 3f
       0.2641751185067539 0.18305818082854217
0006c0 50 63 93 bb 15 89 e4 3f e7 5a 50 cb 2a 17 e3 bf
       0.6417339957798536 -0.59657802304977
0006d0 78 ab 11 7a 4b 09 d2 3f 7a 89 54 ff e5 bb df 3f
       0.2818173114853191 0.49584340986816466
0006e0 ff 06 c5 29 d4 91 d0 bf 6e 67 04 1e 4f 23 c2 3f
       -0.25890068129602634 0.141702546746099
0006f0 42 4b 10 0f fe 2b e3 3f f3 aa c3 a7 47 99 a4 bf
       0.5991201681339151 -0.04023193285850892
000700 0c d8 08 ff 7f a6 dc bf 7a 40 5a d5 f8 d9 c5 bf
       -0.44766235261647647 -0.17071447770695497
000710 5b 5a b9 aa 76 f2 b1 3f 1b 3f 65 b1 3d 8d c8 bf
       0.07010595005099544 -0.19181033288850177
000720 d4 d1 b4 40 be 78 e0 bf 12 cd 56 dd 3a e9 c5 3f
       -0.5147391570849842 0.17118011291095364
000730 23 92 1d 3a 36 e0 cd 3f 0f 67 e9 c8 de 2e e3 bf
       0.23340490186377946 -0.5994714664513782
000740 42 b3 b9 77 f5 89 dd 3f 82 33 87 03 2d 1c db 3f
       0.46154534046108975 0.4235947164968864
000750 99 60 6b f7 b9 be d6 bf f0 50 e4 01 2f 39 c5 bf
       -0.3553910175519462 -0.16580760567069985
000760 9e 4f 5f 3b da 97 e0 3f 84 94 33 d2 48 44 cf bf
       0.5185366782775309 -0.24427137626404172
000770 e3 5c 33 39 2f 14 e0 bf 12 5c a3 1d 0f 3e dd 3f
       -0.5024639241409229 0.45691278356884013
000780 94 5e 01 11 7a ba de bf c7 48 01 03 73 9a d9 3f
       -0.4801316419666162 0.4000518349977366
000790 a5 d5 6c 22 fd 09 bb bf 87 67 49 19 97 dc d2 bf
       -0.105621167091917 -0.29471375913055237
0007a0 64 a6 d7 fa 25 c8 d5 3f 10 07 34 3c 26 be c2 3f
       0.3403410863526004 0.1464278978310678
0007b0 62 ff 5a 37 7b 6b dc bf 20 11 3f 45 b1 11 8c bf
       -0.4440601387577684 -0.013705620694857645
0007c0 bd 88 b5 83 03 38 c4 3f a3 31 40 c7 db dd d8 3f
       0.15795940333470596 0.3885411687668016
0007d0 50 9c 98 fb e6 93 cd 3f df 71 f7 45 58 13 d4 3f
       0.23107611927955185 0.31368071396516756
0007e0 c8 b4 0b 3b 5d bf b1 bf 1f 90 84 7b 65 7f b4 bf
       -0.06932623569055629 -0.0800689150387943
0007f0 71 69 0e 98 b2 15 d8 bf 51 a0 4a d4 34 d3 bc 3f
       -0.37632431840179154 0.11259775336168444

layer1.bias f8 [100]
000000 f1 08 4f 2e 25 da 90 bf 6f c4 55 bc 3c 8c cd 3f
       -0.016457158042393286 0.2308422011952049
000010 4e d7 fb ca 50 8c d2 bf e5 0a ef 24 f8 a1 d4 bf
       -0.28981418440468054 -0.32238582236111163
000020 f7 74 b9 70 31 ad e3 3f 9f 9a 80 00 d6 45 c9 3f
       0.6148917390488852 0.19744372391251816
000030 62 47 b4 7c fd c1 df bf 5c 0b 8d de 58 a0 e1 3f
       -0.49621522119661254 0.5508236262033779
000040 61 43 3b 0a 8b 88 cc bf 58 0a cd d3 b5 20 b5 bf
       -0.22291696548065956 -0.08253036900445332
000050 ea ea 4d 5e d3 7d c8 3f 5a d9 35 a4 e8 24 e4 bf
       0.19133989433961257 -0.6295054633363109
000060 f5 af 22 17 ed d1 db 3f 21 bf 09 bd 86 92 df 3f
       0.43468787440610807 0.4933182569575241
000070 6b 5b f3 74 b2 8e e7 3f bf ce 83 25 5b 65 d9 bf
       0.7361690792266534 -0.39681128181039677
000080 91 1d 7d 44 7b 38 c4 bf 96 84 7c e4 8f 85 cf 3f
       -0.15797367901016604 0.24626349121630103
000090 8e a2 2b a9 36 44 96 bf 08 c3 e3 91 bc 9d e7 bf
       -0.021744588923783108 -0.7380049561889743
0000a0 d6 dd 71 03 58 79 d7 3f 55 0e ad 7c 06 b6 c7 bf
       0.36678123794942274 -0.18524247253127393
0000b0 71 5d 6c 35 89 29 d3 3f c7 bb d9 7f 17 9f ac 3f
       0.29941015450591296 0.055901274067643274
0000c0 05 b6 4e 8b c0 62 ae bf e8 cb 25 09 47 16 b7 3f
       -0.059347168927484296 0.09018367741900557
0000d0 10 53 a0 a0 fb bc e1 3f b0 19 84 2e 89 f0 d8 3f
       0.5543192040664469 0.3896811441667536
0000e0 53 9e e0 ab 93 5a cd 3f d3 9c 38 a5 3f 86 a4 bf
       0.22932668583347268 -0.040086735647770454
0000f0 d8 1b 94 32 52 9e c6 bf dc 4c 41 b2 e4 2d e2 bf
       -0.1767065760579658 -0.5681022149605286
000100 8f 06 9b 5b e8 16 dc 3f dc c0 e8 46 96 17 d3 3f
       0.43889817186218577 0.29831463741994724
000110 d8 a4 d1 fe 54 aa d7 bf 32 a8 ef 01 35 f6 c9 bf
       -0.3697712410417586 -0.20282614321269105
000120 99 a4 63 70 5b 4a d3 bf 00 00 00 c0 95 bc d9 bf
       -0.3014134023238256 -0.40213531255722046
000130 70 56 12 fb b6 59 e1 3f 21 eb 1f 17 f1 cb e2 3f
       0.5422015098326494 0.5873952342657028
000140 33 35 bd 17 c0 46 d4 bf f4 42 af b0 04 e4 e4 bf
       -0.3168182594134407 -0.6528342676993746
000150 99 0a 23 3e cd 1d e5 bf 2a 7a c9 2c f7 9a b6 3f
       -0.6598879064188906 0.08830208629067529
000160 28 3f df ad ce d1 e1 3f 9a c5 fb f3 f4 89 d5 3f
       0.5568612476290342 0.3365452177668772
000170 0a 87 ed e1 ce cb c2 3f d8 b0 6c 23 56 4d db bf
       0.1468447306788721 -0.42659524402075766
000180 25 73 81 8a cf 35 c2 3f 48 ff f4 32 16 2b db 3f
       0.14226717246028744 0.42450480438491356
000190 db 6a 3f c2 ff c7 99 bf 65 01 9c db 04 e5 d1 bf
       -0.02517699835866947 -0.27960320898275476
0001a0 c7 82 3d 0b b7 64 e1 bf 74 dd fa e9 30 86 e4 bf
       -0.5435443133865981 -0.641380745880197
0001b0 50 30 3a d9 e6 66 e4 bf 61 41 4f 2f dd a9 e2 3f
       -0.6375612490387628 0.5832353519454437
0001c0 b2 60 69 13 aa dd b9 bf a6 99 61 68 80 87 d1 3f
       -0.10103857969204702 0.2738953608844902
0001d0 57 25 46 d5 7e 5a b5 bf c2 2a d4 70 3d e1 e0 bf
       -0.08341210085759108 -0.5274951175391254
0001e0 2e 35 ce c2 3d 5f aa bf a5 14 7d 74 ff e4 e1 bf
       -0.051507883100479254 -0.5592038417022606
0001f0 e7 56 71 27 a3 2f d1 3f eb 77 c7 eb 45 96 e3 bf
       0.2685325513060505 -0.6120938878118499
000200 41 6b 72 6e 5d 96 d2 bf d2 22 e8 8e 4b 42 d7 3f
       -0.2904275492270934 0.3634213347982441
000210 6c 70 ea 7a c8 f6 e6 bf 52 bc a8 bf bd d8 b6 bf
       -0.7176248932551181 -0.08924470833947964
000220 66 db c5 22 0d bf e1 3f 44 78 ef ab d8 1e e3 3f
       0.554571693340091 0.5975154264558644
000230 ab 95 f2 4f aa 84 94 bf 1c b5 5a 8f 47 d9 be 3f
       -0.020037327890028028 0.12050292253362155
000240 a9 6e 47 d3 b5 b5 d0 3f f1 65 7f a0 8f 28 e6 3f
       0.2610907138129997 0.6924512991637909
000250 42 1e d5 24 37 ae d7 bf 81 29 01 7f af 48 dd 3f
       -0.37000826451228275 0.45756137278353753
000260 40 a1 c6 fe 74 3f c8 bf 13 30 53 77 87 c5 cc bf
       -0.18943655433873552 -0.22477811170972525
000270 c7 be 61 99 0e 75 c8 3f b7 a6 d7 33 86 37 e4 bf
       0.1910722969946532 -0.631777859930671
000280 f1 2f 97 e3 b2 c0 d8 bf a5 d4 17 e1 98 bf a9 3f
       -0.3867614004673206 0.05028989551275601
000290 ea 95 49 02 df 43 e4 3f 32 da ca a9 21 21 cd 3f
       0.6332850498844753 0.22757359305042396
0002a0 69 c3 dd eb 52 3e 9d 3f 30 2a 9c 81 ce 36 de bf
       0.0285580593549101 -0.47209513337353126
0002b0 e6 12 8b a0 72 fc dc 3f 33 b0 35 09 6f 12 b4 bf
       0.45290818861057713 -0.07840627646300007
0002c0 cb 62 67 8b b5 96 d0 bf ee 47 ea 3f 0f a6 94 bf
       -0.259198557030271 -0.02016471698386362
0002d0 56 7a 5e c1 5e 51 dd bf e2 69 4c 56 71 8e d7 bf
       -0.45809143909165095 -0.36806901385867097
0002e0 24 e9 4c c3 dd 07 e1 bf 9b bc 4e 64 dd 14 d3 bf
       -0.532210236974866 -0.2981484870496815
0002f0 bb d3 c9 6d 9d 79 d3 bf d1 4d b9 f0 63 58 c4 bf
       -0.3042977878715722 -0.15894746069044044
000300 28 f6 71 91 44 c9 e1 3f 3c b7 05 a7 7a 66 a6 bf
       0.5558188286519838 -0.04375060356947677
000310 af 0f 70 ce 8d 7a d1 bf 4b c3 d6 e1 ab d7 e2 bf
       -0.2731050983422802 -0.5888270769993168

layer2.weight f8 [100, 100]
000000 78 3d 42 30 bb d1 7a bf ab 29 01 87 49 3f c0 3f
       -0.006547671513671964 0.12693137256640105
000010 04 f3 12 c5 aa b7 b6 bf 06 f5 e3 3a 0f c2 c5 3f
       -0.08874003707292039 0.16998472571859952
000020 18 1e 89 e6 5c 6e ba 3f 3a 63 95 a6 c7 d5 98 3f
       0.10324650409995006 0.02425300554509422
000030 34 68 de 2f eb 67 b9 bf 72 33 6f 22 14 ca c2 3f
       -0.099241923510278 0.14679195100179815
000040 f3 96 8f 66 cf 45 b7 3f 4c f1 60 a7 ff cf 96 bf
       0.09090896848610068 -0.022277826872810366
000050 56 42 82 a6 fb 1f a7 3f 8e c2 a9 f4 3d d7 bf bf
       0.04516588599756648 -0.12437808249684165
000060 b0 14 5f d2 0c 9b a7 bf 4a 71 91 36 27 af c4 3f
       -0.04610481327066773 0.16159525074443543
000070 51 92 57 98 5b c3 b5 3f ec 5c d0 3f db a0 b5 3f
       0.08501217335976576 0.08448572452504138
000080 4a d8 7c c6 b5 bb 79 3f 03 8d e9 3c a8 cf 25 bf
       0.006282529888087815 -0.00016640595136428052
000090 9b 43 9a b6 cb 92 c1 3f 14 f8 22 58 f4 07 c4 bf
       0.13729235092298783 -0.15649275115532701
0000a0 a6 05 85 52 77 9f b9 3f cb c6 a2 83 dd 86 b9 3f
       0.10008950962676141 0.09971413100972908
0000b0 97 92 46 db e5 26 96 bf 47 8b 2c ca 68 3c ab 3f
       -0.021632758625531236 0.05319526164955462
0000c0 24 4e b3 ef 70 ed b0 3f 39 5f b0 c8 9e 0e c4 3f
       0.06612306453762834 0.15669617461457522
0000d0 df 04 42 69 5a 3b c1 3f 49 34 73 86 bb 40 75 3f
       0.13462381495995765 0.005188686867041056
0000e0 eb 4c 14 f6 84 96 a5 3f 5b 79 b8 a2 d8 46 bc 3f
       0.042163996733643426 0.11045602772398892
0000f0 d7 fa 4d f0 95 64 c0 3f 43 51 5a 64 b6 e6 8d bf
       0.12806963189719653 -0.014600205361866464
000100 d5 4e a1 13 9b 70 b8 3f ff 8a 2a 43 91 fb 90 bf
       0.09546822766543113 -0.016584653591631412
000110 a4 6a 58 54 8a 94 9a 3f 8d ce 4c d1 86 bd 9f bf
       0.025957261465104367 -0.030996424221668085
000120 4e e1 2d 16 7b c6 b5 3f 00 00 00 00 4f ac 9b bf
       0.08505982676968424 -0.027024492621421814
000130 89 7c 4c de 10 09 be 3f 34 42 04 d5 f1 52 8e 3f
       0.11732583453384583 0.014806641877414518
000140 e6 03 c5 87 62 3f c0 3f 88 35 5d 37 f3 6c b3 3f
       0.12693435315489338 0.07588119603788901
000150 ba cf d6 da 4f cb b4 bf ff e9 ef 95 96 67 91 3f
       -0.08122729389907493 0.016996720220030067
000160 55 0e 7c f2 9d d4 8d 3f b2 a5 3f ad 2a d0 98 3f
       0.01456569095854047 0.024231592964417188
000170 d5 4a fe e4 c7 8b 89 bf 4b 15 17 e0 94 81 a9 3f
       -0.012473642040082758 0.04981675372577373
000180 83 c9 fe 07 d6 92 c3 3f 9d 2f 38 f7 af 7f a5 bf
       0.152918580917298 -0.04198980229202152
000190 03 2a a1 71 c4 f5 b2 3f 36 2b 81 ad 20 db 73 bf
       0.07406261228712911 -0.00484764828440625
0001a0 c9 bf bb c8 7c c4 a9 3f 18 2e f1 c8 ed 4c b0 3f
       0.05032720518454387 0.06367384105504248
0001b0 16 2d e5 a6 31 c9 80 3f e2 f0 98 34 c9 82 b6 3f
       0.008196247010934726 0.0879331353580173
0001c0 da 27 ab ca a5 23 c1 3f 66 0b 6a de da 5b c1 3f
       0.13390037914206127 0.13561569080419672
0001d0 88 c3 d1 41 65 9c c1 3f a1 a7 61 ed b6 03 b8 3f
       0.13758531297528642 0.09380667968221569
0001e0 bc ef eb eb 6b 2b bc 3f 7e fd d4 ec d7 47 98 3f
       0.11003756055646269 0.023711561040952393
0001f0 31 68 81 ca 36 aa ad 3f 3e 28 71 69 1d 20 c4 3f
       0.057939254970463934 0.15723006866966388
000200 5a c6 c8 cc 61 ba 90 3f 2c 7f 18 bd 33 fb c8 3f
       0.016335991024055786 0.19516607983768475
000210 5e 1e 62 b6 6b f4 c2 bf 68 23 b9 cb c1 d2 bb bf
       -0.14808412938531296 -0.10868464683256962
000220 1c 3f 1e ae b6 f0 a2 3f 79 6e ee 26 0f c4 c4 3f
       0.036992748980195084 0.1622332515806766
000230 cf f4 1f f4 4d 3f 82 3f 13 6a fc 62 2c 65 c1 3f
       0.008909806263540791 0.13590006669331042
000240 16 8b e7 29 df d5 a1 3f 80 fe 44 90 98 5e 7a bf
       0.034834836831370605 -0.006437869979265209
000250 86 04 39 b0 ac 9d c4 bf 05 70 95 f8 74 44 b2 3f
       -0.16106184582352884 0.07135706967295626
000260 db 6c 3d 3e a1 ca c2 3f 3d 2a d5 87 c3 56 9a 3f
       0.1468087724595993 0.02572160259777888
000270 4e b3 c0 b4 61 99 c2 3f bb 34 20 7f 4c 77 a0 3f
       0.14530583692376314 0.03216017772511167
000280 d7 e2 87 11 8d 84 85 3f 1a d0 b0 b4 a4 2e b2 3f
       0.010506727311608994 0.07102422152894441
000290 5b 4b 56 8c 13 54 a4 3f ea 6f c8 7b 4e 91 a9 3f
       0.03970395172213755 0.049936726198410344
0002a0 c1 3c c9 ba 83 42 ad 3f df 48 52 e1 3a ea c4 bf
       0.057148090888057286 -0.1633981323435085
0002b0 ba af 32 46 40 49 ad bf da 0d 6b 18 d5 49 a8 3f
       -0.05719948632153611 0.047438296538100125
0002c0 bf 2b f9 50 4d ba c1 bf f2 e5 ac e3 c6 47 be 3f
       -0.1384979863526876 0.11828272875290916
0002d0 88 02 40 13 56 5d c5 3f ff 89 22 95 a5 4a c0 bf
       0.16691089572852413 -0.12727803976038385
0002e0 93 ee 37 90 dc 5a 8e bf 24 19 b6 19 aa 2d b1 3f
       -0.014821742201994758 0.06710303428380776
0002f0 18 44 65 95 9d f0 8b bf 0d 5c 53 86 24 80 b1 3f
       -0.013642531511012065 0.06836155204233325
000300 29 c3 2f 44 0f c5 c1 3f 14 fa c8 31 d5 38 b5 3f
       0.138826282781815 0.0828984495683261
000310 6d b3 ce 32 ef e9 82 3f e5 4d 43 88 0f f9 a1 3f
       0.00923525689889867 0.035103307136207275
000320 c4 51 9b ad 36 b2 95 3f bd d8 45 e5 59 51 a5 bf
       0.021187643381226598 -0.041636285054595025
000330 3d 47 dd 3e eb 04 b7 bf e5 42 e9 fb d9 60 c3 3f
       -0.08991880688452354 0.15139317322111548
000340 90 38 39 79 99 82 c7 bf fd ec fe 25 f8 91 a2 bf
       -0.18367308062665133 -0.03626990760627711
000350 52 a4 80 f8 22 0d b1 3f 82 d8 1b 2a 54 80 b1 bf
       0.0666066986747336 -0.06836439159437371
000360 6e 54 9d b7 20 4c be bf 9e d2 19 99 37 ba c0 bf
       -0.11834911806848122 -0.1306828973353235
000370 9b d4 2d c5 6d dd c6 bf 6b 85 68 84 a3 19 a1 3f
       -0.1786324703968248 0.03339873305618365
000380 6a be 22 c0 9d 74 b5 bf 4b ee 2e ac 40 64 b6 bf
       -0.08381067219556262 -0.08746723369306968
000390 16 b4 6d 01 bd d5 ba bf 76 d2 44 b3 ae e7 af 3f
       -0.10482388768078041 0.06231447161045349
0003a0 c3 3c 2d de 29 17 c7 bf d4 a0 89 3e 50 2f b0 3f
       -0.18039439533683863 0.06322194601819159
0003b0 13 d2 d3 97 80 28 ab 3f ed 3f 13 de 1b 88 9b 3f
       0.05304338315355408 0.026886401585954834
0003c0 44 3b 36 75 b2 4d b2 bf d2 07 55 7a 8f 1f b1 bf
       -0.0714980636750911 -0.06688782440781374
0003d0 dd 1d fb 3a 8f 78 94 bf 1b 86 2e 9f 3a 3b af bf
       -0.01999114797106737 -0.060998756343235004
0003e0 42 70 b9 8a 7f f3 b6 bf 4c ca 11 89 c0 3c c3 bf
       -0.08965298783135814 -0.15029150669905034
0003f0 15 c0 d3 dd 2e 66 bc bf b4 28 03 5a 98 4d 73 3f
       -0.11093418994619271 0.004712672351340586
000400 5c 61 70 cf 2a ee bf bf 1c be 51 17 d4 a8 c4 bf
       -0.1247278934901081 -0.16140223635328332
000410 13 5a bf 2c c7 b1 59 3f 05 a0 c0 d8 ad 9b be 3f
       0.001568264490733666 0.11956297437484416
000420 db 5a 8c ec 11 a1 c8 bf a7 58 60 3a ff 64 aa 3f
       -0.19241546678741525 0.05155179584123575
000430 d1 e1 25 77 cc 84 c1 3f c0 0f 83 4a d3 08 ad 3f
       0.13686519449016868 0.0567079571206075
000440 6b 83 b7 84 1d 1d 94 3f 00 00 00 a0 a7 a1 b6 3f
       0.019642316079515092 0.08840415626764297
000450 ac 1e 31 b8 de 25 9e bf 84 d5 c9 f2 e8 21 b8 bf
       -0.02944133757799132 -0.09426742484523315
000460 81 b0 19 f5 63 0b 96 bf 7b 73 ad 91 8d a7 c4 3f
       -0.0215278261515981 0.16136331189309402
000470 23 1e 59 1c b7 65 a9 3f e4 cc 5d 5b 4e 22 b7 bf
       0.04960415097280826 -0.09036721926331698
000480 6e 4b 74 c9 65 cf 97 bf 54 da dc f6 98 3c b6 bf
       -0.02325209657744714 -0.08686214472695869
000490 3b ee e0 5f be 11 b7 bf ac 6c 22 24 7c 22 c8 bf
       -0.09011449662005415 -0.18855239643457844
0004a0 be 7b 5f e1 8c 17 be bf 4d 03 7f 8e 23 cc 92 3f
       -0.1175468492724425 0.018356853077196523
0004b0 18 16 49 d2 d0 08 a8 3f 2f a1 fa 10 ce 2d c4 3f
       0.04694225851976003 0.1576478560357457
0004c0 aa 32 f0 af dc dc 50 bf 92 a6 06 a9 ea 75 ae 3f
       -0.001029220118428468 0.05949338258080873
0004d0 67 93 c5 bb 04 ec 74 bf 78 0c a7 33 fb c2 c4 bf
       -0.0051078972722721 -0.16220035574051272
0004e0 01 3a cd 08 24 bc a5 bf e2 01 4f d1 f9 0f c6 bf
       -0.042451025080129774 -0.17236254425189573
0004f0 2e 14 c9 ce b4 fa ad bf c8 be 61 fa ed c1 a3 3f
       -0.058553362123838645 0.03858894044321698
000500 3f df 31 67 8d 83 aa 3f 68 45 95 2d b5 1f 81 bf
       0.05178491482450775 -0.008361258939347763
000510 9c 34 57 34 5e f5 a8 bf 99 22 a5 2e 77 f4 b0 3f
       -0.0487470091717139 0.06623024834437742
000520 da 2a 32 ec 5a 01 a7 3f aa 05 12 4b 2e 84 b5 bf
       0.04493221410037558 -0.08404816944859897
000530 b3 bb c1 ff ae 3b a0 3f c8 71 fb 4b cb 25 b5 3f
       0.031705349655445934 0.08260794262918758
000540 6f 01 78 92 0b 0b b4 bf c1 32 04 e1 4d 5d c8 bf
       -0.07829353643319846 -0.19034741866234664
000550 04 d6 8c a1 32 68 b6 bf 54 d5 b6 ab 3c 3c c0 3f
       -0.08752743190856199 0.12683828720552504
000560 5c 9e 02 de b2 b5 b3 bf 09 f7 38 5a 97 44 b4 bf
       -0.076991252137867 -0.07917161896417836
000570 3f 28 b4 2a a3 c5 bc 3f b0 2b ac 64 6b 0c ad bf
       0.11239070694514995 -0.056735378302696815
000580 b8 e4 64 d5 9d fa c0 3f 26 d4 5b 4f ca 05 b2 3f
       0.13264820975908775 0.0704008525606957
000590 ff d9 28 2c 39 cf b4 bf 0e 69 06 f1 f4 04 ac 3f
       -0.08128697708239228 0.05472531740379526
0005a0 bd c9 01 6b 54 21 9b 3f 31 ed d5 3e e6 18 c0 3f
       0.02649433043593218 0.12575986927172658
0005b0 61 82 d5 cd 9e 7d bc bf 49 c6 81 67 32 f1 88 bf
       -0.11129181409115453 -0.012178796561985854
0005c0 70 de d2 97 14 38 95 3f de 10 1e ce 59 ff be bf
       0.02072174240740171 -0.12108384401477987
0005d0 3e 83 a2 a8 95 3e b0 bf b0 7a 11 76 a3 29 99 bf
       -0.06345496527729907 -0.02457290084964353
0005e0 4e 8c cd 40 d0 e4 bc bf 01 e9 c0 60 99 1b 72 bf
       -0.11286641676046935 -0.004420851833908169
0005f0 3a 67 ca ad f5 73 a1 3f ae 58 27 f3 2c 2d 6a 3f
       0.034087827171971744 0.003195369522681699
000600 5d c5 26 99 9d 07 bb 3f 41 c0 bd 50 16 7c a7 3f
       0.10558495511101769 0.045868584972482036
000610 a8 b5 af 59 d3 14 9e bf fd 0d 7f 6b 85 e1 91 3f
       -0.02937631831075796 0.017461857496313005
000620 d4 f0 5d fa d8 77 ac bf 4e 82 40 a9 11 13 b6 bf
       -0.05560186439740425 -0.08622846967819806
000630 40 f4 8f 5c a1 7a ab bf 13 f1 06 b5 22 b0 90 bf
       -0.05366997008238927 -0.016296903895395575
000640 54 97 46 97 82 09 91 3f c0 98 33 84 96 30 c2 bf
       0.016637840731753187 -0.14210778670457636
000650 3c a2 d6 33 fd 17 a9 bf 27 f5 6c e9 95 e2 a6 bf
       -0.04901114709656837 -0.044697460884416444
000660 6b db 58 64 bf c0 c6 bf ce 01 31 58 51 3c be bf
       -0.17775719070206306 -0.1181078758536451
000670 8c 23 9e 8f 3b b9 a7 bf d4 b4 a2 83 d3 f8 97 bf
       -0.04633508804460637 -0.023410134229085625
000680 f3 1e e2 d6 ea c4 ae bf c7 c5 72 2f de ba a2 bf
       -0.06009611008727047 -0.036581939022095215
000690 9e fb d4 11 fa 26 ad bf 64 18 ac 98 59 a1 c0 3f
       -0.056937994648698295 0.12992401079845017
0006a0 6e c7 13 60 3c 09 aa bf a6 83 57 dd 9b 00 88 bf
       -0.050851713874989865 -0.011719911281888273
0006b0 72 82 33 9d 5c 0c c0 bf 4c cd 32 f7 60 6f b1 3f
       -0.1253772513946561 0.06810575518720902
0006c0 d2 3b 45 74 4d 3b b8 bf 2d da 41 b1 e6 85 bd bf
       -0.09465488518365753 -0.11532441928452704
0006d0 39 95 57 fc c0 a9 9a 3f 3d 9a 0b 76 b0 17 a7 3f
       0.02603818454908444 0.04510261002524316
0006e0 8d 0a a3 12 a4 dc a9 bf 66 95 57 fb 63 6b b6 bf
       -0.050511481547364935 -0.08757614980966863
0006f0 71 2a f4 5d 87 b9 c4 bf fb 88 48 0e bc 46 b8 bf
       -0.16191188895784905 -0.09482932423319206
000700 4f 0f 79 39 d9 44 c4 bf 58 f3 e0 73 6c 55 9f 3f
       -0.1583510904912324 0.0305993028380159
000710 5e 08 61 5a 3d 45 9f bf 72 c6 83 e4 ab 92 c3 bf
       -0.03053756584291311 -0.15291355760523434
000720 9f 7f de f3 38 cc ae bf 41 5c cd cd 08 c8 7c 3f
       -0.06015184380453253 0.007026705160419645
000730 5c f8 ae b7 1a bd b0 bf 3a 41 09 10 9e 30 9b 3f
       -0.06538550362071888 0.0265526482856455
000740 92 5a d0 e4 86 96 c3 bf e6 18 eb f8 f4 9d c0 bf
       -0.15303121731331665 -0.12982046274391407
000750 63 85 87 34 a1 57 c2 3f a6 2f 66 09 70 02 b4 bf
       0.14329924645339095 -0.07816219548675338
000760 aa 87 09 4e 96 54 a6 3f 00 00 00 00 89 c5 9a bf
       0.04361409857371197 -0.026144161820411682
000770 f9 c7 e8 98 11 27 82 bf dc fa bc 97 a6 b7 a7 bf
       -0.008863580206796217 -0.04632301904938682
000780 a5 b1 c9 19 b3 59 b1 3f 8c 80 2c 26 ae 49 97 3f
       0.06777495746218294 0.022742005424448083
000790 18 a9 46 ab 67 2a b8 bf af 20 d9 ea 75 9a b1 bf
       -0.0943970482973423 -0.0687631319389108
0007a0 98 d1 54 2e 60 a2 a2 bf 45 de d4 a9 0c 57 a4 bf
       -0.036395078330687614 -0.03972663472307806
0007b0 09 23 bb 13 a6 44 c3 bf 26 6d 0d 5e c3 9e ae bf
       -0.15053249324252985 -0.059805016737948954
0007c0 07 c7 ea 27 21 24 ad bf a4 b3 82 60 23 27 c2 bf
       -0.05691627132672577 -0.1418194028132379
0007d0 f5 fe 87 ef 69 be a0 bf 61 26 2f 5a 72 31 ab bf
       -0.03270274208989391 -0.05311162329560371
0007e0 6a 16 9a 2b e3 a6 a7 3f 9a 5b 8b 50 55 a4 11 bf
       0.04619512469529925 -6.72986099162623e-05
0007f0 c5 2a fd 52 d2 b5 bf 3f 72 49 8f 70 e5 96 91 bf
       0.12386812711808222 -0.01717718600759483

layer2.bias f8 [100]
000000 e3 88 9a 70 ec 5c 82 bf ef cf b8 d5 be 3c ca bf
       -0.008966300188437198 -0.20497880397454035
000010 53 82 0a 8a 40 70 a7 bf 08 52 56 d7 37 56 c7 bf
       -0.0457782906062262 -0.18231866850386802
000020 d1 c5 93 0c de fe a7 3f 9b 22 c0 a4 40 9f 64 bf
       0.04686635879069068 -0.0025173437661617066
000030 41 2f a8 c3 c3 19 be bf 61 f9 21 2c bc 98 b6 bf
       -0.1175806381872322 -0.08826805188616539
000040 48 93 c2 92 d4 09 a2 bf ed f4 1c 41 fe ff ad bf
       -0.03523124972824704 -0.058593697975519145
000050 e2 0a ce 59 34 43 b1 3f cd 34 d5 04 2f 82 b1 bf
       0.06743170921803768 -0.06839269512166198
000060 2b ed 5c 34 c8 cb b3 3f ce 82 02 a1 4f a7 c6 3f
       0.07732821730035215 0.17698092805678417
000070 ca b7 20 e7 77 93 8e bf 5d 6e f4 de 50 a1 b5 bf
       -0.014929711094818904 -0.08449273532135622
000080 45 6a e0 c6 0a 69 c4 3f 5b b9 b8 e7 ab 8b b0 3f
       0.1594556304051641 0.06463121802582832
000090 47 5f 7c 3e 77 c5 b5 bf 4f 48 d4 7a 68 d0 b0 bf
       -0.08504433894665651 -0.06568005560646493
0000a0 60 cb db d5 db 7d 8c 3f 4f 38 a0 e9 04 b0 b3 bf
       0.01391193148035591 -0.07690458968883827
0000b0 71 a2 19 b8 91 5d 80 3f 09 3c ee fb f8 ed 9a bf
       0.00799096911505723 -0.026298418404220345
0000c0 3c 79 12 a6 2a d3 c1 3f 9e f1 5c 0c 53 04 b6 3f
       0.13925679310791306 0.08600348522026599
0000d0 dd 63 2a be e9 56 a3 3f 19 77 9f 62 af 20 c7 3f
       0.03777246900899176 0.1806849700505431
0000e0 45 66 7e 0d 34 84 c2 3f b9 73 1a 83 a1 2c 8a bf
       0.1446595254790727 -0.012780439198928894
0000f0 de 01 04 d7 e9 dc a0 3f 9d 13 9b b2 c7 be bd bf
       0.03293543576910783 -0.11619232283108123
000100 bc d2 c0 7c 6d b5 c8 3f 57 d5 fa d0 33 46 c4 3f
       0.19303673354592898 0.15839240745632807
000110 e5 c7 a3 41 04 fb cb bf 16 ec e0 fd f9 f5 c1 bf
       -0.2185979195124325 -0.14031910797515995
000120 95 43 7a 8a 01 b6 ac 3f e7 c9 c1 8f 0c 25 c4 bf
       0.056076095727923526 -0.15738064784416325
000130 34 c1 20 12 2c 3d af 3f 1a 43 1c 64 7d 7f c4 3f
       0.061013581478962214 0.16014068020060607
000140 dc b0 8c 62 26 9c 99 bf b8 ef 6b 0b d7 2a c7 bf
       -0.025009727253903033 -0.18099487359711275
000150 ed ae fc 1a 4a 2c b0 3f 19 f5 92 ef 4f d7 c3 bf
       0.06317580374587424 -0.15500830839111115
000160 52 42 2c 0b bc ab a0 3f 11 d7 53 43 e2 b8 c7 bf
       0.03256023060214787 -0.18532970702624899
000170 ba 63 88 2d a6 ab b2 bf ff c3 ec b2 08 0b 91 bf
       -0.07293165790214476 -0.016643653794009335
000180 87 c0 87 21 e9 42 b0 3f 0d ff 16 48 d0 7d b4 bf
       0.06352097576723469 -0.08004476318364713
000190 51 f3 30 97 80 1a b4 3f 32 90 3a 9f 62 a1 c0 3f
       0.07852939311210362 0.1299250867351716
0001a0 f9 b0 16 3a 77 b7 c1 bf 51 82 3f 5d b5 a7 70 3f
       -0.13841142975196144 0.004066189245322053
0001b0 e4 16 30 5a 33 e8 c0 bf c7 68 74 23 f5 56 97 3f
       -0.1320861997957571 0.022792654313072782
0001c0 c7 89 e7 45 94 94 ce bf 80 e0 7b 1d 59 21 be 3f
       -0.23890927708914786 0.11769635171720161
0001d0 d5 20 fa 87 d6 a7 a7 3f 46 31 30 dc 59 20 bb 3f
       0.04620237741352332 0.10596238732995741
0001e0 03 98 ea 74 4c 32 c3 bf 40 cd 1f 46 c4 8f c6 bf
       -0.14997249325568882 -0.17626241134676413
0001f0 3e 7e 4f 1a 27 45 8d 3f 69 c0 12 70 c6 32 7f 3f
       0.014292054644044257 0.007616782329179819
000200 a3 a1 63 8e 77 ac c1 3f 46 e9 92 3b 79 c9 c8 bf
       0.1380757756480878 -0.19364848526840656
000210 56 44 d1 e7 4d c2 bf bf a1 f1 9d 9a 25 02 b6 bf
       -0.12405859860997856 -0.08597025894954992
000220 ff 8e ab 21 5e 56 c4 3f de e9 1a a6 3e 81 c1 bf
       0.1588857330708535 -0.1367567359028063
000230 11 2e b8 22 0c 58 ab 3f 2f 5b 6a 29 fc 8d b9 3f
       0.05340612338849494 0.09982276927108268
000240 b4 fd 14 4a 9f 8d b1 3f 30 b5 37 76 fd 52 c1 3f
       0.06856723364489065 0.13534515640587008
000250 4e b2 e3 ae 35 3f bc 3f b7 5c 75 e5 7d 48 bf 3f
       0.11033950347673135 0.12219988681805459
000260 7b 0d a0 b4 d1 93 af bf a7 ae 11 75 11 89 c4 bf
       -0.06167464570901423 -0.16043298927558178
000270 3b 9f 2e c5 33 1a c6 bf 8a 0f 91 e3 77 9a bd bf
       -0.1726746285250956 -0.11563824945284132
000280 7e d3 50 b9 4b b8 cd bf 98 35 35 fe 5e 0b c2 bf
       -0.23218676136607636 -0.140972017407347
000290 67 65 8d 61 12 52 cc 3f 84 3e 13 cd f9 82 b5 bf
       0.2212546325998048 -0.08402978188245852
0002a0 b6 de f2 60 85 63 c2 3f b8 7d 48 b0 e3 4a c1 bf
       0.14366214021514673 -0.13509794337822512
0002b0 4c 9f c0 bf ca a0 a0 bf 9b 76 a9 90 7e 99 bf 3f
       -0.03247674551704324 0.12343588859354286
0002c0 4c cb 30 16 be 1c bf 3f f8 dc 39 62 7c f3 b6 3f
       0.12153232614290949 0.08965279958816896
0002d0 2b ae 51 7f fc cc ad bf 2f 47 b4 a0 08 f2 9b 3f
       -0.05820454649150649 0.027290472801787032
0002e0 69 33 68 50 09 d9 c3 bf c7 bc 23 43 ab f3 b6 3f
       -0.15506092477917413 0.0896555937686002
0002f0 97 0f 4c 1a 47 b4 ac 3f 83 a9 c6 90 7d da a4 bf
       0.056062910041901386 -0.040729450152258394
000300 19 91 49 fc 50 bd 82 3f c9 b0 e8 0a fa 1b b7 bf
       0.009150154780578167 -0.09027064100581862
000310 44 03 26 e8 83 05 c0 3f 9b b1 34 f4 fc cd c2 bf
       0.1251683124101196 -0.1469112579737953

layer3.weight f8 [100, 100]
000000 d5 92 cd 28 18 2f b3 3f 53 b6 62 f9 a1 64 6b 3f
       0.07493735309760592 0.003343883853708354
000010 3a 8f e5 f6 14 ea b3 3f 20 39 04 1b a3 82 be bf
       0.07779055621864198 -0.1191808644254917
000020 fc 6c 17 69 1a a2 c4 3f 78 f5 8f 7d 66 d0 c1 3f
       0.16119699603482462 0.13917237406705474
000030 db 12 6d b5 4c c9 c4 bf b9 54 c1 56 09 99 87 3f
       -0.16239317759222768 0.011522362670954288
000040 30 e4 da b3 55 8f 9c 3f ac 03 71 d8 80 05 a6 bf
       0.027890528776627288 -0.04301073686702436
000050 4a ad 89 f2 37 6a a1 bf 2b 14 fa 76 d5 7a be bf
       -0.034013508183159916 -0.11906179575642344
000060 40 21 33 f9 e2 6b c0 3f 09 8f 8c d0 ee 4d c9 3f
       0.12829243820147873 0.1976908224397607
000070 32 1c 6b ff 5b 75 c2 3f b6 94 ae 1d 2f a1 cc bf
       0.1442065236244346 -0.22366894673647203
000080 37 86 a6 93 6f cc c0 3f 78 48 2c 68 65 3a 9b 3f
       0.13123888692375527 0.02658995102235237
000090 5c db 66 44 7f 40 ca bf 18 70 1b 9c d9 cb c6 bf
       -0.20509329643183605 -0.17809600946827753
0000a0 1b e2 24 05 be 5e b0 3f 12 0f ba 52 3c 55 ca bf
       0.06394565225208064 -0.20572618522066272
0000b0 84 03 a7 2b b8 0e c1 3f d0 02 cb 08 b0 af be 3f
       0.1332617009302589 0.11986828055070053
0000c0 c3 29 a3 b0 04 59 a9 3f a7 c7 e2 38 5e 27 b6 3f
       0.049507280885865444 0.08653820885481754
0000d0 da 64 03 98 5d 73 c7 3f 22 47 88 36 a1 2f ca 3f
       0.18320817873499246 0.20457854426109018
0000e0 dc 2d 83 62 68 27 be 3f 6f 15 f9 a5 14 dc b8 3f
       0.11778881459320395 0.09710816433024204
0000f0 e7 19 91 82 07 62 ac bf 37 be cc 49 c4 c1 bc bf
       -0.05543540448029543 -0.11233164598228816
000100 46 74 bd f9 8c 96 91 3f c4 b7 fe e6 d7 3e bc 3f
       0.017175867789195352 0.11033391370321427
000110 c2 e9 c9 e4 d9 72 ba bf 19 4f cc 44 97 33 a3 bf
       -0.10331498943006692 -0.03750298228092514
000120 7b 23 6c 5c d8 69 b0 bf 51 dd 66 97 34 57 a4 bf
       -0.06411506897360468 -0.03972782467047387
000130 e2 68 ae 25 07 69 70 bf ad 63 7a 93 6d ee ae 3f
       -0.0040064124285896525 0.060412811520286304
000140 cd 11 bb e3 9e 9d ba 3f f8 68 b6 96 71 2b c9 bf
       0.10396760043938187 -0.19663829669008925
000150 44 01 8b f6 37 ac c2 3f 1d 8e 5e 01 b3 95 c6 bf
       0.1458806947539505 -0.17644345824111066
000160 de 57 cc a2 31 c2 b7 3f 52 a4 2a 68 9c c1 b3 bf
       0.09280691361013235 -0.07717301886681696
000170 59 12 9f 86 9c bc a2 3f ba ae 74 72 54 c1 b9 3f
       0.036595241006158026 0.10060622972803915
000180 93 63 23 c5 71 d4 ce 3f 4c 04 e4 6c da 79 b7 3f
       0.24085828901186498 0.09170308264221311
000190 26 da 4f 74 fb 19 af bf c8 00 35 ff 7a 59 b4 3f
       -0.060745103786690444 0.07949036341324522
0001a0 e5 33 c3 8c eb 72 c8 bf 0e 8f e8 c5 58 1b 97 bf
       -0.19100708363694632 -0.022565257148143884
0001b0 de 64 f8 e6 a9 da c5 bf 86 26 46 cc 57 b8 c0 3f
       -0.17073558595510624 0.1306257007056965
0001c0 62 e2 4b c0 8a e1 c6 bf 03 5d 54 63 88 8f ae 3f
       -0.17875799550508292 0.05968881809729434
0001d0 d5 1a 67 6a 4d 7d 9f bf 04 f7 eb 00 d1 f2 c0 3f
       -0.03075142824107043 0.13241016907698377
0001e0 82 c8 12 54 e4 ad b2 bf 3f 1c 1a 70 e6 e9 c3 bf
       -0.07296587994167861 -0.15557556604128028
0001f0 ce 11 42 ce 09 00 92 3f 63 bb d5 20 e9 73 9c bf
       0.01757827111625137 -0.027785914067347216
000200 88 3c 24 33 2e ff c2 3f 75 f0 ca dc 0f d4 cd bf
       0.1484124898638337 -0.23303411751647088
000210 f5 8e e2 99 90 32 a7 bf f4 e7 e9 40 72 83 c0 bf
       -0.04530765417555741 -0.12901142282117883
000220 f1 b3 0c f4 97 a2 b5 3f a1 fd 4b c6 e7 e3 a5 3f
       0.08451223095171635 0.042754404979855616
000230 9a 29 7f 3c 11 33 b8 3f 58 19 63 01 5f f3 a3 3f
       0.09452922560664093 0.03896614925320091
000240 51 f4 bc 30 e7 69 c0 3f b0 f4 65 10 84 98 9b 3f
       0.128231905744459 0.02694898939215723
000250 5b 0b 20 03 a1 13 97 bf a9 a5 b1 92 6f 4d af 3f
       -0.02253581601690811 0.061137663514112824
000260 0a b0 02 e9 9a 31 a5 3f 14 ba 25 0a 03 11 bb bf
       0.041394082015671144 -0.10572833059061565
000270 16 3a 0f b8 10 49 c7 bf f8 2c 17 8b 82 3f ae bf
       -0.18191727626113224 -0.059078292349647954
000280 78 48 b9 9a 4d d1 c6 bf 38 c5 fc 1f e6 b4 65 3f
       -0.17826242499228662 0.002649735892099738
000290 ef 1c 6f 5f e9 3b ce 3f e3 38 6a 81 57 08 b2 3f
       0.23620335731377604 0.07043978604835703
0002a0 2e d2 c9 fe 6b ee b0 3f 93 79 81 e5 e7 91 bc bf
       0.0661380288164046 -0.11160134652297975
0002b0 eb d5 9c 28 a6 b2 91 3f 2e b1 2b 24 c1 02 bc 3f
       0.017283054570006156 0.10941702969620756
0002c0 6f 13 90 cf a2 e6 b3 3f 32 27 b1 01 35 d7 a2 3f
       0.07773797576380813 0.036798149544280526
0002d0 12 5d 6a 32 23 c5 be bf 6c 9b 91 54 86 36 ae bf
       -0.12019557934614891 -0.059009740660988935
0002e0 c6 41 a1 51 b4 3d c1 bf 85 f6 3d 5f 79 e8 91 3f
       -0.13469556794963305 0.01748838084994599
0002f0 8e ad 23 58 9a eb 7b 3f e2 ae 2e 87 c1 26 81 bf
       0.0068164853166580285 -0.008374702394426451
000300 ae 87 55 6a 5a 23 b5 3f 04 c4 52 0b 66 9e b6 3f
       0.0825706967930546 0.08835447098205412
000310 75 99 16 6f f8 d4 a0 3f 0a 68 e8 04 ad e4 a6 bf
       0.03287483554895491 -0.044713408326245555
000320 6c 86 e4 1b 49 31 99 bf 21 96 d1 e7 7e 39 b0 3f
       -0.02460207207435021 0.06337731513630064
000330 e3 6a 79 a5 2b e1 a8 3f d0 14 ac 20 03 d5 c0 3f
       0.04859291453313632 0.1315006169826689
000340 52 f0 2b 8e 2f 1b 8d bf 3a 52 01 3e d1 42 b0 3f
       -0.014212008978113175 0.06351955188558459
000350 ec d5 01 56 09 65 a0 bf 8f fe ca 3d 1c 6f b4 3f
       -0.032020847081110165 0.07982040890328278
000360 6e e9 a5 38 f0 6f 52 bf 3c d9 3f c9 a5 b8 91 3f
       -0.0011253209982827433 0.017305937202729313
000370 a0 34 1f 4b 6c 6b c8 bf f4 12 52 4d 4a a7 c0 3f
       -0.19077829044400563 0.13010529303951268
000380 5b 74 3e a8 49 da b3 3f 18 2f 9c 1a b1 85 bf bf
       0.07754955632704379 -0.12313372516308296
000390 25 95 de 69 4b c3 a2 bf 9f 3b 91 34 68 61 bb 3f
       -0.036646229432600465 0.10695506366140116
0003a0 97 77 df b3 68 69 88 3f 91 fe 0d b7 17 52 c0 bf
       0.011919801701818318 -0.1275052684613809
0003b0 7d 9f e0 68 56 35 82 3f 05 fc cb 5c 26 70 c2 3f
       0.008890795779805444 0.14404754191488692
0003c0 f7 ae 67 54 d7 16 a6 3f b9 be 62 da 87 2b ad 3f
       0.043143014005037665 0.05697273770181028
0003d0 80 3f c3 e7 43 c5 b8 3f 6c d4 4a 3e b8 72 c5 bf
       0.0967600289179682 -0.16756346742264172
0003e0 b5 e4 2a f3 ed 45 b7 bf db fe a0 e1 a5 7b c0 bf
       -0.09091078936298198 -0.12877343670878968
0003f0 b7 76 12 c4 fc 28 bd bf 71 24 9e 6a 53 d9 9a bf
       -0.11390666758458222 -0.02621965730898918
000400 94 ad bf d7 1d e1 c4 bf 3e e3 78 68 0f fe b9 bf
       -0.16312001261335907 -0.10153290081588026
000410 ef aa 63 0b b7 e5 bd bf d3 29 36 f0 79 b1 b5 3f
       -0.11678642299709073 0.0847393237546961
000420 dc 6a 15 74 23 61 b8 bf 2a 48 ef 3f 6f 97 a6 3f
       -0.09523221572946333 0.044124104074981865
000430 88 64 f6 c5 d9 1c c4 3f 79 c7 73 71 99 82 bc 3f
       0.15713045278679183 0.11136778850393893
000440 d0 e3 7d 7a 65 b9 5f bf 45 01 03 61 47 db bf 3f
       -0.0019362917900862427 0.12443967932177198
000450 52 20 ff cd cc 57 c2 bf f5 0c f4 84 bc 70 be bf
       -0.1433044439165792 -0.11890772100382548
000460 4c 91 0f bf a7 7a 6e 3f df c7 21 e2 c3 c9 b4 3f
       0.003720595960191064 0.08120369215774258
000470 53 3e 5c b8 b1 1c 84 3f fe 67 9c 45 27 cb a2 bf
       0.009820354880076076 -0.03670618748419939
000480 83 2c b6 08 98 45 a5 3f d2 28 a7 ec dc b2 b9 3f
       0.04154658418982484 0.10038548257503813
000490 5d 14 7c 79 4a 50 a1 bf be 2f 50 aa 01 68 ab bf
       -0.033815696077035474 -0.053527881660641694
0004a0 84 62 da ed e5 4f a8 bf 04 0c e4 a5 0b de bb bf
       -0.04748457458953673 -0.10885689544743121
0004b0 bd ad 2c 07 71 dd b6 bf 8e d9 de 71 67 9f b6 3f
       -0.08931642937812163 0.08836981325189283
0004c0 60 ac d4 fe 45 40 c2 3f 89 da f2 b1 b1 6e a3 bf
       0.14258646910579653 -0.03795390412544914
0004d0 b3 48 9f 4a 23 db 99 3f df 27 70 48 83 f6 c0 bf
       0.02525000708539755 -0.13252297436730395
0004e0 ca b3 6c 1f a1 a1 bc 3f 2b 47 c9 32 83 62 bc bf
       0.11184126870348546 -0.11087818136118403
0004f0 00 52 d0 15 27 09 b1 bf 34 32 88 08 56 06 7a bf
       -0.06654590876161848 -0.006353698795021279
000500 da 0f 70 c1 6e ce f3 3e b5 f0 a1 d6 b8 de c2 3f
       1.888883351953961e-05 0.14742193679911045
000510 62 bb 74 86 38 8a b9 bf 37 f1 b9 8e d0 20 af 3f
       -0.09976533205620577 0.060797231123589084
000520 55 c8 eb fb ad 10 a9 bf 34 b8 33 f1 ba 53 c1 3f
       -0.04895538044174034 0.135367744230679
000530 58 35 78 6a 89 4e c1 3f a3 7e 79 d6 3c eb bc 3f
       0.13520925234517267 0.11296444164463053
000540 fd 40 a4 29 e8 37 ad bf c7 61 ed af 6b 39 a1 bf
       -0.0570671606857349 -0.03364120981740686
000550 72 76 f7 72 8d f7 b7 bf 80 d8 90 60 b6 f9 ad bf
       -0.0936211019211102 -0.058545779502694906
000560 a5 df e3 42 bb 73 a7 bf 69 84 e7 65 58 ae bc bf
       -0.04580483619241641 -0.11203529823207393
000570 15 93 30 ee bf 7f 81 bf 31 02 3a 47 1e 2a c2 bf
       -0.008544444519495134 -0.14191034772740488
000580 01 77 c4 be 1c 96 b6 3f 60 55 94 0d 87 a0 b2 3f
       0.08822803170593475 0.07276195603875157
000590 44 5f de d8 6a 18 c3 3f f0 c0 00 ce 6a e5 b2 3f
       0.149182659047023 0.07381312875145674
0005a0 ac d6 c2 5c 63 69 c2 bf 13 38 d4 7b 6f fe c1 3f
       -0.14384119061803824 0.14057725473725266
0005b0 df ca 3f 7f eb 5e f2 be 95 be 49 10 ab d5 a7 3f
       -1.7519741916725554e-05 0.04655203412846479
0005c0 40 b6 0d cf 27 69 ba bf a3 bd 33 3b 36 21 b3 3f
       -0.10316704564112289 0.0747255224739463
0005d0 4e 52 05 80 49 1e c5 bf d5 31 e2 5a 36 10 be bf
       -0.16498678923621174 -0.11743488043629864
0005e0 41 a3 83 32 fb a7 c7 3f 19 15 64 b8 be 98 a3 3f
       0.1848138806010642 0.03827472687593509
0005f0 02 28 a5 40 68 85 bb 3f 40 94 ec 0c f1 41 9b 3f
       0.1075043828797391 0.026618734754397133
000600 6c b5 2e fb b4 25 a9 bf ae 2e 45 4d 92 c8 80 bf
       -0.04911580625717246 -0.008195059760189718
000610 29 ae 67 a2 05 07 c1 bf 65 24 9a b8 52 80 b5 3f
       -0.1330267947190447 0.0839893055619015
000620 c3 17 d0 55 b0 5a 7c 3f 07 17 e8 4f be 7c bc bf
       0.0069224250883105935 -0.11127843333096275
000630 f9 e4 9f 4e bd b1 b2 bf e2 fc f9 d4 21 a5 a5 3f
       -0.07302458924813839 0.04227548336802457
000640 a1 b3 e3 9d 07 78 b3 bf 89 f7 b0 42 b9 4c c3 3f
       -0.07605025868151795 0.15077892071161283
000650 79 19 cc ae d0 ed ab 3f 28 a9 46 49 8d 52 c0 3f
       0.0545487607360426 0.12751928403788182
000660 34 75 05 97 f2 5f a4 bf bf 98 5e ad ee d0 6a bf
       -0.0397945222236821 -0.003273454824881033
000670 43 70 81 ed 82 f1 c1 3f 5b 0f 56 82 1c 31 af 3f
       0.140182844132939 0.06092156497018549
000680 fa 02 c0 ab 45 ce a4 3f 27 4f 19 37 62 db 81 3f
       0.04063623162801906 0.008719222361072433
000690 32 bd 99 2f 65 95 c0 bf d2 d3 7c 43 84 af b6 3f
       -0.12955918144459982 0.08861567161223086
0006a0 15 f9 54 0b 84 4d c0 bf 33 31 59 10 ad 34 b1 bf
       -0.1273655944186848 -0.06721002244120626
0006b0 38 b9 82 d1 2c 8e b4 bf d6 fb a3 ec 55 87 94 bf
       -0.08029441943174198 -0.020047514503854412
0006c0 9f 33 62 3f e9 f8 a7 bf 37 73 3f 94 9e af c5 bf
       -0.046820916163688546 -0.16942198027290953
0006d0 6b a0 67 04 ed 76 aa bf c0 5e 67 7f 5f 1d bc 3f
       -0.05168858221787861 0.10982319698757248
0006e0 c1 b7 ea ea 90 93 64 bf d4 23 1d 77 2d 73 c0 3f
       -0.002511771242402511 0.12851494136910324
0006f0 8d 9d 4e aa ba 7f a9 bf af ce a9 54 99 18 c1 bf
       -0.04980262116378773 -0.1335632003207272
000700 aa 0d 71 1f da b8 c7 bf 6d 22 41 54 62 1e b7 3f
       -0.18532873664126487 0.09030737454407652
000710 c9 78 ef 08 6b 1c c2 bf e1 f1 68 e5 8c 8a c2 bf
       -0.14149225174236893 -0.14485322190911545
000720 c0 c8 94 25 8f d9 8c bf 5e 3a a9 71 ae 30 84 3f
       -0.014086836180102202 0.009858477443370702
000730 0e 25 39 cd 1e a8 a2 bf a5 12 8c 4f 2d 0a 9b 3f
       -0.03643890624204903 0.02640600965516406
000740 a5 01 15 ca ec ac c3 bf f1 ac 5a 2e 75 1c d9 be
       -0.15371475093162448 -5.986967811881547e-06
000750 9e 4e ba bc e6 62 65 3f 9f 07 4c 55 3f 2b c3 3f
       0.002610636385563427 0.14975730576412347
000760 6a 40 55 d2 52 bc b9 bf 5b 63 96 5e b7 9f be bf
       -0.10052983889659264 -0.11962457713378909
000770 3f 04 eb 90 15 98 c5 bf f3 02 19 89 b7 e2 aa bf
       -0.16870374275279862 -0.05251096294933246
000780 6f 09 d6 98 41 b3 a4 bf 12 01 f0 2f cf e5 a7 3f
       -0.04043011656451056 0.046675181009051894
000790 43 58 29 b3 a0 6d bd bf cf 71 02 97 e9 e8 5e bf
       -0.11495403646526463 -0.0018865853453809871
0007a0 84 11 4e ae 44 11 b0 bf 74 7d 70 c3 f3 70 98 bf
       -0.06276349311344204 -0.02386837845199126
0007b0 2a 9a 49 8d 80 94 ac bf 99 d0 d7 2d 7e 01 97 3f
       -0.05582048153592141 0.022466632411991403
0007c0 83 9d ac e5 11 90 9c bf c0 8a 15 08 9a 57 c1 bf
       -0.027893333094792815 -0.13548589129194077
0007d0 35 33 86 69 2a 37 a0 3f 8d 2b 41 27 79 38 a7 bf
       0.03167088068139493 -0.0453527317445924
0007e0 67 31 e5 d1 f2 64 ae 3f d9 22 c6 d6 2b 59 b3 bf
       0.059363926050169984 -0.07557939523224934
0007f0 94 b7 6a b2 72 de 85 bf 7f 67 c4 69 be d5 c2 bf
       -0.010678192205286575 -0.14714794315733212
