model2_DGM_state_dict_100.pt (torch, 168920 bytes, 8 tensors)

layer1.weight f8 [100, 3]
00000000: 2fa6 021f b543 d73f fb6c 4da4 ba1b ba3f
00000010: 2d45 788e 9771 d93f f8df 790a 721d df3f
00000020: 9cbb b2bf 59a2 cbbf 4069 8532 d02d 9f3f
00000030: 0000 0080 c16b b7bf 0000 0000 98ad 943f
00000040: 0000 0000 fa32 b2bf 7055 652a bb7f df3f
00000050: c8a1 23d6 6c4d db3f 16f2 1d61 fb7e c7bf
00000060: b48c 5fa7 26ec c9bf c599 a24f 7403 cbbf
00000070: e51b c8e1 646b de3f 419b 6451 dd6d e0bf
00000080: 094b dee2 de52 dd3f 3002 f9f9 51fd d4bf
00000090: 11f9 2264 3246 b1bf 75bf 03c7 2315 b13f
000000a0: aa2d f699 78f7 dabf 12ba f406 22c3 d63f
000000b0: 0d4a 19aa 5c07 db3f 0004 60d5 e53a bcbf
000000c0: aabd e44f 27a2 e03f 98de 00f4 9258 d0bf
000000d0: 1c8b 67d1 2570 e23f 3e50 5dc1 52f2 e2bf
000000e0: a78c 7617 7d5c b9bf b705 2ec5 4c8d dfbf
000000f0: 2590 6739 f7e5 d5bf a9c2 1674 abd0 d1bf
00000100: 44a9 df93 b52b d8bf 1e05 efd9 6cab c63f
00000110: 3ba6 d9ba b554 e0bf ba1b 6cbb d8a9 bb3f
00000120: 0705 e716 c955 e1bf 8ec8 54ba 42d9 cb3f
00000130: 89cb d548 61a0 ddbf afd0 71a7 d6fe b43f
00000140: 1268 38bd f8db df3f 0971 e8e3 6026 c1bf
00000150: 5f21 8a3e 5ad6 c03f cd6e 8d23 5e10 cebf
00000160: 7666 623a 7d5a b33f feb8 25c8 af68 d8bf
00000170: c6eb 22b4 0941 dfbf 0173 acda 814e d23f
00000180: 05ce 676d 82a0 ca3f 408c 01c7 66bd cd3f
00000190: 867f 3603 6662 d53f 7d39 1a8f f22e dfbf
000001a0: 14d2 0bb5 8983 d73f 4b72 f58b 4da9 d1bf
000001b0: c04b e423 2ff2 d7bf ae23 92e2 2f67 d13f
000001c0: b4e4 4610 907e a93f bf06 26c6 1e6b b13f
000001d0: 9ea1 8629 0b5a e33f 20e5 c8e7 ac13 d53f
000001e0: 4ca7 9f62 a2e0 dc3f efad 58a9 130a e0bf
000001f0: 2462 2678 1170 d43f 8880 8f31 2a7c 91bf
00000200: f618 d7a3 d064 d93f 48f5 9a59 5065 b13f
00000210: c474 d56a 71c0 bebf 1ccb a377 76ac cd3f
00000220: d815 d120 0d0c c33f 3e1a d2f2 a8c3 e3bf
00000230: de7c 8de5 4b63 e2bf 4f32 6e5d 55f7 bbbf
00000240: 8a9a c944 f1ed c53f c488 b78f 9e01 a4bf
00000250: 4131 73e4 de21 ddbf 158d f912 f456 e13f
00000260: fc6c d532 848a e0bf d5ae 5018 e717 803f
00000270: eefb da7c c41b d2bf 83c7 b115 cd3a ddbf
00000280: 30e5 c399 c962 da3f 1541 2e02 9488 d33f
00000290: c90c f5e0 9fd0 c73f 74a9 a02b 94f8 c53f
000002a0: 4d75 6140 b111 c43f 5750 d4b2 746d c6bf
000002b0: 1cf3 1ac0 4e4a d8bf e315 7173 080c c9bf
000002c0: 6477 9b54 9644 d23f 1112 06bf e559 d93f
000002d0: 9a49 aff6 2148 ca3f 5d25 6609 5137 c4bf
000002e0: 0e32 6027 cded d9bf 079f 93bc 22d7 acbf
000002f0: 5e0d af04 ebb3 9bbf bad5 b934 bb66 d33f
00000300: 7a28 510a 0a5e d73f e8a6 591a 31b8 77bf
00000310: efd0 4629 1d03 bfbf 04fa fc5e 8d85 e0bf
00000320: f5a1 1a2a d8f6 dd3f 8a04 0023 beb5 993f
00000330: 302b 362a 6830 babf 6206 58c4 096b dc3f
00000340: baf0 2cad 5329 d5bf 5cb9 b9dd 3b33 d03f
00000350: f0b8 5aff 7003 debf f80c 33d1 aebb d8bf
00000360: 29b1 d2dc e7a4 cbbf e153 9631 1efe ca3f
00000370: e2ff ea26 1ebf d8bf 56cb a808 73d9 bfbf
00000380: 1a02 e5d3 9175 e03f 3564 eb2c 4ffd b13f
00000390: 5ae3 269a e47d d33f 50c4 c1cc 9a7d dcbf
000003a0: 3305 a6da f561 e2bf 6bb3 d134 a368 e33f
000003b0: 429e 32b5 3737 e03f 3139 82c7 ac4c d2bf
000003c0: 0212 d4bb 7fd4 e13f de6c 7275 40ef cdbf
000003d0: fd6c b419 72a7 e0bf 1854 bf40 7650 c73f
000003e0: 9461 ac77 368d d33f 6125 b544 8e98 d5bf
000003f0: 618b b68f a999 df3f af52 440f 584f d03f
00000400: b2ad 73fd 6c3e d73f 1af8 a1e2 31f1 df3f
00000410: 109e 4915 cb11 c0bf be48 18c7 f3cd c73f
00000420: e6d4 5536 2c1b d53f 6fd8 9b06 3927 e0bf
00000430: e5d4 fa8b 38e3 d73f 1414 6537 f3fe e0bf
00000440: f5e1 4110 fde0 cc3f af39 e749 36bb d8bf
00000450: 2f43 8e7b 956c cf3f f270 8ee1 0614 dcbf
00000460: 92ab 2009 be73 debf 3ae7 5eff 5bb3 d2bf
00000470: 0355 1b9b c1b2 db3f e019 fe11 9a7f d83f
00000480: 4971 5cef cd05 a23f 8b14 ff10 0678 e0bf
00000490: c757 a384 7f77 cd3f 480d 0dbc 5905 dfbf
000004a0: a6ac 1844 8778 d43f 9a5e af04 2958 c1bf
000004b0: bbae e7d1 d647 e23f cca9 f6b4 e603 d2bf
000004c0: e7af ed5f c824 e0bf b66d 6a33 7170 d23f
000004d0: 8497 2354 513c b0bf 1a56 9f82 4199 e1bf
000004e0: 5934 9a98 6d2d e0bf 75ec da7a e6c2 e13f
000004f0: 169a ed78 46e6 ba3f 881c 2212 4359 de3f
00000500: 320c d363 0bf1 bd3f b8c9 528c f974 c03f
00000510: 76d0 5f13 b06c c2bf b49d b0cc 5375 d1bf
00000520: 144c 2230 f933 e2bf f5e2 a457 3067 c5bf
00000530: 8212 833c 994f dabf dff3 9b05 8a10 dd3f
00000540: 5666 7e8b a14b babf 026c 1880 2701 dcbf
00000550: daa8 dc57 9119 c2bf 79a7 9369 dddd d5bf
00000560: cdc0 0904 a6fd debf bd17 a079 15f9 dcbf
00000570: a771 e5ca b5e6 d8bf ccf8 f63a 1bab d63f
00000580: 851b 3dfd a840 dcbf 12d8 6103 99a8 cdbf
00000590: 3627 c749 7474 e23f 5356 13aa a2c0 d33f
000005a0: a0b1 a85e 7ddb d6bf 24e6 9ed8 864e ddbf
000005b0: 780f 94c4 48c0 e1bf 8139 001f b79c da3f
000005c0: 982c dbc0 8827 dcbf 66b8 ff20 c8cf c2bf
000005d0: 0a9c 062c 9114 dabf d282 e081 c1c6 dd3f
000005e0: 09c3 a985 4d17 d8bf 077e 7a2f 929b e0bf
000005f0: 0801 98a3 d90e bc3f b37a b02c 03c7 e0bf
00000600: 9dbb 13fe cbb7 d9bf 4512 b236 2426 d43f
00000610: 5164 4d81 5c3f debf b1ef 127f 1d4a c1bf
00000620: 076b 3732 bac7 cabf 8738 303d 6a54 e23f
00000630: 5a35 8ae2 5f36 c63f ebdc 1d7c a2d6 d53f
00000640: 618f 8c8e 74c7 d5bf 43b6 5c1f b50b a6bf
00000650: c495 a512 4085 debf 3f05 4193 70d0 cebf
00000660: 75b0 5906 e8c8 d23f 2ee9 afc9 be95 d0bf
00000670: 9829 69cd 5860 d33f 4b8c 20dd 23ce ca3f
00000680: 98e0 2c7b 0f83 d2bf 78c2 237c 9e0c d33f
00000690: 3a09 8ed5 1f8d c43f 3a84 3ffa b995 cbbf
000006a0: 6a38 dc44 b7d0 ca3f 5e5f cd8e 85e2 c53f
000006b0: a5aa 4804 a2c9 e1bf 25bc f9bd 0a82 da3f
000006c0: 81f1 4c8c ef88 d73f 0cc3 4cf4 8850 c43f
000006d0: d297 7141 f11d d63f a383 c99b a6ad d43f
000006e0: 83e2 3c60 4eee cf3f 7ef9 2b5b 365d db3f
000006f0: be8f fc66 9e2c b33f 208c bc5b 3f74 ddbf
00000700: ffff 577f aa5a c9bf 0bef b2fb fcce e13f
00000710: 7cf3 09cd ab2d afbf ae4f 5428 9cac d1bf
00000720: 26fc 7d25 ee01 d9bf d4ff 7389 51b0 cb3f
00000730: ff01 1dea 92a9 ca3f fe57 1029 5a8e df3f
00000740: ef80 7336 5e07 e0bf 6e18 b869 61f7 df3f
00000750: 35a8 3020 2c5b bbbf 8b3c 7ac4 faa8 cc3f
00000760: 629d a4e7 58a6 aabf 0205 4e9f 2157 e0bf
00000770: d606 99e0 61b9 b3bf 135d 8f73 bbfe cdbf
00000780: edb6 a5f5 a106 e0bf 6dad bc67 6e52 d2bf
00000790: 4b11 0c97 1108 dfbf 2d66 c82a f789 87bf
000007a0: 83fe 9d8a 90c3 e33f 9e96 df8a 88b2 dbbf
000007b0: d700 793a 98cb d2bf 03b3 413e b91a adbf
000007c0: d4b0 bcee edfd d83f 4b60 d2d4 180f d13f
000007d0: b57a 318c 01fb c1bf b419 3c6d 2200 e0bf
000007e0: b24d bc4b 917d 733f 20dd 496c 3404 b53f
000007f0: f9c7 620b c4c8 b8bf 35eb 33e6 cc0e cf3f
0.36350753811220476 0.10198561202325955 0.39755810654704044 0.48617220900587155 -0.21589204654943905 0.03044820125919867 -0.09148797392845154 0.02019345760345459
-0.07109034061431885 0.4921710886022401 0.42660065567045224 -0.18356268159904293 -0.20251925632974166 -0.21104291809497347 0.4753048138522316 -0.5134111966807283
0.45818302302466 -0.3279614392413661 -0.06747736878148582 0.0667288170695864 -0.4213544372111878 0.35565996817868595 0.4223243390198668 -0.11027370890953136
0.5197941360874456 -0.2554061301084203 0.5761899080210671 -0.5920804764414311 -0.0990675146372718 -0.49299926048123716 -0.3421609936324351 -0.27836119019324684
-0.37766780319966053 0.17710648194592066 -0.5103405618112399 0.10806040359248828 -0.5417218634903812 0.21756776903345493 -0.4629138194351801 0.08201352680208872
0.49780100325153953 -0.1339837181884678 0.13154151967706704 -0.23487450347862762 0.07559950518989375 -0.3813895659030918 -0.48834459868856717 0.286041701839892
0.20802336065354168 0.23234257428257088 0.33413076699979916 -0.48724044775817515 0.3674034374264761 -0.2759584299836077 -0.3741567469125435 0.2719230377775216
0.04979372214024505 0.06804077470408297 0.6047416506817631 0.32932589183072203 0.4512105906602428 -0.5012300784632638 0.31934010251419154 -0.01707521369451162
0.39677825927755295 0.06795217692975541 -0.12012394769904505 0.23182564584529863 0.14880527593974935 -0.6176342718689012 -0.5746211512995634 -0.10924275904671642
0.1713239274860892 -0.03907485489232124 -0.45519230184142506 0.5418644304849375 -0.5169087403150168 0.007858090810337096 -0.2829447955409127 -0.45671393507574737
0.41227951065191615 0.3052110692306241 0.18605421528091018 0.1716485226655312 0.15678992885197332 -0.17521532756711863 -0.3795353771236465 -0.19567971836856576
0.28543623220854486 0.3961119046655606 0.20532631440307797 -0.1579381271260826 -0.4051392445115035 -0.056328855056390785 -0.02705352035606034 0.3031452193166292
0.36511469848176825 -0.0057908933718892955 -0.12114126451234929 -0.5163027625310979 0.46819118606302307 0.02510735596297712 -0.10230113058620982 0.4440330903454194
-0.33064739143061284 0.2531270661628662 -0.4689600461669121 -0.386455253883653 -0.215970022987116 0.210880064213284 -0.38666490364630424 -0.12441176377687432
0.51435176263482 0.07027144285838534 0.3045588975324357 -0.44516630168715654 -0.574458052680859 0.6065231353401094 0.506740430738269 -0.2859298656775478
0.5571898144267495 -0.2338638852569152 -0.5204401495024339 0.18214300309651388 0.3054939430890269 -0.33743626317717285 0.49375380548933917 0.2548427723971071
0.36318516493949027 0.49909636623476816 -0.12554300822670017 0.18597266408375462 0.32978349023990317 -0.5047879342153133 0.3732434622755377 -0.5311218339853689
0.22561610502067678 -0.38642651764976227 0.24550121815675527 -0.43872234370225194 -0.47581435099953595 -0.2921972268919607 0.4327854170526992 0.38278819806182973
0.035200534314045635 -0.5146513301812247 0.23020929314105684 -0.48470157017091653 0.31985646867787876 -0.13550293663751206 0.571269426317904 -0.28148811027736254
-0.5044900773623312 0.2881129266840746 -0.06342037491012148 -0.549957995530977 -0.5055454235567921 0.5550415420069742 0.10507622196528418 0.4741981198389529
0.11695929705733546 0.1285697875187688 -0.1439418882943106 -0.272786092655646 -0.5688444080464046 -0.16721157340523232 -0.41110831174254525 0.4541344694878812
-0.10271653800591571 -0.4375704527789709 -0.1414052657140193 -0.3416665583632646 -0.48423147577615283 -0.4527028739688566 -0.3890814286621897 0.3541935039355735
-0.4414465401682082 -0.23170769372126238 0.5767156067824775 0.3086325322050005 -0.35714658969916435 -0.4579178920208469 -0.5547221984311212 0.4158151438467926
-0.4399129756317932 -0.14696599589609888 -0.40750531482120833 0.46525609668064505 -0.3764222913078333 -0.5189906050981684 0.10960159534443303 -0.524293505939417
-0.4018430691930293 0.31482796994558654 -0.4726172697751894 -0.13507431702407538 -0.2092201943586007 0.5728045649609762 0.17353437959210788 0.3412252628399545
-0.34029878540808595 -0.04305807121123142 -0.47688295193651364 -0.2407360762609105 0.29351235027457473 -0.25913972564707677 0.3027555471386676 0.20941589638923327
-0.28924929646337594 0.2976452076245901 0.16055677344781732 -0.21550678939004958 0.20949450361553384 0.1709753939892335 -0.5558633884114285 0.41418713142678804
0.3677328939554841 0.1587077324743621 0.34557753935802993 0.32309880460348434 0.24946002673256737 0.42756422904485436 0.0748995782310535 -0.460220183931769
-0.19807940690952816 0.5565171161647141 -0.06089531782070076 -0.27616027773296536 -0.39074281369534203 0.21631831370905152 0.20829998427690552 0.4930634881033028
-0.5008994163036088 0.49947390865452845 -0.10685992990389155 0.2239068469393469 -0.05205037906335509 -0.5106361495419665 -0.07704745992034687 -0.23433631079272085
-0.5008096502112643 -0.2862812054688309 -0.484867475039455 -0.011493617051246375 0.6176226336828708 -0.4327718120751828 -0.29367643079969014 -0.05684450993508074
0.3904986220757227 0.2665464475953782 -0.14047259660124714 -0.5000164159289882 0.004758422433741515 0.08209540981066654 -0.09681344297385398 0.24263917198535415

layer1.bias f8 [100]
00000000: 96df f0d7 a9a8 e0bf 0cab 8297 ef06 d73f
00000010: 0000 0000 bb09 dbbf c9da 36f4 3e5c ce3f
00000020: 7a9c a9b7 7624 ccbf edf6 04ff 1d30 d93f
00000030: 83aa 2493 87c1 c13f 600c 1d2f 0919 e2bf
00000040: b571 70df 0692 dfbf 1998 97fc 6fa7 ccbf
00000050: 0b88 a084 4b0b d6bf 7329 5e8b 7d90 d83f
00000060: 07c5 6644 8ef5 cdbf a2bc 61d4 301a e3bf
00000070: c7fe bf7b 1088 dc3f 7eb0 fa32 4b23 c4bf
00000080: bf26 bf70 b5f2 d13f caa8 f78e c862 dbbf
00000090: b0f0 3d9b 4208 e13f 0827 cf63 3189 d93f
000000a0: 5b1a ce7f 54c8 de3f c9ca 4393 661e ae3f
000000b0: 7c4c 0034 00c5 db3f dd47 d451 a26c d6bf
000000c0: 0276 5a50 0fcd bebf f5e8 5f14 52fb c43f
000000d0: a68d f4ae 1df7 d63f f297 9e4d e53c c9bf
000000e0: 6418 3817 822e b13f 5727 20d0 7361 ab3f
000000f0: 4640 01dd 2e31 dfbf d497 d8f0 acea bc3f
00000100: 83f8 edf7 abc1 ca3f 8893 172b 0fb8 b33f
00000110: 560e d5ee c14c d8bf bda5 3ad5 e9a8 d93f
00000120: 1106 06e5 f4a0 c73f 63bf 38ec e5eb e1bf
00000130: 04e3 d98d ef04 dd3f c837 9168 0304 e2bf
00000140: 559c fff9 53b5 cc3f b3c7 1d70 24c2 e33f
00000150: d41e bd59 2963 c13f ae29 48f4 2ddd da3f
00000160: 1bbd eca2 116d b0bf 8bf7 c1d2 c1ff d9bf
00000170: 2e62 522c 29fa e13f 0656 1e3b f6ef cbbf
00000180: 2804 6fed e095 d6bf c5dc 927d a475 d53f
00000190: 1372 1a3c de75 9c3f e9c9 916f c627 acbf
000001a0: 4d6e 96b4 eeb2 ddbf 5aa4 6f5f 6a89 dabf
000001b0: 2ae1 6fb0 870a debf 1a30 f44a 7f9c c13f
000001c0: 47f0 ff1f 45c8 a33f 1f06 0da1 faa9 cdbf
000001d0: 8b8c 3acf 9abe d6bf 8272 2248 efc6 83bf
000001e0: 4781 959a eb89 c13f c459 8611 d9de ca3f
000001f0: 9c7a 8bff 510d d7bf 39d2 19d4 f3ff ae3f
00000200: 9186 4316 6e73 df3f f059 ec69 ff20 e43f
00000210: 95eb f7eb 2989 dcbf 20d6 c70f 3445 57bf
00000220: b280 3d5e daa4 ddbf 7c45 ca40 62b1 ab3f
00000230: 50cc ac75 04b6 de3f 2548 fb9c 49d4 d6bf
00000240: 6fb8 ccfd 8034 e2bf 88e3 4a91 0cad b73f
00000250: 5c43 dd03 b225 e3bf d1aa a8f5 3d00 e3bf
00000260: 8f6f f4f8 7dd4 c3bf 4f6d 7e71 3ad0 d9bf
00000270: 8575 9428 2ae6 d93f 7507 2156 c7a6 e0bf
00000280: d7a0 0dc2 7ed4 c53f 6789 5ec6 1993 d23f
00000290: 485a 40a6 3e00 e03f 8a38 0777 cda3 cabf
000002a0: e62c c52c 6d73 dbbf 8c78 2fd4 b616 d33f
000002b0: 3242 3cc2 c5b3 b33f ae33 0cda e1fb 9c3f
000002c0: 7746 b211 2edb b0bf 2d2d 297b 7f3b d13f
000002d0: 6662 3ee9 8ad8 b63f e5df a0c1 d80b debf
000002e0: 5510 164b f0aa a83f faef c09c c1d3 cbbf
000002f0: 1bbb 3fc2 b37d e03f 22ff b3f5 d2df debf
00000300: e7ac c51f 8a91 8e3f c28e c71f f1ea d9bf
00000310: 8c60 7b59 4c1a e23f 0000 00e0 a8c7 d3bf
-0.5205888002010279 0.359798334082982 -0.422468900680542 0.23719012188458624 -0.2198627850332036 0.3935618391441114 0.13871855435111877 -0.5655561371026003
-0.49328777141797825 -0.22385978540040766 -0.34443939163077236 0.3838189946187846 -0.23405626621164563 -0.5969471119004945 0.44580471119841686 -0.15732707967015708
0.2804387665788503 -0.4279042621771053 0.5322583229131137 0.39899859187117714 0.4809771774384097 0.058825688816701645 0.4338989742111108 -0.35038049689421574
-0.1203164645362094 0.16391969675880316 0.3588327606723517 -0.1971708897592062 0.06711590830681896 0.05347787776561457 -0.487376895737729 0.1129558647158711
0.20903539281784242 0.07702727129033182 -0.37968490909063257 0.4009346563639971 0.18459950621404222 -0.5600461591438769 0.4534262547745558 -0.5629899065331694
0.22428369242627136 0.6174490155956306 0.1358386696031092 0.41974972587254455 -0.06416425922065054 -0.406235175912905 0.5617872110042919 -0.21826055418630136
-0.35289786517029365 0.3353053308778267 0.027793381136335848 -0.05499096023494927 -0.4640461696196539 -0.4146371776574306 -0.46939270239046726 0.1375884166703834
0.03863731399175712 -0.2317498480206703 -0.3553835891454546 -0.009656781567451537 0.13702149436995567 0.2099257789202068 -0.3601880069308352 0.0605465122615993
0.4914202897472047 0.6290280407727646 -0.4458718113307268 -0.0014203079618914163 -0.46318682864331173 0.054087706002188235 0.47985946170519345 -0.35670700388175397
-0.56890916414501 0.0924842695921041 -0.5983514857744967 -0.5937795446419277 -0.15492224365231919 -0.4033342464769775 0.40467313731081617 -0.5203587228972838
0.17054733729606283 0.2902283131790199 0.5000298735711306 -0.20812385856556076 -0.4289200722893852 0.2982613632319804 0.07696186058115798 0.028304604466984955
-0.06584442073860851 0.2692564680807717 0.08924167818475723 -0.4694730654623512 0.04817915836886814 -0.21739978937137022 0.5153445047306805 -0.48241113657421597
0.014926032156572023 -0.4049647150370498 0.5657102344221285 -0.3090612590312958

layer2.weight f8 [100, 100]
00000000: 06fe a285 086d a63f 043f 805e 2a6d c23f
00000010: 0000 0000 20ad 913f 5b90 df1f e2be ae3f
00000020: eda4 0aa9 842e 993f 6f69 05ce 84f7 b33f
00000030: a0db ef65 00a1 56bf f1c7 add9 44ad b1bf
00000040: f31b 4db2 1629 b33f c39f dd09 49f4 ac3f
00000050: b1e0 f5f6 bb84 ac3f d804 dbb7 00fe 9bbf
00000060: 4059 23b9 7a6a 983f 39fc ad7b 31b9 aabf
00000070: ee7f f312 657c c13f 093a 2d6e e89a b63f
00000080: 05f5 778b 1708 a4bf ae7e 9ba1 16cc c3bf
00000090: 1e2b a419 8ee1 963f 2c16 9a0d 9859 a2bf
000000a0: df6a 41c8 352d 993f 6b4a 919d b886 96bf
000000b0: 7d34 ac16 5e17 c03f caf3 578b 0273 73bf
000000c0: a15c 396d 4f10 933f 8e7d 6085 8915 bf3f
000000d0: ee90 1b34 b0da a53f fd8a 18a6 0c64 b0bf
000000e0: 2998 1831 d067 a43f 446d fcef 928b bd3f
000000f0: 9533 c51e fd16 bfbf 82be efe5 a1a7 af3f
00000100: 3912 b1d3 0e2b c03f e363 e142 55c2 babf
00000110: 0b42 bcf6 32e9 babf 5a48 c9a3 0b35 9b3f
00000120: 88ed aebc 3c02 ab3f a413 1214 d07e 9a3f
00000130: 623c 84bc 3804 8f3f 7ae3 f52c 49f2 a53f
00000140: 7675 5a62 d585 b63f 8a84 edaa 0914 743f
00000150: 5013 696c d544 a0bf 583b da18 cf64 c13f
00000160: 5300 0df4 dbf6 bf3f 889b 35de cb7b ad3f
00000170: eebb 9482 fd19 b03f 625e 7015 6477 8abf
00000180: 0e23 1708 79ac 773f 2f77 6fde 72ea b33f
00000190: e2ab 8f8a 1e4c 893f d617 387a 0f40 9ebf
000001a0: 42c9 114e 992b 973f ed4f f315 1069 a73f
000001b0: befc 5cf8 d719 bf3f 8c4a c921 9104 a4bf
000001c0: 10cf d53d 6df8 b53f b490 dfdf 4e7f b83f
000001d0: 7f2f e612 cd37 b8bf 7bc1 8790 66c5 c1bf
000001e0: 0979 9aca c520 953f 77ab e66c 6cdd b23f
000001f0: 8ac8 d770 2346 a6bf 884c 44ab a322 a43f
00000200: bd65 a2c9 bcf7 bb3f 102b 396c 686a a43f
00000210: 3d04 bfe3 81e7 a9bf 3150 9092 95ed 7d3f
00000220: c8ce 991f 1ab9 a4bf c8ec 3418 8d29 96bf
00000230: 652c 1f7c f1b1 c33f b024 bdc2 27c4 bc3f
00000240: d83e 5e2c b065 a4bf 4c54 0807 68b7 90bf
00000250: 93be 5a66 ffab aebf ef9b 4e34 187b 873f
00000260: fcf5 7fd4 4b46 bebf 9524 3373 b3a6 a63f
00000270: a1bb ec53 8026 993f 5386 338e 438c bd3f
00000280: a7e7 2d5f eb71 b63f 9f72 3441 be32 a4bf
00000290: f920 ce9c 4d1f 8cbf a88d 4af2 5f77 b63f
000002a0: c8a5 7d38 fc96 bcbf 9ec9 3f08 5e94 bc3f
000002b0: a941 72cd e8fa bcbf 17b3 a103 07a6 943f
000002c0: 9292 2374 f006 933f 9f6b 4849 e792 c03f
000002d0: e4f1 990b 5b67 983f 031a c8c8 07ec b0bf
000002e0: 128f a8fb 7f45 c03f 78ae 98cf e2d4 a3bf
000002f0: 2f24 161b 043d c13f 36c1 aabb 2996 a13f
00000300: 381a 3d23 7aed bf3f df71 ed2e 598c 8fbf
00000310: 8517 54f0 4292 a13f 0000 0000 85d6 87bf
00000320: 3cf2 6384 563f a63f 7abf 2067 1942 bc3f
00000330: 0000 0040 b400 ab3f ed81 55c0 852a bfbf
00000340: e90b 50cc 4de0 a2bf 915c 187d 3c2c 8e3f
00000350: 8fae fa38 d054 b93f be2a 82cc abe1 b7bf
00000360: 6bc6 8ed3 5704 b03f b596 beac b17b 7fbf
00000370: 4766 03f0 4fbe abbf fc61 c023 8895 743f
00000380: 539b 5cc2 4395 a0bf 1ec1 1f46 960d a0bf
00000390: f658 e130 39bb a03f 0026 6292 94e1 9f3f
000003a0: 289b 3536 afdd 97bf ef4c 5a54 fc6f 833f
000003b0: b6f1 760c d148 b03f 4c6e bb7c f1ea a8bf
000003c0: 6f85 f349 aacd 94bf df09 22a3 2289 afbf
000003d0: 4bbf fbb1 063e c13f cf8c c657 87d5 8bbf
000003e0: fdc1 fa07 6de2 bdbf 6e30 c06c dec9 99bf
000003f0: 30ec e652 b65e b93f a63d a95f 2571 a33f
00000400: 5fc0 f144 f74b 7d3f eb96 8e02 0ca4 5bbf
00000410: 4c8a a6b6 7124 b2bf 6540 9bf7 21d5 633f
00000420: fce5 cae8 8a03 963f 45db 58b8 0899 71bf
00000430: e449 16a5 47c3 9e3f 0fda 215b 2fec 9f3f
00000440: 698a 350f baf8 a5bf 46bb db42 a212 c0bf
00000450: 43fc 1dcc 9a6e 70bf adf0 7faf 72bf a43f
00000460: 9877 41f2 c635 b23f 81f1 62b4 0f22 ba3f
00000470: 51bc 64c6 bd75 a9bf 27cc 649a 9474 ab3f
00000480: d879 9282 26e9 c13f c331 a9be 9b8c 9ebf
00000490: c266 c5e1 73d9 bc3f 1b1f 638e a8f4 a1bf
000004a0: 0906 729e 5279 acbf a5d3 b157 bdb3 acbf
000004b0: 5d00 0401 8c95 abbf 0505 ad4d f293 9cbf
000004c0: ab97 e3d8 017b 9a3f 49ac 76f4 34d0 bf3f
000004d0: bc14 1529 d4bb a4bf e847 b46b 5747 a93f
000004e0: e1f4 54fa 0429 733f ec97 bbf3 1a12 92bf
000004f0: 2527 b51f 7573 c2bf 2f04 ad10 a7b1 a6bf
00000500: e393 7ff0 4bb9 a6bf 1070 92cf 65e8 b03f
00000510: d4a5 1389 c448 7a3f 2a88 539c 3863 b73f
00000520: efb2 c0ba 4493 a8bf 646f 2ff2 0377 b83f
00000530: 12a7 3eaf a81e c1bf f225 ffe1 4033 683f
00000540: 27f8 a6a2 c051 7d3f 5f19 8a77 7a15 a5bf
00000550: 35a2 6391 36b6 bb3f 8f5f e9c5 d864 623f
00000560: 8845 246d 31a6 a1bf da2a 08e7 d9dd b03f
00000570: df3f c960 a111 b0bf e441 3046 4408 c4bf
00000580: 5440 6ebe 95df 823f 5e73 036f cd9c b63f
00000590: 10a5 bd9d 2bce a5bf e27a 63d2 dc04 a53f
000005a0: b560 0d0f cf36 b53f 6ce1 216f 41d7 92bf
000005b0: 8722 2423 ada8 90bf f6be 90d1 5d3c 9f3f
000005c0: 3a2d 107b 4ccb 9ebf 851e 7524 9831 b23f
000005d0: 7b85 b1e5 a019 bc3f df86 f7d9 b1b9 953f
000005e0: 161a b8e3 7e2f b0bf a299 eb8d 0c4d aa3f
000005f0: 2f20 3589 e106 b93f c055 28ed 11fc a63f
00000600: 2d26 cb17 8595 bd3f 2559 3495 03f6 a93f
00000610: 6622 a9d8 4219 b93f ec05 2c22 d7ff 97bf
00000620: 690c 11ee 6822 b63f ff28 3ab8 af10 a7bf
00000630: 90a4 e24a fb8b b33f 0000 00e0 e416 b43f
00000640: b05c 3d91 36c0 693f 24f9 f7e7 3775 a4bf
00000650: 0000 0080 26c5 9b3f 6c58 20a0 64c9 b43f
00000660: c8d7 db22 e86b bbbf 9c3c ab57 4f4e b6bf
00000670: aeba da5a fb9c aabf cd51 f26c 03ba c13f
00000680: 9d8a 0d22 0b4c 80bf 53fd 6fef c344 c3bf
00000690: 7872 0970 8444 babf c1d7 cd9a 7971 6b3f
000006a0: d7b4 116d 30fd bdbf 675a 69bd 1c4e c03f
000006b0: 2b90 45b6 979a 903f 58ae c5dd 910f 9d3f
000006c0: c390 86cd 0c9d b1bf 6d4c 1e83 cca5 be3f
000006d0: 9e8d fcf2 4356 acbf bea9 d205 5d2f bfbf
000006e0: 3972 f5f9 7c4d 263f 2ed2 9884 3c4a b4bf
000006f0: 4a50 25af c33f c0bf 86cc 40d7 5fa1 82bf
00000700: 3476 2d1f 2be8 a9bf da6a 8346 fa49 bc3f
00000710: bf9b 11ff ac0c a2bf e374 a1ab 0d36 b6bf
00000720: 62c1 69d2 95ee b73f 40ec 0cac 3e8f c0bf
00000730: 671a d1d1 c7f4 82bf 01f6 944b 7a8c babf
00000740: 428f a652 e5e1 023f dda0 06e6 4f4e ac3f
00000750: 1c2f 77e3 a71b 87bf 0d4a 7884 dc50 a8bf
00000760: 3115 6018 1ff6 a5bf 8e52 3afa 0783 693f
00000770: c40a 1d4d ba15 9abf fd2b 884b 696b c23f
00000780: da67 f31b 24bf b73f 2fae 09c7 1f38 883f
00000790: 8e3b 3fbf 31f2 2abf fa3a 95f8 9b00 9f3f
000007a0: ae98 0684 f3fe b93f 4fe5 b3e9 7966 823f
000007b0: 8811 3838 4ce3 93bf a962 e649 e1e0 b3bf
000007c0: 516b 4c5a a7a0 c03f 2bf0 1070 4a7f 95bf
000007d0: 8022 05c6 7f94 c13f 1dda dccd c844 83bf
000007e0: 919e 5df2 ac62 c43f a92f 6691 5bd0 67bf
000007f0: 09f5 1497 c983 b83f efd9 d0a8 9c10 bb3f
0.04380060797984346 0.14395646681122554 0.017261981964111328 0.06005007399633718 0.024591515367011253 0.0779955866795825 -0.001381159199579797 -0.06905012430595982
0.07484571316773252 0.05655124898368016 0.0557001818623929 -0.027336131307269834 0.023843686628276517 -0.05219416270028216 0.13660872865057122 0.08830120744571714
-0.03912423684594483 -0.15466578379618084 0.022344799342174253 -0.03583979764975384 0.02458652529490279 -0.02199829541889146 0.12571312052788022 -0.004748353899683042
0.018616906205661924 0.12142238146087989 0.042684084282685095 -0.06402663283419581 0.03985453223531039 0.1154109798339294 -0.1214445304987762 0.061825808828754894
0.12631402336605094 -0.10452778704474457 -0.10512083553135924 0.026569539901466356 0.052751443894034244 0.02587437746526046 0.015144770863598282 0.04286411928018814
0.08797963763432456 0.00490192200126772 -0.031775159343431114 0.13588894570826926 0.12486052234908245 0.057585116267367786 0.06289658010494723 -0.01292303266931966
0.005779717235278493 0.07779615335990962 0.01235221729617381 -0.029541246256506636 0.02262725390432619 0.045723440818306794 0.12148809255176027 -0.039097342848113475
0.08582194099090779 0.09569256749779492 -0.09460145675092056 -0.13883668954032288 0.02063283013432574 0.0736911550399507 -0.04350386383511402 0.03932677713069049
0.10924892351831424 0.03987432786069267 -0.05059438614944909 0.007306656139025634 -0.04047471652748197 -0.021642880060636555 0.15386789856561048 0.11236809257856595
-0.03983831922152853 -0.01632463972972102 -0.05990598797268123 0.01146525296810627 -0.11826013505920935 0.044240577518914005 0.024560933229789254 0.1154215070887628
0.08767577241624612 -0.03944963975866255 -0.013731581065954833 0.0877590147525128 -0.11167885188265025 0.11163890553851849 -0.11320357337741051 0.020164594265611315
0.0185811587224572 0.12948313787714213 0.0238317704993153 -0.06610153819938351 0.12712096965798786 -0.03873356613288775 0.13467456171591283 0.03434877792222084
0.12471736297911995 -0.015404412026037427 0.03431901153275788 -0.011639632284641266 0.043451980267466855 0.11038359420558477 0.05273974686861038 -0.12174259133963235
-0.03686755293895045 0.014732811515427964 0.09895039931387316 -0.09328721754915656 0.06256627001746444 -0.007686323206063929 -0.05418634228562929 0.005025417132877848
-0.03238879916744133 -0.031353660640777145 0.03267840120013148 0.03113395827725718 -0.02330659645431435 0.009490939449540351 0.06361109308540489 -0.04866747520074152
-0.020315800441385642 -0.061593134320918834 0.13470538797946072 -0.013590867391775422 -0.11673623509228288 -0.025184131038301798 0.09910144351935979 0.03797261040437698
0.007152524848706403 -0.0016870610508958282 -0.07086859425775421 0.002420965521061235 0.021497889002352707 -0.0042963352803358544 0.030041808558573538 0.03117441171385776
-0.042913259846291414 -0.12556865944449153 -0.00401173083980583 0.04052313225108271 0.07113307394453583 0.10208223489730096 -0.0497264198951305 0.05362381348313532
0.13992768645853348 -0.02983325339509847 0.11269306432714202 -0.035069720631837074 -0.05561311897418981 -0.05605880446902426 -0.053875327228525484 -0.02790812110038578
0.02585986028943636 0.12427073448513783 -0.04049551965230466 0.04937241735218817 0.004677791065941878 -0.017647191168087703 -0.14414848373626757 -0.04432413176119387
-0.04438245116015318 0.0660461074607499 0.006417052952408981 0.09135774437484714 -0.047998569294895314 0.09556603110052958 -0.13374813610908426 0.002954127048700122
0.007158043367267586 -0.04117949208471105 0.10824910211125245 0.002245353112169064 -0.03447107751174899 0.06588518038203564 -0.06276901829664848 -0.15650227954075924
0.009215516923888036 0.08833011589326875 -0.04258858013674616 0.04105272358150615 0.08286756627547016 -0.018399259956340883 -0.016268449086995786 0.030503717342241075
-0.030072398196393048 0.07106924905849084 0.10976605994939874 0.02121618168701544 -0.06322472629117501 0.051369087528473814 0.0977612457255652 0.04489189167012908
0.11556274252793548 0.05070506283134283 0.09804170407836352 -0.023436891041461225 0.08646255314038033 -0.04504918216578523 0.0763546998811242 0.07847433537244797
0.003143412186470927 -0.039956805292592074 0.027119256556034088 0.08119801434836099 -0.10711527682346322 -0.08713241472581718 -0.05197892650663981 0.13848917789131435
-0.007957541443550037 -0.15053605262071787 -0.10260799155498457 0.0033500075427878866 -0.11714461005040576 0.12738379715547696 0.016214724063857638 0.028379706536198007
-0.06880264299121834 0.11971739007121736 -0.05534565297264325 -0.12181645767365176 0.00017015600767934945 -0.07925775754194639 -0.12694593479193578 -0.009096859699729853
-0.05059942966066125 0.11050380918042482 -0.035252958427740115 -0.08676228943064106 0.09348427187956568 -0.1293714847650751 -0.009255944338417877 -0.10370601983319007
3.601533019839547e-05 0.05528497393544438 -0.011283218030164792 -0.047491923494949 -0.04289338276434263 0.003114238339387682 -0.02547350974715347 0.1439029330070695
0.09276033098595296 0.0118257982841988 -0.00020558221115015953 0.030275761649416012 0.10154649709019978 0.008984520382443377 -0.019421759539925115 -0.07765014700124574
0.12990276249987656 -0.020993388261772033 0.13734433335254792 -0.009408539564543844 0.15926133951437696 -0.0029069698750329898 0.09576091707727498 0.10572222825508225

layer2.bias f8 [100]
00000000: 3382 e2bf 727f a43f 044c a549 1ea3 993f
00000010: fd94 f689 1ce9 b4bf 6959 f4b6 033e c83f
00000020: b01e d7eb 4431 c0bf 70b7 170d 44be a4bf
00000030: ee82 614b d2e5 b33f 2681 3a5e 2559 acbf
00000040: 5fb4 9ff3 6392 bcbf f488 1ad8 2390 c43f
00000050: 425f 09b7 4e15 9ebf 0ecd 9bfb 937e 8f3f
00000060: a6e7 0508 6477 c73f d28a e34e 2c39 a2bf
00000070: a08a 109d 30c1 c73f 37f1 f825 77a9 b33f
00000080: 330b 66cb 3ae8 a5bf da6d 2367 4660 953f
00000090: ffe4 5ad0 e6cd a6bf 2e5d 4379 add9 bdbf
000000a0: d3ee 0cbd 349d b53f c79c 9d83 5523 b9bf
000000b0: 1c43 5504 da99 b2bf 7e6d 05d7 adbd a6bf
000000c0: 487e 91c7 3e9e 94bf 8cc6 28ef 5b58 b63f
000000d0: adc0 e288 1d54 c63f 3b66 881b 9dbc aa3f
000000e0: ca24 bd30 9054 9d3f 2aff 4260 3c65 b2bf
000000f0: 32f6 3e33 cb08 99bf 0fec 4e15 0959 bb3f
00000100: 830c 7a3a 5391 9fbf e412 5eba e411 9e3f
00000110: f205 1250 261c 903f 191f 3c7d 9c43 a43f
00000120: 1ae0 16f7 e9dc a33f 14cf f711 86d5 77bf
00000130: 5e77 30f6 c889 ba3f 9f25 a137 18fa be3f
00000140: fc52 b792 5f55 78bf 850b d796 604d c13f
00000150: 312a ef41 681f a8bf 2023 802c 439d 9f3f
00000160: 0676 bfc2 71ed c43f 5f29 0520 ebf1 c73f
00000170: 4fae 44ed 2f56 bf3f c770 6d44 787c b0bf
00000180: f716 e5f4 5cf4 b7bf 6c53 70b9 8457 a13f
00000190: 50dc c9ec e1a1 c43f f3b1 630e a1b8 b83f
000001a0: 53b1 294c 9fd0 a4bf a057 e892 ef03 abbf
000001b0: e6bd 5850 a350 a0bf 061b 7e5b f3a6 553f
000001c0: bf1b aa57 5cc8 a23f 52d7 d4f1 3c00 753f
000001d0: 45b8 c897 b53a ba3f 1b1c 6bc2 6ec8 b4bf
000001e0: 6df5 6971 5363 8d3f 683c e672 0428 b53f
000001f0: 899f 0b95 79c2 c2bf 6589 21c6 0225 be3f
00000200: 75ec 126c 593a 643f b949 262b cdf5 c33f
00000210: 57ba 857e 5b05 a3bf b06a f020 ab0b b03f
00000220: 4b6a faf4 c07a c7bf 9949 6d22 f8c3 b4bf
00000230: 62a4 c1f5 b066 bf3f 216d 6834 5fd5 b6bf
00000240: d6b7 011d 83c8 bebf 11d8 074e a78b a6bf
00000250: fada d987 9bde c7bf c3fb 1e4a 0930 bbbf
00000260: 00ee 6f2f 4eb5 a2bf 7b96 01fc 181a b83f
00000270: f1ab ff40 438f c23f 3e9a 01c2 f721 963f
00000280: 1248 e285 af09 bbbf 4b7e c11e 7d6a 8a3f
00000290: 7c7d 733f c3ad a23f 3f15 c061 2aad b63f
000002a0: 957d e1d4 a322 ab3f a8c0 5062 cf3e b7bf
000002b0: bf66 be9c ae54 80bf 8a7f ec0d a4c8 a1bf
000002c0: c1b8 2c60 dc7c 8bbf 3217 6b65 ee77 c2bf
000002d0: 13c1 5d68 9415 a9bf e36b 420c 910b bf3f
000002e0: c178 c8db 7a8a c13f 2c71 0651 36c8 b43f
000002f0: 7cbf e793 e8a4 39bf 0409 480d 81ca be3f
00000300: 45af cbcd c4cc 73bf d454 8bca 924c c7bf
00000310: 46c9 3e30 9eeb 99bf 93fe c634 3583 b03f
0.0400348529085516 0.02503630947587611 -0.0816819989036794 0.18939253266644165 -0.12650357738151774 -0.04051411304304409 0.07772554722169975 -0.055367629768854607
-0.11160874078605464 0.16064880420623917 -0.02937815658728416 0.01537814723585609 0.18333101646186128 -0.035592445974335654 0.18558318776293437 0.07680458714543624
-0.04278739674466294 0.02087507252222829 -0.0445396546687764 -0.11660274706388371 0.08443002334109488 -0.09819540465615538 -0.07266008954799158 -0.04441588639994175
-0.020134907656368634 0.08728575314378356 0.1744419973742927 0.052220258341730795 0.028642895674498438 -0.07185723638667399 -0.02444760799675389 0.10682732362958823
-0.03082780880368975 0.029365133166282656 0.015732382428273746 0.03957833317514154 0.03879481450297835 -0.005818866454763389 0.10366493235093574 0.12100364072934731
-0.00594079335447328 0.13517386784777954 -0.04711461834775255 0.03087334593877522 0.16349622735189956 0.18707026542171953 0.1224088625210069 -0.0643992583331424
-0.09357243517760226 0.033870837818688354 0.16119026243152001 0.09656721688561003 -0.040654161498283735 -0.052764403040938435 -0.031865218694630035 0.0013215424096146302
0.036684880925399004 0.005127180161528093 0.10245833354631013 -0.08118335958998595 0.014349605463616933 0.08264186673317087 -0.1465599038849599 0.11775224053557094
0.002469229366935328 0.1559387646380637 -0.037150248713136484 0.06267804674318245 -0.18343364679170046 -0.08111525383473007 0.12266069412147965 -0.08919329671373478
-0.12024707277461685 -0.04403422191164464 -0.18648094304418078 -0.10620172557444989 -0.036539500513722345 0.09414821770186592 0.1449970309616613 0.02161395188923109
-0.10561654108667565 0.0128984236727653 0.036481954093455976 0.08857979666216396 0.052998656975201154 -0.09080215597419061 -0.007974018248023794 -0.034733893108067695
-0.013421746907252065 -0.14428501083437478 -0.04899276517869757 0.1212702422075576 0.137038571659053 0.08117999532845904 -0.00039129903953404716 0.12027746748211504
-0.004833954587166127 -0.18202433481079672 -0.02531287354913416 0.06450207270153845

layer3.weight f8 [100, 100]
00000000: 96bb 0f75 c13b a8bf 8db3 a0d7 a79f c23f
00000010: c069 0d8f 46d0 a2bf d58f c0d1 cb34 c23f
00000020: 69cd fc4b 4701 c2bf 9e2e 8ed5 90ee a4bf
00000030: 800f 0863 80e2 be3f c9ff 0cbd c09c c2bf
00000040: ffe0 aa04 98b2 a2bf e8f3 7484 b3e3 c23f
00000050: 83a0 90b0 cebd 9d3f c679 1294 14c7 a23f
00000060: 50ba be17 f04d c13f 1b8d 9bb3 fa92 a83f
00000070: 8993 5099 bcff 99bf af50 e2f1 3ae4 a6bf
00000080: 645c 01b2 4b19 803f 3491 64ae 88df b13f
00000090: 3222 3cf4 07dd b5bf 8d49 c64e 8d78 8c3f
000000a0: 8064 fbf9 51e9 c13f 5805 f21e 2643 82bf
000000b0: cbb9 2973 084f 94bf 6b25 01e1 4d03 b13f
000000c0: 25a5 7ff2 bd68 a43f 668f 6bb8 bb94 a53f
000000d0: 05f3 6279 9a9c 873f 4350 3036 2701 adbf
000000e0: 9e62 99a5 f0bb 913f 4757 6b8d 3cec c7bf
000000f0: 1bf9 7d1e f2ed 9dbf ca76 4491 c091 c23f
00000100: 2237 7f80 a939 bd3f 287c 1156 da43 b13f
00000110: a8e2 7f8c 5e8b a5bf 53c1 1ef4 074d ad3f
00000120: 9964 b230 a647 7f3f 65c9 8bad 5863 b1bf
00000130: 7499 c611 35d0 b43f e592 4c6d 8256 ba3f
00000140: c585 93ec d802 aabf 3e77 d883 6b76 bb3f
00000150: 570a f894 c564 b0bf 92d4 d1e0 6d24 bb3f
00000160: 3222 d4cf 72a0 933f c854 3e0e 7af4 c53f
00000170: d1b9 be36 7fbe b13f 03ab aa89 084d 843f
00000180: a50f d8a6 a068 bfbf 00eb 8bf1 989e a63f
00000190: c1c6 175c 89ab c53f 3b7a 136a 128c 6b3f
000001a0: 7846 f11c 00b0 b3bf f257 02fa 3782 b0bf
000001b0: e7fa 7984 955b 743f 86ae cca6 5daa bbbf
000001c0: 9b19 f971 2a14 c13f 407c b814 a107 b53f
000001d0: 17d8 f9c6 7197 623f a6f4 1baa 9456 5bbf
000001e0: 4aed 4141 4ac9 c63f 01cf f770 e17d a6bf
000001f0: 764d 6e8a 40f1 b2bf 2dc0 b134 e02c 7c3f
00000200: 03fd 912f fc6f bf3f 1523 52e1 9327 b83f
00000210: c5ff 7048 518c 833f 39f8 eadb 6d75 c13f
00000220: e3a1 cb93 5804 bebf 82cd 79bd 95a8 b8bf
00000230: 04a4 3f4c 63f7 95bf cd23 3955 89b5 b3bf
00000240: 7e81 d148 021d b7bf fd46 c75b 251a 9fbf
00000250: 9a19 ced0 aebc b2bf a8f6 0d3a 7447 43bf
00000260: b4dd eabf 4008 b7bf 74aa fd48 a5ef a9bf
00000270: 2afd a642 a69b 8b3f 5435 b2d0 325d c13f
00000280: 5bbb 4d56 d3b5 b2bf 9a20 c183 6128 803f
00000290: 2045 cff9 9a3d b43f 3fd2 caaa d01e bf3f
000002a0: bbc1 ed76 9528 88bf 82cd 6ef8 1d6c aabf
000002b0: 2856 1ba9 fe77 b33f 2ee5 a8a6 108f 8a3f
000002c0: 611c 379f dc07 a13f 83c3 4c6e 8bb4 a3bf
000002d0: db10 c080 dd90 b3bf 3a07 6d33 35fe a53f
000002e0: 64e2 24b8 3f82 6f3f ea59 7602 f112 c53f
000002f0: ce04 c9d1 5999 8bbf 517e cdec 8d7c b13f
00000300: 5845 c543 ff1a 993f 0862 9b0e c407 99bf
00000310: 1231 2e85 12d4 97bf 6b9d df6b a2dc aa3f
00000320: a08d a1e9 861a 8e3f 723c 72ad d52b 7f3f
00000330: 7b19 74be 887b b73f e39b 1b30 4dca b6bf
00000340: 719c b087 6f2c ba3f a250 f192 d65f c1bf
00000350: 2df8 d1ee ae35 bfbf 1637 9501 9e98 923f
00000360: 4346 6c3b b4ec aa3f 8204 0ec2 01f9 aebf
00000370: dbbb 2d04 3970 c3bf 1129 b2bd 8bbf c4bf
00000380: 9b58 0364 92ce b8bf c48a 7ce9 f18d b33f
00000390: ff52 9da5 a8e9 903f 2dda d8c1 62b3 b1bf
000003a0: 2bef d2fc 01a6 b0bf 4b3a 57ec 59bd bc3f
000003b0: 0715 b603 86b8 93bf 50e4 e900 1d9b b83f
000003c0: 53ff ed46 ecf2 a1bf 0bb9 b520 767d bb3f
000003d0: 4303 fcb4 10dc b63f 57cc d002 7e75 b73f
000003e0: e5e5 10c7 e49e 883f 6de6 56a2 3792 b9bf
000003f0: a050 c3b7 62c6 acbf 673c 86c5 956c c03f
00000400: 56f0 58fd ad31 b9bf 536a 08b8 1946 b03f
00000410: bdfa fa00 25d6 bcbf 2baf c048 c7bb 99bf
00000420: e1e7 119d e463 7c3f 06fc 152d ed8a a33f
00000430: ae84 1c78 9e0d b1bf 3d95 7d46 96ce 823f
00000440: c02c 8492 29c6 bbbf 3d9f ce2e 59b7 883f
00000450: 9399 93df a94e b4bf cc31 ad62 b36a b6bf
00000460: 40f6 5049 3f8a b8bf 9300 0652 a52d b7bf
00000470: c7f8 7900 8d4f a9bf 1615 7b03 7e1e b4bf
00000480: 7693 9361 3198 c2bf cc8f dd35 6052 89bf
00000490: 3d11 43be 7e13 bdbf 377c dc39 d234 c53f
000004a0: 765d 02e7 9628 9f3f 25fa b579 6160 b8bf
000004b0: 2b95 a19b e38d bdbf 93b2 c9a8 90cc 7fbf
000004c0: 3fc9 f262 13df b53f 7c40 a730 1192 abbf
000004d0: 7531 185c c6b0 913f 8a0f b375 f4b8 9d3f
000004e0: 1992 21cd 91a9 b0bf bb18 cf3a e47b bdbf
000004f0: 20aa 4d25 8ecd c0bf 9af9 60c2 4078 aa3f
00000500: 6e1f cef3 7d2d bfbf a040 c191 96b4 a6bf
00000510: ac71 860f f0f1 9a3f 692e 99be d4c5 c3bf
00000520: 8b9d 9fb0 a50a 813f fb41 0013 1c27 9abf
00000530: 0fbc 2ae1 d59e b73f f25d d7c3 77fe bbbf
00000540: dfff 3c76 10b9 b03f 5607 09a4 3458 923f
00000550: 4129 b706 000e a5bf 999c 3eb9 c367 b43f
00000560: fb25 6b3b b3ce c33f 68a5 c90f 4dc4 c13f
00000570: 5d23 5368 26ab c03f 4897 9ab1 cdad b23f
00000580: cfeb ddb1 f374 bc3f 667c c82f c789 ab3f
00000590: 704d 8aab eec8 943f f0b1 5547 236e 9b3f
000005a0: 3a31 93d2 4515 c33f baeb 67fa 13cd c4bf
000005b0: 5628 5846 b140 a8bf 162e 9ca8 d1db bdbf
000005c0: 3ffb e0f6 ff35 973f 221e e631 3cad c13f
000005d0: cb83 0e1f 6630 a23f d5e5 a9ce 0a14 a43f
000005e0: 2f43 9b2a 4e42 7a3f 0f02 39ab 71e1 b3bf
000005f0: 7058 6469 c3ce a53f 0c0d 2ca7 7e34 adbf
00000600: 1ff5 7265 758c b1bf 797b 34d4 c61b a9bf
00000610: edbe c7fb c8dc b5bf b4a8 1339 0ce7 bcbf
00000620: 0acf 95fe 574e b3bf dead dbcc a57b 883f
00000630: 3202 0d68 6ec6 b7bf 7e0c 2086 8b1c c0bf
00000640: 0c56 ab70 fcc1 a13f d38f 19c5 2def b73f
00000650: 87de 65b0 1620 aabf ab64 24fc b041 88bf
00000660: 6e90 9ad3 f38c bfbf d244 027b 273b a6bf
00000670: 8032 227f 9253 9e3f df66 71d5 39c8 bdbf
00000680: 19b4 b014 ba47 9fbf 33c8 ed56 7ea2 9a3f
00000690: cbab 3515 8a84 c3bf 84db 158a c62a be3f
000006a0: 87fa c161 6771 c13f be45 d966 5bd7 b4bf
000006b0: 6d9e ff16 8409 743f 1404 bb46 8112 a93f
000006c0: acfd edbc 3cd1 b13f 1d78 cee3 f0ed 97bf
000006d0: 3664 850f 3d96 c3bf 9378 a4b8 e43b b23f
000006e0: fa4a a689 0705 af3f 7f52 3bab 5f5a a9bf
000006f0: 66c1 8ec4 73f3 bbbf 60ec 95a4 8169 c03f
00000700: 41a4 b46f 8b2d abbf 279a 31d2 2e7e be3f
00000710: f3e9 6976 ecd7 7dbf 591c 5fe7 361c 813f
00000720: eeaf d331 a7e4 953f b3f8 ec46 b363 c1bf
00000730: 4300 833b 9a73 bfbf 609f cdd3 515b a13f
00000740: df1c 7560 af3d 8c3f cdd8 cc7e 7ba9 8fbf
00000750: 92e0 3f44 e1bd 83bf 1e9f 07ea e93d bf3f
00000760: d0fa 155b aad7 85bf 72fb b2cf 6826 c1bf
00000770: 6c9c 7fdd 3bc8 8f3f 624d 669a cd40 c43f
00000780: 10ea eae0 a312 aebf a858 4143 43b9 c33f
00000790: 3ed7 6c68 c117 b8bf 510b 47ef af27 af3f
000007a0: 520d 2f90 4085 8bbf 1862 696d 6761 9a3f
000007b0: 77f2 fe48 70c6 963f 1f9a 3ce8 b4a1 b2bf
000007c0: c783 0c6f ba21 acbf 9ae8 3aae f8de 983f
000007d0: 4dc1 caa7 fd16 c53f 79c3 38c3 61c8 843f
000007e0: 3956 aec8 62c3 97bf b454 17af 7234 b0bf
000007f0: 4821 66ef 3481 b3bf 0886 25ad 7006 b43f
-0.04733089975331166 0.14549730328272084 -0.036745266878557725 0.1422362112217558 -0.1406640168221245 -0.04088261229398181 0.120643638780221 -0.1454087184047224
-0.03651881272293344 0.14757389037723034 0.02904437019984175 0.0366751127960359 0.1351909748022586 0.047996363091238524 -0.02538962064513187 -0.04471000864683227
0.00786074769000162 0.06981710679662428 -0.08540391648069415 0.013901809660443099 0.1399328680625196 -0.008917138881090622 -0.01983273699664227 0.06645666831277246
0.039861617900735426 0.04215036989424341 0.011529166058943394 -0.056649422993502195 0.01731849680649821 -0.18689686684836657 -0.029228003607834823 0.14507300465714074
0.11416110407955363 0.06744160271908639 -0.042078928614448785 0.05722832541448732 0.007636689358286785 -0.06792215573276435 0.08130199130991916 0.10288252991137943
-0.050802973631799676 0.10727569550405477 -0.06403765570579743 0.10602461565743429 0.0191667498920955 0.17152333922846297 0.06931300245808038 0.009912554455998817
-0.12269023965205735 0.044178752408660316 0.16929738041613088 0.0033626899390662135 -0.0769043036136966 -0.06448697904338 0.004970153858834015 -0.10806832620863291
0.1334279114254969 0.08214766269564766 0.002269479962531139 -0.0016685916711474485 0.17801788507845578 -0.043929142990149835 -0.07399371509227656 0.006878734401752279
0.12280250703223676 0.0943539071178175 0.009544978163944404 0.1363961528604152 -0.11725381477629741 -0.09632240177034215 -0.021451522377820012 -0.07698877649921983
-0.09028639104645284 -0.030373176314077977 -0.07319157216816166 -0.0005883519662430352 -0.08996967969402797 -0.05065647617341976 0.01348047152430228 0.13565669241180933
-0.07308693749449217 0.007889520486188229 0.07906502341144916 0.12156395120366258 -0.01179615754310325 -0.05160611779811132 0.07604972485145167 0.012968187414218759
0.03326310580774173 -0.03848682137903039 -0.07642921822850061 0.04295507672078576 0.0038462872045353248 0.16464054699163394 -0.013476087298047192 0.06830679923359041
0.024517048369778166 -0.02444368685869061 -0.023269929293335663 0.05246455733122953 0.014699033741812084 0.007610163381413947 0.09172873162979116 -0.08902437614925378
0.10224053442708382 -0.1357372491353362 -0.1219128926331627 0.018160313459978893 0.0525871584451463 -0.06049352163155054 -0.15186226562533886 -0.16209551584717777
-0.09690203611111985 0.07638465834001368 0.016516337498006625 -0.06914345963091569 -0.06503307745418556 0.11226427097356255 -0.019258588768498643 0.09611684105210938
-0.03505648008194719 0.10738313959675254 0.08929542940678652 0.09163653916111635 0.012021815609943818 -0.0998873492561871 -0.05620106213760434 0.12831375260109043
-0.09841430125465087 0.06356964819898651 -0.11264258645949617 -0.025130380454512363 0.0069312029091807845 0.038169299844405244 -0.06661405975730147 0.009183095956994175
-0.10849246813829705 0.01206845926374422 -0.0793253107873169 -0.08756562384696237 -0.09585948505351727 -0.09054024937177223 -0.04943504935089176 -0.07859027466755139
-0.14526955856777207 -0.012364150661319594 -0.11357872147624888 0.1656744749570593 0.030428274011311505 -0.09522065373855833 -0.11544630574788488 -0.0077634478335367905
0.085435115487404 -0.05384877890503589 0.01727590500927208 0.029025859531216315 -0.06508742578586925 -0.11517168460622688 -0.13127304860547984 0.051698707321054374
-0.1217879028537234 -0.044346528332085855 0.026313544223386096 -0.1544748240142895 0.008321089222546948 -0.025539816531876963 0.09226738688697388 -0.1093516209724539
0.06532385718037358 0.01791460276786635 -0.04112243730522148 0.0797083213097828 0.15474548722549727 0.13880313177950687 0.1302230843923792 0.07296453081161502
0.11115954487279044 0.05378553827562697 0.020297745914445497 0.026787329892089262 0.14908669263821556 -0.16250848509647914 -0.04736856445022457 -0.1166354214330386
0.022666930621421996 0.1380992168089828 0.035525504389859096 0.03921540997266574 0.00641088994753218 -0.0776587527298107 0.042593103995543724 -0.057041128069636654
-0.06854947783263697 -0.049040044216090935 -0.08540016314486439 -0.11290050881840125 -0.07541418042620421 0.011954589189790473 -0.09287157097151846 -0.12587112473565648
0.03468312144620364 0.09349332868583753 -0.05102606681151394 -0.011844046301620578 -0.12324451366527153 -0.0434200608880332 0.02961567784272967 -0.11633645497331767
-0.030547053826172375 0.026010488563265887 -0.15248228107097214 0.11784020301079862 0.13627331040693866 -0.08141108761744584 0.004891887641839438 0.04896930683526804
0.0695989571813615 -0.023368610290724335 -0.15302241571296954 0.07122640140412022 0.0605852466134333 -0.049517621662436 -0.10918353604097816 0.12821980034263714
-0.05308185328096516 0.11911289817508273 -0.007285998994684284 0.008354596076868658 0.02138005487078936 -0.13585511172454331 -0.12285770371363562 0.03389983854759637
0.01378952992548793 -0.015459980780729765 -0.009639511008558341 0.12203847850434754 -0.010665255455703543 -0.1339846624523165 0.015518634507271943 0.1582276348022829
-0.05873596306397044 0.1540912702936954 -0.09411248015825621 0.06084966464870568 -0.013437752151623048 0.02576219182296499 0.022241358237567312 -0.07277994794694863
-0.054944826179287136 0.024288068422472088 0.16476412480325067 0.010147823114580611 -0.023206275461765655 -0.06330029272733634 -0.07619028897000135 0.07822326876841867

layer3.bias f8 [100]
00000000: 4e9e d361 4619 ab3f acbf 498b 3922 a7bf
00000010: 039b 379b 11aa c03f 5c6d eaaa ab4d a53f
00000020: 1a32 3580 7355 a93f cc36 0e3c d0e2 8ebf
00000030: 3c58 bd77 4c80 503f 9739 081d afd1 b2bf
00000040: 4efd 785b c8e0 b9bf d07f b5df e708 c4bf
00000050: b4df d608 dda7 c7bf faf6 b993 1065 a8bf
00000060: b82a 7722 c240 b63f d4a3 d8b8 3018 a73f
00000070: 431f 8cc8 a4e5 9a3f 51df e3b4 c638 c13f
00000080: 1554 348c ffef aebf a107 9eae 6fd6 b3bf
00000090: 2722 5710 5858 bf3f fd3b 25ff d04d bebf
000000a0: f4c0 027f 5050 683f ce89 8f01 8681 973f
000000b0: 4330 5a06 a121 bfbf a973 71c9 8250 9cbf
000000c0: 28e3 f87a 6c49 b8bf 6bf6 9a0b 0b8c a7bf
000000d0: f39f e4d2 b95e bf3f 29f4 432e e310 bc3f
000000e0: 7bed 272c 0c92 9b3f 794a 0f6b 5f58 a13f
000000f0: 30a2 6097 7251 b73f 6de5 f154 63d4 bf3f
00000100: 0bf5 ae9b df1d 9a3f f70d de97 bbe1 b13f
00000110: b0f1 8c88 0a86 c2bf 30d4 9241 b529 70bf
00000120: 6b7b c207 1902 c3bf 7dda 1b7b fe55 bcbf
00000130: 87f3 93ae 0dce 76bf c773 2c53 20d5 bdbf
00000140: 54c0 9b2b 7678 923f 4934 0ddc dcfc aabf
00000150: 9537 6859 44e5 adbf 843d 9763 c410 8e3f
00000160: 7915 148f 55c0 c03f 7125 f38b d2c4 a0bf
00000170: 889d 6981 4ca1 803f 1be0 3799 7e12 bfbf
00000180: 5f7b f970 2dfd c2bf b86b 5939 d199 bb3f
00000190: dcb0 dbd8 3eaf ae3f af7d 6f83 d956 9f3f
000001a0: 066e 081e 2320 acbf e581 dc0c de73 c13f
000001b0: 4a0d 7d5c 844f 94bf 34bc eb9b 16a8 b5bf
000001c0: a80e 045d 5509 aabf e0ee 0896 aac0 c4bf
000001d0: c5dc bae4 ddd8 c03f 544c aeff 70c0 c2bf
000001e0: ab34 57f4 1b67 963f 4b95 bf6d 786e b5bf
000001f0: d553 549b 1466 adbf e670 02d5 0e4a babf
00000200: 5faf 0591 1f93 c5bf ab45 5a00 51c7 b93f
00000210: 7eb9 d6a6 3c42 aebf 0f53 82b8 feee b5bf
00000220: ac5d 2640 33eb b6bf 6a3d 6f40 77b9 a7bf
00000230: 28c6 6f1a fa59 67bf 9d9d 9fdc 3674 bb3f
00000240: d85b 7ab1 c341 b0bf f57e a41e 7834 993f
00000250: 9758 ff44 89f8 c2bf 4db6 01f4 ec9b 913f
00000260: fe23 5f4b 296f b5bf 5ad9 e63b 6b65 bb3f
00000270: 6681 ecc0 8976 a53f 5aaa c2a2 2dd2 b6bf
00000280: 79f8 812a ad54 bebf dddf 5ff4 a1aa 90bf
00000290: aa54 0b7d b135 46bf 169c 1392 b43c b33f
000002a0: 2824 afbf 2c8e c0bf 221e 5537 f8c5 983f
000002b0: 9e5c 9090 aeed 943f f863 3cc4 cba4 acbf
000002c0: 7224 21f1 aa59 be3f 5660 10c4 6e29 c1bf
000002d0: 6ab4 e5ac f01a b33f 1b74 5f8f f27d 73bf
000002e0: ea7e 62b6 47f5 92bf 40f4 5314 cf91 bcbf
000002f0: 4f43 7e89 9e71 aa3f 3cdf 157c 30eb 9b3f
00000300: 432f a60c e0e2 c23f fdf8 43e9 bcd9 b7bf
00000310: 2c04 c5f5 6665 bc3f b366 15d8 f3d6 b63f
0.0529272074143675 -0.04518298936170537 0.13019008711781774 0.0416082044732444 0.04948006572758264 -0.015081049759625563 0.0010071512942508984 -0.07351202448646742
-0.10108616097658293 -0.15652178214349854 -0.18481028491600926 -0.04764606288243374 0.08692563382570995 0.04510643249916027 0.02626664613765618 0.13454517204786012
-0.06042479120711889 -0.07749078763120433 0.1224417724507779 -0.11837488392960434 0.002967984408393071 0.022955030293710092 -0.12160688786588118 -0.027650874657740996
-0.09487035753489848 -0.04599031941095862 0.12253915213352666 0.1096326816513772 0.026924314684931155 0.03387735540276977 0.09108654208888178 0.12433453391886014
0.025504583241617456 0.06985065896702013 -0.1447156111479564 -0.003946025878737422 -0.14850151900187866 -0.1106871653135872 -0.005567601628396874 -0.11653329878431783
0.018037649547239035 -0.05271043955017569 -0.058389793313934714 0.014680418290395243 0.13086957441570826 -0.032751636108126266 0.008120153140409384 -0.12137595406227357
-0.14835136429152393 0.10781581544999497 0.05993076703257014 0.030604742667376502 -0.054932687202576644 0.13634849193569135 -0.01983458342080028 -0.08459607416783471
-0.05085245857665416 -0.16212971044466595 0.13161824863866492 -0.14649784550110445 0.02187770537220916 -0.08371689490703209 -0.05741943737135783 -0.10269253445079904
-0.16855234700357877 0.10069757708176634 -0.05909909760099462 -0.08567802433601578 -0.08952637020262583 -0.04633686696581203 -0.0028505215482190933 0.10724203954997909
-0.06350348551710228 0.024614216680787632 -0.14820972317710776 0.017196371453272175 -0.08372743692520143 0.10701627933926741 0.04191999893214664 -0.08914456580775135
-0.11847955978189074 -0.016275911846577052 -0.0006777874605982299 0.07514504019091847 -0.12933883056237616 0.024192694070079075 0.020437934468728096 -0.0559447934194352
0.11855572115850224 -0.13407692502437624 0.07462982388615705 -0.004758784771152792 -0.018513794428712517 -0.11159986730849969 0.051648096355285326 0.027264363835882252
0.14754868142733288 -0.09316616721114097 0.11092227459177256 0.0892174150989387
