model2_DGM_state_dict_100.pt (torch, 168920 bytes, 8 tensors)

layer1.weight f8 [100, 3]
0.37091277915233667 -0.5523181163025417 0.1602289810436839 0.25051229080311516 -0.17939433733170954 -0.09327076417807056 0.24297643638178487 0.5420429293169271
0.41240694424220564 -0.11812991918625547 -0.27060429104622213 0.25981087914206263 0.011864938480591046 0.08576171634138109 0.5132531033536971 -0.45747229471234585
0.011985455731037 -0.04801892463892963 0.2708086639697513 0.3452558776933213 -0.1972969018395618 0.1306687055087086 -0.35546942076736743 0.47413797133055213
0.24095473685772759 -0.28416038407701627 0.4953199857320849 0.07670569638979499 -0.4611790967672576 0.19101479870366636 0.06242806258667462 -0.37737752375487627
-0.2484085964220284 -0.16755277501917185 -0.0037075791262737557 -0.2994393576670193 -0.5879006681617515 -0.04894088052246069 -0.01284131405764453 -0.27129057883625957
-0.38187188897631513 -0.17153992944784918 0.17367210130515925 0.46351351986774003 -0.029300866060413343 0.12256601198359542 0.29030312165780686 -0.5310457141706065
-0.12139733266967617 0.05501907427395327 0.21250599583340604 0.5735455217859402 0.03513646415358848 0.4690581963701554 -0.20039827775316324 -0.38537674727046656
0.5520491539755132 -0.3224398527808461 0.22778401245721316 -0.24596314396740224 0.06529208764132877 0.23881287815124255 -0.5235915907316233 -0.4918608580409235
-0.49161487708695367 0.167408038026638 -0.40964600202894774 -0.004813085686573447 -0.12794508777486013 -0.08115963327184031 -0.3889273754044731 0.28341594662838604
0.3538573543860514 0.2731426472698069 0.029933395750254756 0.3576049474938922 -0.2615364694354249 0.13335024286344982 -0.5657131822442301 0.15136612264839322
-0.2756933123677683 -0.10856309265670029 -0.41308401215778595 -0.08436898398173918 0.008268264251020088 0.35586094597577683 -0.5801833453511703 -0.2397342398820492
0.3676529697887136 -0.08717590581524255 0.06540849329496307 0.0964774052669012 -0.4616330918220984 0.3260801992208572 -0.413978306132098 0.03133416981523098
-0.5457212526478602 -0.29244889286532055 0.3536104245607033 0.06183485742544034 -0.47487185093394657 -0.4890918394836732 0.6437059995940265 -0.19619173255676947
-0.1832022464909878 0.3883735106455637 0.3346591960343832 0.060808780552300004 -0.03058213020780616 0.5861684393526599 -0.033318481519528514 0.33217024570790077
0.04109004132603849 -0.5424983800589095 -0.15773271625241989 -0.23752993720435073 0.00929928734679536 0.03697892105579023 0.22370372947092002 0.47811383900416543
0.2766956611278431 0.44695822836852883 0.43684729307184295 0.4664633424493092 0.04097319048002341 -0.1577680383297892 -0.36994315924343657 -0.3363379513643786
0.5832223759286873 -0.0866247538254383 0.6000065451679667 0.3865044678212643 0.08810786168637053 0.1945704507606635 -0.5339323484449188 -0.45493580913987125
0.14572864768876484 0.282892078804742 -0.2507585458360367 0.19404367807524758 0.1678848482979048 0.20671192215637316 0.27149421571557625 -0.4217354211772965
-0.487213946264365 -0.21770270403770953 -0.5377630754418655 0.2495347902278611 0.42356605306364364 0.2470785640790848 -0.18559643080648086 0.34344974980975784
0.34889377323343296 -0.3986853785686998 -0.370424049136796 0.25922792236824843 -0.5234467892917717 0.3694665566112444 0.4884605912858182 0.13956868332690742
-0.1721704524437327 -0.5510233560687612 -0.5964151033055626 0.25752502276081973 -0.12193924145929734 -0.1798497591204096 -0.10512694973479514 -0.5309401395346675
-0.08030784447843363 0.03288879412976878 -0.5263128484559454 0.12177341377558172 -0.37125608864820403 0.12354739378624982 -0.5015896387713088 -0.43650463868257483
0.5126072150988079 0.09953583923699952 0.25986075317436225 0.03304443691811086 -0.5640906922488201 0.29512321997571134 0.48338553317151217 -0.15548404452670903
-0.2104573479991934 -0.4366634386017548 0.6545918744482184 0.4341576515085968 0.44063602122498097 -0.36684570360889485 0.5376106381552371 -0.21549030931385355
0.12129583881795418 -0.3477553495511179 0.545624665326623 0.22307096369025783 0.48785054427069213 -0.4647201482142105 -0.5680053537962695 -0.3241764718359148
0.46323086680009395 -0.12251211960122818 -0.4943553661093479 -0.30790604437646935 0.16527655156443644 -0.42618010846722276 -0.4793773666258266 0.13778600908541383
0.11211982831562138 0.036347887833483264 -0.4566354720103068 0.15943293948990445 -0.42010465920047774 -0.16428360476241877 0.26295300796026727 -0.5560941839521902
-0.07419365320197427 -0.3116670990961125 0.205748470385184 0.6567892064721029 -0.40073481061796185 -0.3890862008344329 0.2059808829504557 -0.12992788676096964
-0.037793943674501874 -0.4247278284737717 0.38832031411343637 0.03655255834011259 0.2672415277240834 -0.41561331817591723 -0.571781768244918 -0.15340791455859026
0.23025265737790138 0.045247464454084285 0.4906462515690343 -0.20338659236985895 -0.25500053090320807 -0.5063625802361589 -0.35662211877447353 -0.5502248055876326
0.3284319426226621 -0.02724308858600566 -0.5559198946017196 -0.4694955869016935 0.44378547384111455 0.3561870542458186 -0.648879477276493 -0.4121894869471771
-0.3808136243009017 -0.0007121570036474839 -0.23419824757260804 0.1797595357696097 -0.4109926874147427 -0.4468501060017539 -0.05523000415072331 -0.12307709743054403
00000000: 2a2d 08f4 08bd d73f 6a3f d00a 97ac e1bf
00000010: 891d ba1c 6282 c43f fbb4 0fb4 6408 d03f
00000020: 41b1 f6c5 64f6 c6bf 8057 d1c1 97e0 b7bf
00000030: 8bac fa13 da19 cf3f 3a37 ce69 6a58 e13f
00000040: e977 8a18 e064 da3f ef86 952b c33d bebf
00000050: bdd9 0ca9 9451 d1bf c9d9 43cf bda0 d03f
00000060: d90d f215 a54c 883f 2160 efd6 7af4 b53f
00000070: 3a30 afc5 916c e03f fa65 27e0 3947 ddbf
00000080: e8c1 23a3 d48b 883f ed9a d3bd ef95 a8bf
00000090: 674e cedc ed54 d13f 2d74 dc1b ac18 d63f
000000a0: 9f63 805e 0641 c9bf a9a1 628c c0b9 c03f
000000b0: 4821 3bd0 02c0 d6bf 3604 2aca 4658 de3f
000000c0: 8f63 4fd5 9ad7 ce3f 4e7e 1b09 af2f d2bf
000000d0: 4491 f198 52b3 df3f 323c 6909 fca2 b33f
000000e0: 4db5 8d54 f583 ddbf 91fc bd44 2c73 c83f
000000f0: 3a27 532e 92f6 af3f 3573 b10e f426 d8bf
00000100: 98c4 d656 dacb cfbf 97db 878c 5e72 c5bf
00000110: 3b9a 0763 5b5f 6ebf 832a 14b2 032a d3bf
00000120: 03a4 e10f 15d0 e2bf 3e15 9072 c70e a9bf
00000130: b56d 52ff 8b4c 8abf 2323 f428 d35c d1bf
00000140: a18f 9aca 9670 d8bf 76e4 7739 05f5 c5bf
00000150: 32a8 aa2d e33a c63f 947d 459c 34aa dd3f
00000160: 9653 e5d5 0b01 9ebf 8118 1275 7c60 bf3f
00000170: 7b9b 5c8b 5394 d23f 2566 e194 53fe e0bf
00000180: dc4c a345 e513 bfbf b35d 53c9 752b ac3f
00000190: 5d79 277f 6533 cb3f d2cf 5a23 7c5a e23f
000001a0: 3c9c df18 68fd a13f f327 55ab 0c05 de3f
000001b0: 99f1 8f98 a6a6 c9bf bc97 8a3b 03aa d8bf
000001c0: 5e7f c3fc 62aa e13f 00bb a7c3 daa2 d4bf
000001d0: ed16 07ca 0628 cd3f 2340 ae65 b87b cfbf
000001e0: 2069 1b75 fbb6 b03f ddf8 c29e 6b91 ce3f
000001f0: e0e4 d426 43c1 e0bf 0ef8 ddf6 a57a dfbf
00000200: 9331 d43e 9e76 dfbf 46ba 3468 a06d c53f
00000210: dab1 69dd a337 dabf 72ea ddd9 e2b6 73bf
00000220: cca3 d62f 8160 c0bf a26c a8b2 e0c6 b4bf
00000230: a867 78a5 2fe4 d8bf 5fc3 7ba3 7c23 d23f
00000240: 0b61 2251 99a5 d63f f5aa 4a4c 2b7b d13f
00000250: 3ae7 382f dca6 9e3f abf0 97dc ffe2 d63f
00000260: dbee bb75 03bd d0bf ee8e 01ea 9e11 c13f
00000270: 38f6 1488 521a e2bf 64a3 3f11 f75f c33f
00000280: 4c1c 1690 f5a4 d1bf 815d 8374 caca bbbf
00000290: 49f6 adec f76f dabf bf91 ffaa 3499 b5bf
000002a0: 6e2b 6ca4 f3ee 803f f3ee 38fd 6cc6 d63f
000002b0: e5f2 bea9 dc90 e2bf 4f2d 0390 9caf cebf
000002c0: 6b44 6152 a087 d73f bdc3 7900 2951 b6bf
000002d0: d41e 956b 9cbe b03f 899d 6c44 beb2 b83f
000002e0: 5125 0886 658b ddbf 36b6 e17b 7fde d43f
000002f0: 47d0 85dd 9e7e dabf c31b 3545 080b a03f
00000300: cf59 9b6a 8c76 e1bf cfe8 a68f 7bb7 d2bf
00000310: 49d3 409e 8da1 d63f 1c49 ca84 d1a8 af3f
00000320: ae58 63e7 4c64 debf b4a9 d4db 474d dfbf
00000330: c5d9 0f53 3d99 e43f f8d7 8989 cf1c c9bf
00000340: 53c3 9dd4 2b73 c7bf f0be b691 1cdb d83f
00000350: 387e 9167 0e6b d53f 1244 9017 5422 af3f
00000360: f491 5604 ec50 9fbf f1f1 9e50 e4c1 e23f
00000370: 6c1f f5b8 1e0f a1bf 1043 81fd 4642 d53f
00000380: 278d 5fff c009 a53f 458d 0f90 255c e1bf
00000390: 331d e8ec 9530 c4bf 1a8b 0e88 6167 cebf
000003a0: 60a7 3e38 810b 833f 7ce7 26b1 e6ee a23f
000003b0: 0d11 09e5 52a2 cc3f f36c 92c9 6a99 de3f
000003c0: cd4e dfb7 61b5 d13f ee56 61af f69a dc3f
000003d0: 87bd 4559 4ef5 db3f 8491 2610 89da dd3f
000003e0: b9bb 3f22 70fa a43f a681 7d3a be31 c4bf
000003f0: 3416 9512 26ad d7bf 8edf 609d 8f86 d5bf
00000400: 9717 ddf8 c1a9 e23f 8e4d b434 0a2d b6bf
00000410: 533c 1ced 4033 e33f b736 433c 7dbc d83f
00000420: d8a4 76a0 3c8e b63f cd7b 643d afe7 c83f
00000430: ec1d db4a f915 e1bf 2d3e 8215 ab1d ddbf
00000440: 3def f47f 3ca7 c23f 74e2 b060 e71a d23f
00000450: 19bb 6392 6d0c d0bf 2c14 aa59 6cd6 c83f
00000460: 627a 772e 407d c53f 096e ad48 8975 ca3f
00000470: e94c 6346 2960 d13f 8f5c 6190 b6fd dabf
00000480: 3c13 5767 832e dfbf 90de 0ba5 aedd cbbf
00000490: 3b9d c0e8 5a35 e1bf d116 9f89 c1f0 cf3f
000004a0: 65aa 66ca b41b db3f 5c93 2138 45a0 cf3f
000004b0: 8ab9 48b4 9fc1 c7bf 8e25 d0a8 14fb d53f
000004c0: 5c33 748c 4654 d63f f623 96ad 0f84 d9bf
000004d0: a371 2c12 07b5 d7bf 9e06 32b6 3097 d03f
000004e0: 238a 267b 13c0 e0bf 121b 670e 57a5 d73f
000004f0: 3c46 3d36 f042 df3f 18a9 37f9 62dd c13f
00000500: 62ab 4a6f ae09 c6bf 42b8 b4bb fba1 e1bf
00000510: 1736 7120 d515 e3bf 3933 aa3b 4a7b d03f
00000520: c7ae 2afe 6837 bfbf 31cd ce20 5105 c7bf
00000530: c407 0a8b 99e9 babf 1fec ed2c 76fd e0bf
00000540: 17aa a50d 0e8f b4bf 746c 62ce ccd6 a03f
00000550: 08a7 f20a 8ed7 e0bf f13a b0dd 8a2c bf3f
00000560: 9ed5 cbe5 a8c2 d7bf ea66 d14f cda0 bf3f
00000570: 9020 d1b6 050d e0bf c469 ec26 b1ef dbbf
00000580: 6660 113f 4767 e03f 0a86 4d46 2e7b b93f
00000590: c975 19ff 8ea1 d03f fe8b c14f 33eb a03f
000005a0: 4ff9 65ec 070d e2bf 4a7f 8580 4ce3 d23f
000005b0: db31 15e0 c9ef de3f 0361 25b3 e6e6 c3bf
000005c0: b201 6e31 44f0 cabf fad1 0935 4bf2 dbbf
000005d0: 1e70 9fa8 6af2 e43f d967 a22c 3dc9 db3f
000005e0: 6974 266d 6133 dc3f 7969 eb66 667a d7bf
000005f0: 4978 9b39 1b34 e13f 7ed0 8dbb 2f95 cbbf
00000600: 232f dd7c 3e0d bf3f bd30 55a7 9f41 d6bf
00000610: 5600 afdb c175 e13f 7551 dede 968d cc3f
00000620: 7b9e 3e7d f138 df3f e0d3 9793 f9bd ddbf
00000630: 9c40 5090 192d e2bf 30bf 2aac 4ebf d4bf
00000640: 5cdd d913 93a5 dd3f ce08 0d4b f45c bfbf
00000650: 21ac 82b0 84a3 dfbf 3b9c b58d bbb4 d3bf
00000660: a4e8 e133 c827 c53f 18a3 04ef 8846 dbbf
00000670: 096f 0668 1eae debf 8c21 6fd1 f8a2 c13f
00000680: 4746 d993 e2b3 bc3f 7a06 0cbb 309c a23f
00000690: 2194 9efc 8339 ddbf 24d4 816e 4c68 c43f
000006a0: 2373 0aa7 fee2 dabf 389e dcc2 3e07 c5bf
000006b0: 4bbf 64da 38d4 d03f 4041 b207 86cb e1bf
000006c0: 32c0 12f2 5afe b2bf ffd8 768f 5af2 d3bf
000006d0: 62d1 c043 f755 ca3f 2d3b 45cc 6a04 e53f
000006e0: fd43 7e9e a3a5 d9bf 6829 face c9e6 d8bf
000006f0: f0cb efe1 945d ca3f 5706 3d1c 7aa1 c0bf
00000700: 8540 2350 ba59 a3bf 99bd 3fa1 bd2e dbbf
00000710: 8856 5f72 3dda d83f 2cd4 4f55 04b7 a23f
00000720: 2050 6d35 7c1a d13f 313f 569a 6899 dabf
00000730: 80f3 6147 094c e2bf c004 fddb dea2 c3bf
00000740: b9a9 a048 eb78 cd3f 384b 1df8 ac2a a73f
00000750: 2637 1989 bf66 df3f de32 5665 9208 cabf
00000760: 5a48 2cbf ed51 d0bf 100a 414c 1f34 e0bf
00000770: 6fa9 4a94 e5d2 d6bf 844c 2e0d 719b e1bf
00000780: 55ab 2169 0705 d53f 2061 13ba 9ce5 9bbf
00000790: 2c53 d084 18ca e1bf 7dfb d637 370c debf
000007a0: ca98 2530 fb66 dc3f bda3 4fc9 c4cb d63f
000007b0: f056 bee4 9ec3 e4bf 7b5c 8c03 5061 dabf
000007c0: 3497 8f1b 405f d8bf c800 2885 0156 47bf
000007d0: 266c 0d4b 35fa cdbf 9d26 a347 5c02 c73f
000007e0: a8da d545 b44d dabf 7677 df2f 3199 dcbf
000007f0: 8eac 2b6b 1b47 acbf 85cd 590c fb81 bfbf

layer1.bias f8 [100]
0.5115729315787476 0.15445898662995397 0.36312017432988725 0.42810389363296536 -0.5679434775760694 0.15082665764719455 -0.4292657790871733 0.4729748228929818
-0.21014191023543727 0.14194210979312621 0.07972990114080059 0.617188013474926 0.4073288806788667 -0.481776758373258 -0.48878592071911725 -0.4479574219013479
0.3798263916705677 0.37835595220706464 0.0100612316983458 -0.2875664104297416 -0.30990237076733285 0.28055820551842026 0.5772213250316292 0.11717836371564043
0.2812390212517078 0.12287323456723924 0.42724642202307783 -0.1667920853886504 -0.5690839039823501 0.3102088193353352 -0.10676907877912163 0.20148464599187424
0.053741016443593366 -0.35222269546250135 0.10901733008434286 0.4172185485563076 0.3412544817662836 0.20351786586021312 0.2657584007664411 -0.45444987799855496
0.5001294807887764 -0.42350398669987155 -0.6488061350858079 0.13777556965535726 0.48578196132369217 -0.2535097466319687 -0.2515715567328737 0.1438818030947914
-0.28210162261869853 0.2054513142931997 -0.29220994714302573 -0.21746659492693535 -0.27638916694103605 0.4645666638646989 0.018954909286307976 0.01698973198399374
-0.1219421393838815 0.0625343073770728 0.2619847287591983 -0.5013275379739148 -0.30382760821162424 -0.2539307675051342 0.4083303492678779 -0.5678156234970217
-0.07036487594472467 -0.24135075324564167 0.09541102515288677 0.18557826223282933 0.5919685628948823 0.48108389153788844 -0.41498772280543694 -0.5599644937063489
0.183984729043397 0.3674091148353093 -0.33878737508941553 0.4815371219568046 0.3181690404091128 0.27366752471005856 -0.33995916713476054 0.44547789334349686
0.09006704138358378 0.649285014919591 0.21010415841501096 -0.042982312985636886 0.5852068786524522 0.03709396381064157 0.41674590108583853 -0.06467301130183438
0.23064478425848897 0.37413966689920014 -0.2926737637320188 0.5066334502067137 -0.47825169980078197 0.5389394851681195 0.20816196714071078 0.12022006748037153
0.591418166745662 -0.2645191395360928 -0.5331265876958828 0.1525895239357856
00000000: 40c9 5432 ce5e e03f e910 13e4 4fc5 c33f
00000010: 97f0 5066 5c3d d73f 0568 9cdf 0d66 db3f
00000020: a44d c5cc 972c e2bf 16d7 fab4 494e c33f
00000030: ed2a 9e2c 1779 dbbf 2d08 0a31 3845 de3f
00000040: 3c76 fd1b eee5 cabf ca4c beb7 282b c23f
00000050: c0bd e9c5 2d69 b43f db74 ab13 01c0 e33f
00000060: 65d9 4e27 ad11 da3f 09e8 4b2f 6ed5 debf
00000070: 85f7 0ebe 4448 dfbf da45 449b 55ab dcbf
00000080: 637f 985a 134f d83f 667b 3ee2 fb36 d83f
00000090: 2fa3 d0a8 fb9a 843f 9e53 0ef2 7c67 d2bf
000000a0: 0682 d9c0 70d5 d3bf 32de 5467 aaf4 d13f
000000b0: 7a11 32db 9878 e23f ab1c f5b7 66ff bd3f
000000c0: 09a6 a8f3 d1ff d13f a320 05cc 9e74 bf3f
000000d0: 3c04 7b60 0158 db3f 0fea fc6b 7159 c5bf
000000e0: 2618 8972 ef35 e2bf 6477 7e17 76da d33f
000000f0: 7593 94e5 3755 bbbf c932 97b6 3fca c93f
00000100: d976 2848 f183 ab3f 03e8 7a0f d18a d6bf
00000110: 4ed4 684b 8fe8 bb3f 185f 556d b5b3 da3f
00000120: ea2c b309 1dd7 d53f f3ba 0299 df0c ca3f
00000130: cc76 fb85 2f02 d13f ee32 ebf0 b415 ddbf
00000140: aa1a 788a 0f01 e03f 1480 2677 b01a dbbf
00000150: 1068 7415 05c3 e4bf 86c3 ed3e a1a2 c13f
00000160: c3ce 3739 0d17 df3f 6c19 c0f1 8039 d0bf
00000170: 4660 3196 bf19 d0bf cd0c 640b b86a c23f
00000180: 1cef d2f6 f30d d2bf 079e e789 3a4c ca3f
00000190: 4ce4 a259 91b3 d2bf 6582 9704 f2d5 cbbf
000001a0: 6fbf 3e30 5cb0 d1bf d215 07d1 75bb dd3f
000001b0: 8af0 ee6d ea68 933f b4cb f49c c165 913f
000001c0: 9d75 a89c 9937 bfbf 9202 1095 3f02 b03f
000001d0: b89e 8498 5bc4 d03f 46d4 850c e00a e0bf
000001e0: 5003 395a e971 d3bf aa7e 78d5 6640 d0bf
000001f0: 7e77 049e 1522 da3f 5a7b a2ab 8b2b e2bf
00000200: 933d f8b8 6e03 b2bf 230a 07dc 94e4 cebf
00000210: 9ea0 b560 db6c b83f d3ba 914b 07c1 c73f
00000220: b098 3c0e 68f1 e23f ba68 3217 14ca de3f
00000230: 2237 6caa 288f dabf 9b7a 6ca8 3aeb e1bf
00000240: 4337 1ac5 cf8c c73f db13 1e85 a183 d73f
00000250: 61a1 133e b1ae d5bf f952 a713 81d1 de3f
00000260: b309 caad e15c d43f a7d8 26cb c483 d13f
00000270: af6d 3418 e4c1 d5bf 3815 c0b5 b582 dc3f
00000280: efa1 3035 a20e b73f ba99 1b5e f1c6 e43f
00000290: 98b2 926c b1e4 ca3f 8ad4 2819 c701 a6bf
000002a0: d69b a6c6 03ba e23f 8134 e4e2 fafd a23f
000002b0: 70f7 f9ff f6ab da3f d3a7 7914 698e b0bf
000002c0: 3b0c b1ae c485 cd3f 3dfa 5d80 e7f1 d73f
000002d0: 8214 e8bc 2abb d2bf c151 765a 5736 e03f
000002e0: 30a6 7904 ad9b debf ac3e ea04 fe3e e13f
000002f0: f4f7 9124 0da5 ca3f 12af 260a bec6 be3f
00000300: 43da 8dca e5ec e23f 1f4f 5eaf e1ed d0bf
00000310: 4405 597d 5f0f e1bf ab19 82b3 0d88 c33f

layer2.weight f8 [100, 100]
0.06264497429850323 0.09288971572987029 0.01670247295422274 -0.0454589459007368 0.04581565271257091 0.035617744380862223 -0.05806682030302243 0.0790999823441569
-0.06981832519356426 0.03522641798445068 0.16366599800493334 0.06151554979948589 0.11553823454816074 0.03605708738469881 -0.12581057479592686 -0.10392708724649577
0.004923418164785621 0.07062439760981208 0.10767530973636218 -0.00413223031968116 0.0332678650662053 0.06593335051694489 0.1527779745586377 -0.007382104730248715
0.017266513815459836 0.13468428510225802 0.009006080796963195 -0.022143863398984904 -0.07660708715711294 0.09626021595704624 0.08014527046655345 0.15404468991937145
0.13708176120737336 0.025788730044364987 -0.020245149248211195 -0.05993961561610092 -0.10452448919109794 0.0171109165395771 0.09674118278917952 -0.1130150072905259
0.06045170716566653 -0.010642050970290475 -0.014786479678276725 -0.06970596304250769 0.03133387429643397 -0.1452941056384958 -0.1284568213113267 0.014174741963433674
0.008567188600245555 -0.0520106212072402 -0.08310939670692029 0.06531976929177502 0.0013660435308897924 0.15812543507916932 -0.1248701086527009 0.05280114735310717
-0.03412828936758813 0.05886629143446574 0.015836740616944962 0.018842365487022773 -0.0574707874658986 0.0476488907938308 0.016676067647309983 -0.10732163373716584
-0.041751678991920525 0.0035926419190055094 0.04762541723603982 0.14659909183863004 0.12777924998946036 0.08065076369554357 0.00843938895992481 -0.04189562292856934
0.04422600658924809 0.07652646410528281 -0.029224200123682764 0.07949560043572147 -0.03117911951487974 -0.021148478375405805 -0.05782144629330029 0.09160320678907584
0.029356649857369594 0.051645593305632814 0.024078760494423052 0.0023604137414646184 0.08779604550520524 -0.06878924385457386 -0.0022684901015850903 -0.07743997243569735
0.0732787312489607 0.09663561807852239 0.0033839344461244563 -0.030870619356132598 0.021318104102405804 0.043164696696949556 -0.06422487218109556 0.04821119734196479
0.09426168285170268 0.0028945079877214586 0.00592795553481023 0.1326811139209347 0.08716908693349879 0.1276277155805615 0.017052201811641788 0.03635593377314787
-0.12541489537239658 0.14372100413899086 -0.05306397756726326 0.14446743053353683 -0.014935255333181654 0.05841607385938078 -0.005008475910204004 0.03065409545302562
0.07586499393684779 0.04592305787947778 0.03978553120658489 -0.1366653138315584 -0.04874649261640266 0.11368234199854764 -0.07156643374602444 -0.06768345587201186
0.06814835080462546 -0.0117272342992852 -0.05318322145634354 0.16948519727078384 -0.04558176879957248 -0.008655923369393023 -0.021041832113375947 0.03892960708889298
-0.004620589245969631 -0.04813216095324314 0.031665382702967655 -0.03161370463038408 -0.017903950350439075 -0.007969373539671372 0.15832069397690637 -0.06452140760236881
0.04104778151384782 0.020440917358980664 0.11549461000763638 -0.10838271124607654 0.06627112635724036 -0.012363509629069578 -0.1047251477269719 -0.062259751218326435
0.051239378162877325 -0.1238238955828892 0.024115158637441323 0.04847142081829309 0.11740716301562806 -0.0015330191516087 -0.12366646480867724 -0.021243865080851805
-0.03662493925371989 -0.03662801220877674 0.01814156986235286 0.09386666572704964 0.06095652538269811 0.12828701549421423 0.09525897567153475 -0.058842171692837786
-0.0648910184565022 0.020385649692754807 0.08416911134089683 -0.010550941068953282 0.07769903607736647 0.03971859742049035 0.08968915644536452 -0.023355702027403846
0.10441029661566359 0.14860233288866848 0.016767143057202782 -0.03733914855929621 0.04129763231298163 0.12829540107779372 -0.07624938421531076 0.026410548801345683
0.04929752063594329 -0.06706472764429713 0.0589769139163794 0.12206947311311878 -0.03140053785666388 -0.046365692754705 0.10887909781960732 0.09445592008297182
0.12290323573549887 -0.054473886793780374 0.14342676042062474 -0.008733786653267071 0.08856266942313468 0.13544813318674528 -0.12388040967989901 -0.05401481130819076
0.05190733938401062 0.006878980441511593 0.13842753467472918 -0.027400154534006953 0.12951857902800365 -0.10503126321748833 0.018746242023824522 -0.023354541745955065
-0.00813622774969319 0.02549159128413663 0.05359617825113337 -0.06889884213877223 0.15720805838768645 -0.17114305833655516 0.09023319845092893 0.011658123036975164
-0.044144486307180035 -0.01997586561757833 -0.02031317884030824 0.06345716846850227 -0.18826780540243432 0.08978901444482534 0.14313670715229618 -0.0653687214740187
0.06564583886547291 0.09179292366370471 -0.038424537412928395 -0.030824790085518153 -0.06924643939074616 0.07035879781860876 -0.12353855928536633 -0.043687221304742355
0.10523321348245197 -0.025166518894807872 -0.11590739969676957 0.11703365414735135 -0.0790856829059073 0.02000010244921678 -0.09363803110972346 -0.030613216603834953
-0.016005723562786758 0.1356336363991494 0.15655346971003892 0.11731865257960215 -0.01160594972987582 0.08295628986551924 0.001772918006518999 0.07502897133140596
0.12520434437840006 0.08947361913827293 -0.068718713248241 0.09190864306240554 -0.039723067336750295 -0.047225822215631055 -0.05704472693487869 0.0059702148696680465
-0.12450680251457226 0.17350568792524362 -0.010385549143655345 0.08893716927435541 0.09399282036228006 -0.01252488173995637 -0.07282166673123298 -0.06376288570048261
00000000: d7ee de43 8009 b03f b2cc 31d3 9ec7 b73f
00000010: d420 67fc 731a 913f b999 e81b 6546 a7bf
00000020: cd3c 1734 2675 a73f 96d2 8b2e 7d3c a23f
00000030: 2c4e 5e2c efba adbf dd46 487d e53f b43f
00000040: 822b 5e1f 9ddf b1bf 2d9a 6572 3209 a23f
00000050: 71fe 72e6 01f3 c43f fb22 2b55 f77e af3f
00000060: db69 d2ea e993 bd3f 5f6c 3616 1376 a23f
00000070: e1a6 1e98 8f1a c0bf b669 e430 f79a babf
00000080: a75d 0900 942a 743f f7a9 08c6 7014 b23f
00000090: 3783 e7ed 9b90 bb3f 2335 5221 f5ec 70bf
000000a0: c426 ef50 7c08 a13f 959c 2f10 02e1 b03f
000000b0: dfa4 238a 3a8e c33f 17e6 45a6 b23c 7ebf
000000c0: 1c03 9d20 50ae 913f b750 e6ab 553d c13f
000000d0: 039c e7b3 c771 823f e544 6c84 e1ac 96bf
000000e0: 8f4b fba5 859c b3bf 4f00 716f 82a4 b83f
000000f0: 5c3a 9583 6684 b43f a7bf a984 bcb7 c33f
00000100: 90c2 a128 e58b c13f 1e6c 9560 5c68 9a3f
00000110: 01e0 b1f7 24bb 94bf 5ca7 9cc1 67b0 aebf
00000120: 82f5 b4ee 1dc2 babf c5ad c42b 8685 913f
00000130: 9f81 41b8 07c4 b83f 651f 4530 8dee bcbf
00000140: c41e 87b2 86f3 ae3f 01c1 09e7 7fcb 85bf
00000150: 3c1c 21b5 5f48 8ebf b38f 9aff 3fd8 b1bf
00000160: c066 b85a fe0a a03f 996b 024c ff98 c2bf
00000170: 4b79 3deb 4571 c0bf 6a28 4ca9 a507 8d3f
00000180: 528f da96 ac8b 813f 5f6d 42da 22a1 aabf
00000190: 0fb5 d84c a846 b5bf ccf3 e3e0 cbb8 b03f
000001a0: 95bc 9012 9a61 563f c457 2a4a 743d c43f
000001b0: 124c e9c8 7cf7 bfbf 834f 2582 c008 ab3f
000001c0: cc88 675d 4379 a1bf de7d 18f9 b823 ae3f
000001d0: 229d 19ac 8137 903f 9d25 2fbe 694b 933f
000001e0: bd65 48a1 cf6c adbf 3be4 4c77 6f65 a83f
000001f0: 9b2f aff4 8713 913f 4fee 0d3b 6e79 bbbf
00000200: 3b93 a5df 7960 a5bf ac39 8cf1 506e 6d3f
00000210: 2b6b f9d2 5b62 a83f dbfc 8850 c2c3 c23f
00000220: 39f4 e709 125b c03f bf43 7848 87a5 b43f
00000230: 0718 a69c ab48 813f f6c2 a5d4 5773 a5bf
00000240: daf3 dd87 caa4 a63f 5557 9c04 3d97 b33f
00000250: a0c4 21df f2ec 9dbf 511c 0cdc d259 b43f
00000260: 24b6 894a 6bed 9fbf a51c ee5b f2a7 95bf
00000270: 4b9e acc9 c59a adbf 8728 5ec9 4e73 b73f
00000280: f5e7 3a6c ab0f 9e3f 04de 758c 4a71 aa3f
00000290: c534 6843 1aa8 983f 8248 637a 2556 633f
000002a0: 57b9 2938 cd79 b63f d005 ac00 2c9c b1bf
000002b0: 8b00 8659 5e95 62bf c1b3 0325 1bd3 b3bf
000002c0: a2e7 341a 65c2 b23f f0a7 46a3 1cbd b83f
000002d0: 93a8 e4f8 9fb8 6b3f ccdb 2a32 8c9c 9fbf
000002e0: 0ef0 babf 69d4 953f d070 4fe1 ae19 a63f
000002f0: bb8a 9b8d 0a71 b0bf c2fc c457 23af a83f
00000300: 412e 1d9d 8821 b83f 9216 a624 39b6 673f
00000310: 3968 7772 e947 783f 7f2b 8bda b1fb c03f
00000320: b8ff 9999 b650 b63f 63a8 3de0 1a56 c03f
00000330: 1d55 6ce4 2176 913f e675 24b5 3e9d a23f
00000340: 5821 0765 980d c0bf 463b 432a 7365 c23f
00000350: 6680 7ea0 332b abbf cc45 bda4 e87d c23f
00000360: 0e18 b509 6096 8ebf 55d2 922d b6e8 ad3f
00000370: dc48 cb83 c483 74bf 733a d685 c963 9f3f
00000380: 4ab8 de63 e36b b33f 3b08 731f 3a83 a73f
00000390: 1ec5 c5e6 c45e a43f 32ba b3be 3f7e c1bf
000003a0: 3510 2adf 4cf5 a8bf 0736 0435 491a bd3f
000003b0: ef36 6e84 2d52 b2bf 4057 73f5 b353 b1bf
000003c0: 9171 fb99 2b72 b13f aabd 4dbe 7204 88bf
000003d0: ebab b3c9 d43a abbf 6991 b7e1 b0b1 c53f
000003e0: 5774 935c 7e56 a7bf fe48 4e5e 32ba 81bf
000003f0: 1d78 1973 fd8b 95bf 48fa 95da 94ee a33f
00000400: f4ec 31fb 09ed 72bf 5127 5c52 c7a4 a8bf
00000410: a9c7 3fee 7136 a03f d55d fce6 ab2f a0bf
00000420: 52ba e5c4 6955 92bf 24ac c735 3f52 80bf
00000430: 4f96 743d da43 c43f 8147 8b97 7984 b0bf
00000440: d2c4 59fe 3604 a53f 1b6e 3abe 76ee 943f
00000450: bfd9 d804 0e91 bd3f 26f3 4028 f8be bbbf
00000460: 2c99 5f00 25f7 b03f a542 2a2c 0a52 89bf
00000470: 6d5d 8e6c 44cf babf 57fb ad96 82e0 afbf
00000480: c830 f43a 0c3c aa3f 70e8 fd3d ecb2 bfbf
00000490: 491e bee6 a4b1 983f e812 69fe 3ed1 a83f
000004a0: 1ae0 7755 650e be3f 1a03 b3c7 f21d 59bf
000004b0: 9617 f7fd 9aa8 bfbf 5234 0da7 f3c0 95bf
000004c0: fe1b a008 81c0 a2bf 1dbe 1b25 e8c0 a2bf
000004d0: 0a12 0725 b493 923f 3b74 7b53 a507 b83f
000004e0: ec32 fe95 b135 af3f c248 067c b56b c03f
000004f0: 31e2 2869 e462 b83f e0bb 17a6 8f20 aebf
00000500: b526 13a2 b29c b0bf 01cf f3ca f9df 943f
00000510: 8ce3 8a5c 1b8c b53f 0859 aa56 bb9b 85bf
00000520: 260d e282 15e4 b33f e390 edf9 fe55 a43f
00000530: 5c19 bd59 def5 b63f 1302 88a1 8eea 97bf
00000540: 9876 5419 a2ba ba3f 8edd eeb7 6605 c33f
00000550: 90e9 4fec 672b 913f 4067 d8eb 1d1e a3bf
00000560: 7a7b 5f98 f624 a53f 219c edd3 fb6b c03f
00000570: 757e 8b63 1485 b3bf ae19 7ced 5d0b 9b3f
00000580: 717e cf4d 863d a93f 0689 f26b 272b b1bf
00000590: 83ce fad8 3832 ae3f 285d dcea f13f bf3f
000005a0: 13a5 5736 bb13 a0bf 0b60 137c 3ebd a7bf
000005b0: 356b 5a24 80df bb3f 1482 ab5f 432e b83f
000005c0: cf79 0e22 9676 bf3f 7cd4 8754 00e4 abbf
000005d0: 185c b0de ce5b c23f 7f41 5e00 05e3 81bf
000005e0: 5c9e d108 0bac b63f 7bb0 2b4b 5d56 c13f
000005f0: 19b4 3064 a0b6 bfbf f2f6 2250 d4a7 abbf
00000600: 0345 274a 9993 aa3f 8af8 6a40 222d 7c3f
00000610: 769d 2553 feb7 c13f eeff 833e c90e 9cbf
00000620: 4b28 9396 1094 c03f 4fa1 9330 54e3 babf
00000630: 5031 a901 3732 933f fb3a 0cc4 40ea 97bf
00000640: df2b c800 baa9 80bf adaf 8dbb 771a 9a3f
00000650: def3 8e51 f570 ab3f 14e2 b7c1 5aa3 b1bf
00000660: bfac b8c6 641f c43f 2718 3f07 04e8 c5bf
00000670: 3937 5cdc 8519 b73f 5f94 69c9 36e0 873f
00000680: bfe2 f929 1b9a a6bf 38ac 25a6 8d74 94bf
00000690: 9c0c 305b facc 94bf dadb 449f ba3e b03f
000006a0: 42ec 8bd1 2819 c8bf f8a1 94b0 69fc b63f
000006b0: 47c2 09ba 4d52 c23f c688 e928 01bc b0bf
000006c0: 77b2 0b6b 2ace b03f 4fcc 23b5 bd7f b73f
000006d0: 80db 1a87 61ac a3bf 5420 4ba5 8890 9fbf
000006e0: 2136 8c78 22ba b1bf a8e6 9dbf 0803 b23f
000006f0: 7cf4 ec17 39a0 bfbf 4293 83e5 2b5e a6bf
00000700: a930 5c5a 90f0 ba3f 52f1 6d7e 40c5 99bf
00000710: e9e0 0f7b 1bac bdbf b120 18e5 eaf5 bd3f
00000720: 95a6 a995 f53e b4bf 1c80 be27 e87a 943f
00000730: 1831 4779 a9f8 b7bf d82a 8e30 1259 9fbf
00000740: 6702 01ed cd63 90bf 1534 4968 715c c13f
00000750: cc6e 3db0 f109 c43f 0f49 0a60 9808 be3f
00000760: ba0e 3b34 dcc4 87bf 754b f897 9f3c b53f
00000770: a0b5 d036 280c 5d3f f8f3 1e42 1935 b33f
00000780: 8e0f 362a b206 c03f 7abb 0d3c bee7 b63f
00000790: e23e 06b2 8c97 b1bf 983a 2c28 5387 b73f
000007a0: 385f 37f6 9456 a4bf aabc e2a3 fb2d a8bf
000007b0: 6c69 3069 f734 adbf cf56 d859 3974 783f
000007c0: 79fb ed84 addf bfbf 268a a733 6f35 c63f
000007d0: 184e 62cf 0445 85bf dca2 6e19 96c4 b63f
000007e0: a7c9 83d9 e90f b83f 85cf ac2b a5a6 89bf
000007f0: f504 0dd5 70a4 b2bf 903b c8b4 c352 b0bf

layer2.bias f8 [100]
0.04513384795048659 0.11060562522105834 0.05199760137436596 -0.025282182096713915 0.022735642063984055 0.18521411019278858 0.020118647765041336 0.07556814285664568
-0.047623461269026134 -0.14401520765993914 0.022517125931427337 0.11221071120047549 0.017757808719565754 -0.1063630843940844 0.0207169675160615 -0.03562509130747659
0.11997749188277437 0.1327642730937118 0.018681084942513766 -0.0025099321344211846 0.1848021165696903 0.0386419039045909 0.09159481247243892 -0.12969832113779806
-0.14177506962744277 0.16768347136701217 0.1401154694020136 -0.15013785134981752 0.03306216785732686 0.0026405828982406323 -0.14755194967492383 -0.031221772649726403
0.05003381195701064 -0.06139735391234811 -0.12008189266497553 -0.02653258219702089 -0.046316638553461145 -0.019788241293015214 -0.009751098856911918 -0.08218287238215982
0.06542091527194531 -0.112477994535311 -0.02507950702140621 0.09395884292929396 0.040909250782700884 0.05771519142805115 -0.023433755089041275 0.008751229480774352
0.00993238991297489 -0.13442408396013764 0.08004851788295178 0.0070661188955672095 -0.1605794826961019 0.004199987048883706 0.09993337236003133 0.0010086347360780958
0.10428372973049782 -0.004442647542902553 -0.09359796494688995 -0.060064109024020644 -0.002266075201258179 0.08196066936918656 -0.006856440691141952 -0.01513414208325119
0.04070381170750648 0.10901013792657956 0.1372192733589451 0.001479111082062292 -0.04979067020781224 0.11649785826708028 -0.07642982430038751 -0.13889930821476357
-0.08509375003652443 0.00170316293488126 -0.15697395651827228 -0.15131950997494423 -0.11721866596595801 0.05075400075941638 0.065032021444394 0.18005706826947807
0.11103218030982587 0.04155980701436575 0.10250750980829643 0.042137856743762546 -0.14163809913265057 -0.13104626777881 0.017373233954152998 0.029750055950932768
0.14713174496286383 -0.015537233313438368 0.15774001451372316 0.06341910492622733 0.03904210973436117 0.06926113079943436 -5.5472534345089775e-05 0.006340748930984923
0.09880974381565265 -0.10450623366188536 -0.08412145350540541 0.10453954688613669
00000000: 01ab c7a1 c81b a73f f1fc 1377 a650 bc3f
00000010: 4427 bffa 6d9f aa3f 748c 1b85 92e3 99bf
00000020: e436 791c 0348 973f 0594 0491 18b5 c73f
00000030: 9b2b c398 fb99 943f de51 300e 6f58 b33f
00000040: eb77 5831 1a62 a8bf d456 831f 176f c2bf
00000050: accd e6bd ba0e 973f fcef dd56 d7b9 bc3f
00000060: 38f0 cb5e 1a2f 923f 726a f970 9c3a bbbf
00000070: 4fab d027 d436 953f ef4d 2ab4 733d a2bf
00000080: d682 e44b d8b6 be3f dae1 8171 6bfe c03f
00000090: 650f 8763 2221 933f f630 d78d b58f 64bf
000000a0: c2fe 7283 98a7 c73f 4300 0d23 dfc8 a33f
000000b0: a668 0df4 c172 b73f 7204 d15f f499 c0bf
000000c0: 0b10 b87b af25 c2bf daef cce8 a676 c53f
000000d0: 3567 5fbf 4def c13f e936 b894 b737 c3bf
000000e0: c139 5d43 86ed a03f d51a 1726 b4a1 653f
000000f0: 894c 2877 fbe2 c2bf 8b9c d0b1 99f8 9fbf
00000100: d361 1924 089e a93f 2d9c 3a56 796f afbf
00000110: 7b7d d6d9 afbd bebf 1630 4273 5b2b 9bbf
00000120: b20e b27f d0b6 a7bf 32a1 cb64 5e43 94bf
00000130: b124 8655 62f8 83bf 4037 2ccd ef09 b5bf
00000140: 9b40 91d3 6cbf b03f f57f 0c9c 5bcb bcbf
00000150: 30b4 d339 71ae 99bf 3423 8dcd af0d b83f
00000160: 3c5e 6eac 0ef2 a43f 80eb 5477 d88c ad3f
00000170: 706c ebae 04ff 97bf 8994 5b23 2aec 813f
00000180: 185e c7ce 6e57 843f 81a7 33f2 ce34 c1bf
00000190: 628a 6646 0f7e b43f 1bc8 0ed9 5cf1 7c3f
000001a0: 3c4f 4b55 de8d c4bf 9119 4c70 0134 713f
000001b0: 22b9 10c6 3b95 b93f 01c9 1f4d 8586 503f
000001c0: 3888 b2a8 56b2 ba3f 6382 781e 7432 72bf
000001d0: a546 6b46 09f6 b7bf 07d5 d70f b9c0 aebf
000001e0: b757 26dc 4d90 62bf 90b9 7fda 5ffb b43f
000001f0: cd12 91c8 7f15 7cbf 1a97 672a a6fe 8ebf
00000200: a16a 3648 21d7 a43f 61bd 53a1 16e8 bb3f
00000210: 1b91 bab1 6690 c13f 3dfd 5f6e d73b 583f
00000220: cf7f 60a8 297e a9bf baa7 4fbb cdd2 bd3f
00000230: 1b27 cfab e790 b3bf 6716 1cd9 73c7 c1bf
00000240: 1939 8039 b4c8 b5bf ee89 b946 95e7 5b3f
00000250: 1cec c8fc b817 c4bf a768 4b0d 705e c3bf
00000260: 32f6 cde0 0a02 bebf af42 ceaa 6dfc a93f
00000270: afe3 4b45 f0a5 b03f 2bc6 d029 1c0c c73f
00000280: 98f9 3bdf 9a6c bc3f ead7 e8b7 5347 a53f
00000290: 9495 38a2 ee3d ba3f 0ba7 46d9 1793 a53f
000002a0: 3438 d27d 3221 c2bf 78b9 2fc5 1fc6 c0bf
000002b0: f9a7 a2fe 49ca 913f 0e26 7475 cc76 9e3f
000002c0: 23d2 6888 36d5 c23f bfc0 9c27 fcd1 8fbf
000002d0: 62b2 cd25 d330 c43f 7d88 9905 3c3c b03f
000002e0: 5fac f3d0 53fd a33f 7ce4 aaf3 18bb b13f
000002f0: f3eb 46c4 6515 0dbf 92d1 a6d4 c1f8 793f
00000300: b7e0 366a 984b b93f 8e51 cea7 ebc0 babf
00000310: 859c b2cb fb88 b5bf dbbd 038f 1ac3 ba3f

layer3.weight f8 [100, 100]
0.08246050003349341 -0.014130390214678285 -0.001967479699462055 0.034650639588195205 -0.10816608897857562 0.009069726683332101 -0.09877850240513941 -0.022713649450143557
-0.009837598017943374 -0.09844333885760578 0.07587177623333538 0.10290430628440167 0.07149973973672145 -0.13078233464677835 -0.004685342561957074 -0.16749154103866365
0.01523927865699174 0.14890677334794739 0.03745717967709465 0.14982667211849296 0.060732790123044375 0.011109105183821235 0.07760813409977606 -0.004236261415233851
-0.029466597773301885 -0.041178574907908286 0.019281900542250034 -0.06355839576847545 -0.004847052219034685 -0.01686811786940333 -0.03365450882308847 -0.07138590868529414
-0.018916489285292402 -0.065725763782247 -0.1114496803787373 0.07675924805285635 0.1279517084845779 0.09419940062244227 -0.06307196157702277 -0.1549574491598672
0.10335337097190461 -0.11775241925395744 -0.012696063450364309 0.007396797056589241 0.11788759430473748 0.06499161308605617 -0.15800811939771303 0.11318276107162588
-0.06040822625712994 0.10168502786233513 -0.003951398676061148 0.016228702562307525 -0.00819756622446477 0.1177560901980812 0.1004195637963455 0.005984036975142156
0.15205303787767366 -0.07615565355604081 0.03189485622122079 -0.14147385324295217 -0.07920989304463986 0.09330142892354747 0.0409801055045055 -0.03355279513459412
0.1398828760771917 0.1218851886892851 0.09993092260390248 0.04590973015442425 0.028169884927493574 0.12933608956372725 0.031676105696714425 -0.04582048931739029
0.09658341625516105 -0.029116750666317907 -0.016571246736248223 0.029441587245616272 0.06773208108792532 0.07132583921283517 -0.038782378904817734 0.05648285820010266
0.08645332564146878 0.10508971150545417 0.1546859524722386 0.05543808521323182 -0.044710504456459396 -0.1538897773241869 0.02004943114024232 -0.025017131986766465
0.027278459445324442 -0.006247727229223288 0.06986794258503552 -0.044828309113583764 0.04055302572990844 0.08694416842118104 -0.09467959322481576 0.05399182069738698
0.07550850036518471 -0.11713521094146494 -0.052103112288321485 0.1641200200214176 0.05522839619090989 0.07316585838292264 -0.09072691402732412 -0.02363461471876402
-0.028342392256311466 0.1321921975486137 0.021827114800305938 0.0025288777478764224 -0.03541141105437254 -0.11547937958501145 0.06162564158607792 0.08694058150228418
0.03763302975750424 -0.10473851790586743 -0.019492754835572786 -0.17183748447781869 0.13664206670190168 0.0568824205809751 0.10089101090697909 -0.028338782057679836
0.0309020490697448 -0.10180452578662069 0.09094302001773705 0.033510278998052624 0.07205898579814467 0.039005429439109514 0.057533464761640535 -0.06286212234496184
0.013747070729098214 0.010129892355708717 0.034689780963510594 -0.025892512092511057 0.09737890083609774 -0.08195244285593532 -0.04992636864034205 0.05150407166738896
0.06052073851925666 0.010049942397150404 0.05985879019758927 -0.01659344992218451 -0.008741482080113714 -0.01705181317448189 -0.013085200388249988 -0.017125086417451883
0.08850333394916472 0.023008322805943327 -0.17614596631635068 -0.0035122125878806003 0.019906287531977512 -0.01626750883270846 -0.019263900423735263 0.009602345444949222
-0.0015390164442363051 0.057104925107829996 -0.043409474126411676 0.03392018041705829 0.12665362819817566 0.016641843480872824 -0.058660919367859485 0.013301831606786194
0.012603355491285714 0.11320106216238396 -0.067744818526059 0.07965119562097289 -0.028495936773502123 -0.017162833980674565 0.07520476226325207 0.01737392825053818
0.08028876169608519 0.05165306148249882 -0.018643929454095775 0.017253373696517298 0.08523784315406542 -0.005388214074461343 -0.034356694098419946 0.10764781837958379
0.11162168394433476 -0.029471335979877777 0.009232464329997286 0.1269851442528869 0.014696559604126308 0.12671051200644431 0.09798975032228423 0.010873324444734033
-0.11563011232038402 0.0034391705126239867 -0.007733001101052424 -0.05993263905424558 -0.003423798342458038 0.06324306986816432 -0.021274109928718435 0.027520547816987765
-0.04542193464268128 0.013226035063621758 -0.06277573015362266 0.02295373634140363 0.1540339244700382 -0.031013450143128667 -0.1274375775700453 0.11921609067484151
0.010508055417007316 -0.03372236102369668 0.018158465611424316 -0.1347740402115382 -0.02987497964787655 0.04285125721254035 0.1370730368561373 0.017889550206448907
-0.09706961035134976 0.0042508598125942315 -0.10046107200366096 -0.0864812350086956 -0.03571337884799716 -0.04056264672957218 0.110365815193138 0.057656318586478336
-0.06587129948657193 -0.08537947444176587 -0.11804346634892686 -0.045253667229870155 -0.11302210407425281 0.018365639489652766 0.00023066674631316836 -0.04771196026521368
0.009110997945128103 -0.10226056300213933 -0.008663429699993334 0.06404080231999375 -0.029459945501179148 0.10387143865500427 0.08020924515666669 -0.02227017264717784
-0.0424962348145674 0.07840932139630127 0.022844917385194053 0.07771129067395871 0.01391912216175013 0.052920443349029886 0.037209938911478405 0.012215090413301532
0.034815273789042915 0.030529237100938213 -0.025448698322037448 -0.06234265889725818 -0.001994208950585213 0.038863222926483074 0.08651077407213371 0.022906937568317586
0.04317568848728353 0.012573035477490922 0.02279821630789128 0.05359710035493486 0.0635718853610061 -0.03748353988374427 -0.03992019756453176 0.046068053486596955
00000000: 9b0c db9e 211c b53f 6a68 d0de 64f0 8cbf
00000010: a718 df9e 1a1e 60bf 2931 a287 babd a13f
00000020: 51ff b2d6 c5b0 bbbf 5997 e81b 2693 823f
00000030: 18c0 6045 8c49 b9bf a6a4 3e36 3f42 97bf
00000040: 41eb 100e bc25 84bf ce07 e728 9533 b9bf
00000050: 2e92 9c2d 556c b33f 2cec 1bc6 ef57 ba3f
00000060: a37b d793 ce4d b23f 94e9 19bd 79bd c0bf
00000070: 01c5 2f11 f030 73bf de10 8fe1 5c70 c5bf
00000080: 943f 925b c535 8f3f 3656 d78c 600f c33f
00000090: 2652 6d63 962d a33f f3a1 6838 852d c33f
000000a0: 2622 bf46 5e18 af3f 7b62 9edb 5ec0 863f
000000b0: efb3 dc6d 20de b33f 2e93 c5c3 0a5a 71bf
000000c0: aaf9 0ae7 7d2c 9ebf fafa 0cb1 5b15 a5bf
000000d0: 0e4c ef70 a2be 933f 493a 36ef 5c45 b0bf
000000e0: f141 34ac 80da 73bf 9c6b 603a e045 91bf
000000f0: ca26 84ed 293b a1bf 2fd6 32cf 5846 b2bf
00000100: 3684 571b d85e 93bf 0d0a f355 67d3 b0bf
00000110: 2357 605c f787 bcbf 3575 0d7c 7ea6 b33f
00000120: 9b4c b4b9 b860 c03f b1e7 f9b0 731d b83f
00000130: e093 44ec 7b25 b0bf 24e4 344c a5d5 c3bf
00000140: a474 41d4 5d75 ba3f 127b b8c5 0525 bebf
00000150: 7042 75ca 6400 8abf 7d4e 4097 1a4c 7e3f
00000160: 3f99 24a2 e12d be3f a009 b854 4aa3 b03f
00000170: ea66 a82c 9c39 c4bf a30b 46a1 8bf9 bc3f
00000180: 6013 5eb8 d3ed aebf 305d 29ad 0708 ba3f
00000190: 42ed 6481 572f 70bf b2e6 0bcb 419e 903f
000001a0: 401a bab6 e2c9 80bf d03a 4e5c 4325 be3f
000001b0: 9646 62b6 18b5 b93f 7c5d b3b1 b782 783f
000001c0: 5895 7854 7976 c33f 60bf 6dd9 ef7e b3bf
000001d0: b0f3 c2c8 8554 a03f 5d73 75b2 d01b c2bf
000001e0: 8f79 257c 1947 b4bf 738e e539 9ae2 b73f
000001f0: d361 db29 58fb a43f 95be 95fb d42d a1bf
00000200: 8ecf 029d aee7 c13f 708a 4923 de33 bf3f
00000210: d15f 71ac 1295 b93f 22b2 29eb 7a81 a73f
00000220: 7490 fbf9 90d8 9c3f b932 6fc1 158e c03f
00000230: f165 10bc d937 a03f 96b6 357e c875 a7bf
00000240: 0de1 26d6 b0b9 b83f 3eaf 820f c8d0 9dbf
00000250: 0300 258b 0df8 90bf 59f2 7279 ef25 9e3f
00000260: 0ba4 29c1 e356 b13f c664 c702 6942 b23f
00000270: d152 1db2 48db a3bf 5d12 8239 52eb ac3f
00000280: 2fb3 421e ce21 b63f 45df 0fca 28e7 ba3f
00000290: 806a 82d1 bfcc c33f 942b e375 6162 ac3f
000002a0: 2e37 db94 4be4 a6bf c6e6 6504 a9b2 c3bf
000002b0: 6ff6 338c d687 943f fe39 e44e 179e 99bf
000002c0: 16cd cf6c e2ee 9b3f 8042 fb81 3797 79bf
000002d0: 5308 7190 dde2 b13f 28d8 2773 bcf3 a6bf
000002e0: 3911 87be 5dc3 a43f 4967 f217 f941 b63f
000002f0: 66c9 7ffc eb3c b8bf d425 4be0 d0a4 ab3f
00000300: ed72 a36b 8654 b33f 9f22 34bc 92fc bdbf
00000310: f8a7 9856 42ad aabf 7530 4e83 e201 c53f
00000320: 7da6 e676 e546 ac3f 4e3c f068 ffba b23f
00000330: bf46 9d08 e139 b7bf b825 1525 ac33 98bf
00000340: 3036 53bf c905 9dbf 3dfb a086 aceb c03f
00000350: b7f3 eee0 d859 963f 9773 20e7 70b7 643f
00000360: f479 c4c8 7121 a2bf 1a14 ae7e 0e90 bdbf
00000370: 0819 6a66 658d af3f 545e 3fea bc41 b63f
00000380: dca1 1df0 a244 a33f a986 09bd 24d0 babf
00000390: 8265 1ca2 e8f5 93bf dd91 074c c5fe c5bf
000003a0: d70a dfbb 7c7d c13f 69a7 3950 b11f ad3f
000003b0: 7b4c 4e48 fed3 b93f 27b7 9578 d704 9dbf
000003c0: de27 8968 c9a4 9f3f 709c d684 dc0f babf
000003d0: 4291 c6b0 0a48 b73f e5c0 c060 4228 a13f
000003e0: 43ce 622b 7572 b23f f964 9d07 85f8 a33f
000003f0: 3c54 27bb 0675 ad3f 8bf6 a067 bb17 b0bf
00000400: 4905 9499 6c27 8c3f 82c4 0923 fbbe 843f
00000410: cec3 7ce5 dbc2 a13f b72f 9812 9183 9abf
00000420: e455 69da d2ed b83f c3bf e4d5 d5fa b4bf
00000430: cf5f 09f1 f28f a9bf 8834 d8de bd5e aa3f
00000440: f106 5701 93fc ae3f c12a 616f 1095 843f
00000450: f8b4 8db4 cfa5 ae3f 4971 f992 dffd 90bf
00000460: ffa4 38dd 0de7 81bf fd06 b0cf 0776 91bf
00000470: 7547 d5dd 69cc 8abf f6a0 6a18 3d89 91bf
00000480: 8d0c e68c 27a8 b63f 9d08 f367 7e8f 973f
00000490: 6755 5376 f38b c6bf 1312 73c6 a4c5 6cbf
000004a0: f80b bd57 5062 943f 050c b209 6ea8 90bf
000004b0: 1edd 4079 eab9 93bf 0c26 35fd 64aa 833f
000004c0: c2ae f152 1a37 59bf 68ac 8e53 db3c ad3f
000004d0: 1a43 6b3f c439 a6bf 77a1 2163 fc5d a13f
000004e0: caf4 83a3 2f36 c03f 3e64 fb35 8f0a 913f
000004f0: d6fb 79d4 cd08 aebf b209 d39d fd3d 8b3f
00000500: 1e4e 3dbd c9cf 893f 8c22 dcab befa bc3f
00000510: 13fa 0a74 b957 b1bf 4085 4750 0564 b43f
00000520: 5857 0bf2 092e 9dbf ea5c 9d4a 2293 91bf
00000530: 4c93 6c8a 9e40 b33f 5f73 8e96 78ca 913f
00000540: fd94 b8e5 cd8d b43f e078 9c23 4572 aa3f
00000550: e3da 18ed 6417 93bf cebd 164f deaa 913f
00000560: 1d71 bab4 25d2 b53f 9110 bdb3 f311 76bf
00000570: c64f 1a5b 3397 a1bf 4612 6db3 ce8e bb3f
00000580: d5bb 101a 3d93 bc3f 10e0 cfe0 bb2d 9ebf
00000590: 96df de62 78e8 823f 516e d298 0c41 c03f
000005a0: c351 e8d6 3a19 8e3f 9b44 90d0 0c38 c03f
000005b0: f337 fa34 db15 b93f 5987 1ce7 c044 863f
000005c0: a14e d95e ef99 bdbf f819 119c 762c 6c3f
000005d0: 5563 43ad a3ac 7fbf dbe3 66a9 7daf aebf
000005e0: 7c2b 16bd 390c 6cbf f14b c8a4 b230 b03f
000005f0: d4d7 9459 e1c8 95bf 812c 5eb3 582e 9c3f
00000600: 4e6b 9f37 8b41 a7bf 089a 6e60 4016 8b3f
00000610: 5d09 fefb 1112 b0bf 801c a12b 2f81 973f
00000620: 7963 0936 62b7 c33f ee48 6768 fdc1 9fbf
00000630: 76ef f8e1 df4f c0bf 78fc 9a1a f284 be3f
00000640: 5683 e252 3f85 853f b73a 7bab 0e44 a1bf
00000650: a153 c9ff 2198 923f dd77 8797 4640 c1bf
00000660: 7fa5 39f2 8b97 9ebf 4004 a498 99f0 a53f
00000670: 12f2 3af9 9b8b c13f 45b1 4e64 a351 923f
00000680: a0fe e4d1 8dd9 b8bf 99e3 ff7d 5969 713f
00000690: 01de c61a d1b7 b9bf 5d7d 145c a223 b6bf
000006a0: ac15 5d24 0649 a2bf cb11 4992 a0c4 a4bf
000006b0: 15d5 d91e ef40 bc3f 4e2e 7905 2185 ad3f
000006c0: 7b33 0a05 f1dc b0bf 1920 7ae2 6ddb b5bf
000006d0: 4ba1 79bb 1838 bebf f57e 8d19 7d2b a7bf
000006e0: a659 b940 04ef bcbf 44a9 e933 71ce 923f
000006f0: fed7 6c43 e43b 2e3f 882d efb9 b36d a8bf
00000700: 247e aa71 c9a8 823f bdc5 c38d bf2d babf
00000710: 3c80 dcd9 21be 81bf f7ef 925f fa64 b03f
00000720: 62c6 e079 bf2a 9ebf a9ff 0290 5197 ba3f
00000730: 0ee4 c8d4 9788 b43f af9a c8fc fdcd 96bf
00000740: dba1 7605 11c2 a5bf 3e42 191f a212 b43f
00000750: 6d69 3274 a864 973f 8c7f f91b e3e4 b33f
00000760: 263b caf3 a081 8c3f 8ea3 f26a 6318 ab3f
00000770: a202 6c5d 2e0d a33f d914 beae 3904 893f
00000780: ef83 a6bc 4ed3 a13f b772 ae6b 0e43 9f3f
00000790: 0160 133c 390f 9abf 3c04 3882 60eb afbf
000007a0: f244 2cc7 2856 60bf b609 f95e e1e5 a33f
000007b0: a936 64f1 9125 b63f 936a d48e ea74 973f
000007c0: 5701 12b4 1f1b a63f 1288 7f41 e4bf 893f
000007d0: c950 cc65 6a58 973f f7a7 5e42 1471 ab3f
000007e0: af11 9240 3f46 b03f bac3 e0e3 0a31 a3bf
000007f0: baa2 fa8d 6b70 a4bf 440a 3b5e 3b96 a73f

layer3.bias f8 [100]
0.07214289127322683 0.05694227772315893 -0.018194083219325873 0.06499437639493713 -0.06204916659867011 -0.03164276996745928 -0.15982598503487574 0.06225658536754626
-0.16581322220999856 -0.16591620747913918 0.0772732396577533 -0.06302493713138495 -0.039376309180254594 -0.11603476161508829 0.13018419403559234 -0.012958139859443732
0.12603141968021694 0.03468890617656521 0.09184083728979725 0.09302310930997931 0.047706557690434345 -0.010752272249888298 0.0030677068975948434 -0.011788501380163087
-0.016722285518534052 0.08017821699208866 -0.052267108285199274 0.12732258806590574 -0.048617332451920375 -0.0729883978204598 -0.06578012007538385 0.006401136831814974
0.011263690828253263 -0.010178629375179722 0.0239423765711046 0.10094836126345755 -0.0686413993332625 -0.007660163019914622 -0.1501267013285628 0.03758256599270879
-0.11992347670622548 -0.1298333691789104 -0.14911518623337292 0.003787399950768315 0.01901694156372341 0.03132827813866307 -0.004969238820031306 -0.03036874088722513
0.015124515262202072 -0.1263872464857447 0.008943985656342232 -0.14787445166248653 0.02176469227516039 -0.0558180439759035 0.08187768891136027 -0.09883275978551974
0.048823188061679144 0.09044480342334045 0.010482013465007602 0.021525384485000593 0.012595038420761005 0.028874378636245607 0.05074409000124011 0.12171659383794146
-0.05060566934169261 0.004057955307000891 0.038559988311972986 0.07798545068630908 -0.007300893208909502 0.0405286579904284 0.02264268997009511 -0.0708289351840189
-0.1397427038201303 -0.10291693013734166 -0.0916757355839921 0.037847466466970875 -0.06092386133555134 0.017615584857791838 -0.13237097048855317 -0.0962810319740281
0.13959333892419737 0.14693962494045998 0.12866121153470583 0.11931414592261928 -0.0642220818045812 -0.1326389312071447 0.12182333368805912 -0.14886005924798365
0.06224205810378413 -0.0409735049299203 0.05851906454629502 0.10137784987988392 -0.009627772406376321 -0.14185695082335303 -0.10669310305103732 -0.05019292511154632
0.09503006202573733 -0.005749325240537211 -0.051058140457969484 0.09183497961988858
00000000: e94a a8de f477 b23f bb53 29c9 8927 ad3f
00000010: f37d a141 78a1 92bf 8a48 0ab1 78a3 b03f
00000020: 9118 928a e8c4 afbf 7e86 542c 7b33 a0bf
00000030: a74c 6389 2d75 c4bf 1a7e 3a5c 18e0 af3f
00000040: 1673 511f 5e39 c5bf 89e7 7f06 be3c c5bf
00000050: 0d9f 2fd5 2dc8 b33f 23cf cffb 6622 b0bf
00000060: 812f 55b0 2129 a4bf 7f01 5642 74b4 bdbf
00000070: f063 eb2b e0a9 c03f c872 4e17 cc89 8abf
00000080: fdc1 e52c cc21 c03f a6ed 1f8b bec2 a13f
00000090: d4d0 9890 e182 b73f 3c33 42cc 5cd0 b73f
000000a0: 2699 2b72 fe6c a83f 881f 5e8d 4905 86bf
000000b0: 1374 9099 7221 693f 8757 2cdf 9124 88bf
000000c0: 4079 aa95 a51f 91bf 1426 d543 8f86 b43f
000000d0: 9a9b 7b21 c1c2 aabf a27f e447 1b4c c03f
000000e0: 04ad ccf9 5ee4 a8bf 0456 a01d 5eaf b2bf
000000f0: d362 7348 f7d6 b0bf 790d 9915 1438 7a3f
00000100: efb4 eafd 6a11 873f e4a8 4682 88d8 84bf
00000110: b115 72b1 5984 983f 9a1a 3676 c0d7 b93f
00000120: e7bc 4995 7b92 b1bf bfe4 705a 4360 7fbf
00000130: 6934 3b0c 5a37 c3bf cc48 ada7 053e a33f
00000140: b7d1 7912 4eb3 bebf e7c5 463d 619e c0bf
00000150: e3c9 1ad8 3416 c3bf 700e 9ddd c006 6f3f
00000160: d033 5858 2d79 933f 4852 1794 420a a03f
00000170: fe1f 7de3 9f5a 74bf 8fae b9b3 fb18 9fbf
00000180: 5122 5a13 9af9 8e3f 77d5 2411 752d c0bf
00000190: f87a 1e6f 3951 823f b6f3 e6ce 8ced c2bf
000001a0: 7605 1ec6 7b49 963f 9f6f cec2 2e94 acbf
000001b0: 7877 25ac eff5 b43f 075f 0d8f 1a4d b9bf
000001c0: 3bd2 0558 5aff a83f 9de0 cb00 6427 b73f
000001d0: 613e 3a08 9877 853f d56d 9619 c00a 963f
000001e0: 2c4c df70 6dcb 893f 956f bdbf 3e91 9d3f
000001f0: fc8c 0a1e 21fb a93f f31a ea95 d128 bf3f
00000200: 2c28 a17d fce8 a9bf 57af 5015 139f 703f
00000210: 87d7 7781 22be a33f dcf2 42c0 daf6 b33f
00000220: 9e8c 0599 8ae7 7dbf f443 3d19 2cc0 a43f
00000230: 80fc a833 a52f 973f 49d2 3958 d821 b2bf
00000240: a38b 61c3 16e3 c1bf 7404 2591 c358 babf
00000250: 6f84 2b9e 0f78 b7bf ec97 6c3d be60 a33f
00000260: 19e7 f68f 6931 afbf 2bde 74e3 d109 923f
00000270: 3814 982e 88f1 c0bf 7cb7 8dab dfa5 b8bf
00000280: 959d b5cc 31de c13f 408a cde9 eace c23f
00000290: 0e14 e777 f877 c03f 1315 b032 5f8b be3f
000002a0: 561e 08bd db70 b0bf ae04 dbff 4ffa c0bf
000002b0: ea74 1462 d02f bf3f 894a 13af d80d c3bf
000002c0: dfa3 fbe7 30de af3f 885e 5aaf 7afa a4bf
000002d0: 8873 d6f8 35f6 ad3f b5dc c515 e6f3 b93f
000002e0: 2c22 f3bc b9b7 83bf fc8f 3f5a 5e28 c2bf
000002f0: 5a1e 503c 3d50 bbbf 6778 b017 e3b2 a9bf
00000300: 9c92 89e0 e353 b83f 2c63 1dbe 9a8c 77bf
00000310: ba50 ece6 4a24 aabf b5a3 184a 7f82 b73f
