model2_DGM_state_dict_5000_10.pt (torch, 168968 bytes, 8 tensors)

layer1.weight f8 [100, 3]
000000 89 55 8c 43 28 01 ca bf c0 8a 7e 3c eb 26 d6 3f
       -0.20316031740427956 0.34612542064330043
000010 63 99 20 d6 6c 85 c7 bf ca 9f 3b e5 65 07 e6 3f
       -0.1837593122047095 0.6884030797200407
000020 fb 1f 15 1e a3 f5 dc bf 82 92 3c 4e 3f 87 be bf
       -0.4524925035261728 -0.11925120983193874
000030 49 68 25 fd f3 26 e3 bf ab f3 3e 30 5e c2 d6 3f
       -0.5985050148258405 0.35561327659143654
000040 09 fe 14 11 b8 28 61 3f af 42 bb 24 02 ca ec bf
       0.0020946116498235007 -0.8996592252170411
000050 99 af 38 81 11 51 a7 3f bb 44 8e f4 38 4d be bf
       0.04554037763986613 -0.1183658215579894
000060 bc 73 29 c9 aa 9e e3 3f a4 70 9f 9e 8c c7 b8 3f
       0.6131185463851732 0.09679488060595759
000070 99 43 01 8b a9 8f b7 bf 37 b0 61 01 61 63 e3 bf
       -0.09203586238551366 -0.6058812167152671
000080 65 47 37 28 bd d4 ce 3f 28 7f 3d 54 87 7a b1 bf
       0.2408672758452283 -0.06827588850637467
000090 7c 48 0e 9d 39 fa c6 bf da 20 42 17 a5 94 d2 bf
       -0.17951126259555739 -0.2903225638515444
0000a0 4b 3c 00 b2 b5 e7 d0 bf 61 0f 61 c1 77 cf de 3f
       -0.2641424406328425 0.4814128292530225
0000b0 1b 4e fd 0d da f7 da 3f 7f 9c 5c e4 85 ca d5 bf
       0.4213776718727062 -0.3404860239119855
0000c0 a5 4c c0 d4 c1 5c 8d bf cf 7a 3c e2 a1 37 99 bf
       -0.014337076478147923 -0.024626283105244447
0000d0 31 5e 84 28 98 c4 d2 3f 91 56 35 11 8e ce d6 3f
       0.29324916798347817 0.35635711365225925
0000e0 19 ad 6d 34 ef bb c6 3f 35 02 1e 11 2a cb c6 3f
       0.17761030254346435 0.17807508312036338
0000f0 c6 76 11 44 aa ba dd 3f f2 91 10 c3 85 e6 85 bf
       0.46451813361441585 -0.010693593039897007
000100 5c 00 37 0a 97 7a d9 3f fb 46 5d ad 40 e8 b7 3f
       0.398107299781264 0.09338764412430216
000110 33 02 cb 1c b8 31 dd 3f b7 c1 79 b4 5c 4f e2 bf
       0.4561596184903777 -0.5721877598680781
000120 57 ce c7 f8 56 a2 d2 bf 06 a0 0f ec 8c 76 db 3f
       -0.2911584310051913 0.4291107468875456
000130 d1 d0 6e 0d ce e8 c2 3f 09 e3 ad b6 52 ea d2 3f
       0.14772964149381676 0.2955519470192916
000140 23 c5 63 a8 b4 2b dd 3f 1f 44 5c 57 0d a3 d4 bf
       0.4557925838881422 -0.3224519112710044
000150 40 7d 17 fc ff 95 d3 bf a8 0b 0c b1 ec ea c1 bf
       -0.3060302697976631 -0.13998182911754253
000160 ff 2b 7b fa 80 17 bc 3f f7 1d bc 00 9d 6a cd 3f
       0.10973363986265382 0.2298160794818924
000170 82 0d 9e 9c b4 75 ce bf cc 77 1e d0 fa e0 d9 3f
       -0.23796708724340127 0.4043566734707127
000180 61 08 1f c4 81 d6 dc bf e4 81 cd 2e dd ba bf 3f
       -0.45059246208632514 0.12394506828923785
000190 4f b2 c4 98 9b 22 b5 3f 34 b5 90 17 2c df db 3f
       0.08255932311721746 0.4354963522080937
0001a0 b6 7e 99 75 6f 22 da 3f cc 19 04 ce 69 cc d4 3f
       0.40835176929793293 0.32497639769317455
0001b0 4e 5a 32 ae a8 0e de 3f cc 0e db 26 43 d7 d1 bf
       0.4696447087420993 -0.2787635688257353
0001c0 01 ac 3d ae df 36 b4 3f 80 61 67 70 ad 67 d4 bf
       0.07896230701378217 -0.3188279721921603
0001d0 96 63 b8 71 a2 de a4 bf f8 cf e8 83 69 be bb 3f
       -0.040761066800946086 0.10837420912213236
0001e0 d4 8c 0a 7a b2 03 df 3f 8b 4d 38 74 f1 a3 a0 3f
       0.48460065763556526 0.03250078719807011
0001f0 88 7a b5 94 4d fe bd 3f 97 96 c9 1f f7 cb c3 3f
       0.11716160660351183 0.15466202785608082
000200 b9 23 ab a8 9d e7 a5 bf ef e1 02 72 bb 1e c8 bf
       -0.04278271373693294 -0.18843787257152608
000210 39 ec f1 32 1a 4a d5 3f 05 47 e0 45 52 81 97 3f
       0.3326478478917952 0.022954259409806905
000220 38 aa 51 52 46 7d c7 3f 35 cd 9f 15 0e f5 e0 bf
       0.18351058024866673 -0.5299139425609726
000230 ab 51 b3 ef dc c3 ba 3f 71 1c d7 27 4e ac d9 3f
       0.10455113269865161 0.40114168062831995
000240 2c 16 1e 25 32 f8 ca bf 35 ee 5c 86 bb 2b ac 3f
       -0.2106993371236724 0.05502115264104327
000250 7a 64 0e 29 7d 89 96 bf d3 b6 7e 6d ab 03 cc 3f
       -0.022008853560326426 0.2188619885104602
000260 74 5a 96 9a 56 4d dc 3f e8 00 80 0b e7 7d df 3f
       0.44222035499971146 0.49205947993324495
000270 45 7e be 3f 05 e7 b7 bf 5f e3 ea da 7a f4 c3 3f
       -0.09336884313824452 0.15589843453724492
000280 bb 34 da de 88 ac d4 bf 79 5d b4 62 6f 0b 80 3f
       -0.3230306793491981 0.007834310722087722
000290 8c b5 7d 61 53 05 c5 3f 4c f1 43 6c a6 a4 d5 bf
       0.16422502765946623 -0.33817444393914253
0002a0 1e 1f 30 0c df 31 d9 bf 1c f5 b9 02 0f 5e cf bf
       -0.39366890135032573 -0.24505794175267048
0002b0 c6 02 bf 36 08 67 9a bf 6e 6c 77 67 ef 1f d3 bf
       -0.02578366121429345 -0.2988241682448408
0002c0 25 83 90 df 7f b9 c8 3f 91 06 ad 33 b8 4c e0 bf
       0.19316099563823133 -0.5093651780409393
0002d0 4c 36 36 1a 17 04 d4 3f 3b 04 76 42 d2 46 c9 bf
       0.31274964866392874 -0.19747379536787144
0002e0 e5 46 9a cb 57 9c c9 3f 93 7a b9 cb b4 c7 d7 bf
       0.20008370820556035 -0.3715641011712389
0002f0 2e de 63 5c 9f f0 e0 3f 0c 97 0f 7e f1 15 d4 3f
       0.5293728641981426 0.31383931456217407
000300 21 a2 d3 58 c8 4d e1 bf 1b dd 19 4f 1e fa d0 3f
       -0.5407449469467488 0.265266015288448
000310 68 86 fd bc f6 d9 d7 bf 01 eb fa 4e 71 1c d9 bf
       -0.3726784558876717 -0.3923609992304336
000320 4e 4d 72 51 08 d3 d3 3f ed 78 0e 34 f5 b8 a0 bf
       0.3097554011703395 -0.03266111622291299
000330 74 21 65 e5 8d d9 ea 3f 76 80 d6 8c aa df 85 3f
       0.8390569191333683 0.01068051569274096
000340 6b 97 c5 b9 ac d9 d4 bf 9a b5 c7 07 0d d6 da bf
       -0.3257858099153654 -0.41931463012482484
000350 6a f5 8e 65 08 01 db 3f 32 c9 ef 90 88 83 c5 bf
       0.4219380370885434 -0.16807658268914732
000360 dc 54 90 6a 87 6f d5 3f 88 cb 3d a4 30 86 81 bf
       0.3349321880971965 -0.008556728374719005
000370 8a b3 91 10 e1 5e e2 bf 0e 97 72 78 84 11 ca 3f
       -0.5740819285980348 0.20365959054213828
000380 6f fd ea 69 98 86 cc 3f 1a 46 80 5c 2e b1 ce 3f
       0.22285752460264116 0.2397821380296115
000390 a6 cf 5a 4a 5b 4f e1 bf b7 a7 0a 07 40 19 d3 3f
       -0.5409370853653754 0.2984161442533337
0003a0 db 79 16 30 05 7f c5 bf 00 88 0c 70 1b 55 d2 3f
       -0.16793885086094815 0.2864445299366025
0003b0 65 49 7d 07 1a 39 91 3f 3e 97 16 43 d7 54 ca bf
       0.01681938811027219 -0.20571413780015207
0003c0 7e 40 d1 a5 ff c0 d2 bf 2f 52 cd 1b 0d 1b dc 3f
       -0.29302970116714977 0.4391510745529414
0003d0 aa f7 3b 30 56 d0 dc bf cb 73 23 fe ae 10 8a 3f
       -0.4502158614194466 0.012727133875552262
0003e0 85 27 65 1d 95 3b e0 bf 5a c8 ce a1 c7 99 db 3f
       -0.5072732519267765 0.4312609748986965
0003f0 71 d1 dc f3 6d 35 b6 3f dc cf b0 3d 1d 2f da 3f
       0.08675276950527235 0.4091256239364591
000400 dd 1b c4 17 a2 64 db 3f 30 5b 94 db b0 bf bb 3f
       0.4280171615686735 0.10839372025325811
000410 97 61 97 77 d2 e1 aa bf 65 5e 10 60 ce 64 b7 bf
       -0.05250413617949617 -0.0913819298297028
000420 d7 bd 10 66 d6 99 ad bf b3 d0 3a 74 ab a8 da bf
       -0.057814311942248224 -0.4165447840744136
000430 45 6d dd 7e 9a 9d d3 bf a6 df 06 76 f8 9e c7 3f
       -0.30649435414462217 0.18453889620809355
000440 14 fc 29 57 d0 f8 d7 3f df 98 bc 5f 18 46 d5 bf
       0.3745613909922565 -0.33240327214515547
000450 a4 3b 2d 59 b8 d2 de 3f 9a f3 72 eb f3 9c ab bf
       0.4816113348833204 -0.05393182992108976
000460 23 f2 45 5e 39 6a d2 3f 18 7b dd a3 77 15 cb bf
       0.2877334042202923 -0.21159263135174267
000470 07 70 fb ec b2 90 c7 3f e9 9a f9 0a 47 1c d2 bf
       0.1841033608569662 -0.2829759223154001
000480 c7 4f 30 15 20 38 e5 bf 84 04 69 4d 79 9b de 3f
       -0.663101235756124 0.4782393699607115
000490 e2 9a 91 36 d6 99 cc bf 24 49 fc fc 35 7c b8 bf
       -0.22344472565165235 -0.09564530779269781
0004a0 f1 5e 91 d5 52 a9 e4 bf 7b a9 11 b3 5b 73 c6 bf
       -0.6456693812606017 -0.1753954529152216
0004b0 9b 87 8c e8 3d ea 92 bf c3 68 b1 95 d8 87 e8 bf
       -0.018471686667119163 -0.7665827678386211
0004c0 e8 34 37 76 ac da cb bf 93 af 7c 66 9d 2d e3 3f
       -0.21761089107750498 0.599318218393352
0004d0 d8 92 be 7a 31 cc d4 bf 7f f6 a3 fe 69 93 a8 bf
       -0.32496296870003283 -0.047999679883997885
0004e0 da 7d 5b 3a 8e 97 df 3f 26 4a 88 2a 90 0d bb 3f
       0.4936252183815363 0.1056757072295019
0004f0 f6 f5 3b 33 7e c8 d0 bf 2a 8c c2 f3 48 47 db 3f
       -0.26223711970655417 0.4262258892505907
000500 49 9a a5 2b 39 8d cf bf d7 ee df 53 6f 4a e4 3f
       -0.24649729376979426 0.6340862882784347
000510 62 f8 6a 4b 8e 78 be bf 90 19 f6 00 a1 9f 94 bf
       -0.11902703610664525 -0.020140186008143213
000520 a6 f3 17 0d 3a c2 ca 3f d8 ac cc b2 d3 76 e2 3f
       0.20905233039220866 0.5770052425554253
000530 2c 50 44 44 ce e6 cf 3f 3e 49 9e 31 9a 1e de 3f
       0.24923113187162593 0.4706178173593293
000540 bb 26 ed 06 ec 15 d8 bf e3 04 f7 42 36 97 b1 bf
       -0.3763380115166048 -0.0687135613907404
000550 39 f7 11 9a c9 c2 d1 3f 78 4c cc 2f 4b 7a d4 bf
       0.2775138859359348 -0.319964214971328
000560 ff c9 50 a2 b2 72 d5 bf af 7b 46 c4 6a 36 db bf
       -0.335125597487746 -0.42519635360252556
000570 10 e0 4e ee 15 50 e0 bf e2 ac ec 66 d8 0b d1 3f
       -0.5097760824637607 0.26634798098775836
000580 ad fb af 55 77 8a de bf 5a d4 da 88 b5 a7 de 3f
       -0.47720130317605475 0.4789861523125346
000590 72 f0 ad dc 9b 80 d3 bf 2e 39 90 2f 8f f9 c1 bf
       -0.3047246604035144 -0.14042844602995203
0005a0 a7 12 26 19 2b 1c b7 bf 92 f5 ca 6c 8c 77 d8 3f
       -0.0902735649488685 0.38229666351602376
0005b0 36 12 d5 b7 1b f0 e6 bf 33 f8 75 18 ea 3b b7 bf
       -0.7168100920176304 -0.09075797173679305
0005c0 7e 87 bb f0 c5 62 b6 3f 5e 44 3e 57 23 24 b9 3f
       0.0874446594930571 0.0982076728817147
0005d0 92 58 43 36 38 c3 d3 bf 34 91 a1 43 ce a7 c7 3f
       -0.30879025744560196 0.18480852415371773
0005e0 fe 15 f8 a7 36 f5 a6 bf 98 10 ce 3f 68 ca e2 bf
       -0.04483958053974034 -0.5872079130354164
0005f0 42 5d a3 9d 21 9a d7 3f 79 45 7a 1f fb b1 d3 bf
       0.3687824286875704 -0.307738095035425
000600 2a e8 65 bf 5e 9a e4 bf 41 81 55 e2 18 6f b8 3f
       -0.6438440073245648 0.09544520879490383
000610 29 3c 52 98 a8 6d b9 3f 2d 78 1c c1 db 5d e4 bf
       0.0993295070531849 -0.6364573260978027
000620 bc c8 87 93 f8 63 cc bf f8 87 b3 cf ba 0c c9 3f
       -0.2218008728373827 0.19570098058380814
000630 ae d0 f9 9c c8 60 a8 3f 20 20 2f 3d d6 59 bf bf
       0.047613400613870524 -0.12246455186607408
000640 dc 89 69 5d b8 ed d9 3f 1c dd 1b 19 6f 6f df bf
       0.405134288046751 -0.4911763901904622
000650 6d 9d 81 99 e7 98 cd 3f b0 04 5e 9b ec 54 cd bf
       0.2312287807028314 -0.22915418230335183
000660 d9 bc 35 ce f7 5e e3 bf 39 51 fa 42 45 fa d2 bf
       -0.60534277224897 -0.2965253023223969
000670 7f 6f 22 35 76 d5 e3 bf c8 3b cc a3 57 a2 df bf
       -0.6198073423179123 -0.4942835902774587
000680 3e e8 f9 0a 6f 01 a2 bf e3 b8 22 60 47 fd b6 3f
       -0.03516718873011414 0.08980222794591301
000690 da 87 6f 19 84 f0 e0 bf dd e4 c3 06 e5 8d 9c 3f
       -0.529359864882504 0.02788503507415362
0006a0 2a bd 3e bb cc 0e d4 3f 9d 41 f2 96 96 0f db 3f
       0.31340330396320104 0.4228264307103247
0006b0 bf 2e 6a 92 1c 67 d9 3f f6 41 67 ce 48 56 de bf
       0.3969184331733508 -0.47401638180329486
0006c0 52 9e 84 83 7d 74 ba bf f6 53 1e 32 e4 0c a2 bf
       -0.10334000073327701 -0.03525460349843705
0006d0 20 f6 da a4 16 7d 92 3f 8b 8e 00 3c 46 0c 98 bf
       0.018055299579591844 -0.023484322941057328
0006e0 50 ee a4 8b ed f5 99 bf 37 c4 c2 36 49 05 d9 bf
       -0.02535220303364688 -0.3909476313374997
0006f0 ed ba 40 d3 17 df cf 3f 4b 9a df bd 8b 98 c7 bf
       0.2489957601078098 -0.18434283038296181
000700 a2 82 fe 72 b3 47 c2 3f 29 b2 b4 a1 31 77 d3 3f
       0.14281314005804285 0.3041500167044285
000710 67 08 36 d8 1c d8 d4 3f 9f ab 35 b4 40 a2 e0 bf
       0.3256904708324612 -0.5198062438697554
000720 23 6a 80 5c cc ad df 3f 6a 09 00 eb 81 2b d1 bf
       0.49498280557023316 -0.2682804865763929
000730 47 15 ed 91 95 b5 c0 3f a5 7c a9 de 92 55 dd bf
       0.1305415117769064 -0.4583480047640001
000740 5c bb ec 9a b5 c8 a2 bf a9 5f f8 d0 ff 7b cd 3f
       -0.036687541162214926 0.2303466577875473
000750 20 ef 69 fc 06 ae e6 3f c6 3c 94 56 ea 57 a0 3f
       0.7087435655552987 0.03192074114678571
000760 39 5e f2 d0 a3 a9 d3 bf 0d da 7b 55 8f 40 e8 3f
       -0.30722899823146893 0.7578808469396009
000770 f2 25 ba 44 e3 c2 be 3f 2e 3e e5 e4 70 45 cb bf
       0.1201612513342736 -0.21305667091881858
000780 9e 97 73 0b 0e 9e db bf cd b0 d7 fc 3e 64 b9 bf
       -0.4315219032126779 -0.09918588326371776
000790 62 19 2c f6 5d ba ca 3f 9e 31 de 11 46 3e dc bf
       0.2088124706280708 -0.4413008856288573
0007a0 ce 6c 98 53 f2 da d8 3f 40 32 94 05 52 3f d0 bf
       0.38836343921293526 -0.25386477036298416
0007b0 51 d2 04 70 d5 77 bf bf ab 2c ca 2f 76 e4 ca bf
       -0.12292226776919192 -0.21009709676250074
0007c0 3a 70 17 d0 75 b8 d5 bf fa 2f 84 63 c0 78 e9 bf
       -0.33938355752411875 -0.7959901755980348
0007d0 75 85 eb e8 7d e1 bd bf 4c ee 2c 19 38 cf d5 3f
       -0.11672198235057414 0.3407726522307015
0007e0 4e fb 36 5d 8e 29 d2 3f 35 4d cf b8 d5 f8 d1 3f
       0.28378638365750397 0.28081267402486115
0007f0 67 2d 30 a8 f9 60 cd 3f 9f fa 6c 30 4d 7b cd bf
       0.2295219489318285 -0.23032536377464383

layer1.bias f8 [100]
000000 44 6a 30 64 7c 40 94 3f c3 a7 72 7a 20 14 dc bf
       0.019777244200762448 -0.438728446557999
000010 29 d3 c8 34 bf 6b e2 3f ca 20 7c db cb ac e2 bf
       0.5756526976534576 -0.5835933005155536
000020 31 06 94 bd 80 a3 cc bf ad e5 54 fa 56 67 e2 3f
       -0.22373971230267523 0.575114716462101
000030 c9 a6 84 90 4d 79 cb bf 32 14 19 83 00 46 b0 bf
       -0.21463937336493746 -0.06356814575799843
000040 66 0e 07 7e bb 49 ee bf 10 66 ce 12 78 07 dc bf
       -0.9465005361057137 -0.43795587383792256
000050 c7 38 b5 85 ce 2c dc bf cf 38 f5 37 36 46 e7 bf
       -0.44023478562747836 -0.7273207753112504
000060 cb ad fc ae 16 d9 b8 bf a5 7b 7d ed d5 bf be 3f
       -0.09706250927108966 0.12011467979526332
000070 27 40 c7 74 5d 6d e3 3f 87 ad d2 75 c6 c3 e0 bf
       0.6071002274347891 -0.5238983441571897
000080 ca 1c af 18 de 01 d7 bf a4 88 2f 5d 00 69 dd bf
       -0.35948898706960775 -0.4595337781921762
000090 6b 25 19 32 56 9f e8 bf da 1c 9a fc e2 36 db bf
       -0.7694502809983254 -0.4252250162903245
0000a0 20 cd 38 12 e0 66 ee bf 38 ae d1 84 fa 81 e7 3f
       -0.9500580173393338 0.7346165269968372
0000b0 01 90 1f 8d 74 ab e9 3f 77 c2 87 28 19 3b e6 bf
       0.8021795994104651 -0.6947141448600423
0000c0 48 38 59 7a 57 fd d7 bf d9 e0 93 02 66 aa e3 bf
       -0.37483775089356586 -0.6145505953163833
0000d0 e2 fe f6 52 34 ac c3 3f 83 7f c1 0b d1 4d d3 bf
       0.15369276095406464 -0.3016245474627725
0000e0 dd 0c 8d 59 51 d6 e6 3f b4 25 cc 0d b0 bd e6 bf
       0.7136618374865084 -0.7106552381020976
0000f0 d3 9c 63 15 7b 50 de 3f 6f a3 7b 74 83 03 d1 bf
       0.47366215790539207 -0.2658394467858249
000100 44 34 3f 04 0e f3 c8 bf 93 2b a3 94 d6 7e c4 3f
       -0.19491744239204156 0.16012079484638927
000110 32 10 51 20 ca c1 d2 3f 82 5e d7 58 0f 4e d9 3f
       0.29307797580645734 0.39538940120608157
000120 ca 5b 2e 34 ba 74 e5 3f 72 1e 21 af 72 28 e0 bf
       0.6704989451562764 -0.5049374981399082
000130 ac 04 31 56 db 8d c3 3f 48 9e c1 af 70 aa ea bf
       0.152766625486071 -0.8333056862583783
000140 df 5c 54 18 5f 41 dd bf 69 76 a7 c9 2d 75 d5 3f
       -0.45711495757991644 0.33527702992237224
000150 4e 99 f3 ad 94 2b d3 bf 02 00 b4 31 30 25 e2 bf
       -0.2995349596734699 -0.5670395823253787
000160 4f b5 25 78 34 c9 e7 3f 9b b8 47 f1 61 23 d1 bf
       0.743311152136508 -0.26778458178058323
000170 67 8c f1 9a 87 34 f0 bf f1 36 f1 8d 55 ae de 3f
       -1.0128246357424133 0.4793905149607403
000180 1b 8b 87 0b 18 ee 86 bf 9e 08 55 9c 31 9c d0 bf
       -0.011196315624095335 -0.2595333124810483
000190 59 b0 d4 b2 c8 2e e7 bf f3 68 35 6d 08 6b d9 bf
       -0.7244609349049923 -0.39715777077584774
0001a0 84 e7 55 bc 29 c7 da bf 00 fb 25 88 b8 ab ec bf
       -0.4184059466566554 -0.895962015070694
0001b0 67 57 45 23 88 18 e6 bf b7 2f a9 a2 e1 37 e2 3f
       -0.690494603050621 0.5693214585276029
0001c0 2c 59 99 d5 5f 36 cb 3f 20 c0 c4 7f fd 7e d2 bf
       0.2125968735660505 -0.2890008685817538
0001d0 de 22 61 ec 48 7d e1 bf ac 27 30 0e ac 0c ca bf
       -0.5465435616289047 -0.20351172154215413
0001e0 dd 7d 5f 07 4c 55 e5 bf a5 ed d5 a8 b6 55 e3 bf
       -0.6666622299198327 -0.6042130754062113
0001f0 7c ae 2f 51 25 4c e4 bf 28 8d 76 d4 6d ce a4 bf
       -0.6342951379460398 -0.04063742846053692
000200 62 18 35 50 c1 55 d6 3f f5 b4 4c fa 73 f6 ed bf
       0.34898407776598195 -0.9363345993675966
000210 b1 aa cc 68 dd 65 e5 bf d1 2b 7b 9a 89 53 c5 3f
       -0.6686846777787051 0.16661186259292873
000220 04 bc 28 24 52 7f e5 3f 0a f7 fe 05 a0 2c d5 bf
       0.6717920976860801 -0.3308486994318264
000230 2e 35 ea 6a 3b 82 e9 bf 78 92 7d 90 d3 55 e5 bf
       -0.7971474731618053 -0.6667268583374399
000240 9b 31 01 7b de d6 c4 bf 4e e5 af ca c9 6d d1 3f
       -0.16280728345954007 0.2723259429327144
000250 25 f5 7a 38 f3 42 c9 3f 5f 6d 55 04 8d 10 e2 bf
       0.1973556543143015 -0.5645203671114521
000260 0d 13 fc ab c8 ca e7 3f c9 7c b7 66 55 9d e7 bf
       0.7435038909030439 -0.7379557615457993
000270 93 29 d6 93 98 f4 dc 3f 8a b6 d6 f5 f7 60 cb 3f
       0.4524289554325602 0.21389674667209518
000280 ea 21 1f f6 a2 6c cf 3f 2a 23 db b8 63 17 bd bf
       0.24550282495171355 -0.11363814604841296
000290 87 03 e9 db 2f 0d df 3f 5c 99 6e 94 22 a8 e5 bf
       0.4851798675118108 -0.6767743014395751
0002a0 97 9c be 62 b2 9d e1 bf c6 f1 65 b8 08 3b d2 bf
       -0.5505001000027673 -0.2848531533016082
0002b0 2d 42 27 40 ab 6b e9 bf b0 17 a1 84 fe 7c d7 3f
       -0.7943931820864855 0.36700404121472285
0002c0 c2 2b 71 38 5f 31 d5 3f ec 44 0b bc cb 7a a2 bf
       0.33113842498704227 -0.036093107895462356
0002d0 d9 7d da 6d 3e 85 65 bf a4 a6 b9 db d6 f7 de bf
       -0.0026270121878295524 -0.48387690980471576
0002e0 33 81 5e e5 05 6e e8 bf df 43 ae 1a 2f 41 da 3f
       -0.7634305457941423 0.41022851567782753
0002f0 92 0e 8b cc 76 96 dc bf af de e3 6d 91 2a ea 3f
       -0.4466835973255253 0.8176962991992321
000300 e6 1e a9 08 94 5d ed bf b4 b2 5e 02 31 2d b8 bf
       -0.9176731270935903 -0.09443956668719516
000310 65 69 af 75 97 91 e6 3f bb cd 42 5f 55 02 e7 3f
       0.7052724169291592 0.7190348492207969

layer2.weight f8 [100, 100]
000000 78 2b a4 37 b2 3b c8 bf c5 f8 f4 1c 34 9a 9f bf
       -0.18932178227290897 -0.030861677424802964
000010 bf be 9f 95 c1 7f bb bf ad ba 57 a1 d8 aa cb 3f
       -0.10741815474443238 0.21615131261883871
000020 d4 0f e5 fd 0e d1 86 bf 00 11 9f ec c2 15 c3 bf
       -0.01114093506169659 -0.14910160592820176
000030 e7 32 42 50 89 88 c3 bf 19 33 3a e0 40 d2 56 3f
       -0.15260425967098643 0.0013929017594904224
000040 c5 1f 7c 91 0f a1 9f 3f 38 74 b6 e5 df 70 a1 3f
       0.030887835745516918 0.03406428984747162
000050 28 b4 62 03 db 0a 9e 3f c2 d2 69 6c dc a4 c6 bf
       0.029338285524023316 -0.1769061593401116
000060 01 00 ae 92 9d 2f ba 3f 5d ca a1 d2 19 87 a9 bf
       0.1022890551666933 -0.04985886284056982
000070 79 fa cc 16 0f dd af bf be cd ef 83 89 f0 bd bf
       -0.062233420880592534 -0.11695155593024872
000080 34 ff 00 65 6e 6e 85 3f 48 34 5f 14 9a 54 ae bf
       0.010464537103075246 -0.05923921106987301
000090 68 00 67 38 f8 9b b0 bf 85 15 18 55 bb 3d c3 bf
       -0.06487990738878724 -0.15032140402778907
0000a0 be e1 4f 92 10 ea 99 3f de ae c8 9f 7c bd cc bf
       0.025306948595216865 -0.22453267862271437
0000b0 4a eb c0 33 be 8c b0 bf e6 76 42 1e fb 45 b1 3f
       -0.06464756740107905 0.0674740742565195
0000c0 88 ae ef b8 fb 8e 9a 3f 50 74 cb 08 91 d9 a5 3f
       0.025936062967885337 0.042675525973870365
0000d0 4e 4b 26 b2 79 16 c2 bf 5b 2f a8 1e 50 db 7e bf
       -0.14131089400015145 -0.007533371894634512
0000e0 fb b2 84 1d 55 62 cc bf 4b 81 9b 4d c9 0d 95 bf
       -0.22175086919141748 -0.020560403215200734
0000f0 99 dc 47 91 d8 16 c4 bf e9 02 ac c9 8d 50 a3 3f
       -0.15694720357689532 0.037723952167658066
000100 4e 13 2e f4 ce 30 c2 bf a1 0a 41 f9 b8 bc 91 bf
       -0.14211451456881224 -0.017321481908093465
000110 82 c4 11 c3 ce ba c6 bf 56 50 1b 0e e0 f5 b1 bf
       -0.17757591748116758 -0.07015800804521297
000120 29 31 75 f9 ea 21 cb bf df 12 86 07 72 4a be 3f
       -0.2119725912147115 0.11832344707188323
000130 d3 e3 0d 72 53 0c ac bf c4 93 9f b4 85 0e aa 3f
       -0.05478153960479628 0.050892046259640306
000140 ee a7 09 86 89 63 92 3f 4c f4 73 78 12 50 b1 bf
       0.01795782929040251 -0.067628054053743
000150 16 49 67 19 86 e9 a2 bf 2f c2 ac ef 2f 55 82 3f
       -0.03693789539433305 0.008951544286532968
000160 7e b6 4e 9f fb 84 af bf 67 27 ed 1a d3 68 b9 bf
       -0.06156145400687495 -0.09925574691183457
000170 5f eb 66 b6 b8 50 87 3f 9f 50 e0 33 f7 ef bc bf
       0.01138443285605256 -0.11303658501157308
000180 94 db ee b1 33 b8 b3 bf a0 60 79 17 c0 d2 b7 bf
       -0.07702944845264731 -0.09305954526041882
000190 24 8a 78 2d 3d b6 1e bf d4 7d f4 1b b1 ce c9 bf
       -0.00011715649031222207 -0.20162023415558272
0001a0 00 d8 ad 60 d2 a0 a8 bf 6f dc 40 a8 d5 a2 ae 3f
       -0.048101972867627296 0.059836079396000545
0001b0 9b 1c 6e 5f 6a 2f b6 3f 88 7c 07 70 a7 ab b8 bf
       0.08666100339734088 -0.09636923298920597
0001c0 0e 4a 02 a9 5d fa 84 bf ac 2e e9 e6 83 3a b7 bf
       -0.010243159981006247 -0.0907366217372167
0001d0 23 a6 f8 84 3c 04 64 bf 0a 7c 16 5c b9 55 c6 bf
       -0.0024434263248352002 -0.17449109074092944
0001e0 76 82 60 88 7d 43 92 bf 9f b1 3d b1 b8 44 c9 3f
       -0.017835580300131736 0.19740971235604562
0001f0 38 b9 1a 51 48 c8 b4 3f 3a 61 f9 15 82 29 c2 bf
       0.08118106823051086 -0.14189172814327283
000200 04 02 59 ec 46 8d b7 bf e8 5c 6b 2f 3b fe b6 bf
       -0.09199946661193087 -0.089816760136603
000210 39 27 01 cb 1b b5 c4 bf fc 4b 84 32 3a 18 c8 bf
       -0.16177699482278188 -0.1882393595375048
000220 20 6e 0b f8 4c fd ad bf 79 6b d5 26 7c 89 b4 bf
       -0.05857315566910537 -0.0802228541191833
000230 97 d2 24 d0 75 6f b0 3f 0a 32 7f 84 a2 b7 ab bf
       0.06420074779164008 -0.05413539760010984
000240 d6 e5 3e 81 8d 7c b1 3f 3c fb d0 8e 14 6a c0 bf
       0.06830677419102157 -0.12823731397107874
000250 0b 0f e7 35 6f 3b c2 bf 14 d2 52 19 d9 cb 99 bf
       -0.1424387944408568 -0.02519168107092369
000260 30 92 8e e3 e7 c4 c6 bf bd 16 08 db 3f 74 b1 3f
       -0.17788408862283367 0.06818007562113855
000270 af be ff 21 2b 6c c4 bf fc d5 64 b8 b3 fa c0 bf
       -0.15955104026897035 -0.13265081885917585
000280 83 e6 b5 12 24 5b a6 bf e0 a4 aa c7 c6 03 c8 bf
       -0.04366409996414424 -0.18761524915070193
000290 9d e2 5d 7a fe c5 ca bf 33 5d b6 13 d7 b1 bd bf
       -0.20916729903162415 -0.11599487525233058
0002a0 1b a6 ee 4a 90 06 88 bf 02 71 82 2d 0c 77 ae bf
       -0.011731269156217519 -0.05950201087509478
0002b0 cd 29 be a2 9c df ac 3f 76 fc 73 d5 c0 de c6 bf
       0.056393523088519616 -0.17867288992417557
0002c0 ac 61 58 26 24 5c c6 bf a6 30 25 b9 7b 79 55 3f
       -0.1746869265778178 0.0013107021555525482
0002d0 3f b6 db 5a 55 d2 af 3f 45 b8 9a cd 5b b0 95 bf
       0.06215159162625782 -0.021180567192168338
0002e0 a5 fe 6a a9 43 3b 57 bf 63 d9 20 05 03 fb c4 bf
       -0.001417938304868396 -0.16391027212530238
0002f0 02 31 91 bd 7d 2a c2 3f d8 79 ae b2 c8 04 bb bf
       0.14192172771652883 -0.1055417476877446
000300 1d d1 3e 14 50 1a a2 3f 66 96 19 07 24 19 a4 bf
       0.03535700080047575 -0.039254308573430305
000310 d2 a7 22 76 8c 43 b2 bf 3c 31 88 0f ee 27 b4 bf
       -0.07134321102299104 -0.07873428229521989
000320 b1 b0 43 fb bf a0 93 3f 25 64 3f ca b5 09 da 3f
       0.019167899809801884 0.40684265852684326
000330 fa ed 68 ff 11 d1 af 3f ce b9 26 4c 46 58 c8 3f
       0.06214195483013536 0.1901939269859682
000340 46 2f 9a dd 60 c4 b6 bf 69 ae 82 5b 18 30 ab bf
       -0.08893399629795082 -0.05310131184645856
000350 10 8c 13 f5 ed bd de 3f 31 0d d0 3f da 5c ae 3f
       0.48034237797963986 0.059302158631931674
000360 1f 1e 6f 2d e6 36 c9 bf b2 02 1a 4e e1 99 b5 3f
       -0.19698788851222646 0.0843792739560836
000370 49 b7 85 cd 42 45 c3 bf 48 b6 9c c5 f5 2f ca 3f
       -0.15055117640752716 0.20458862446814607
000380 bb 32 47 40 d4 7f b0 bf 8c 2d 51 9d 90 8a 9c bf
       -0.06445051736154543 -0.02787233314692865
000390 1d 77 4b 0a 61 bc c0 bf 05 4a 19 a8 3f 44 c4 bf
       -0.13074887278246985 -0.15833278377483864
0003a0 43 45 06 ad 3d 25 b5 bf 18 13 12 5c df 50 aa 3f
       -0.08259950136404819 0.051398258198821434
0003b0 a0 a0 1c 37 8f a2 cd 3f 59 4b 93 29 72 80 cc bf
       0.23152342024809958 -0.2226698592190484
0003c0 c1 30 2a c3 68 65 c0 bf e5 08 29 dc 7a 48 63 3f
       -0.12809476403743328 0.002353897057475784
0003d0 ac ce d5 13 99 f7 a7 bf 0b c2 cf 34 c0 6e cb bf
       -0.04681089751366349 -0.21431734636964025
0003e0 dc c5 bb 9b f7 4e a2 bf 22 91 ba 02 65 a0 b1 3f
       -0.03575872207683137 0.06885367695446523
0003f0 b7 6e c0 ef ee 42 b6 bf 57 8c 0e 6d 80 bf c3 3f
       -0.0869588218051217 0.15428166699448084
000400 7b ec f8 85 36 85 9e bf b9 85 6c f9 9f f0 d3 3f
       -0.029805042197250203 0.31156157834820025
000410 85 fa e3 a1 13 b1 bb bf 88 d0 ab dd 79 0b 9b bf
       -0.10817072584539218 -0.026410965113385504
000420 99 81 62 11 15 4e b9 3f ed e9 b8 de 5e ef b9 3f
       0.09884769129212713 0.10130875527912737
000430 ae 8d b6 0e f3 a3 ac 3f e6 b2 01 8f 5e 06 b7 bf
       0.05593833498576416 -0.089940938867311
000440 c4 d0 91 e0 4d 7b 94 bf 50 d7 b4 36 50 17 7c 3f
       -0.02000161822475445 0.006858170828584267
000450 1e 2b 77 d8 c3 01 af 3f ea b5 62 a9 d8 c8 a1 bf
       0.06056034104729789 -0.034735460926963516
000460 93 f3 1a 42 86 ee b2 bf e5 b4 e7 fb 64 c3 9d bf
       -0.0739520942106096 -0.029065683245723135
000470 3c 3f 88 36 fe 60 bb bf 22 e9 f5 ec bb 56 77 bf
       -0.10694874602654364 -0.005697950443727147
000480 9b 02 40 02 ee 9f c6 bf 4d 79 a7 ce bd 62 b0 bf
       -0.1767556677805445 -0.0640066747214167
000490 b8 a1 f9 74 9e bb c8 bf ab 0c f0 22 5f f2 46 bf
       -0.1932256766479108 -0.0007002796681948772
0004a0 d4 29 15 18 d6 b7 b6 3f 5f c8 3f 0c ae 8f a5 3f
       0.08874261939960287 0.042111815448053085
0004b0 7b 78 74 76 d3 c3 db 3f fa 66 2a 23 31 1f c8 3f
       0.4338272721087219 0.1884519025523373
0004c0 24 de c9 75 41 a7 b3 3f 68 25 34 45 37 07 cf bf
       0.07677086950013084 -0.24240771178328235
0004d0 82 7d 8f 1f 95 15 b5 bf a2 e8 49 4a 07 79 ab 3f
       -0.08236057301063762 0.053657749002881575
0004e0 3b c1 29 ea 40 59 ab 3f ee ed 76 a0 22 78 d5 3f
       0.05341532572208726 0.3354574744259641
0004f0 dd 0a 20 d7 3a ac cf 3f fa 31 6d f2 a3 bc dd 3f
       0.24744353775175557 0.4646386973807065
000500 3f 92 6e f6 28 36 a8 3f 92 d7 4c ee 00 9d c4 bf
       0.04728820808603417 -0.1610413707327863
000510 f8 37 31 94 d8 02 80 3f f8 bf 71 04 85 87 b0 bf
       0.007817928335636978 -0.06456786497597011
000520 b8 89 47 15 09 02 cc bf 75 c8 6c 07 ff 9b d4 bf
       -0.2188121179488698 -0.3220212528714293
000530 da b1 e4 c6 72 8c d2 bf b6 a5 7e 93 74 14 a6 bf
       -0.28982228682687394 -0.04312481213066681
000540 dd 26 87 d0 47 18 af bf 91 f5 20 9b bd ab c0 bf
       -0.060732120709486394 -0.13024110865255215
000550 6e 7a bb e4 e2 cb c9 bf 88 a2 40 c0 8c 3d 75 bf
       -0.20153461617060792 -0.005185651596584358
000560 bd 77 62 db 7a 3a a3 bf 27 7c fa d8 1a 94 98 bf
       -0.03755554130587722 -0.024002475255311986
000570 a6 b3 55 26 e3 5d 84 bf de aa 92 27 4c c7 c4 3f
       -0.009944700820335783 0.1623320763804576
000580 95 e9 2d 38 6f 02 90 bf a7 82 11 a1 30 c7 ce bf
       -0.015634286693492056 -0.24045379509609185
000590 a8 d5 58 ef 72 18 b2 3f f0 58 78 f6 a4 ef be 3f
       0.07068556159432282 0.12084418313347434
0005a0 69 d3 44 91 da 85 b6 bf ee 38 82 3b 4d dc 94 bf
       -0.08797994658091358 -0.02037163425171056
0005b0 5e ea 44 e7 a7 24 ad 3f fa 32 f8 67 30 d9 d3 bf
       0.05692028711424223 -0.3101311698272152
0005c0 4c b6 81 2f 08 9a b8 bf 10 61 f3 a0 b1 85 c4 3f
       -0.09610034141379592 0.16033001288338555
0005d0 75 bb ee c9 63 68 ba bf 6c f6 21 37 eb 04 b8 3f
       -0.10315536193841786 0.09382505508434641
0005e0 08 29 60 10 82 b4 cb bf de 38 88 87 94 37 91 3f
       -0.21644616889563673 0.016813584110473616
0005f0 0e 2e 47 10 ee 02 7b bf a7 b7 ad 70 aa 73 ad bf
       -0.006594591079600599 -0.05752308488341323
000600 df 10 e1 6e 8d 55 c7 bf 3b 96 5f b0 02 b9 b5 bf
       -0.18229835428258576 -0.08485428625098106
000610 80 01 7e b5 8c 8a 98 bf 18 70 55 be 8f e0 b2 3f
       -0.02396602494946043 0.07373903652973046
000620 e2 e6 08 8a bd 1b ca bf 54 51 14 a8 88 7e 93 3f
       -0.20397156944255018 0.019037375696897854
000630 20 5e 7d f6 9c 4f b8 bf e0 7e 69 39 0e cb c5 bf
       -0.09496480005088204 -0.17025926402401748
000640 e1 39 65 d3 a1 12 a4 bf 77 a3 af 7d b6 00 b7 bf
       -0.03920465188513212 -0.0898546273089219
000650 1d 35 bb ed 33 ce aa bf 66 e0 d1 81 68 7d b8 3f
       -0.05235445286744265 0.09566357774190379
000660 f9 ed 1b 2d 95 4b b7 bf 71 48 0d 38 1b 7c c3 3f
       -0.0909970507745398 0.15222492443951155
000670 23 5c 0f 78 57 ae ba bf c6 12 b7 8b 3c 6e c2 bf
       -0.10422274285461745 -0.14398915121105044
000680 5c 83 f0 8d 7f b8 9b bf 6e 98 4e 12 94 f7 c2 bf
       -0.02707099250631316 -0.14818049329659594
000690 dd e4 ab 62 8d 07 b2 bf b1 3d 9b 83 c6 cc b6 bf
       -0.07042773875209059 -0.0890621253304207
0006a0 de 1f d3 ff 88 07 b1 bf 0c ab bb aa 33 23 a1 3f
       -0.06652122731895768 0.03347169360298183
0006b0 0d 6c 40 30 73 25 bb 3f 64 e3 99 74 18 3f 91 bf
       0.1060401909639241 -0.01684225284268183
0006c0 6f c1 07 77 44 c7 af bf 20 2b 0e 15 3f 78 af bf
       -0.06206716492659125 -0.06146428234122525
0006d0 f6 33 00 24 f8 15 cf bf 90 7b ab 99 be 96 a4 bf
       -0.24285794980860914 -0.04021258951046669
0006e0 ca 06 8e 47 c9 d8 ce bf 87 0c 7e 1d 24 3e a9 3f
       -0.24099079126249584 0.04930222377790821
0006f0 a0 a9 68 80 cd 4d b0 3f 56 70 44 c6 5e ac 9c 3f
       0.06368717560750392 0.028001290179517767
000700 8d d2 d6 5a 7d 6c bb bf 95 b8 1d 59 90 a5 ba bf
       -0.10712417094948475 -0.10408880401311855
000710 4b 2d be e9 1b 07 a0 bf 68 56 54 6b bf c8 94 3f
       -0.03130423763567566 0.020297041822308876
000720 1b fc 0c bf bb 00 bd 3f 92 ca 6f ba 26 32 c5 bf
       0.11329244055103553 -0.16559299567559954
000730 b5 ed 9c d8 75 57 8b bf 72 67 06 86 f3 49 71 3f
       -0.013350411103252616 0.004220916045960853
000740 18 35 70 b8 a2 26 a7 3f 08 a0 cd 61 a9 a0 c2 bf
       0.04521664143985954 -0.14552800441310887
000750 34 60 ca d1 11 54 c0 bf 1f 7f b0 81 b0 cf ad 3f
       -0.12756560081175083 0.058225169974546846
000760 37 20 1f c7 b9 8d b3 3f b3 54 ec f4 3b cb b5 bf
       0.07638131247870282 -0.08513235787934796
000770 1b 2e 76 a9 42 dd 92 bf 7f d3 8d fa a3 78 bf bf
       -0.018422166436307657 -0.12293457858124944
000780 46 84 cf a6 38 39 b0 bf cc 1b 4e 91 fd 8a b3 3f
       -0.0633731276752921 0.07633957669723584
000790 5d cc c4 07 56 03 93 bf d8 ea 20 b5 2a 98 c3 bf
       -0.018567413543859924 -0.15308126300973046
0007a0 47 25 02 c3 07 d9 a9 3f 0d 44 d9 26 69 6f c4 bf
       0.05048393493150143 -0.15964998623761098
0007b0 6d 23 9a 59 ad 16 bc bf 13 dc 6f bb ce ae b9 3f
       -0.10972102582503647 0.10032360149476487
0007c0 62 ee 3b 56 28 e1 bd bf 02 a4 1b 62 30 98 9a 3f
       -0.11671688180279596 0.02597117995074783
0007d0 11 6e 95 2d 94 b6 c5 bf 15 5a 93 9b 04 99 c1 bf
       -0.16963436342017293 -0.13748223873581425
0007e0 bb 3b ff d1 a4 f2 c4 bf 20 a1 b8 d6 a8 2a c6 bf
       -0.16365490201721208 -0.17317686542924893
0007f0 e4 cc b2 d2 47 ff a6 bf c7 86 21 20 50 36 b9 bf
       -0.04491638609888485 -0.09848500046202978

layer2.bias f8 [100]
000000 30 1a 4c 08 b0 21 c0 bf f9 00 dc e0 34 a7 c1 3f
       -0.1260280647768055 0.13791523913824458
000010 18 77 38 3a d8 ee d2 3f b7 67 b4 14 9b b8 88 3f
       0.2958279198227145 0.012070857591016322
000020 bb f1 8a d3 01 31 ae 3f 19 33 83 43 a9 6c b2 bf
       0.05896764476117108 -0.07197053812269551
000030 7e a0 cb d4 cc 2c d0 bf 77 56 ff 99 7c f4 d1 bf
       -0.25273438244631297 -0.28054728545007585
000040 2c b0 2f fc 4b 7b a7 bf 55 1d f2 14 70 fc c5 bf
       -0.04586255505987 -0.17176629088155929
000050 c4 63 9d a0 a5 32 6d bf 9a ff 17 51 70 32 a6 3f
       -0.0035641894254862822 0.04335356702722422
000060 56 9d 53 55 24 1f c7 bf 51 46 a3 dc 8f 72 a4 bf
       -0.1806378761896023 -0.03993653839428347
000070 bc bf 1b 38 86 71 b5 3f b2 c4 f8 d6 95 df c9 bf
       0.08376349325021598 -0.20213578221004053
000080 43 60 13 93 04 2f bf 3f fa b1 6f a0 59 93 ab bf
       0.12181118574824361 -0.05385856708003085
000090 a7 39 a4 71 75 07 ae 3f 04 a5 b2 6c 4e 84 c2 bf
       0.058650655863050453 -0.1446626692534566
0000a0 84 52 c0 b0 55 d1 c3 3f 50 96 c6 40 c2 27 cc 3f
       0.15482588892395566 0.21996334231259818
0000b0 83 4a 57 8b 02 03 d2 3f 18 20 3a 79 91 ff ca bf
       0.2814337120773091 -0.21092432421960505
0000c0 06 9e b3 bd a6 2d cb bf db 9c db 1e 71 0a aa bf
       -0.21233066809439566 -0.050860915200070266
0000d0 f8 bd 5b 26 8e bf b4 bf cf d4 b0 04 c0 91 d6 bf
       -0.08104790150149899 -0.35264587839203626
0000e0 15 0d 6b 84 ee 9a 5f 3f 8b a5 c7 0f 3b 67 c0 bf
       0.0019290284414388893 -0.12815035124303295
0000f0 f7 c7 bc f3 ed 11 c2 3f 99 e1 a5 f9 f0 d2 c0 bf
       0.1411721649288322 -0.13143741788713895
000100 6f f6 2c 27 d2 40 ad bf 1e 04 04 a9 d3 a1 c4 bf
       -0.057135169298345605 -0.16118856194228298
000110 83 a6 cf b4 24 42 b9 3f 13 aa 40 37 fa e0 86 bf
       0.09866551794370974 -0.011171297846961392
000120 4e 08 97 b9 50 27 d0 3f 6e 83 90 00 85 cd ce bf
       0.25239961742420725 -0.2406469586140036
000130 23 03 bb bf 41 86 c8 bf 85 72 bd 32 3b 11 c1 bf
       -0.19159719335404998 -0.13333835580387557
000140 c8 ac 87 84 3a 17 a3 bf 5b b1 df 44 2a 5a c7 3f
       -0.03728659503743753 0.1824391208932735
000150 4d c9 a9 f3 e4 d0 ac 3f 94 a0 00 5a 9e c0 c1 bf
       0.05628123735813748 -0.13869075197840586
000160 7f 49 b1 2f a6 da c0 3f ea 66 47 22 b5 d4 b4 3f
       0.13167264298187928 0.08137065970313598
000170 64 90 2a 57 6b ca 95 3f 89 eb bb 83 1b 04 c3 3f
       0.02127998084564843 0.1485628503067711
000180 0a 44 27 f8 85 b7 c0 bf 91 96 da 9c 40 a3 a2 bf
       -0.13060068718780854 -0.03640176691741915
000190 68 2e 49 b8 70 26 d3 bf f5 85 01 c5 cb 9c d1 bf
       -0.29922121044794503 -0.27519506682264644
0001a0 b6 80 ea 82 e4 36 d0 bf c4 ea d7 10 09 d1 b6 3f
       -0.253350379798586 0.08912712727753119
0001b0 a7 b8 b9 9e d0 b6 cb bf c7 da ce d7 7f 30 b8 3f
       -0.21651656866328503 0.09449004191160802
0001c0 21 c7 cc 51 25 b8 c3 3f fa 33 af a5 ab 8f 5c 3f
       0.15405718320976639 0.0017432380907280707
0001d0 71 d4 f8 21 a9 59 b1 bf 76 8f 69 61 ca 76 cf bf
       -0.06777436332125021 -0.24581269985639737
0001e0 1b 48 15 87 ef 5a d5 bf 8d d7 0d cd 95 f2 d3 bf
       -0.3336752719088751 -0.3116812231522708
0001f0 92 41 f6 6b d4 87 c7 bf cb 43 3e 12 4a 91 a6 3f
       -0.1838326956899548 0.04407721970267849
000200 e5 f6 0a 55 45 c8 c9 3f e6 65 96 b7 03 ae c3 3f
       0.2014242806671326 0.15374800171120667
000210 7f 76 0e d9 e3 2c c6 3f bc 73 5e 74 64 b1 ad bf
       0.1732449350210352 -0.05799402161139919
000220 3a 96 2c 80 a7 f2 c6 bf 9c 06 c2 41 58 69 b3 bf
       -0.1792802215433527 -0.07582618337076003
000230 22 e8 0c 73 24 a1 d1 bf 1a da c4 93 b6 a0 cc 3f
       -0.2754603503741483 0.2236545774009791
000240 50 b5 ae c7 4b 2d ca 3f db 97 8c 08 ef 33 90 3f
       0.20450732469672994 0.01582311143570068
000250 28 fa 54 f3 c9 8c cf bf df c9 a1 5d 8d 0b 54 3f
       -0.2464840353149651 0.0012234573864843207
000260 fa 77 e1 06 50 9c c3 3f 14 26 17 ca cc 00 72 bf
       0.1532077821347569 -0.004395294150023616
000270 7b 28 df c3 f6 a3 be 3f 8a 10 ef 3b 2f 53 b9 3f
       0.11968939096473889 0.09892554486492791
000280 b4 ea 50 63 14 41 73 bf 50 a5 3b 88 a2 73 b1 bf
       -0.004700736656611571 -0.06817069841385615
000290 dc ff 87 9e 5a 51 ac 3f 93 c1 43 8a 66 3d 98 3f
       0.05530818162151238 0.023671724499708068
0002a0 a0 cf c3 2c 55 ee 78 3f 9e cd 15 5f 3f 41 cf bf
       0.0060866667883948955 -0.24417869704084877
0002b0 31 ae 89 c7 e9 7a b9 bf ed 9e 8a 44 c6 2f c1 3f
       -0.09953175660637538 0.13427046152832336
0002c0 8a 53 b1 b4 08 e2 82 3f f8 96 78 ae 32 39 cc bf
       0.009220188154509552 -0.22049554366201796
0002d0 c8 ea 6b a7 bb 15 b6 3f 17 aa eb 2b 4b db c0 bf
       0.08626911961975303 -0.13169231075819773
0002e0 6a e2 b5 fb d7 2e b2 3f 60 79 be b4 de 0a bc 3f
       0.07102727790141619 0.1095408622045162
0002f0 ed 06 aa 4e 2d f2 c1 bf 7b 97 a6 4d 39 3d b3 3f
       -0.1402031549551376 0.07515295167703855
000300 b5 e6 c7 64 e3 33 a7 3f 69 e7 e1 9f e5 8e bc 3f
       0.04531775098071248 0.11155543473605935
000310 26 33 7b 98 90 ef c6 3f 61 74 85 e4 97 d2 bc bf
       0.1791859383141851 -0.1125883992112491

layer3.weight f8 [100, 100]
000000 36 17 46 6b ab da 86 bf 94 db a5 eb 74 f6 c0 bf
       -0.011159266673313444 -0.13252126222843386
000010 e2 8f 5d 75 4b 54 af bf d7 2d fc 4b d6 d4 9d bf
       -0.06118999297794382 -0.029132221591721432
000020 0a ea c3 e6 63 7a b6 3f 6b fe 9d a4 df 8b a0 3f
       0.08780502685468874 0.03231715092169626
000030 56 b9 93 15 15 a9 c3 3f 0d 58 63 f1 c8 16 a7 3f
       0.15359748414580093 0.045095710245434
000040 14 70 22 51 99 bf ca 3f 6f f8 e9 e6 19 27 bd 3f
       0.20897213422438254 0.1138778866533998
000050 92 78 bf db 5c 7a ad 3f 86 7c 7e 02 6e 32 c9 bf
       0.05757417852849857 -0.19685149308950062
000060 00 aa 89 c1 a3 fb af 3f 70 2c cf 52 1a 0c c2 3f
       0.062466733336652425 0.14099434894010043
000070 d1 ae fd b1 c9 84 bc bf f0 99 9f 90 1b 92 a7 bf
       -0.11140118213159701 -0.04603658810065159
000080 87 b9 12 a4 56 00 a6 bf ee cf 47 a3 e3 76 83 3f
       -0.042971332100353136 0.009504106922555846
000090 1a fc 16 4b 5d c5 8f 3f 0f fb 29 6c 05 8c b6 3f
       0.015513161520059927 0.08807405367586461
0000a0 8c 13 05 63 00 16 aa bf b1 5c f8 63 98 5d c0 bf
       -0.05094910820711282 -0.12785630112987215
0000b0 49 59 99 c5 72 0e b5 bf 02 0b 2a 69 42 0b c5 3f
       -0.08225171398348609 0.1644061101433963
0000c0 26 ce 6d 63 d1 3c 6b bf 16 04 53 c3 c8 e8 c0 3f
       -0.003324898683269034 0.13210401093786633
0000d0 ea 14 c3 b9 ca 26 b0 bf 67 c6 53 a2 28 d2 c1 3f
       -0.06309191737371447 0.13922603536734643
0000e0 21 65 62 c9 9b 1d a5 bf 8a b8 07 3b c9 95 bb 3f
       -0.04124152024560091 0.1077543038479424
0000f0 96 02 6b 10 6b 1d ab bf aa 04 d3 a4 07 6f c6 3f
       -0.05295881820120944 0.17526336238919288
000100 98 7a 4b 3f 2f b5 bb 3f fb cc 50 74 11 6b ba 3f
       0.10823340697559514 0.10319623079049116
000110 d2 93 af 81 bc 35 b2 bf 5f 7b 6e 9e 6d b1 b5 bf
       -0.07113245168837004 -0.08473858945806743
000120 d9 48 0d af 08 38 b0 bf 65 e9 d7 57 73 b8 c6 3f
       -0.06335500978210308 0.17750398434857143
000130 bd cc 7a 6b 7d 51 ca 3f 36 61 cb 01 b3 f6 8a 3f
       0.20561187503844805 0.013165853969824153
000140 57 cc 3d ca ef 66 b1 3f 3c 22 a6 4a f7 9b b7 bf
       0.06797693908247147 -0.0922236020325124
000150 12 b8 93 ac 3e 18 91 3f 43 08 d7 a1 34 d0 b0 3f
       0.016694049151674113 0.06567696524783266
000160 61 02 a0 40 64 38 bc bf f6 e3 ec fa 74 86 c4 bf
       -0.11023546769866634 -0.16035330059256098
000170 c0 6f 29 9b 1d ff c5 bf 04 4b 4a a2 f3 f7 b0 bf
       -0.1718480117441441 -0.06628344261325131
000180 a2 0c 41 70 37 ec c7 3f 4b f0 2e e4 29 31 c1 bf
       0.18689625722081354 -0.13431285516515098
000190 dd 76 15 f9 0e a5 c4 3f 5a e7 64 b7 f7 62 bb 3f
       0.1612871853093826 0.1069788763751637
0001a0 6a d8 d1 2a 31 cf b0 3f 66 15 53 51 d9 12 bb bf
       0.06566149993327178 -0.10575636134588748
0001b0 a3 63 3d 44 b1 44 b4 3f 62 51 a3 56 c3 58 b9 bf
       0.07917316356669217 -0.09901066651520332
0001c0 c4 7a 3e 62 78 29 99 bf 40 24 77 39 b0 b1 a1 bf
       -0.024572258945790862 -0.034558779730624156
0001d0 95 5c d7 78 5b e2 ac bf 43 e6 94 8c 9b 1d c3 3f
       -0.05641446924317354 0.14934105266893213
0001e0 e0 59 bb 2d b9 8d 80 3f 63 00 ce 48 dd 8c c1 3f
       0.008082815845608715 0.13711134009281797
0001f0 b4 1b 68 31 16 c2 ba 3f f7 62 12 d0 da c0 c5 bf
       0.10452402788369747 -0.16994795951611483
000200 36 7f 8c 1e cc 4b c3 bf e5 d4 aa aa a8 8a b0 bf
       -0.15075065127984438 -0.06461576620752714
000210 1e 13 c5 7c ff 45 c0 bf 23 1e 07 77 e3 ee c1 3f
       -0.12713616935993682 0.14010279952911828
000220 02 37 5d d7 af 3e b0 bf d0 51 68 f1 13 6f b8 3f
       -0.06345652587807751 0.09544491428125146
000230 fd e9 e6 1c a4 31 cc 3f c6 f5 d5 8f 1a ff ba bf
       0.22026492511015752 -0.10545507442107924
000240 83 0c 8f 94 ca f4 a7 bf 86 b7 88 a4 65 0b a2 bf
       -0.04678948462926604 -0.03524320252868933
000250 66 46 0c 92 e1 a5 b2 3f a2 51 d2 52 ad 7e c2 3f
       0.07284364524482498 0.14449087661763566
000260 5b 9f 40 e5 2e 54 ca bf 8b 96 d2 e7 fb c6 91 3f
       -0.20569406694380174 0.017360626243905258
000270 99 b8 ea ae 4c 26 c6 bf b9 dc 3b 12 7c 4e bd bf
       -0.17304380932677502 -0.11447883076822309
000280 b1 15 0a 2b a7 40 bb bf 55 5b 76 2e 5b 2b cb bf
       -0.10645527649656718 -0.21226062554043304
000290 15 ee 2f bb d6 60 ca bf d4 12 b0 67 45 1f 99 bf
       -0.20608028545380877 -0.024533352330780314
0002a0 8e 75 fa 98 e9 db b3 bf 9d 93 63 90 26 1c b8 bf
       -0.07757434830496931 -0.09417954468842855
0002b0 07 78 e3 d6 04 b7 c6 3f 7f 45 fc 97 19 39 c1 bf
       0.17746029369931213 -0.13455505295909728
0002c0 56 41 35 ff c2 6f bb bf 91 55 32 0e 9f 59 bf 3f
       -0.1071740983072734 0.12246126267048953
0002d0 30 3d 59 69 a0 fe c3 bf 15 bb 49 6e 24 a2 b2 3f
       -0.1562080873868381 0.07278659527376548
0002e0 be 33 62 49 ab a4 c4 3f c1 6f c6 47 bb d1 bf bf
       0.16127530177291577 -0.12429399969408818
0002f0 ab 87 31 42 18 c6 b0 3f 05 53 e6 bc b4 99 b0 bf
       0.06552268615771932 -0.0648453675442618
000300 dd 8e cb f5 51 02 c7 bf 03 59 b9 d8 00 be a5 3f
       -0.17975830556598896 0.04246523519093339
000310 8c 47 df ce 79 8b c1 bf 7a 13 55 6b 3b 1d b1 3f
       -0.13706896401577884 0.06685229654710936
000320 8c 19 db a9 4b 38 bf 3f aa 7c 9c 31 99 e5 a4 bf
       0.12195275208350703 -0.04081419687849437
000330 64 a5 26 6a 2d 35 c9 3f 3b c7 17 5e c5 25 a3 bf
       0.196935345489048 -0.03739754460901997
000340 bb 88 5d 6e 6c cc b4 bf 36 ad 35 fd 51 dc c2 3f
       -0.08124425596682532 0.14734864104989648
000350 74 db 7d aa 4b f2 b0 bf 8d 95 73 8f e1 6e c6 bf
       -0.06619713699715907 -0.17525882248370941
000360 f5 93 18 0e 42 03 a9 bf 64 4f 1a 91 8e c4 aa 3f
       -0.048852981777862604 0.052280860150090175
000370 13 0e b4 6b c2 8a b1 3f 4e 9b 80 da 8b db c5 bf
       0.06852355126834934 -0.17076252144871734
000380 a9 bf d2 16 78 06 cc 3f 85 1a 39 22 2a b5 ca 3f
       0.21894742121139402 0.20865370436714073
000390 15 17 56 31 bd ea c4 3f 5e cc 33 8e 0a ad b2 3f
       0.16341366681097527 0.07295289966332194
0003a0 8f 40 9f 7b 82 50 bb 3f 31 b0 ed 8f 7b 12 b2 bf
       0.10669723051182899 -0.07059452308539062
0003b0 c3 01 16 49 47 fc a0 bf 06 91 e1 4d 7e 70 a7 bf
       -0.03317473189509059 -0.0457801313466764
0003c0 f3 b8 7e 8f 64 ed d0 bf e2 f4 36 80 a0 8d a4 bf
       -0.26448930752930194 -0.04014302792664083
0003d0 a3 d4 4e 83 90 a0 b9 bf 8c c6 6c d8 60 d6 a5 3f
       -0.100106269891358 0.04265120164781164
0003e0 7c 9d 1e 03 aa 0c be 3f 32 42 32 4f 6a aa b6 bf
       0.11738073898469809 -0.08853783067230195
0003f0 6d bd ce b2 09 f7 b7 3f 1b e5 8e 22 09 5a c0 bf
       0.09361324897212393 -0.1277476710072641
000400 08 68 8e f6 27 b9 98 bf cb c0 30 9a 3e 2c be 3f
       -0.02414381449089123 0.11786261810698588
000410 b8 4c 44 38 13 58 c4 bf c0 43 d8 6a 66 e2 91 3f
       -0.15893783805276995 0.017465210219657967
000420 69 53 a1 4b 37 2a ce 3f d2 f5 66 7c f1 c0 ca 3f
       0.2356633300102218 0.20901316236806494
000430 ec 7a 0f 2b 96 7c 8f bf 9a 8a 57 11 26 59 b0 3f
       -0.015374348820782889 0.06386030124080336
000440 34 0d db b2 c3 ba be bf a9 b3 ce 70 6d 76 c7 bf
       -0.12003729931443702 -0.1833016205613636
000450 a3 d4 d7 ae ea 01 cd 3f f9 ab 45 bc f5 3f ca bf
       0.22662099396953747 -0.20507690136886916
000460 01 c0 78 f2 d1 9c ad bf 27 fe 40 50 ee f2 a4 bf
       -0.05783706745967266 -0.04091591577207181
000470 97 ef 71 fc 60 df b1 bf c4 7d 14 a9 e9 1f b0 3f
       -0.06981474078378223 0.06298694971018565
000480 7c 52 07 f5 09 1a b0 3f 9f d0 79 ce 2f 5c bd 3f
       0.06289732200759518 0.11468790808595707
000490 18 ad c1 90 3d e1 af bf 0e ff 8e e6 d4 d6 b2 bf
       -0.06226532356307696 -0.07359057072516981
0004a0 a0 14 d3 f0 44 3b 84 bf 48 bf 45 f8 37 72 b6 3f
       -0.00987867221773292 0.08768033801402197
0004b0 6b 39 f7 17 ce df c7 bf 1f 35 cd 95 c5 64 b4 bf
       -0.18651748819543043 -0.0796626558996718
0004c0 f9 36 af 6d 24 1f 93 bf a1 33 90 68 92 90 c0 bf
       -0.018673485941511612 -0.1294119844973496
0004d0 27 e1 f0 ba 72 12 be bf a9 8b e0 f1 14 40 c1 3f
       -0.11746899665820774 0.13476812181860723
0004e0 d9 27 8e 79 e4 79 93 bf 8e 20 11 4c 4c a2 c4 3f
       -0.019019670409342247 0.16120294298366783
0004f0 66 70 1e 91 59 a0 8d 3f 91 06 04 de a8 93 a3 3f
       0.014465999356439063 0.03823592863228698
000500 51 5c 9b 56 71 c0 bf 3f 8d dc d3 53 06 80 99 bf
       0.12403019298959463 -0.024902438036374753
000510 86 8a 5b 3d 03 0a af bf 23 4d 0c 66 9e 04 c1 3f
       -0.06062326549524237 0.1329534529000763
000520 c7 90 d7 1b 46 ac b4 3f 1d a2 74 e0 7e 6e ca bf
       0.08075369052636737 -0.2064970584845164
000530 6b 1f d5 fd e9 62 bc bf 12 88 91 d6 9d dc c8 3f
       -0.1108843083103445 0.19423268296219526
000540 07 45 b5 e9 fc db b6 3f d8 b8 bf fa b1 82 6d bf
       0.08929424958957465 -0.003602359405696292
000550 84 59 95 08 95 f2 ab bf 9a e7 f8 4a 4c eb c8 3f
       -0.05458513002183721 0.19468072567707112
000560 02 ee 00 80 b5 2e c1 3f 73 a8 88 9c 1b 54 c4 3f
       0.13423794508149461 0.15881676810505815
000570 57 a1 24 25 8c 3e 6a 3f 2b a1 e8 11 26 a2 b8 bf
       0.0032036530693810117 -0.09622419297432276
000580 04 40 26 be 4b a0 ae 3f de f5 ea 23 f1 58 b7 3f
       0.05981671043548434 0.09120089651965865
000590 42 2b 9e aa 1e 24 90 3f 87 8a a5 38 84 de 97 3f
       0.015762786067664132 0.023309770543515042
0005a0 44 ee 63 de 74 d2 c8 bf 2c 25 60 59 c4 53 b2 bf
       -0.1939226232424166 -0.07159068281193431
0005b0 fc 42 1a d8 e1 9b a1 bf ab c9 78 0a 2d f4 c2 bf
       -0.034392411832532915 -0.14807665835685432
0005c0 6c de 74 f0 25 47 c2 bf cd d4 3e 71 0f 2f cb 3f
       -0.1427962707618805 0.2123736670452331
0005d0 54 a0 d5 a0 16 ad b9 3f 8a e2 30 39 73 2d b4 3f
       0.10029736925719251 0.07881851335776893
0005e0 d5 dc 2e b3 e6 e7 c3 3f cd 2a dc f8 11 c6 7f 3f
       0.15551456212208473 0.007757253840973544
0005f0 a1 49 b4 64 b1 a5 a2 bf a7 84 44 bf d4 20 c6 bf
       -0.03642038683223637 -0.17287692393532447
000600 fb 7f 41 29 30 e1 86 3f 04 9e 65 27 fd 9f d0 3f
       0.011171699770954993 0.2597649464355245
000610 9c 50 2b 3e 7d b5 bf bf 8c 3b 86 42 c2 d2 81 3f
       -0.12386305587580398 0.008702771811639719
000620 b8 5a e2 ad 99 83 cf bf 91 c5 4c 7a d1 bd c8 3f
       -0.24620362272681517 0.19329279395746515
000630 81 ed 71 5f 79 8d a0 3f 03 06 52 b9 9b 80 c0 3f
       0.03232936182117908 0.12892481373641837
000640 72 39 ac 14 a8 8e cb 3f 0c 8d 00 08 2a bc 92 3f
       0.21529103288089463 0.018295914400494204
000650 c6 46 78 e9 b0 3a b4 3f f3 a3 c4 c5 ec 01 b0 bf
       0.07902055454203624 -0.06252937153170972
000660 a1 26 e9 38 bf ca c7 bf ca c0 33 52 25 38 c8 3f
       -0.1858748462566853 0.18921343339707725
000670 a1 b1 45 9d aa bc 95 bf 05 25 23 06 5c 26 b0 bf
       -0.021227517937789767 -0.06308531904064203
000680 f4 69 c2 43 71 9e bb bf 32 1f 0f c7 71 fd 6c 3f
       -0.10788638977320614 0.003538820478272608
000690 14 ff 5b 71 ce 80 a4 3f 3f 54 16 bc 26 e4 c1 bf
       0.04004521497517835 -0.13977512535044131
0006a0 c5 98 d6 9e 0a 03 b5 3f 7d 13 b3 49 7b dc aa 3f
       0.08207765939605156 0.052463391062281574
0006b0 8b 61 f6 21 ba 0d bd 3f b0 74 b9 ea aa a8 8c 3f
       0.1134907086292342 0.013993583000394189
0006c0 b4 42 6a 50 de 60 b2 3f 55 ee 87 1e 9a 76 bb bf
       0.07179059470423504 -0.10727847333321823
0006d0 19 13 2a e7 1b 38 a4 bf 32 e0 8b be cf 3c c3 bf
       -0.03949057766752712 -0.15029331974051413
0006e0 e8 33 f2 d3 fe b9 c2 bf 95 d7 c2 f0 05 fd b7 3f
       -0.14630112980776677 0.09370457771259873
0006f0 04 7c c1 63 2a ae a0 3f 0d f0 b4 02 5a d5 b0 3f
       0.03257877795908118 0.06575548711856545
000700 29 89 e3 0f 9e a3 72 bf da 2d 2d 65 7a e9 aa bf
       -0.004550568990654016 -0.05256254658760513
000710 13 06 99 ba 9b 37 b4 bf a3 e2 d3 b9 9f 1d bf bf
       -0.07897351556405167 -0.12154577528770942
000720 de 9b bc e1 25 13 b7 3f cf db 50 e7 5e d6 c3 3f
       0.09013592492247777 0.15497957510680613
000730 48 e6 56 68 c9 5b b5 bf 8c b6 fa 31 4f 0b b5 3f
       -0.08343180463170896 0.08220381708334851
000740 fe a2 83 1f 03 0a b5 3f 73 c0 57 2b 91 46 b7 3f
       0.08218402404203215 0.09092051799939486
000750 76 3e 17 38 ca 20 84 bf 5e 5e 42 88 7d d4 a0 bf
       -0.00982816680598762 -0.032871172793588185
000760 54 ae 0a fd c7 06 b1 3f 2a 08 3d c6 16 f2 a4 3f
       0.06650972297455243 0.04090949220564284
000770 cd 0f ab 04 38 47 c5 3f 5b e7 9d da bf 7c 76 bf
       0.16623592594089445 -0.005490064076974689
000780 e4 b2 2d 4d e1 87 b0 bf 14 32 50 19 4f f3 b8 3f
       -0.06457336553803433 0.09746260040282834
000790 48 a9 ea 4d a9 dc a6 bf f1 f5 92 39 86 2d b2 bf
       -0.044652262460049885 -0.07100714593521908
0007a0 d4 e5 db fb 98 78 ac 3f b9 68 cd 74 59 f3 96 3f
       0.055607586616996635 0.02241267943768641
0007b0 74 3d dc ca 8b 10 b0 bf bf 92 27 6c 09 e8 95 bf
       -0.06275247290272096 -0.021392962671501033
0007c0 84 10 02 6c b8 78 c1 3f 42 04 59 56 39 7b a6 bf
       0.1364965941794517 -0.0439088743119176
0007d0 55 ac 5e 0b a6 aa ab bf a8 a6 22 1d 27 dd 93 3f
       -0.05403632057944977 0.019398318436890577
0007e0 4f 04 eb 5f b0 81 b5 bf 85 63 9c 28 49 84 bf bf
       -0.08401014653920068 -0.12311227075077909
0007f0 61 43 3a 00 47 83 b8 bf c2 3c 50 94 76 3d 78 3f
       -0.09575313334995662 0.005917990875800418
