Exercise3/model2_DGM_state_dict_100.pt (torch, 168920 bytes, 8 tensors)

layer1.weight f8 [100, 3]
-0.04318315823482554 0.37424982398920703 -0.052940523904215116 -0.31411329539854965 0.6337116932270764 -0.16183825385986686 0.5243367330856081 -0.2821398496013979
0.2912002449202834 0.4923333028931355 -0.48020942232190544 -0.19405931481749322 0.3583939762551032 0.3034499621434927 0.3157474411200525 -0.38003903674799155
-0.36050356504104925 0.5984217076408849 -0.42156212526317693 -0.15953609478740563 0.25118814842601445 0.5813611187604868 0.4292133314322447 0.08191457545180468
0.5037102764637129 0.19926261559458786 -0.09416515678178294 -0.2571529891046449 0.25218966365490064 0.20945847992748484 -0.28497941642657093 0.09528108002961604
0.543244451649378 -0.2819963126333399 0.17678300712846923 0.14663347919575107 0.10810620290576047 -0.549058439894537 -0.07702905209083812 0.11732306406579224
0.2244282945668787 -0.11631297727592058 0.06684794995672999 0.035142504577384055 -0.5299766858112601 0.48203180926862665 0.31837670123831385 -0.22854805598284283
0.1799503809861251 0.36066225101521476 0.12705774541072123 -0.2837894922167652 -0.3251531258969911 0.1487805465499249 -0.2849188172769119 0.4675482390642113
-0.020997649286298565 0.014756992540060099 -0.05246163286518555 -0.270250663886933 0.0487314128772494 -0.2563783624149787 0.05891279549563115 0.2867816858550315
0.2908884246063498 -0.4197553411249022 -0.5180384193785682 0.33420938442099934 -0.034036051096743326 0.29414080208480375 -0.08861621012742468 0.5119712018358098
0.14473864969797612 -0.4534506581440706 0.28466720423572595 0.11851767277212605 -0.03171362703589219 -0.44088930101752327 0.12245260225737305 -0.40825969213663826
0.2839731519925534 -0.1527378014589456 0.4755474436139304 -0.39083642005840546 0.21230854363854704 -0.05000422571986799 0.25065298816372644 0.08559099567187924
-0.07952705033956595 0.35282364457298093 -0.35306245049309437 -0.029453097564278833 -0.4897561222694612 0.3975646088623797 0.06959243825639355 0.5441567264086742
0.03465863023178947 0.106894206210345 0.3709684053917119 -0.3150803043156025 -0.5941294706504214 0.26549135243179545 -0.361767381690005 0.36836800329338376
-0.1311886065273801 -0.46052337640303703 -0.5730242715365034 -0.1668704815888329 -0.42940532284092325 0.46730172741581766 -0.5384462298589574 0.054624518232044374
0.4229770764111001 -0.32470154674733964 0.42359514739186166 0.1463058445436608 0.46725612857562776 -0.23817197059304687 0.006641324044464076 -0.5119117570938682
-0.3081598963605277 0.048425071811115265 -0.09961232641166734 -0.21811239241786112 0.3484795695273182 0.30328926497261244 0.32599787420985904 0.1639856132311561
-0.223056103998399 -0.37951806530637133 0.5035110643050323 0.35134022865142567 0.5407775787238435 -0.6336014007942832 -0.020118821722051324 0.42378299642548
0.2557514845095437 0.4786856112195615 0.14115784425966182 -0.3559668737530618 -0.6133331181888027 -0.37240929245033905 0.09472620835199669 -0.061360915006457885
0.09910662891823611 0.01180954411721181 0.1282579789444632 0.19785026952681833 -0.017308531323015564 -0.1285589486218713 -0.39624222469985193 0.11750111055083153
-0.04696346401947237 -0.05887545697323995 0.17066481212889625 -0.26021163852213125 -0.03463757927331124 0.3212553698538669 -0.3900949467717711 -0.5630540468989147
-0.040249144963265114 0.5287162120134588 0.4359404225357915 0.16733873127984508 0.13835469207352896 0.2790063640944336 0.20594638235088952 -0.3463777317024204
0.2823793574616573 0.19249694270593776 0.5547388917108278 0.1639754617052339 0.2460865304964051 -0.032170773638271165 -0.19515975318581896 -0.49933176867130336
-0.2103857376149768 0.056906511919206246 0.3782293758571348 0.1630445872726606 -0.2091962946176966 0.3318346419912074 -0.5686236037072953 -0.28896742061348996
0.549048111514136 -0.40984727098519885 0.5638289341732459 -0.3865473551262619 0.40158150209938426 -0.025976071978293 -0.5053324747359258 0.0024184080822374806
-0.5200803866946992 -0.13439901520883982 -0.3437662438776153 -0.010129592170420252 -0.42002665370060566 0.5688085772571676 0.5317046953295602 0.4548102778303143
0.3701522419633023 -0.15566827100050135 -0.459194138813865 0.3980411057495481 -0.29371085843920586 0.47983619782014597 -0.0633763560329997 -0.10004661788488703
0.5519488426262507 -0.5363676198576725 0.27413453063006593 0.012958987304104812 0.4510975322314875 0.1452601925437559 -0.16093470566254287 0.5672076496503525
-0.2053422279690643 -0.5540262303941591 0.3966293651045868 -0.3721235123812609 0.15009320382077046 -0.32904653368356573 0.007345124354716911 -0.30458706615181946
0.17921605729672307 0.4576272815267133 0.43504811724037573 0.24635258011399472 0.3859432690221149 0.30677796350981495 -0.4609819097707009 -0.505992635000428
0.3459213680699245 -0.10524981697808904 0.6164247510223453 -0.24460840882491075 -0.3921778482953655 0.016855091030639553 -0.06866403123848243 0.03832989517435449
0.47819089697173806 -0.25934781090707776 -0.2130391529015536 0.2675514140858415 -0.4267151221047674 -0.175157098353886 0.07108626029514951 -0.5696855433343878
0.4055154655839066 0.47092362717718844 0.45234191550151 0.21600699308978982 -0.13986126243673003 -0.48459219132417897 0.5786375465368885 0.035200371265847755
00000000: 2f90 b658 1a1c a6bf 4a50 a488 b5f3 d73f
00000010: c179 9a35 051b abbf 8b6f bea6 6e1a d4bf
00000020: 3719 b0be 5d47 e43f a1f1 c8ab 1db7 c4bf
00000030: a036 16d4 5dc7 e03f 5ded bb4c 940e d2bf
00000040: 8644 215a 06a3 d23f 6a17 aa8a 6382 df3f
00000050: faa1 064d c0bb debf e209 5085 efd6 c8bf
00000060: 2557 c649 edef d63f 433d d863 b96b d33f
00000070: 0001 5ac1 3435 d43f 444d 8240 8f52 d8bf
00000080: 7355 7c8b 7d12 d7bf 2217 f147 4526 e33f
00000090: d834 4fb5 dffa dabf 015d d2c2 ad6b c4bf
000000a0: 4e7b a874 7713 d03f 9ec0 07a2 829a e23f
000000b0: 8a8e 6031 3b78 db3f ff97 a186 5af8 b43f
000000c0: b643 8203 651e e03f 82a7 a5f8 6f81 c93f
000000d0: a0eb cc2c 351b b8bf 607a 91cf 3175 d0bf
000000e0: d55e 721d e023 d03f 1a47 9414 89cf ca3f
000000f0: 5975 654e 1a3d d2bf 539e a742 5764 b83f
00000100: 3829 3230 4262 e13f 0e94 1643 3a0c d2bf
00000110: ce7a 0d59 d3a0 c63f 3f7d d2c6 e2c4 c23f
00000120: 6198 f91d d9ac bb3f fd12 5e01 e391 e1bf
00000130: 9170 920b 2db8 b3bf aca5 3a63 e208 be3f
00000140: 371c bbfc 10ba cc3f ce1e 80f1 afc6 bdbf
00000150: ac69 de7e f21c b13f 9902 b8c7 32fe a13f
00000160: 6375 a6aa 91f5 e0bf 8430 1cf2 9bd9 de3f
00000170: 781f e8ab 4860 d43f 325e 010d 1041 cdbf
00000180: 9e7b 9e34 9d08 c73f 16c6 401f 1715 d73f
00000190: 9c0b 9f9e 6d43 c03f b83e 0167 9b29 d2bf
000001a0: 24dd 7a0e 4fcf d4bf 6441 dbae 3d0b c33f
000001b0: 9b09 8e22 1c3c d2bf c652 0573 4fec dd3f
000001c0: a5fd e863 6880 95bf ed65 c602 ea38 8e3f
000001d0: 2dc6 e64a 40dc aabf 7277 c770 c94b d1bf
000001e0: 46fa 30e1 52f3 a83f 105c 7eca 8068 d0bf
000001f0: d678 f063 d129 ae3f eab3 7592 a15a d23f
00000200: ee07 9e7b ea9d d23f 54fa 9c81 45dd dabf
00000210: f1ad a94e c593 e0bf deaf 06c2 af63 d53f
00000220: 0de5 b05c 2c6d a1bf 74e6 57f1 33d3 d23f
00000230: 768b 644c 8daf b6bf a41d 0c6e 1162 e03f
00000240: d0c2 75cb cb86 c23f 7a05 c5e8 5505 ddbf
00000250: a1ea 1bcb fc37 d23f 54e7 8d98 2c57 be3f
00000260: 5fd4 e9bd c43c a0bf 31b3 41c2 8737 dcbf
00000270: 4d69 01c2 0d59 bf3f f61e 8042 ed20 dabf
00000280: e300 30ba 9d2c d23f c286 108b e98c c3bf
00000290: c42a 818b 5e6f de3f f623 8fc2 7603 d9bf
000002a0: a962 cb25 ed2c cb3f 75dc 4164 279a a9bf
000002b0: 4fb4 b3d4 b20a d03f 1128 3e9f 4ae9 b53f
000002c0: 7e14 5b80 e25b b4bf 2593 ac9f a994 d63f
000002d0: b80f 943f 9398 d6bf 41c8 37eb f328 9ebf
000002e0: 7270 0a10 2a58 dfbf d919 47d4 b271 d93f
000002f0: 2430 5c5e cfd0 b13f 8c5b fa5d bb69 e13f
00000300: 5c48 bda6 c6be a13f eb28 ce2f 6b5d bb3f
00000310: 536d 4044 f2bd d73f 288d a994 462a d4bf
00000320: 3811 c1ce 1b03 e3bf 0c2f 0471 cffd d03f
00000330: 4a8f 4760 3227 d7bf 036d c263 5793 d73f
00000340: dd4a 52cb c9ca c0bf 6173 2c0a 3779 ddbf
00000350: 3d08 42ff 3656 e2bf 58c0 8b0e 035c c5bf
00000360: 2620 9576 607b dbbf 2660 2781 45e8 dd3f
00000370: 52c2 7c96 f33a e1bf fd96 bbae bef7 ab3f
00000380: f12c 8971 0e12 db3f 5a63 0fff e8c7 d4bf
00000390: cab5 32d2 2e1c db3f e4ab c360 26ba c23f
000003a0: 07a0 c53f 86e7 dd3f 75b0 424c 6b7c cebf
000003b0: 2177 2bd9 ee33 7b3f 71fe e4c3 9461 e0bf
000003c0: 6da9 3349 e4b8 d3bf 076b 78c7 2bcb a83f
000003d0: 5472 3784 3180 b9bf 76bd 245c 1beb cbbf
000003e0: 546a 9c40 7d4d d63f 8441 9260 1769 d33f
000003f0: dcff 1230 26dd d43f 27d1 eb06 7bfd c43f
00000400: 8353 ec37 1a8d ccbf 06da ae23 064a d8bf
00000410: 13a8 4b3c c31c e03f 26ee f4b9 5b7c d63f
00000420: 59ed e0c7 0c4e e13f 3c8f e371 7646 e4bf
00000430: f230 5245 079a 94bf 80e4 8fb7 421f db3f
00000440: e1cd 7779 3b5e d03f 0d3e 50f9 c8a2 de3f
00000450: 5ca5 55d2 7511 c23f 06a4 4e48 29c8 d6bf
00000460: 6896 85c6 6ca0 e3bf c43e f3c8 8dd5 d7bf
00000470: 0427 f20e fa3f b83f 8d26 69a6 b26a afbf
00000480: 2348 0552 0d5f b93f 45dd 1c2e 9a2f 883f
00000490: 4b3e 82e8 c16a c03f 1aad 8f5a 2853 c93f
000004a0: dd85 e5df 53b9 91bf d333 f89f 9e74 c0bf
000004b0: 5654 1859 085c d9bf 853b 0f83 8d14 be3f
000004c0: 6f19 245c 980b a8bf e367 7984 ec24 aebf
000004d0: c7f6 5535 58d8 c53f a26e 5fb7 4ea7 d0bf
000004e0: 9109 624c 04bc a1bf 97f3 cbae 728f d43f
000004f0: 370e aecb 50f7 d8bf 14f6 a9eb 8904 e2bf
00000500: bb4d 9e32 899b a4bf 52cf ee42 3eeb e03f
00000510: ddeb 72a8 72e6 db3f 8fbc 1905 5b6b c53f
00000520: 461b da46 9bb5 c13f 6055 4a82 3ddb d13f
00000530: 3e9a 7678 735c ca3f 295f 6e81 0d2b d6bf
00000540: 8040 57de 8012 d23f 2841 c064 bda3 c83f
00000550: 0cf4 b6c6 6bc0 e13f e36b afde 25fd c43f
00000560: e2ec 3b70 c37f cf3f 53a8 5309 b078 a0bf
00000570: e2d9 b6aa fefa c8bf 7203 133c 0df5 dfbf
00000580: e4f2 4c7b ebed cabf 7eae 3eaf d922 ad3f
00000590: 3e58 ecfb e834 d83f 551d 1021 a5de c43f
000005a0: d7e7 e9b5 f1c6 cabf fe0d c25d c73c d53f
000005b0: 0702 b520 2a32 e2bf 1b3e 4935 717e d2bf
000005c0: e347 5c58 cd91 e13f 311f 4f0c f03a dabf
000005d0: 0c01 1afa e20a e23f 90d8 271e 31bd d8bf
000005e0: 9c81 8ce6 82b3 d93f 6251 80ae 7899 9abf
000005f0: 1c1f 9302 af2b e0bf 0715 e4f3 c4cf 633f
00000600: eea1 849f 7fa4 e0bf a5e1 77a7 fc33 c1bf
00000610: 5d14 bb21 4400 d6bf df0b c0d8 d2be 84bf
00000620: 30ea 4579 b7e1 dabf 541f a00b ae33 e23f
00000630: 4d3e b290 b903 e13f ad9d 4a91 9c1b dd3f
00000640: 6880 7107 93b0 d73f 1a6b 7c1a f0ec c3bf
00000650: 991b 2ed0 6f63 ddbf 741c ea66 8179 d93f
00000660: 907e dea0 28cc d2bf d4c4 44e2 a2b5 de3f
00000670: d55a 80d0 6e39 b0bf 7a18 e4b7 a79c b9bf
00000680: 2ea2 849e 90a9 e13f 8b81 3d6d ec29 e1bf
00000690: 1bab f08e 6b8b d13f b684 48d5 3d8a 8a3f
000006a0: 1665 0f2f c8de dc3f 8d6b 31d0 e297 c23f
000006b0: 4456 ce28 8299 c4bf dd41 29a8 9026 e23f
000006c0: 4bb5 ce74 a748 cabf 0f69 9537 95ba e1bf
000006d0: f679 f021 6062 d93f bb02 f022 dfd0 d7bf
000006e0: 8e8b e10c 4136 c33f f01d 4231 190f d5bf
000006f0: 098d 37ce eb15 7e3f 9b06 fabf 5a7e d3bf
00000700: 5cf5 8040 8df0 c63f 1c89 faef c349 dd3f
00000710: 60f6 ee0e d4d7 db3f 57fa 6f39 7b88 cf3f
00000720: 8fec a365 4bb3 d83f e91e 1a0a 40a2 d33f
00000730: 71d1 a044 ba80 ddbf 9eff 6a77 1731 e0bf
00000740: 1144 b660 9323 d63f 6bb4 d4e9 a6f1 babf
00000750: d2bf 4266 c0b9 e33f 3063 1d0e 544f cfbf
00000760: 4c3b 291e 7119 d9bf 05a5 fd02 7642 913f
00000770: 99af 9448 f793 b1bf a246 77dc f99f a33f
00000780: eb43 effd ad9a de3f 55a5 888f 2799 d0bf
00000790: 5767 3df1 dd44 cbbf d4d2 5ff7 8f1f d13f
000007a0: 0983 89f1 4c4f dbbf 12cd 8b3c 8c6b c6bf
000007b0: d7a0 298b b532 b23f 8701 342d dd3a e2bf
000007c0: 3c20 ad23 f7f3 d93f 31f1 68da 9c23 de3f
000007d0: 4318 6c81 2bf3 dc3f b693 83fd 1da6 cb3f
000007e0: c44e 124e f9e6 c1bf c298 68f7 8e03 dfbf
000007f0: baa2 53e3 3284 e23f e2a9 c976 c805 a23f

layer1.bias f8 [100]
-0.616619948386749 0.13338152973232398 -0.3760236985343645 0.37433599084214453 -0.21038607874108117 -0.1713191475269834 -0.2717620557009593 0.11766034852699543
0.5932667948856964 -0.49377118363257005 0.36587853915741725 -0.39727379219069126 -0.4090313107915023 -0.5714216025844766 -0.23493234642580563 0.07246916054232684
-0.15406658558473266 0.3725565642120278 -0.31676101217913866 -0.6014719582948499 -0.274440676437599 -0.163198022194142 -0.4845647378942026 0.18353066282201685
-0.24019687193515837 0.5783793824244409 0.4261528492013418 0.10251431349684594 -0.4332339484464191 0.008283477353080222 0.39277005975118623 0.22881512754636055
0.24921661977046597 0.24226784905501345 -0.4836019442252644 0.12972840199728655 -0.5567342940026693 0.21012615717902264 -0.3280261811331197 -0.31200361630975676
0.38566259861523905 -0.09918722451252437 0.1928400665533398 0.14582697497156702 -0.2066623677240835 0.5847374278835469 0.18342747118647953 0.3764535810971757
-0.2595585600729474 0.5570508862923774 0.13184903795506786 -0.41574356171037424 0.37656945985367773 0.10725975963728843 0.49733961431314305 -0.5735322747614559
0.41219789434767057 -0.036229603613127 0.5048741046938657 -0.4989555511219595 -0.4126445198114259 0.6159995434855337 0.025374852774277565 0.39508347994307813
-0.44294302399269503 -0.20603110255871185 0.18069952969889377 -0.37967667355929663 -0.0888962992037868 -0.4900302655333256 0.25664693803611394 0.29592731293637625
0.48598696689049514 -0.577944261460717 0.21026200915717916 0.23130152204209928 0.19588577595199327 -0.3470004186912403 -0.5568937677986899 0.25863019227580714
0.4654353411388512 0.5197003513752122 0.3328305856495457 0.4007537179587641 -0.3055645291180571 0.22652369162895314 0.1735199649217066 -0.04289065385956959
-0.48816738923008707 0.024991197603943045 -0.42480521218280626 0.5744408408846443 -0.6571119444989358 -0.6038770413083606 0.44032459051877937 -0.485146408629781
-0.4529205282350822 -0.5037568521610686 0.09145141303558695 -0.48098967769778833
00000000: c33b 0cc2 59bb e3bf c89e 0b5e a512 c13f
00000010: bf77 eeb3 c510 d8bf 3e7f 98f1 1ef5 d73f
00000020: 0802 dd57 eeed cabf 8c4b e72b c9ed c5bf
00000030: e1e0 61ad 8c64 d1bf b59b f514 fd1e be3f
00000040: 1ec7 3aa5 0afc e23f ad2e 5a73 f299 dfbf
00000050: b751 ffd1 8d6a d73f 3415 410e ef6c d9bf
00000060: cded b8a9 912d dabf e980 eaf4 1549 e2bf
00000070: b4ef 555c 4312 cebf 3d74 7fc2 568d b23f
00000080: 7514 3f31 74b8 c3bf a3d9 cc7c f7d7 d73f
00000090: b843 fdfa cf45 d4bf 71cc ca1e 423f e3bf
000000a0: 7776 7fa0 6f90 d1bf 9f40 0c3c ace3 c4bf
000000b0: f439 83d1 1b03 dfbf 3a1f 51c9 ee7d c73f
000000c0: 9010 c866 c5be cebf 6332 867a 1582 e23f
000000d0: d8af 9a99 1646 db3f 9941 d7c7 603e ba3f
000000e0: 5709 06e2 1aba dbbf 040c a182 edf6 803f
000000f0: 07ad 5e08 2523 d93f cf22 d268 d049 cd3f
00000100: 2954 c487 54e6 cf3f 5122 4804 a202 cf3f
00000110: 91b0 ae91 55f3 debf 6d68 f8b5 f09a c03f
00000120: 1bb3 2970 c4d0 e1bf 851c 8ff6 69e5 ca3f
00000130: 93b4 0c86 61fe d4bf 4f2f 1204 def7 d3bf
00000140: dff0 152e b2ae d83f 6859 767d 5564 b9bf
00000150: 563f 9ab9 fbae c83f 9f51 3054 75aa c23f
00000160: b72c 5897 e973 cabf 4839 3044 2bb6 e23f
00000170: 6d8a f726 8d7a c73f a590 d1c2 d017 d83f
00000180: 1240 ba81 9b9c d0bf a7ac 5a61 5cd3 e13f
00000190: 9056 03e5 6de0 c03f 3164 44e2 8a9b dabf
000001a0: 909c afca b619 d83f 52a8 d127 6075 bb3f
000001b0: a5bb 9e88 69d4 df3f 4ba1 695b 605a e2bf
000001c0: 0103 ed46 7361 da3f 71b2 54c5 af8c a2bf
000001d0: e53c 08bd ed27 e03f 857e 8e43 e3ee dfbf
000001e0: 3cad 5d8f c468 dabf aae1 b3ac 44b6 e33f
000001f0: 69b0 398b ddfb 993f b6e7 6238 0c49 d93f
00000200: d88e 82b2 2d59 dcbf 1968 b927 3a5f cabf
00000210: 4fcb 3a85 2921 c73f 9770 ff63 9f4c d8bf
00000220: 66d1 d069 e8c1 b6bf 5a03 21e7 a75c dfbf
00000230: 16f4 5e47 e76c d03f 6183 c31c 79f0 d23f
00000240: 1eec 4414 691a df3f 134f bcf6 847e e2bf
00000250: 5fee 7592 dde9 ca3f 97c9 57cc 499b cd3f
00000260: 0b92 bbfc c812 c93f 308a 7e3e 4135 d6bf
00000270: b754 01e1 12d2 e1bf 534c 65a6 658d d03f
00000280: 9803 2650 b1c9 dd3f 330a 9ca1 62a1 e03f
00000290: f84a 1ea8 184d d53f fb87 18ec f2a5 d93f
000002a0: ec4c d886 5e8e d3bf b463 a873 bafe cc3f
000002b0: 9b59 45f7 e635 c63f 5106 4387 c3f5 a5bf
000002c0: 20e2 ed6e 223e dfbf 1555 96e1 4a97 993f
000002d0: 2bb6 5f33 0230 dbbf ddc2 22c2 d161 e23f
000002e0: 7be2 eda0 0f07 e5bf 5530 e7f1 f552 e3bf
000002f0: a4c6 f930 472e dc3f 808d b585 a30c dfbf
00000300: f23a 1d62 a6fc dcbf c55d a5b0 c61e e0bf
00000310: 6b2c 291c 5c69 b73f ba3c dbed 88c8 debf

layer2.weight f8 [100, 100]
-0.03724228169929587 0.05927008255210603 0.02906068284713983 -0.06449711190224391 0.07578385779882937 -0.05442822313975271 0.05762283363410849 -0.0017377806942356945
-0.02124215888607231 -0.10650799464190358 0.04871674224073674 -0.055024965695865104 -0.13095551485910317 -0.042054304510138536 -0.06628999842128877 -0.12247952491010643
-0.07495145413010403 0.06406679041087893 -0.10850380110581417 -0.10696009829364285 -0.15854299549443146 -0.0924957143476282 0.029423461937907538 0.0452446283170886
-0.004229161219427972 -0.018491477484595606 0.033457069478642215 -0.11657746003172825 -0.03050891236612178 -0.06499205024178083 -0.015046193481002588 0.008030506849521498
0.08335827629282032 -0.005739091591844332 0.00687964467080401 -0.08303536016481529 -0.004341268333781614 -0.11458665001869539 0.001899407692090388 0.13377880118055668
0.09690109215788822 -0.09151257976670814 -0.09617293849094567 -0.08384119925361516 -0.1580514018403551 0.05055871193568093 0.09874127238578291 0.06039551646315352
-0.08412353903386045 0.05043790745594079 0.0758377788662484 -0.12440826315730928 -0.00971939956911947 -0.10127245441475499 -0.06371334122609704 -0.13146097180186359
0.010748927529525453 -0.12654430324478064 0.06957926332983148 -0.08103777454609769 0.042530960586216957 0.14187975542548772 0.029745814845039267 -0.10184827769613992
-0.016325476067075604 0.00046203095840474217 0.014624081896562625 -0.13295171387093074 -0.04927661563437524 -0.09894583135296105 0.028928549104304514 -0.05349004172330437
-0.10260334275223024 -0.08675109556883297 -0.060805668458177475 -0.03055292490731195 -0.06564953186502524 -0.11882984468606157 -0.06399047654463724 -0.04116470372314075
0.06387363534408698 -0.04679002496353609 -0.03757307838124576 -0.12606753251037472 -0.022495229485835145 -0.06364771485019537 -0.029146558575814545 0.006527695456535659
-0.08665270571875852 0.04287608300682733 0.015306533811420893 0.12671704987005597 -0.060285843544965814 -0.06765543934274838 0.05992470454737016 -0.03119635497542844
-0.05304178725236453 -0.018127569108706172 0.03710916127825703 -0.13154307777395396 -0.03056817106247972 0.07346871629069932 0.009429660245627951 -0.007257795363166544
-0.12637641755687315 -0.15124637045068248 -0.016707741746382142 0.07001686285486303 0.15866282754553576 -0.14040000114162482 -0.015707374431503347 -0.03719034832918803
0.030175098106680797 0.010340092004347594 0.11094730328422962 -0.004813175885725282 -0.007311168353994691 0.014869714181674092 -0.06678065137605058 0.04442378331371224
-0.0670738029065768 0.13854745749917036 -0.02499759366937033 0.03490892094197829 0.005341235581609249 -0.05664652810679302 0.03248513644598315 0.11057362335002865
-0.05193120930133516 0.023349457713796325 0.035806915735030795 0.07457866502467943 0.03196871749941865 -0.022931659973875612 0.019746955068477748 0.09927702572413487
0.003512344853373658 0.06727693794981696 -0.10274925825970135 0.14469635423156563 -0.02347470960473545 -0.00992677230906762 0.1185854369230859 0.05528047342540837
-0.0057161710998826585 -0.03155571041348058 0.11886590517883122 0.1270085868899677 -0.16991180967325967 0.07526867603507162 0.057590044949960104 0.16997701719737918
0.019614949254154107 0.059740730993798175 0.10972423510996282 -0.03595782056494683 0.05931073684573078 -0.004609852630202175 0.17392742126728325 -0.09245969295404056
0.059339006088024476 0.14587348643201278 -0.08339397219614751 0.1573638437182867 0.17888201881373283 -0.09368071363208284 0.060982723456298536 -0.13336065383645887
0.004959295057150716 -0.10660868085039005 -0.05578408518831578 0.015501830024800068 0.06156356877487132 -0.03905168700596675 -0.012684249841163588 0.034010022414222296
0.07964331712317199 -0.00417303330286506 0.024489587436069965 0.13791732495584932 0.12041674634679025 0.1130343506477926 -0.11813897812736404 0.11570173134193427
-0.024839521921268794 0.05731016323189632 -0.04423084674113176 0.10533641098675654 -0.10011767173037352 0.09029021011365065 0.14296057622955494 0.1233495616478198
-0.14841228226269074 -0.07772106482831972 -0.008561148831963435 0.0834137009757443 -0.09725402830633209 0.08403648764998345 0.09584332657463958 -0.0809161721337569
0.16711882456757962 -0.0319756641850499 0.15182644393506012 0.03954747246672575 0.04451210582661521 -0.01571153928141721 -0.05065242691515756 0.09740923409828132
0.07601911825274245 -0.00034638506828751074 0.031514911162328296 0.04860842041253646 -0.011600004769929487 0.06772966374968806 -0.034022051723798984 0.02365176901371151
0.05600709387192865 -0.09800228776367664 0.08475145352082498 0.062063444925326616 0.04391171936008089 0.057449382188655425 0.1405296996447438 -0.024695088588368407
0.06404217057695513 0.07471955100619097 0.058120104102146325 0.053954422184475444 -0.04595782641708494 -0.15075122903724136 -0.07756806484687048 0.04129890383823539
-0.06331944303313917 0.09681203284473833 -0.014391462409872473 -0.04488012854631311 0.08824631946469737 0.01882999328011491 -0.09079559191678377 0.03719763114883662
0.009230463514979645 -0.08469916755810258 0.03655067889479197 -0.026176822875990397 0.12354403693548104 -0.029722605425677617 -0.06314800653749417 0.001908727460376341
0.01131402144941774 0.07234490937137962 -0.1827538991872933 0.06804849378829533 -0.039821032287665856 -0.12868937323385773 0.10602154306099605 0.17457083250883004
00000000: fe91 da9b 6b11 a3bf 6891 62f4 a558 ae3f
00000010: c729 b669 15c2 9d3f ae7c 4efa e182 b0bf
00000020: 2a89 cf26 9266 b33f 90b0 ba1c 04de abbf
00000030: 6335 ec73 bd80 ad3f 108e f5cf c778 5cbf
00000040: 0835 d926 81c0 95bf 7ce0 bfa1 1b44 bbbf
00000050: d01c 629d 66f1 a83f 8d28 4178 3b2c acbf
00000060: 047d c67a 26c3 c0bf 29dc 0d4d 2488 a5bf
00000070: ae75 459f 61f8 b0bf 6b24 eb71 d15a bfbf
00000080: d5c4 46bc 0430 b3bf a00c 9361 ae66 b03f
00000090: b2bc 3db5 e7c6 bbbf 99ec 25ac bc61 bbbf
000000a0: 5e48 540a 234b c4bf 23aa 2494 ccad b7bf
000000b0: 979d 081b 2f21 9e3f 9a15 e2cd 4d2a a73f
000000c0: 9101 08d2 9852 71bf ac48 340c 6eef 92bf
000000d0: 3c27 76f6 4821 a13f 247a 493a 05d8 bdbf
000000e0: 4b66 6573 ba3d 9fbf 0bd7 49aa 51a3 b0bf
000000f0: d209 71e7 89d0 8ebf 9ede 4f62 4c72 803f
00000100: 0752 87ce f756 b53f 48ab 21ab df81 77bf
00000110: 5c42 e88d d42d 7c3f 51c8 512c ce41 b5bf
00000120: 369e 4458 26c8 71bf 6074 63fa 8c55 bdbf
00000130: b3cb d57a b11e 5f3f 56fa fbeb a91f c13f
00000140: b8ca c38d 82ce b83f 3946 4551 5e6d b7bf
00000150: 492e 9429 ca9e b8bf cc08 dae8 9d76 b5bf
00000160: 3ee2 fe40 073b c4bf 1c51 95dc d4e2 a93f
00000170: c990 a9a7 1b47 b93f 5b8c 1140 29ec ae3f
00000180: d565 f9c8 1e89 b5bf 50fe 0056 ffd2 a93f
00000190: 2625 08cc 1a6a b33f cbe0 9c4d 38d9 bfbf
000001a0: b4fb 49ba c3e7 83bf 2270 b2d7 fdec b9bf
000001b0: be8d e27c 844f b0bf e170 4b8f b6d3 c0bf
000001c0: a6ad a6a1 8803 863f 6939 f78d 9a32 c0bf
000001d0: eb3c 7b54 f2cf b13f 3d86 6a3f e4be b4bf
000001e0: 7e0e 9239 9ec6 a53f 5d2b c2a6 1d29 c23f
000001f0: a72b cfd7 af75 9e3f 69dd db8d ba12 babf
00000200: e9e9 3227 a0b7 90bf ae93 28db 9747 3e3f
00000210: 878d d60b 3bf3 8d3f 04eb 82cf 8f04 c1bf
00000220: 70e3 36d9 c83a a9bf 358b bc95 8354 b9bf
00000230: ba7c 4b11 729f 9d3f 3bfe b9f7 0b63 abbf
00000240: 76c3 9471 3644 babf 273d 5cde 5135 b6bf
00000250: c0ea e0aa eb21 afbf 36a0 1815 4449 9fbf
00000260: 73a5 5b60 68ce b0bf 0d24 b7f8 a16b bebf
00000270: 8cc1 030c ae61 b0bf 3218 7b40 8a13 a5bf
00000280: d125 e1c6 055a b03f abac feb5 dcf4 a7bf
00000290: 9b09 b74d c73c a3bf cc17 9c1c fb22 c0bf
000002a0: 3da9 d44b fd08 97bf 3729 bf75 374b b0bf
000002b0: ae0c 7f6f 98d8 9dbf 13aa 10e8 c8bc 7a3f
000002c0: e206 2c29 df2e b6bf c1fd 969c daf3 a53f
000002d0: 84d4 1431 0859 8f3f 85cc 84a8 4338 c03f
000002e0: 02f3 df3c c9dd aebf 4da5 5feb dd51 b1bf
000002f0: eabf 816c 73ae ae3f 4fd8 7ef1 eff1 9fbf
00000300: c1fd 230b 4b28 abbf 8257 e991 0890 92bf
00000310: c0ea 24d4 f8ff a23f daf3 8650 67d6 c0bf
00000320: 502b 0c3c 434d 9fbf 6266 bf85 d8ce b23f
00000330: 365c f092 db4f 833f 2920 9d9b 59ba 7dbf
00000340: 813a 323a 1a2d c0bf 8db8 5c83 0a5c c3bf
00000350: 461a 9091 d51b 91bf c451 2108 a0ec b13f
00000360: 4111 b343 104f c43f 767d a192 a0f8 c1bf
00000370: d513 f50d 9815 90bf c5f6 9903 9d0a a3bf
00000380: f34e 168e 38e6 9e3f 3c6e f8a7 2f2d 853f
00000390: 9f66 2fdf 0a67 bc3f 092d 4e10 fbb6 73bf
000003a0: 7485 9dcf 50f2 7dbf 9ca6 e340 0374 8e3f
000003b0: 466c aa69 8918 b1bf c374 fed0 b6be a63f
000003c0: d6ef e6ad bf2b b1bf ca91 734f ecbb c13f
000003d0: d291 271d f898 99bf f1a2 9103 95df a13f
000003e0: 73b9 4a02 b1e0 753f 2c1e 4d13 c600 adbf
000003f0: 2e7f 484d e4a1 a03f 2aae 1690 8d4e bc3f
00000400: 0893 2e3b ba96 aabf 1255 0a95 ebe8 973f
00000410: 6eec 1ab8 4855 a23f 75a5 425f 9617 b33f
00000420: d064 4f28 345e a03f 48ed 85a6 657b 97bf
00000430: 94d8 dbb8 8b38 943f 0fb4 ba1a 386a b93f
00000440: 9264 e1c8 ebc5 6c3f fafc 44b8 0f39 b13f
00000450: 9ee6 e97f c64d babf 6233 a3fe 6885 c23f
00000460: 4b49 2418 c109 98bf 59d6 60d3 7c54 84bf
00000470: 92d4 5d7d 9d5b be3f b865 f0e2 b84d ac3f
00000480: 8ad9 eafe d669 77bf 4db5 74f0 1128 a0bf
00000490: 903e 5af7 fe6d be3f 7e75 803f d141 c03f
000004a0: 171b e090 abbf c5bf b2dd fbd5 ce44 b33f
000004b0: 4e3f 453f 717c ad3f 8a99 f790 cec1 c53f
000004c0: e8b6 3cf6 f015 943f d009 b74b 5696 ae3f
000004d0: 543b 6031 e316 bc3f b648 b93e 1069 a2bf
000004e0: d6af 1b16 fa5d ae3f 6bdb 93e4 c7e1 72bf
000004f0: 813c 1cf5 4043 c63f f990 6f3d 70ab b7bf
00000500: 54e8 0ca5 ae61 ae3f 7f1c ca7e fbab c23f
00000510: b717 44af 4e59 b5bf 08e4 2b99 7f24 c43f
00000520: 4adf 5222 9be5 c63f 27d4 5091 75fb b7bf
00000530: 034c bba5 2039 af3f 8f7f 663f f611 c1bf
00000540: 4f8c 4ea1 3250 743f 4cdd b8dd b44a bbbf
00000550: decc 0a4b bb8f acbf 2d99 e067 6cbf 8f3f
00000560: 8cb7 0695 4285 af3f a3a8 162d 95fe a3bf
00000570: 4ecd ef31 33fa 89bf 38b8 02fc c269 a13f
00000580: 3a94 6322 8163 b43f c18b f918 be17 71bf
00000590: 7895 8564 cc13 993f d55b 1e60 46a7 c13f
000005a0: c23f 73c3 a1d3 be3f 8c5b 5bb7 d1ef bc3f
000005b0: 7e9c 7027 5b3e bebf 8745 34f0 a09e bd3f
000005c0: da53 3319 886f 99bf d26b 9ef9 c157 ad3f
000005d0: 5081 74f0 6ca5 a6bf 6321 44b8 53f7 ba3f
000005e0: fd67 d5cd 4fa1 b9bf 0e4c 965b 421d b73f
000005f0: f8f9 c23b 884c c23f b4d9 403d d693 bf3f
00000600: 174d 5275 2cff c2bf aede a517 87e5 b3bf
00000610: f1ea fef1 8188 81bf 40a9 baad 995a b53f
00000620: 4ede fad6 a3e5 b8bf 6c9c 204e 6a83 b53f
00000630: 798c 2d31 3089 b83f a830 0819 ecb6 b4bf
00000640: d727 084f 2664 c53f 5ba5 e23f 1d5f a0bf
00000650: 623d af85 0c6f c33f e1a1 c4f9 903f a43f
00000660: 8b51 9a6d 4aca a63f ddb5 888d af16 90bf
00000670: 5c94 206a 1def a9bf 93d0 c7c2 cfef b83f
00000680: 492b c42a fd75 b33f 6525 458a 60b3 36bf
00000690: 809d 8ef1 b822 a03f f4d0 f6ef 33e3 a83f
000006a0: 355b f648 bec1 87bf 0224 c632 bb56 b13f
000006b0: 1b3a fe9e 566b a1bf 0d31 a059 2b38 983f
000006c0: 4841 0c39 f6ac ac3f e4cf e08c ad16 b9bf
000006d0: 7510 2971 45b2 b53f c876 76a4 c7c6 af3f
000006e0: 4317 20cd 987b a63f b9f2 5963 016a ad3f
000006f0: dfa1 0b90 e0fc c13f 567a 6f57 ab49 99bf
00000700: 4e60 3154 1165 b03f 4782 f10b d220 b33f
00000710: 14b9 b714 ebc1 ad3f 4188 83fd e99f ab3f
00000720: b6ca e9c2 c887 a7bf 24fc 45f7 d04b c3bf
00000730: 8637 bb2d 80db b3bf db15 b142 2125 a53f
00000740: 8f3c 07f9 b335 b0bf fc6b ed62 acc8 b83f
00000750: 16d9 2263 4579 8dbf 7681 b138 87fa a6bf
00000760: cdde 1790 4f97 b63f 9db8 4975 2b48 933f
00000770: f04e e741 613e b7bf b8bc 8b62 910b a33f
00000780: a5db 63d7 6be7 823f e014 a93a d8ae b5bf
00000790: 79dc ff44 c5b6 a23f 7589 a9d8 18ce 9abf
000007a0: f3f2 40fe 94a0 bf3f 8052 0549 9a6f 9ebf
000007b0: 86d9 e2be 772a b0bf e41a 3c81 c845 5f3f
000007c0: c455 e440 ce2b 873f 993b c82b 3285 b23f
000007d0: 7aea 1cd2 7a64 c7bf a6df 5c47 a06b b13f
000007e0: 0eaa bc1e 6c63 a4bf 83ea b0b4 e478 c0bf
000007f0: ad51 1e54 3a24 bb3f 62ff 3a48 5658 c63f

layer2.bias f8 [100]
0.0004112356757414885 0.11992999496074205 -0.12497872179381454 -0.058535217907143354 -0.04388131156355324 0.1267594882825718 0.11942368713093685 -0.021280489875303624
0.10030894754541693 -0.1215846596168803 -0.17779423998520683 0.1357314994921649 0.08529690924552048 -0.07045515742064974 0.0422383157365565 -0.1412057828230709
-0.13017126595406162 0.09645793661878516 0.053594369467208317 -0.009148023276439833 -0.11600875993776874 0.17040307696727366 -0.09654869869558344 0.09158305578257776
-0.1013395293753154 0.01966336938866007 0.14758315280937767 0.07083501355171577 -0.0691441757486988 0.023455976036798235 0.0959429320955148 0.08045014833828293
-0.012789020384069026 -0.014903628030641892 -0.046090113311130686 0.023487258106404212 0.060939076779792635 0.07314209081923254 -0.011578115881746065 0.012332627077236914
0.0931528249775402 -0.07550127882417665 0.11145962738152938 -0.041154603960948444 0.1159322759574961 0.02472340898794978 0.1055792366874859 -0.0681614690683771
-0.16346461549657829 0.05923702953333926 0.14048184439455585 -0.1114476712005714 0.002404672312285186 0.008116639144766005 -0.08001866258172702 -0.07940729848777045
-0.1716938205000408 0.0609321313366312 0.15855526097220657 0.08580838137480284 -0.03009560720717612 0.15845458422843137 0.06717534340876206 -0.07845408158593553
-0.08503451044143602 0.14146054196110833 0.15448650972258676 -0.09344662641699586 -0.13573621314234113 0.09323627779439306 -0.12470344731998673 -0.09511645719716683
0.061992041388394856 0.13287191293573222 -0.07399679572347051 -0.10408863273795885 -0.07341796125321552 -0.06722002221660787 -0.019724130828633262 0.07455717275400753
-0.09911358346615018 0.1544681933477928 -0.018334185107723864 0.0799327303208954 0.03424081415655468 0.11838824172929056 0.11597505887626196 -0.0031186594324847127
-0.02100190805596912 -0.004975021018410955 -0.1414967719925538 -0.07510552300595595 -0.10514437219891527 0.012149581014691428 0.04935096678917739 -0.11704797814099181
0.14361700068092276 0.033894801609981644 0.13553151946676648 -0.015119883782532057
00000000: 26ed 3bc7 63f3 3a3f f673 2a6e bbb3 be3f
00000010: 81e1 cc02 9bfe bfbf b39c 26fd 53f8 adbf
00000020: 6060 247c 9c77 a6bf c9cf 50a8 a739 c03f
00000030: 1e59 98fe 8c92 be3f c1a9 3a80 8dca 95bf
00000040: a528 34e1 d8ad b93f 6bf2 bf18 2c20 bfbf
00000050: 70aa 132f f6c1 c6bf c48d ad57 a65f c13f
00000060: d1cd a8ab 04d6 b53f fdca f464 5909 b2bf
00000070: 2709 74b1 42a0 a53f ea96 9df5 0713 c2bf
00000080: 0d68 13b9 73a9 c0bf 7ca2 37a3 77b1 b83f
00000090: 8209 39a0 b870 ab3f 87e3 5ce6 32bc 82bf
000000a0: 8a73 fb05 c0b2 bdbf bd29 5b9d c4cf c53f
000000b0: 7e6f 5e5f 6ab7 b8bf c933 74b5 fc71 b73f
000000c0: be81 752c 63f1 b9bf 7a58 d061 a222 943f
000000d0: 62e0 6037 01e4 c23f 33c8 9d52 3e22 b23f
000000e0: 80ae 8cc5 6eb3 b1bf f42d e5e7 d704 983f
000000f0: 14f1 a14b b78f b83f 023f 1284 6198 b43f
00000100: 792f 6142 2131 8abf a7e9 dd17 cb85 8ebf
00000110: 0334 ae92 1f99 a7bf 2b45 c235 0b0d 983f
00000120: 05a2 a21b 6833 af3f 2a98 07a8 70b9 b23f
00000130: 00be 7d68 44b6 87bf ba93 c32f d941 893f
00000140: f1fc ce10 ddd8 b73f de23 5b43 0d54 b3bf
00000150: 6192 6d3e 9e88 bc3f 7828 2f5c 3712 a5bf
00000160: 8fcd c9d5 bcad bd3f c00c 32e4 1751 993f
00000170: ee9a b5a8 3d07 bb3f 8bf9 7eb0 0773 b1bf
00000180: db35 ce94 68ec c4bf 38a2 1de1 5054 ae3f
00000190: ce9d ad1f 4ffb c13f af95 05a7 d587 bcbf
000001a0: 6d27 0b9e f6b2 633f 7b0e 71dd 749f 803f
000001b0: 74b1 db62 1a7c b4bf 4c95 1166 0954 b4bf
000001c0: 458a fc27 10fa c5bf cd99 bb0e 7f32 af3f
000001d0: eaff 3dee 894b c43f b83b babf 89f7 b53f
000001e0: cc13 d502 62d1 9ebf 33c9 9464 3d48 c43f
000001f0: 9fc7 093f 6732 b13f 1c39 a612 9115 b4bf
00000200: 3d99 6059 d2c4 b5bf dfdd b208 611b c23f
00000210: d241 77c5 36c6 c33f 48ed 613c 1eec b7bf
00000220: 8e24 2ae2 cd5f c1bf 0a7d ed2b 55de b73f
00000230: c813 f0ab 90ec bfbf a424 f958 8d59 b8bf
00000240: ee38 c0bc 6bbd af3f c5d6 4e64 f201 c13f
00000250: 081f a439 74f1 b2bf feb0 7e79 8da5 babf
00000260: af84 85fe 84cb b2bf 7b85 0ed5 5435 b1bf
00000270: eb6d 6703 9032 94bf a022 a9ca 2d16 b33f
00000280: 4894 93ff 815f b9bf 8bb9 591f 9dc5 c33f
00000290: b9f5 be55 32c6 92bf 2eb5 9bae 7876 b43f
000002a0: 424c fb11 0388 a13f 934f 751a b14e be3f
000002b0: cb74 069d 8ab0 bd3f 45e3 a288 4d8c 69bf
000002c0: fd14 0431 8681 95bf f6c3 2209 b060 74bf
000002d0: 8b4a 19f4 901c c2bf 173f 0f95 1d3a b3bf
000002e0: 39ea f3d7 bdea babf fc13 f228 e1e1 883f
000002f0: 2160 c5a8 8744 a93f 0bb1 2d36 dbf6 bdbf
00000300: 807e 89b8 0a62 c23f c7ab d6d0 a85a a13f
00000310: f5ed d7c9 1859 c13f 4a20 ec72 2cf7 8ebf

layer3.weight f8 [100, 100]
-0.13264341209149172 -0.03645007410103384 -0.011790900875456504 0.07376196834352929 -0.07094558876450391 -0.04162331883365425 0.10018805509062156 -0.02187522931681015
-0.11838546836702393 0.06497712596153403 0.13314774148199343 -0.08174415494216025 0.0486445053183385 -0.13089764035555534 -0.10910940909420373 0.025580743879810873
-0.059128799153295095 -0.018747912284606608 -0.12930588043298602 0.010943773937677478 0.08367918059734136 -0.09527708084870558 0.06340834609164757 -0.06484832795246549
-0.0006663596899241627 0.06165008926395301 0.02430882214737136 0.01619312262854157 -0.07647012283162115 0.009362092132808994 0.025595184456721244 0.06757872085213469
-0.12301540997319896 -0.002624895418429017 -0.0365204310916933 -0.07479033006839382 -0.025311317627914623 -0.05144631531025323 -0.01335256750564893 0.02927539147988088
0.023404686031446496 -0.073405997936865 -0.0042753732241457626 -0.06382281479817205 0.0725360345892505 -0.014495311315040959 0.027126782668672706 0.035591594832748964
0.027655011309064198 0.025658376253071068 -0.012945356480000728 0.05880485805787061 -0.0062634964860967006 -0.1329427189476634 0.004760669252427929 0.06585435512797022
-0.08015431396392675 -0.003611837415228665 -0.04818615906685936 -0.11230956328967091 -0.11117352787720688 0.0643684716890958 0.031323322604353304 -0.04891358664262106
-0.008888701908500421 -0.04002197794576606 -0.004926921413106402 -0.11352679209938761 0.02311401464424813 -0.040197052101908416 0.08957081048167617 0.026917430100894937
0.01752492591002372 -0.13289382996922944 0.12000918645516709 -0.07776505817181428 -0.02824522737409578 -0.020499816928264497 -0.11251752527623674 -0.05746261759256512
0.06444769675874569 0.01322010398831603 -0.039128708395336456 0.047479604494306396 -0.00969834200865463 0.06426818168824301 -0.05816679394253491 -0.11550013487776402
-0.007616345889679869 0.045588188443779605 -0.11089752642901061 -0.012398434126789896 -0.051365917560489735 -0.0843003199602094 0.015607820626624544 -0.02311373593027178
-0.022095313794969776 0.054331803946152855 -0.04017982054960774 0.007651941936344092 0.007893001012999437 0.05619683465769015 -0.022946321383500095 -0.030404687942520752
-0.14822484651104015 -0.006612944464857277 -0.001238864594249705 -0.06691467606544647 0.07397887294886905 -0.09350614644645407 -0.00764272563005993 0.14252521067037288
0.03748707266494649 -0.12889124386703493 -0.020260704708664284 0.05729415270602641 -0.06056212497233388 0.00904351381099902 -0.08614815066266673 0.07833794727298629
-0.06516952740370943 0.10141336426519487 -0.07302965841094446 -0.07023946126190804 -0.1507839737940101 0.13760894917283073 0.07580255885839364 0.18617716571168755
0.14210950185304136 0.07661255803571757 -0.04066023393099754 -0.01261570203976059 -0.03065336296172932 0.09237295357617334 -0.05614594337277618 0.00796326637335965
-0.1699603998978425 -0.009887717148055756 -0.09202840839142365 0.0014106327943316525 0.06341379774454098 0.039414095002928 0.10392221638865001 0.0023276815285760265
0.0757691421791185 0.0879973346026419 0.09050517570044889 0.14879674076083818 -0.036192624356398896 0.02016264918459334 0.13841638494939196 -0.0067594261576683
-0.04644701373301971 0.13781326552877018 0.02597940593432429 0.04682915938072488 -0.03417983137623261 0.012072766563202728 0.08858247788148617 0.1526344164235153
0.10365454610576876 -0.001401293319819049 -0.10584656245444156 -0.017713654777271468 -0.03339830884945569 -0.02026814965623702 -0.0590153848777833 0.027678773373191117
0.0399386642523256 0.0944085377797761 -0.02608677302443678 0.05140356596057805 -0.07792671906127703 -0.0004347964646835806 -0.14286514288769883 -0.0024005080161624446
-0.00807667985066494 -0.025098209455742253 -0.11540895495759347 -0.04184490889488637 -0.037703580082793536 0.03799097252828969 -0.004997758273059406 0.07964941482671814
0.06371868064128065 -0.06663551680718686 0.025921510446870837 0.012804372022771647 -0.04822014311216244 0.013587399242023256 0.00125269583824975 0.05535608423589654
-0.04142459221012058 -0.04447451198523558 0.1098557119653967 -0.11225808980244366 0.015661270117003988 0.032215164040292225 0.020952636973069618 0.0802389968260896
0.09353594035470195 0.14964437846860962 -0.12213120850427645 -0.015760961563584537 -0.11509788929269214 0.02789215509164013 0.1767884830598287 0.06660017994283553
-0.006226533841210894 -0.1545769818960195 0.0060246200326077035 0.04485877071207755 0.005816855843462955 0.026671251274588772 0.14219609010007428 -0.09654885324452894
-0.0334502909331231 0.05845213639237238 -0.0387577965367486 -0.004263279294282089 -0.09922400684426455 0.045281318226442276 0.04680578900159525 -0.03919162419832113
-0.039673830669718003 0.0691891196259892 0.07903113352017359 0.14462145455561365 -0.07950206943401239 -0.06810447764933171 0.09942529093877754 -0.023209644903231047
-0.0496470711082591 0.13678479699277427 -0.10888187434294175 0.12006586364626906 -0.09037581397343109 0.1039162729730631 -0.140488088908619 -0.024233738655030465
0.06637230930480455 0.0018781630404314448 0.0077287784606688064 -0.13382907812316205 0.16704888240082882 0.04584061615137594 0.07067230011324656 0.02935448036662533
-0.05309985875507092 -0.0066664465942512475 -0.012937652235170577 -0.10519537778418092 0.024454569182305246 -0.00015331344818652945 -0.024235739154307386 -0.10977967961898696
00000000: 4a3d 7b96 75fa c0bf 5fc4 6688 95a9 a2bf
00000010: 2f26 34ed d325 88bf 0d5b b979 10e2 b23f
00000020: 84fc 8977 7d29 b2bf 1476 48d2 a64f a5bf
00000030: a066 10a4 eca5 b93f 9665 08ca 7566 96bf
00000040: 2a40 f592 824e bebf 272c fe46 57a2 b03f
00000050: 46c8 9935 fc0a c13f d0a0 1d58 2fed b4bf
00000060: 6cd9 f1be eee7 a83f e2af 39fe 40c1 c0bf
00000070: 6fd8 be1f 98ee bbbf 160c 7ca9 d631 9a3f
00000080: 96f5 3a45 2146 aebf 44cc 8518 a732 93bf
00000090: cef0 d157 188d c0bf 9ed3 4179 b069 863f
000000a0: 708b 05b0 ff6b b53f b1b4 4d2a 1464 b8bf
000000b0: b7cf c184 873b b03f 3591 c167 e699 b0bf
000000c0: 6d29 ad89 d4d5 45bf 134a 5eba 9990 af3f
000000d0: 544b 8270 69e4 983f 2456 7010 ee94 903f
000000e0: 91d3 aec4 8b93 b3bf 6bab 42bc 6e2c 833f
000000f0: 3af2 b4c0 9f35 9a3f 8926 f7cb d64c b13f
00000100: fa29 bd1a f07d bfbf e346 48ff cd80 65bf
00000110: fa6a 5952 ceb2 a2bf 6d67 b385 7525 b3bf
00000120: 24e5 b8c5 35eb 99bf 30b5 83e3 2b57 aabf
00000130: f5ff 0846 9758 8bbf 3b4b ef43 5efa 9d3f
00000140: 7916 50e4 65f7 973f 8a15 7848 bcca b2bf
00000150: a77c d0c2 0d83 71bf fdfb 4b26 b156 b0bf
00000160: 9fa4 57b8 b891 b23f e6f6 58c0 b7af 8dbf
00000170: b56e a191 1fc7 9b3f 3d66 a3bf 0f39 a23f
00000180: 185f 9264 9851 9c3f b669 807b 3046 9a3f
00000190: c2ba bb55 1883 8abf 20b1 689c ab1b ae3f
000001a0: 83f5 0f89 c0a7 79bf 6c8e 0f5b 4404 c1bf
000001b0: 99a4 f06b ec7f 733f b0e4 92bd d4db b03f
000001c0: e4be 1b3d fe84 b4bf 43c5 7572 9296 6dbf
000001d0: 68c0 9f32 dbab a8bf 1170 5bcd 51c0 bcbf
000001e0: 46de 694a de75 bcbf c354 ccc0 737a b03f
000001f0: 6c21 604c 9c09 a03f d694 eb9d 330b a9bf
00000200: f5d8 0160 3d34 82bf c8ed cbbc c27d a4bf
00000210: b695 6d65 402e 74bf 9d62 4983 1710 bdbf
00000220: 04be e743 33ab 973f 65bb 5840 b594 a4bf
00000230: 62ec b1d5 1cee b63f 7420 e727 3e90 9b3f
00000240: 98ef 97de 0df2 913f 5e6d c73e aa02 c1bf
00000250: ee64 0b0b ecb8 be3f 3c96 9e2d 69e8 b3bf
00000260: 2cfb 5b1f 51ec 9cbf d89f 1f6d e7fd 94bf
00000270: 62cd 49d3 f2cd bcbf 33f1 9a7e bd6b adbf
00000280: 5d9f e1ed a47f b03f a47d 3c52 2413 8b3f
00000290: c20e c995 ad08 a4bf 1a64 0f29 3f4f a83f
000002a0: 4f50 056e b9dc 83bf 693e 862a e173 b03f
000002b0: 1589 64bb 09c8 adbf 41cc fbb5 6a91 bdbf
000002c0: 11df 2d48 5132 7fbf b95b e6c4 5557 a73f
000002d0: 1f4b 38c1 c763 bcbf 4ff6 c4a8 5964 89bf
000002e0: a648 1a30 a24c aabf ca7c 45ad b494 b5bf
000002f0: ebb9 3939 fef6 8f3f 02b6 a28f 20ab 97bf
00000300: 04b7 9368 27a0 96bf 9bae 29d2 60d1 ab3f
00000310: 5a7e 700e 7392 a4bf ed3b e185 a457 7f3f
00000320: 9bb9 bea9 342a 803f d8ab fcdd d4c5 ac3f
00000330: ab5f 9f8f 3d7f 97bf 2bcf 6e11 6822 9fbf
00000340: cb19 1c22 08f9 c2bf 0429 4fc3 2c16 7bbf
00000350: e385 a7ba 2c4c 54bf a3d2 52f9 5121 b1bf
00000360: 7f0b e987 47f0 b23f d966 f6d0 04f0 b7bf
00000370: d770 228a fa4d 7fbf 46a6 571f 443e c23f
00000380: f7c8 3c6e 8131 a33f 9228 931e 827f c0bf
00000390: 0873 78e0 38bf 94bf 1bb3 3fc0 a855 ad3f
000003a0: 09cf 43b4 ff01 afbf 8f2b 79e0 6785 823f
000003b0: 3400 b521 ce0d b6bf 6ac0 92a9 f40d b43f
000003c0: 920b e53c f3ae b0bf 0077 e5ea 39f6 b93f
000003d0: c157 835a 12b2 b2bf 9730 029d 36fb b1bf
000003e0: 9464 1aa6 e34c c3bf 30c8 2a88 2b9d c13f
000003f0: 7bfa 3fe7 cb67 b33f 9930 ff42 a7d4 c73f
00000400: df6f 74e7 a430 c23f 62ef 396f e19c b33f
00000410: b772 f60d 6bd1 a4bf 8031 6add 42d6 89bf
00000420: 2f70 bb5d 9863 9fbf e603 a5fe c0a5 b73f
00000430: f9a3 2d3d 29bf acbf 43b1 2485 0b4f 803f
00000440: 8091 962b 43c1 c5bf 6294 43ee 0240 84bf
00000450: b616 587c 2c8f b7bf 87f2 f86d 9f1c 573f
00000460: ec8e 6dfb e23b b03f 7cf9 1392 152e a43f
00000470: 0493 b778 a59a ba3f 5cb8 4d81 8011 633f
00000480: c38d b443 9b65 b33f 6fe6 404a fe86 b63f
00000490: ae8d c0e1 582b b73f 39db a887 c50b c33f
000004a0: cd2d eff3 d687 a2bf 26ea 647b 84a5 943f
000004b0: a649 4bcb a0b7 c13f 5731 97a4 c5af 7bbf
000004c0: 7cda f529 e7c7 a7bf 0555 3376 dda3 c13f
000004d0: 6e02 6e6b 589a 9a3f 442a 14d8 fdf9 a73f
000004e0: 722e e3d3 0480 a1bf 6555 7d4c 9bb9 883f
000004f0: 85e7 7f5d 57ad b63f c53a 6449 8689 c33f
00000500: e122 9bb5 1a89 ba3f 5637 c43e 73f5 56bf
00000510: efc6 22a4 c218 bbbf 5914 d83f 8723 92bf
00000520: ac0f 8048 9519 a1bf 9f25 b27f 2cc1 94bf
00000530: e998 05b8 4337 aebf fb99 b909 d357 9c3f
00000540: 1d8c 9e31 d772 a43f 9131 3a6e 282b b83f
00000550: 0c16 feb3 7db6 9abf c19c 6575 9151 aa3f
00000560: c94e da65 01f3 b3bf b9af a298 ac7e 3cbf
00000570: c973 38ae 6749 c2bf 26e2 8aed 3aaa 63bf
00000580: b50a 8d9e 818a 80bf dec8 3353 58b3 99bf
00000590: c559 35f7 708b bdbf 544f 6a26 b26c a5bf
000005a0: 54a1 cb36 e24d a3bf 06bf 1a81 8d73 a33f
000005b0: 28ae 6085 8778 74bf de87 d36f e763 b43f
000005c0: 33a2 7f11 de4f b03f 735d 7075 060f b1bf
000005d0: fb67 871e 2b8b 9a3f cc41 abb8 2d39 8a3f
000005e0: d8b0 5983 4fb0 a8bf 0cb7 0edb b5d3 8b3f
000005f0: 9538 0eea 2f86 543f 2e08 dbf6 a157 ac3f
00000600: 39d0 95a9 9a35 a5bf f4db f6fc 5cc5 a6bf
00000610: 9290 2b02 811f bc3f 8fb5 6938 f2bc bcbf
00000620: f68b dd0b 8209 903f 6f06 fa87 817e a03f
00000630: 67d6 41aa 9b74 953f f95d 3bfb 8a8a b43f
00000640: 0af5 d2ac f8f1 b73f 3ec6 c607 8c27 c33f
00000650: 7cc9 58aa fd43 bfbf 025e e039 a423 90bf
00000660: 2fca 5926 0e77 bdbf a5f5 bbd7 c28f 9c3f
00000670: be94 8648 01a1 c63f 211f c39a b50c b13f
00000680: 2a6f 7273 fe80 79bf cb98 fab4 2dc9 c3bf
00000690: e18c 2ca0 45ad 783f 5f55 4b92 baf7 a63f
000006a0: a8bf cf59 6ad3 773f b7fb de5f b54f 9b3f
000006b0: 60a8 4c42 7b33 c23f 54cc 26f7 6cb7 b8bf
000006c0: fcea 3283 6520 a1bf 3586 5f3c 70ed ad3f
000006d0: 5043 2ed9 0fd8 a3bf 2b51 4852 5f76 71bf
000006e0: 56cb 5f98 be66 b9bf 49ff cde9 1c2f a73f
000006f0: cef7 0caa edf6 a73f 72f6 6ab0 ec10 a4bf
00000700: c58a 77da 2050 a4bf 1a5c 08ce 60b6 b13f
00000710: 9bbf d565 623b b43f 46e3 ceb0 f482 c23f
00000720: 98f3 2e64 3f5a b4bf 090d 3788 4b6f b1bf
00000730: 9b32 fa94 ef73 b93f 389e 3ee7 44c4 97bf
00000740: 061b 8145 576b a9bf 7944 d60a 2a82 c13f
00000750: 1a1c 6eb9 aedf bbbf 620a baed a2bc be3f
00000760: 1882 5d8d de22 b7bf 1c07 f1c1 419a ba3f
00000770: 0d87 ab81 83fb c1bf 4cc3 eeab bad0 98bf
00000780: 51fa d291 c6fd b03f 5f10 7435 96c5 5e3f
00000790: 2729 a02b 36a8 7f3f cd7a e5ac 4f21 c1bf
000007a0: 3459 5f97 db61 c53f 54b5 65d6 6b78 a73f
000007b0: 9130 b871 9417 b23f 18b5 a9d4 190f 9e3f
000007c0: 6ced 8c99 e72f abbf 3b3b a5a1 464e 7bbf
000007d0: a389 e549 0e7f 8abf fcfe 4593 15ee babf
000007e0: fbc9 805b 9e0a 993f ad77 f37d 5818 24bf
000007f0: d2a0 3fec 40d1 98bf a299 ba65 851a bcbf

layer3.bias f8 [100]
-0.03559375744839681 -0.01191421262018751 0.12210911110782358 -0.007890511481286984 -0.12202674478668077 0.09643133799414928 -0.0031814294076704295 0.02619378186312446
0.014671626288697075 -0.01509511585468378 -0.1674483379908431 0.03815904163636133 0.08987926357849754 0.0970225970550815 -0.035456599170890266 -0.06491498341291634
-0.04848476655879195 0.042900448405702285 0.11120619117519022 -0.06347085535526276 -0.07590280753594889 -0.03623892055033927 -0.18350120141753049 0.09673549683504391
0.030084699702310393 -0.13993266476967345 0.09238336519744172 -0.05180730506686888 -0.01727649203997842 0.08947665886376586 -0.03935539805684223 0.04732605929880997
-0.06547199245951948 0.12732530440459483 0.012806544978238247 -0.019402166198737275 -0.0040793362920551485 0.08069015981477934 -0.097728636276501 -0.10439705721292197
0.013024018142534673 -0.0837382085999117 0.09362642062927722 -0.1146405626312704 -0.036932842958815264 -0.021573448589035864 0.02905021160232416 0.02457064787542466
0.020058737063053524 -0.01183833093096712 -0.03443046286232583 0.034482083859033966 -0.01877672371044482 -0.09473335052981702 -0.04644505036284945 -0.008030159762397586
0.010156837495870149 0.10124232055031515 0.013363351457633432 -0.019622973392822603 0.14229511066791597 0.14117266154956062 0.030307010224390755 -0.05359247672131035
-0.051262483846629785 0.07268432586882342 0.021104891121280868 -0.10075688131078876 0.012032716853813267 -0.10479390003081475 0.03831139362899974 -0.06444540855041624
0.02136860292765152 0.0701722665842534 0.10483680890076892 -0.08553486121048175 -0.10246848563944647 -0.02638938055223874 -0.04444055162896692 -0.13429140738974812
-0.03357232248330909 0.021546072379006638 0.1340782622085476 -0.02391781980995555 -0.0019478503029514388 0.08187387251969466 -0.1029333131330701 0.05163237503340151
-0.01449363667579126 -0.0038686932819380453 -0.08606369855558028 -0.08684617761171276 0.12236905486978263 0.07571474174582465 -0.04392625290158694 -0.1593445573794909
0.09533790690203041 -0.03830422134967848 0.024828375867253227 -0.04768089928308957
00000000: 7680 5d50 5839 a2bf aa88 7d8c 7a66 88bf
00000010: 8c71 c0ee 8a42 bf3f 5733 1686 e628 80bf
00000020: 229c 180e 253d bfbf 9190 fe62 b9af b83f
00000030: 2bd4 55e8 f00f 6abf d8bb d7f1 8ad2 9a3f
00000040: a973 b658 280c 8e3f 2bce 6627 30ea 8ebf
00000050: 4f59 b877 f26e c5bf 84ef bff7 9489 a33f
00000060: 8280 a8d1 5302 b73f 6d16 5311 79d6 b83f
00000070: ce92 bb0b 5e27 a2bf 3f63 c7b2 449e b0bf
00000080: 1dcb 72cd fed2 a8bf 80bf c52d 0cf7 a53f
00000090: 6dcd 354a 0278 bc3f 0000 0040 a03f b0bf
000000a0: 9e9e 0acc 5d6e b3bf 1e4c 3665 e88d a2bf
000000b0: 65b8 6ea5 f77c c7bf b9d1 4453 a8c3 b83f
000000c0: 975b 5305 86ce 9e3f eff7 6945 50e9 c1bf
000000d0: f0a9 37ac 6fa6 b73f 8a85 e9b1 7c86 aabf
000000e0: 0a8b 34c1 edb0 91bf cf41 933b f1e7 b63f
000000f0: 8780 2607 6426 a4bf 52b7 df09 1f3b a83f
00000100: 7ee7 6ac2 c5c2 b0bf 427c 2f11 324c c03f
00000110: a2ac d95e 513a 8a3f 6837 2e55 29de 93bf
00000120: 8292 6b7f 7eb5 70bf 2074 833d 1ca8 b43f
00000130: 4ab4 b070 be04 b9bf 3c34 87fa c3b9 babf
00000140: dea8 e01f 56ac 8a3f 33bc 5c03 de6f b5bf
00000150: e3ef a4ae e6f7 b73f 56dd 4b7b 1559 bdbf
00000160: af15 5091 dce8 a2bf 9e7d 9ba0 5917 96bf
00000170: 496f 18b3 56bf 9d3f 8b13 4444 0c29 993f
00000180: a750 bd0e 478a 943f 1278 80e1 b13e 88bf
00000190: 8aac f59f dea0 a1bf f2e8 f1bc a2a7 a13f
000001a0: 83af 0c99 343a 93bf a8b6 5de2 7140 b8bf
000001b0: 9630 bd48 a5c7 a7bf a93d 7dcc 1d72 80bf
000001c0: be1f 01a7 1bcd 843f ba18 bc47 04eb b93f
000001d0: 73cd cdab 3e5e 8b3f 42ca e373 0b18 94bf
000001e0: ef85 59e7 b936 c23f f3e9 381e f211 c23f
000001f0: 0160 0307 cd08 9f3f 69ca a81d 7970 abbf
00000200: ff18 4487 133f aabf ced4 89a2 709b b23f
00000210: da2d 9b44 859c 953f 99a8 13f6 33cb b9bf
00000220: 0f08 f4ea 9ba4 883f 65e0 73e5 c5d3 babf
00000230: f4c6 660d 8d9d a33f 1ff5 198a 7e7f b0bf
00000240: de1f f1aa a6e1 953f acc8 1046 cff6 b13f
00000250: 6d53 a5c9 95d6 ba3f 8b21 91d7 9ce5 b5bf
00000260: 622b b1ea 5f3b babf 27f8 bb59 d105 9bbf
00000270: 57a8 b977 e9c0 a6bf 49b7 6ff9 7530 c1bf
00000280: 1eb0 3b36 6430 a1bf 027c e670 2c10 963f
00000290: 1526 a5fb 7929 c13f 9f63 80b7 e97d 98bf
000002a0: 6ec6 5056 e0e9 5fbf 4674 dea4 aff5 b43f
000002b0: 9151 936d d659 babf 18d5 5d04 8f6f aa3f
000002c0: 7058 2efc d6ae 8dbf d845 f9e3 3cb1 6fbf
000002d0: e144 ab42 4508 b6bf 58fa 9f14 8d3b b6bf
000002e0: 0d49 b510 9453 bf3f 5497 9f93 0a62 b33f
000002f0: 24d9 4b77 807d a6bf ffc8 5e07 6765 c4bf
00000300: b39b 36a8 1068 b83f 20c1 fd63 9c9c a3bf
00000310: 105a 7319 9c6c 993f 8b25 217e a169 a8bf
