Exercise2/control_model.pth (torch, 89476 bytes, 6 tensors)

weight f8 [100, 3]
0	0x3fe9453551f610aa	0.789698276596501
1	0x3fd1e631ebe1fbf8	0.27967498813080693
2	0xbfa357717249faf7	-0.03777651329163761
3	0xbfc8230ec0000000	-0.18856987357139587
4	0xbf5dcfc000000000	-0.0018195509910583496
5	0x3fb1ac4600000000	0.06903493404388428
6	0xbfef233eade37159	-0.9730523487337833
7	0xbfc2145860a877f9	-0.14124588698990673
8	0x3fcf608bc98ac51b	0.24513385144158736
9	0x3fec349926340da3	0.8814206834944581
10	0x3fbdfed967ce81b6	0.11716994079916429
11	0xbfcefbab725cb95c	-0.24205535015193902
12	0xbfb4025aa82c166c	-0.07816092115180034
13	0x3fab984db4bd1ad1	0.053896358788326666
14	0xbfde728eb4336e41	-0.4757420310758996
15	0xbfeab67032b50d38	-0.8347702970863002
16	0xbfd12dbe71f3163f	-0.2684169876850752
17	0xbfa103609f522949	-0.03322889275394176
18	0xbfdd7ddebda99d1b	-0.46080750009282817
19	0x3fc19d741d7d253a	0.1376176017750284
20	0xbfc5514647b06aab	-0.166542801861245
21	0xbfd1a38afda3062a	-0.27560686845035554
22	0x3fe061fea897f2bf	0.5119622509806375
23	0xbfda6014f03d706a	-0.41211436711251415
24	0xbfdfc25fb6ab922a	-0.4962386402023947
25	0x3fd0bc2e1ad63270	0.26148560162326984
26	0xbfe0e06ec4df9bc6	-0.5273965687928175
27	0xbffc8901bcb12ac2	-1.783448922232012
28	0xbfd646a02b9b9549	-0.34806064852303514
29	0x3fa478f3f53024cd	0.0399852978517373
30	0x3fec0901e757282d	0.8760995405548379
31	0x3fc2e7184804fd75	0.14767745510651378
32	0xbfcf871399820d65	-0.24630970950611722
33	0xbfed7eab1d52a00c	-0.9217124531469394
34	0x3fc11745a5d953bf	0.13352270696728216
35	0xbfb7cd8a1cb2a80a	-0.09298003388053658
36	0xbfe9fb576acf8538	-0.811931332220559
37	0xbfd423e6228cb8a0	-0.3146910989188516
38	0x3fcda9e6ef96edf9	0.23174750040730865
39	0x3feeeaf7c5790a36	0.9661825997248517
40	0x3fcdcc6b07460a70	0.23280084471851437
41	0xbfd431ef77c991e8	-0.31554781625734885
42	0x3fe625a0859ff938	0.6920931444035778
43	0x3fd69abe5a4a2921	0.3531947976813559
44	0x3fa36c94af8a1ce6	0.03793778078857617
45	0x3fddb8bf74a174ef	0.46440111531940337
46	0xbfd33e91dbad3ab5	-0.3006939549713182
47	0x3fc0179994f3341a	0.12572021267843142
48	0xbfe1c9d164452385	-0.55588597854613
49	0x3fd711b7c1d68778	0.3604564087819351
50	0xbfcf9051fa5909dc	-0.24659180377973555
51	0xbff58204d8101668	-1.3442429008440744
52	0xbfca113d489903ef	-0.2036511044007336
53	0x3fbb8359135ff561	0.1074729606916285
54	0xbfe6b2931a76b308	-0.7092986599796811
55	0x3fdd104c75d09a80	0.4541197920356481
56	0xbfd4da5ba50ef97e	-0.32582751387590025
57	0xbfe24aba08e0c528	-0.571621911373005
58	0xbfbff383f154dd0e	-0.1248095001400211
59	0xbfd9ddfc16414c40	-0.40417387173983244
60	0x3fe423f41f5020a0	0.6293888675291051
61	0x3f958caeee77e671	0.021044476799920667
62	0x3fd16d8066c2aea4	0.2723084453125273
63	0x3fecb44a57e2ec6c	0.897008105900921
64	0xbfc8ce7891157d3d	-0.1938009937684714
65	0x3fcd3ad563419b7b	0.22835795732973083
66	0x3fe7542439838057	0.7290211795152669
67	0x3fc28b992e7e8743	0.14488520403124924
68	0x3fdf94252c1c771f	0.49341706569417626
69	0x3fe6eb5aba939c3c	0.7162297863077423
70	0xbfd05e05fca6c416	-0.25573873208037534
71	0xbfd418c4574e41f8	-0.3140116551012677
72	0xbfee9fa88f2a9fa4	-0.9569895549984619
73	0xbfdb6e86c896b9fe	-0.42862100208995446
74	0x3fd05bc1e55d1712	0.25560042761604607
75	0x3f99b955d466fa91	0.02512106045628088
76	0x3fd7f48d6308c973	0.3743012873775548
77	0xbfcec4cee389edbb	-0.2403811083821504
78	0xbfe13f4320000000	-0.5389724373817444
79	0xbf7d032000000000	-0.0070830583572387695
80	0x3fa3b0bc00000000	0.03845775127410889
81	0x3fef28c780b40b5e	0.973727942823057
82	0xbfc14cb9732f38a6	-0.13515394329300995
83	0xbf84bacdd130f3b2	-0.01012192530299125
84	0xbfb9d84472f9d4db	-0.1009562283232585
85	0xbfd7fb570cce5853	-0.37471557856168153
86	0x3fbd48c84f571b3c	0.11439182221429872
87	0xbfeae7a21044cd01	-0.840775520110043
88	0xbfc1e7e479789901	-0.13988929682927423
89	0x3fcbc143d3d72ec1	0.21683547824647145
90	0xbfd3f0b461f0daa5	-0.31156644405875006
91	0x3fcc0c49e0521818	0.2191250176730939
92	0xbfa05704ab4ca5bd	-0.03191389647538354
93	0xbfd3fabac1b56d8e	-0.3121783153235008
94	0xbfd2f6c5acbfc377	-0.2963117777826975
95	0x3fc261e55a05e04e	0.14361254592563671
96	0x3f606b63113f0d2c	0.0020043311032808177
97	0x3fd2d5236dbf377c	0.2942589351413216
98	0x3fb4b2732df2e6c3	0.08084792968557068
99	0xbfe94b5275d83be8	-0.7904445935872646
100	0x3fae88e0c6c474b2	0.05963804651603634
101	0x3fbfd4154975b03d	0.12432988208246427
102	0xbfd32d707da24412	-0.2996484019177511
103	0x3fc605cd93796aed	0.17205209446804962
104	0xbf9d8e9dafca054b	-0.028864349226301027
105	0xbfbd764af6f4473a	-0.11508625535159647
106	0xbf8b8f0b2cef1142	-0.013456427868626112
107	0x3fa9d06a7cb783ba	0.05041821262762576
108	0x3fe7181f63319f8a	0.7216946542148304
109	0xbfdb73fc33393a96	-0.42895417215633225
110	0x3fd8565667c00ea8	0.38026962406022813
111	0xbfe502cf44e1ea57	-0.656592974220369
112	0xbfd05c80ad8d8d11	-0.2556459135868901
113	0x3fc4efa5428a11b4	0.16356340168944217
114	0x3fda88b29fd7cd32	0.4145933686224509
115	0x3fc8d1a77a128c6a	0.19389813862389654
116	0xbfd9429f0d3d1beb	-0.39469124119608406
117	0xbfe68e0e4647dd1d	-0.7048407910032527
118	0x3fc9c031fed534a7	0.20117783492097382
119	0xbfcc0cf23732a2bf	-0.21914508528904794
120	0xbff138acb1527e07	-1.0763365675592256
121	0x3fc36611bf1df851	0.15155240852249333
122	0x3fd148160ae72548	0.2700247866128689
123	0x3fc62c4d7d36ca08	0.17322701086011727
124	0xbfe14d18b648dc04	-0.5406611976858362
125	0xbfb1f85db8f65721	-0.07019601598434778
126	0x3fe4f22c11c1d901	0.6545620295353559
127	0x3fc9499d091f08e7	0.19755900330898798
128	0x3fb1bafc251b81d6	0.06925941377585984
129	0xbfdac05a3b687564	-0.41799026300016906
130	0xbfc910e901c0466e	-0.19582855782987302
131	0xbfb9da4fcba830db	-0.1009874222001516
132	0x3fcbf2ecc7f006c7	0.21835098040178577
133	0x3fdcef905c8e895c	0.4521218208193625
134	0x3fa7f053d5fc422d	0.04675542819143561
135	0x3fe770ced7de0098	0.7325205055385764
136	0x3fb50f7d44534a63	0.08226759832477053
137	0xbfb8939221ba6f02	-0.09600175212329634
138	0xc001f57efd35764c	-2.244871118730577
139	0xbfc477ab97558fc2	-0.15990204705587813
140	0x3fc31d86fd080edb	0.14933860163738796
141	0xbfeb79e8cb28b277	-0.858631512446279
142	0x3fa4add3ea653ae2	0.04038870083114944
143	0xbfcd05d4ca1a4c26	-0.2267404543714246
144	0x3fef960baf4206a8	0.9870661185270437
145	0xbfc53a262602a7ea	-0.16583706718421293
146	0x3fa4aaff636367f6	0.04036710823284288
147	0x3fe6cafcb8bf2be3	0.7122787102065299
148	0xbfd369bb8a2acb69	-0.30332840435874303
149	0xbfa98b2a8bfc536c	-0.04988987883385829
150	0xbfbeac900e269b4b	-0.11982059808233918
151	0xbfccc9aa5aa5b568	-0.2249043409932867
152	0x3fc0fdf9dd2ae254	0.13275073336787335
153	0x3fe7a8ac12f58ec5	0.739339863805491
154	0xbfd7addf73b69782	-0.3699873571407509
155	0x3fd04ef7ac0d7f7b	0.25481979181312625
156	0xbff7183d9238311e	-1.4434180938433836
157	0x3fd1e25e3473da01	0.279441405509175
158	0xbfd6c397f980982a	-0.3556880890413391
159	0xbfe18089fb9f7463	-0.5469407953747915
160	0x3fdaac8e0818933a	0.4167819098532167
161	0xbfbdee6f8e09f5c8	-0.11691949098345511
162	0xbff95bf1566d6a0e	-1.5849469543524068
163	0x3fba4d48e3cd7b46	0.1027417713316768
164	0xbfd091da3b08c4ef	-0.25890212788642847
165	0xbff6f428eeffbbd8	-1.4346093498131633
166	0x3f9b27821a37d669	0.026517899370409746
167	0x3fd8f05c5f16abef	0.3896704605674008
168	0x3fe2344c47e3d4d7	0.5688840297795207
169	0xbfa4e455dfa7d822	-0.04080456118747146
170	0xbfdafa590b18e81a	-0.4215300186511982
171	0xbfe779e42e4ea584	-0.7336293129384761
172	0xbfd266118af8b5f4	-0.2874797684806645
173	0xbf9840e69ba1e9b6	-0.023685076951076765
174	0xbfe1225db2eefa6b	-0.5354450697703447
175	0xbfbbde79b4cebd6b	-0.10886345543143754
176	0x3fc6c93ac226fc07	0.17801603775112104
177	0x3fe24e8508672e7c	0.572084919368947
178	0x3fcdcac59b4aa3bd	0.23275060732455968
179	0xbf82e8476c020567	-0.009232099517478344
180	0xbfccae08417fbb62	-0.22406104276839317
181	0x3fcb9fc5c4db7eae	0.2158133708207876
182	0xbfac01fb315b1217	-0.054702615523215474
183	0xbfd41432eb4a29de	-0.3137328431845655
184	0x3fca235f1f016a72	0.20420445455495756
185	0x3f5f4c025aae4718	0.0019102118483015958
186	0xbff24211b96dbf33	-1.1411301844891113
187	0xbfc80d61dbe8c9ff	-0.18790839421997416
188	0x3fab7060ceeb6422	0.053591752299049014
189	0x3fe56c13119bed55	0.6694426864554922
190	0x3fcfab3101dfc7b0	0.24741184798727778
191	0xbf8c02ca7d221b30	-0.013677198356402437
192	0xbfd374124c5e18a9	-0.30395944078225995
193	0x3fdf08433541c12e	0.48487930489411013
194	0xbfba68e9bcef9f0d	-0.10316334593482797
195	0xbf9d6781ec8a5d72	-0.02871516233662192
196	0xbfd785bb5d152ebf	-0.3675373467456033
197	0xbfc9f1972b5cf1c1	-0.2026852571233473
198	0xbfd0c087d6f304db	-0.26175113669530753
199	0xbfce691011e13fb1	-0.23758126137772487
200	0xbfcdddeb4ba1605a	-0.2333349341668079
201	0x3fed2a3f78f3b230	0.9114072191565068
202	0x3fc57e73d297375f	0.1679215219759795
203	0xbfcf3cfe7d6b5147	-0.2440488922499162
204	0xbfeea420119f168c	-0.9575348228615481
205	0x3fbe7650e1eda659	0.11899285808399308
206	0xbfc33f277a2d2435	-0.15036481347695632
207	0xbfc95120e97b128e	-0.1977883472483381
208	0x3fcd22d4b60a9995	0.22762545479527022
209	0xbfc6e8d15b263008	-0.17898003531115614
210	0x3fe5d6e5210c87b2	0.6824823041426866
211	0x3fd4638b93f93b1d	0.31857575846236036
212	0xbfd5555a8d0b3b98	-0.3333345773107168
213	0x3fe97ab115c8719a	0.7962270188759704
214	0x3f9ad9540bc5034b	0.026219666689260717
215	0x3fccffdb3b3069ee	0.22655811681836674
216	0xbfe17ce5cc3a1b33	-0.5464962948616175
217	0xbfcb090abc3c70dc	-0.2112134379502838
218	0x3fbd835b8e4e38f9	0.11528560852295645
219	0xbfe1776420ef8b96	-0.5458241122508862
220	0x3fdcc7e0e6030679	0.44969961607066683
221	0xbfb0992499e3404d	-0.06483677632354663
222	0xbfd933f4de274374	-0.3937961739985021
223	0x3fe131c4f6a246af	0.5373253647869286
224	0xbfdbc08d350aa3d2	-0.4336274164184576
225	0x3fe449b2a9a9c9e4	0.6339963258490653
226	0x3fb3e99ee9f3d8bd	0.0777835198567542
227	0xbfb560f198de7c34	-0.08351049406199779
228	0xbf99f12ac67309b3	-0.025334041941059215
229	0xbfd069cd3d6688db	-0.25645762439866154
230	0xbfd740563669c1ca	-0.36330180467396345
231	0xbfecbc7fc16fc716	-0.8980101373728953
232	0xbfdbfcdffd8f7885	-0.4373092628646947
233	0x3fd17a0a1b81ea6e	0.27307369886663124
234	0xbff3eb791b9f9149	-1.2449885443721362
235	0x3fc6d04cff3e524a	0.17823183501299616
236	0xbfc340b7ff69c74e	-0.1504125592360261
237	0xbfefde715cfa5eb8	-0.9959036651589122
238	0x3fcfe031b98ddeb6	0.2490293651605861
239	0xbfc73056402584df	-0.18116262561947047
240	0xbfeafa2cfdbf2c01	-0.8430390316001423
241	0x3fb93ad6f0f2a692	0.0985540712596509
242	0x3fcc3421e5a058b8	0.22034095489715866
243	0x3fd6503295a494fb	0.34864487279476436
244	0xbfd615eef2cb33e2	-0.3450887080223862
245	0xbfc5b9ae0d880afa	-0.16972900067056412
246	0xbff32761dddd325d	-1.1971148172916835
247	0x3fca93f1d87b5c4f	0.20763991423038639
248	0xbfb895a233c5e5f5	-0.09603322757711637
249	0x3feea084f6b6aecb	0.9570946520447817
250	0xbfac8b4e40590f40	-0.05575031791207019
251	0x3fc20290bfc59793	0.1407032905946691
252	0xbff1b9f018909f19	-1.107894988972424
253	0x3f84c4df2ca6ee04	0.01014112811105062
254	0xbfcb641cb0104435	-0.21399267765858246
255	0x3fd73fb50067a368	0.36326336898360134

bias f8 [100]
0	0xbfe8de3a4a057380	-0.7771274038055793
1	0xbfd55188c0000000	-0.33310145139694214
2	0x3fdf00572a8d5379	0.4843957820460712
3	0x3fe2f0ff740c5144	0.5919186846318003
4	0xbfe1f7bfbd1b6a84	-0.5614927953241282
5	0x3fde0e8ee819f2b1	0.46963856378696806
6	0x3fe235373dd380b6	0.5689960677664405
7	0x3fe84aa3d7b3653b	0.7591113293557677
8	0xbff001c08f802fa6	-1.0004277806756163
9	0xbfc19426f95377aa	-0.13733374761698985
10	0xbfe46c6db108a800	-0.6382358987514181
11	0x3fc0131d99c6fb2b	0.1255833626618935
12	0x3fd8d9cd255f1113	0.3882935395197517
13	0x3fd2cf9ca51ab198	0.29392162440742586
14	0x3fd7a482631a27d6	0.36941585233637164
15	0xbfe77c5f9ca06c3a	-0.7339323100199018
16	0xbfd29eda1e772fe4	-0.2909455583110214
17	0xbf918482ebe3192b	-0.017107053420454193
18	0x3fb24a0af282481c	0.07144230290057901
19	0x3fdb7a927919886d	0.42935621095796855
20	0xbfe5c72796573441	-0.6805608688679358
21	0xbfb2f90c0e7e94f9	-0.0741126571070544
22	0xbfe1a73ceb3ff2cc	-0.5516647906038883
23	0x3fc3fd014ce84b47	0.1561586022877128
24	0x3fb96bb9ab2be08f	0.09930000714291708
25	0x3fe0b129f69bbb7d	0.5216264549797952
26	0xbfd4f2e520000000	-0.32732513546943665
27	0xbf964c03e2e42bef	-0.021774349902482667
28	0x3fdc0f7801e8cb48	0.43844413935146465
29	0x3fccdb47747a9558	0.2254418677086203
30	0x3fe17b43bc41f818	0.5462969471843762
31	0x3fe74e1600136be6	0.7282819749337903
32	0xbfde458abd0a912d	-0.4729945036035755
33	0x3fea6dd4afe508c1	0.8259070811693833
34	0x3fe36c5cc6eeea6b	0.6069778333106347
35	0x3fc17e7876bd8f65	0.13667207525133587
36	0xbfd7b4ffee62d60f	-0.37042234687700754
37	0x3fe0a4fe40139717	0.5201407672400106
38	0xbfe440fe8abb679d	-0.6329338750467631
39	0x3fe4017a46bd19ad	0.625180376206847
40	0x3fec792a72d7a3ca	0.8897907488836776
41	0xbfd5e7c4452189d3	-0.34227091551852346
42	0x3fe4329f57c48445	0.6311794962131293
43	0x3fe154af645bf87c	0.541587539686375
44	0xbfda1a7ae93d5481	-0.40786621835042786
45	0xbfca1c4bd3cbdbfc	-0.20398853150956586
46	0xbfdd7dca2398f2cf	-0.4608025882369419
47	0x3fe218e1b34ed87b	0.5655373098477549
48	0x3fd4f0c4b24da2ae	0.3271953335993584
49	0xbfc11010b352229d	-0.1333027721014063
50	0x3fd49e7264317ca9	0.32217082771780753
51	0x3f94f597e2ba4346	0.020468114102701017
52	0xbfc024ecb0304588	-0.1261268482490261
53	0x3fe55f73d42bec51	0.6679019111610477
54	0xbfde24896ee1c831	-0.47098003223721024
55	0x3fb1719ad4ebc344	0.06813972185387934
56	0xbfcbe55bfd5d13f1	-0.21793699141758752
57	0x3fb579c05c2b7713	0.0838890290283099
58	0x3fe1ec643b3dc121	0.5601063878112066
59	0x3fe03850f8e2b40b	0.5068745480581368
60	0x3fe99b8c91f4349a	0.8002379275000238
61	0x3fd6923cda763572	0.35267564138560836
62	0x3fc7bf6763ebfe6b	0.18552868250843643
63	0x3fdc5a07c40db757	0.4429950155816775
64	0x3fcd07f7a72bea51	0.22680564558671049
65	0x3fba6936b3d82900	0.1031679333756621
66	0xbfb98a0ac00eb484	-0.09976260365393058
67	0xbfa2d57995ec8875	-0.036784934569610885
68	0xbfb7e4197e0741ce	-0.09332427336563073
69	0x3fc1a24bcb543a12	0.13776538303541536
70	0x3fc01a24211e7b34	0.1257977639879414
71	0x3fd5b44e38ca31ab	0.33912997766381164
72	0x3fe32b4e45c2be31	0.5990363466752965
73	0xbfd78edfbb9c082a	-0.3680953342556018
74	0x3fe302c99ccdc209	0.5940902769635282
75	0xbfaffd40666b76e0	-0.06247903108827102
76	0xbfc442869b37a67a	-0.15828020647977664
77	0xbfc7bd58f980d98f	-0.1854659288671425
78	0xbfd4a542879b20ea	-0.32258666270037273
79	0x3fe040155710a153	0.5078226757514507
80	0x3fd9f5b66894ce78	0.4056221028615492
81	0xbfd538e1a559f861	-0.33159676692583245
82	0xbfc21fe23df174fe	-0.14159801506585973
83	0xbfc5362e5d471c70	-0.16571597628191936
84	0xbfa7b68fe36c054f	-0.04631471301218914
85	0xbfb423bdce92f228	-0.07867037099180918
86	0x3fd8f11aa1839704	0.38971582196096244
87	0x3fe37dbb0c4f9925	0.6090979805419791
88	0x3fc0cb38c3f9f6d7	0.13120183533822313
89	0x3fd2a4b5a0c29b26	0.291303069107402
90	0x3fb107c19732bc93	0.06652460042345103
91	0x3fb185db68cdae13	0.0684487467639701
92	0xbfe2780a4464313e	-0.5771533332604475
93	0xbfc978341c8fcd50	-0.198980821558147
94	0x3fe163839f7ac61f	0.5433977236591011
95	0xbfcc79470783d2b3	-0.22245109431209684
96	0x3fdc4bdf8acf1329	0.44213093333773884
97	0xbfd2f1c366ad561e	-0.29600605990467155
98	0xbfe99c7fb4fb74d9	-0.800353864174805
99	0xbfa5185e5e28b321	-0.041201542848602786

weight f8 [100, 100]
0	0x3fb774a4588514fe	0.09162356530312718
1	0xbfad2c37a0000000	-0.056977976113557816
2	0xbfa963b10e157b41	-0.049588711709239515
3	0xbf8a2c743c2cb828	-0.012780101858506823
4	0xbfb72f26254b47f4	-0.09056318674564051
5	0x3f5b07bd4e35a89d	0.0016497944532951954
6	0x3fc605878ce758c9	0.172043746758112
7	0x3fb57816f020419b	0.08386367189837644
8	0x3f92aa2672bb7bfa	0.01822719645758395
9	0x3fb2da8e8e9ea2b0	0.07364741308141265
10	0xbfcc27e52ce37d85	-0.21996750537708123
11	0x3fc5e5a4ed72a4d2	0.17107068628437233
12	0xbfbd509a8ff436a0	-0.11451116575718823
13	0x3f8a258510d19fed	0.012766875816126311
14	0xbfaa6013252d78e0	-0.05151424244717062
15	0x3fd07494e0c5a753	0.2571155734100234
16	0xbfa6f9ff8d59277a	-0.04487608528559313
17	0xbfb2808053c22e44	-0.07227327389608101
18	0x3fc1636014b19004	0.13584519396238204
19	0xbfa553f98bcafbf9	-0.04165630179840458
20	0x3f8e5d0b63aa68f9	0.014825905779890724
21	0x3fd1374737663f2b	0.2689989129075793
22	0x3f3146e1f827fe5d	0.00026362435178837134
23	0xbfb973e29969e022	-0.09942451711128844
24	0xbfb50122de498458	-0.08204858710225105
25	0x3fb913aa0f2ca36b	0.09795630331485732
26	0x3fa7e19fc0000000	0.046643249690532684
27	0x3fab0398a4f999cf	0.05276181234221477
28	0x3f97e7855f377824	0.023344119965138202
29	0xbfb9ffd0e49af33c	-0.10155969220336386
30	0x3fc6acf56dde8cfa	0.1771532808753376
31	0xbfb2da09c5775c95	-0.07363949843362357
32	0x3fc38d447f4fcc02	0.15274864403144767
33	0x3f845bfdcbb647a0	0.009941084651277354
34	0x3fbf1cbd99410da4	0.12153229705386664
35	0x3f7e76985e3adc77	0.0074373199346872065
36	0x3fbbce016046cdd5	0.10861214256765746
37	0xbfb86b6d48445bda	-0.09538920416194632
38	0x3f9d18375896fdb5	0.02841268995484621
39	0x3fbc5772f6d1d559	0.11070936704512259
40	0x3fa7904889cd23e9	0.046022669621898
41	0x3fb0621b317a68ae	0.06399698217356573
42	0x3fa2c33a9e85573d	0.03664572892254945
43	0xbfb3aafe3fd990dc	-0.0768278985866035
44	0x3fb536c0d9f7cecc	0.08286671945080143
45	0xbfcbd479c1de738b	-0.21742174116380072
46	0xbfddd0d7e1d3804f	-0.465871782811523
47	0x3faf89ba4914ae43	0.06159765379046835
48	0x3fb52dcf2390b436	0.08273024194996101
49	0xbfa31e7ba63dde33	-0.0373419418746689
50	0x3fbc9249541bd2b7	0.11160715392527264
51	0x3fca13181aa46c2a	0.2037077074136005
52	0x3fa77b94aba5cdb9	0.04586472125347591
53	0x3fc61458dab71c87	0.17249594382721886
54	0x3fb6be090dde02fb	0.08883720959239476
55	0xbf9a89f5b1642ed5	-0.025916899635418062
56	0x3f9bce7ddec74386	0.027154890749276038
57	0x3fbcc5bc5ea28994	0.1123922091524377
58	0xbf4f0af3dae4858b	-0.0009473505686267576
59	0x3f9d6ada68a656d9	0.02872792495471441
60	0x3fcb41c9bcce27a6	0.21294519156464026
61	0x3fc09e4d16c6d934	0.12983096706529695
62	0xbfad42f0c5ea965a	-0.057151340636931905
63	0xbf910b1ea406f6c0	-0.01664398075239748
64	0x3f9b3b76ac17c6b6	0.02659402299281651
65	0x3fab62302a4849ea	0.05348349109785373
66	0xbf9d6a299ee06549	-0.028725290605597285
67	0x3f8c5aba1da01e39	0.013844923047158552
68	0x3fcf6b92f69e7106	0.2454704002565295
69	0x3fc367698a73fb27	0.1515933919945038
70	0xbfabe0b42df8446d	-0.05444872914461816
71	0x3f81613fba9496e9	0.008486268884165553
72	0xbfcd4b84e115b3be	-0.22886715879886127
73	0xbf87bd9d5269c81d	-0.011592129781295363
74	0x3fb48aabf16003b1	0.08024096148439132
75	0xbfc389be0b300138	-0.15264106317773396
76	0x3faae9d77a29d57d	0.05256532064678774
77	0xbfbec46518177607	-0.12018424833464546
78	0x3fd8aa65765e6c08	0.3854001670785583
79	0x3fc6eea042c6c617	0.1791572881752905
80	0x3fbd9d829909b1d3	0.11568466411853899
81	0x3fa88b0c1da284ba	0.047935846917661576
82	0x3fc7780911084cec	0.18335069018994632
83	0x3fcd014e70414249	0.22660236817547943
84	0x3f969e603951aef5	0.022088531015852692
85	0x3faf9ea6817091ea	0.06175728159022127
86	0x3fc8160596a7f8b9	0.18817205291992936
87	0x3fbd84574cfc0e3f	0.11530061368471765
88	0xbf6baff5e517b85c	-0.0033798029551155694
89	0x3f9d3db1a7d9d605	0.028555656308943984
90	0xbfc06e63e879ad6e	-0.1283688435681642
91	0x3fb26e2246801ca0	0.07199300976945944
92	0x3fcad0ecc6fe51fb	0.20950088230587469
93	0xbfc121b5acc93faa	-0.13384123741934434
94	0xbfb3922c82a7c433	-0.07644918622806145
95	0x3f838665d3a52cbe	0.009533687135123588
96	0xbfc41509a71d8568	-0.15689201984336454
97	0xbf89f579a7147b32	-0.012675238047959423
98	0x3fc06f5ef0f5fead	0.1283987690512637
99	0x3fb1c1598e858836	0.06935653428584562
100	0x3fd863546f62c474	0.381062611365514
101	0x3fb1d3eae0000000	0.06963985413312912
102	0x3fc4f219a4debd1a	0.16363831091209918
103	0x3f99a028f15ab86b	0.02502502415762146
104	0x3fc02a1d0d8565bd	0.1262852016468922
105	0x3fc00fe725655f73	0.125485318431625
106	0xbfcd553070c5ca5f	-0.22916226870036646
107	0xbfb2cf2d83cb82ee	-0.07347378223085929
108	0x3fce8918400d72ca	0.2385587990528591
109	0x3fceaebc81ce0b94	0.2397075303852857
110	0x3fd34dacfeb7e178	0.30161595225174365
111	0xbfe30d93b5a85ab2	-0.5954073474884665
112	0x3fcd673403d7b6e8	0.22971201121929785
113	0x3fc3619618e8514d	0.15141559807001173
114	0x3fbf943a3c126e65	0.1233555218372487
115	0xbfc55768bc604853	-0.16673001478244717
116	0x3fb18b481cd4db8a	0.06853151992696219
117	0x3fdcd6002c79dcf0	0.45056156485902843
118	0x3fbe80e122dda409	0.11915404416289745
119	0x3f9624b0e6b2e8de	0.02162434013437397
120	0xbf8b027cd3deb328	-0.01318833848548591
121	0xbfb2e821ae2cf7d2	-0.07385454656920779
122	0x3f948cc4b2c0a066	0.020068238649543345
123	0x3fa81cdc8613aa88	0.04709519516639654
124	0x3fce29da9d1875fb	0.23565228148156322
125	0x3fb2a983faa8ccc1	0.07289910192121153
126	0x3f741a9000000000	0.004908144474029541
127	0xbfad6aac9ce3dcce	-0.057454485084173265
128	0x3faeec3addc3cdf3	0.06039604146090118
129	0x3fc99295702e4486	0.19978588082861765
130	0xbfc3a408baa541df	-0.15344342340041714
131	0x3fbdc85e134c4988	0.11633861514227395
132	0x3fc3090e1bf3765b	0.14871384014888886
133	0x3faa6446a8e49183	0.05154629527740708
134	0xbfcd9f06fe56f480	-0.23141562861374965
135	0x3f759fc6af1b1d0e	0.005279327496914078
136	0x3fb6726d066811f0	0.08768350035104056
137	0x3fd0c27218babfa7	0.26186802306164697
138	0x3fcdf03be0385895	0.23389385650870467
139	0xbfc0c67a08088d4d	-0.1310570277429214
140	0xbfbd1f921edd3bb9	-0.11376298192520452
141	0x3fa623e8e5cf51ea	0.043242719700774604
142	0xbfab1007a18feca0	-0.05285667273707273
143	0xbfa360900130a4eb	-0.037846088547959976
144	0x3fc6712103e0fdc6	0.17532742204092083
145	0x3fddd81cc24c1daf	0.46631545042370254
146	0x3fe09fa138b50e56	0.5194860560954548
147	0xbfc16aafb2c6c9a5	-0.1360683081562232
148	0xbfbfe8dd3b744657	-0.12464697553175462
149	0x3f7113b5f2b4b764	0.004169188246391762
150	0x3fbdee9234327fa3	0.11692155622813387
151	0xbfa5793574879811	-0.041940374827206146
152	0x3fb1eab020400bd8	0.0699873045669358
153	0xbfbe1049dc4db80b	-0.11743604305749515
154	0xbfe3ca9c7fd723dd	-0.6184828278429638
155	0xbf72305fac6f7877	-0.004440664029031641
156	0x3fbc97a11bc39f83	0.11168867996059188
157	0x3fbde840e8492285	0.1168251578429907
158	0x3fc8bb837f98bcf7	0.1932224629431187
159	0x3fc90c0a0671bef6	0.1956799060312659
160	0xbfc442a6c9c288b3	-0.15828404285008943
161	0xbfb1434e5d52248f	-0.06743325975743829
162	0x3fd7040e0297a1ad	0.3596224808993849
163	0x3fb12e7b7b26b48a	0.06711551434155374
164	0xbf9608dc0137c9a0	-0.02151817090447994
165	0x3fbb28c1d3753c1f	0.10609065449283193
166	0xbfa4db8b18e2746e	-0.040737482822103085
167	0x3fc2e6733cadfa2c	0.14765778029318832
168	0xbfde7001640bb77c	-0.4755862690934618
169	0x3fb958b27d5bfef0	0.09900966225177021
170	0x3fb0c1f127068f84	0.06545932009481531
171	0xbfc386aaad46aa79	-0.15254720173591688
172	0x3fc45baf6ca3fd4b	0.15904801182476044
173	0x3fd7cec5ff1fd54f	0.3719954482506482
174	0x3fb0092c744752a1	0.06263997877915496
175	0x3fd7ddb5d00d4c3d	0.37290711705754004
176	0xbf92c9ff7d535cda	-0.018348686241407154
177	0x3f9930612651c29a	0.024598615611867027
178	0x3fdca34976bc4b2e	0.4474662456060966
179	0xbfb50ff52208a2d3	-0.08227474289800378
180	0xbfb5aedf991b8cfd	-0.08469960678080564
181	0x3fa7b22a2b939aeb	0.04628116399708467
182	0xbfdc9f21d7cbe1ba	-0.44721265863293136
183	0xbfd21ca0852bc15e	-0.2829972553727397
184	0xbfdab1c5113b1a28	-0.41710020716382923
185	0xbf9a23cc8ead19fc	-0.025527187546026994
186	0xbfc13736519c9661	-0.13449744210190587
187	0xbfaf020f880799d7	-0.06056259665983859
188	0x3f6af7adf06f3167	0.0032919308900771107
189	0x3fa9da42e3b674d1	0.05049332647033967
190	0xbf7553bc242240ef	-0.005206808973653872
191	0x3f9e8b19b77d033d	0.029827501129378254
192	0xbfc57fc65f8fe36c	-0.16796188036075976
193	0x3fd02efe06ce1db3	0.25286818184437293
194	0x3fcb7b7f5057b464	0.21470633910158476
195	0x3fc1a78afe24b03c	0.13792550477353582
196	0x3fcd712c0a7057e6	0.23001623639782948
197	0xbf960ea263a352eb	-0.02154020054952614
198	0x3f5bbda3dbd45bc2	0.0016931629355150112
199	0xbf3eb73dd2c0bad8	-0.00046868571621676075
200	0x3fb767c9a0000000	0.09142742305994034
201	0x3fa77a0cc0000000	0.04585304111242294
202	0xbfab2abc60000000	-0.05306042358279228
203	0xbfb853d000000000	-0.09502887725830078
204	0x3fa2b847c0000000	0.03656219691038132
205	0x3fb4e01320000000	0.08154410868883133
206	0x3fae1c6e40000000	0.05881065875291824
207	0xbfb6623660000000	-0.08743610233068466
208	0xbf58aa0000000000	-0.0015053749084472656
209	0xbfae436860000000	-0.059108030050992966
210	0xbfb2359760000000	-0.07113023847341537
211	0x3faed2d240000000	0.06020218878984451
212	0x3fb955d060000000	0.09896566718816757
213	0xbf81ceaa00000000	-0.008694961667060852
214	0xbf85629000000000	-0.010441899299621582
215	0xbfa960da60000000	-0.04956705495715141
216	0x3fb8d7c4e0000000	0.09704237431287766
217	0x3fb89b9020000000	0.09612370282411575
218	0xbf9514c300000000	-0.0205870121717453
219	0xbfaa73e340000000	-0.051665402948856354
220	0x3fb685ed60000000	0.08798106759786606
221	0xbfb82cb740000000	-0.09443230926990509
222	0xbfb8d3faa0000000	-0.09698454290628433
223	0xbfb63e48e0000000	-0.086887888610363
224	0x3fb4719aa0000000	0.0798584595322609
225	0xbf9bacdd00000000	-0.02702660858631134
226	0x3f81faa800000000	0.008778870105743408
227	0x3fb582c860000000	0.08402683585882187
228	0x3fb7752260000000	0.09163107722997665
229	0xbf93a8b280000000	-0.019198216497898102
230	0x3f9a73a080000000	0.025831706821918488
231	0xbfb8a5c140000000	-0.09627921879291534
232	0xbfb50c1a00000000	-0.08221590518951416
233	0x3f8a25b000000000	0.012767195701599121
234	0x3faac34040000000	0.05227089673280716
235	0x3fadc945c0000000	0.05817621201276779
236	0xbfa62aa740000000	-0.04329416900873184
237	0xbfb1453ac0000000	-0.06746260821819305
238	0x3fb73f8aa0000000	0.09081331640481949
239	0xbfa8979d40000000	-0.048031724989414215
240	0xbfa33e3340000000	-0.03758392482995987
241	0x3fb1ffbc20000000	0.07030845433473587
242	0xbfa4c346e0000000	-0.04055234417319298
243	0xbfa8af9b40000000	-0.04821477085351944
244	0xbfaf0c03a0000000	-0.060638535767793655
245	0xbf57080000000000	-0.0014057159423828125
246	0x3fa33620c0000000	0.0375223383307457
247	0x3fb472ee20000000	0.07987869530916214
248	0xbf890cea00000000	-0.01223166286945343
249	0xbfb4103160000000	-0.07837208360433578
250	0x3f7e393000000000	0.007378756999969482
251	0x3fb0d7c2a0000000	0.06579224020242691
252	0xbfac332e60000000	-0.05507798120379448
253	0x3fa58886c0000000	0.04205723851919174
254	0xbfa6d22ba0000000	-0.04457222297787666
255	0xbfb63b7d60000000	-0.08684524148702621

bias f8 [100]
0	0x3fb8acb3329a7133	0.09638519273216133
1	0x3fa95057aa8def37	0.04944108921969675
2	0x3f884e4800000000	0.011868059635162354
3	0x3fb423a91aeeac92	0.07866913707282411
4	0xbfba64078cacdf1a	-0.10308882889227924
5	0x3fbf9d5cc23b34cf	0.1234949087331245
6	0x3fc9872878ac16f5	0.1994371976108408
7	0x3fd406acaf93d051	0.31290738245229927
8	0x3fa3029318414e22	0.037129017554118585
9	0x3fa0858b7bc6ccfb	0.03226886640495682
10	0x3fb2618e404f9002	0.0718010813721435
11	0x3fa1edb8cfeb0990	0.03501679933607982
12	0xbfbcc594171594ff	-0.11238980830747279
13	0x3fa4fbe8eec98920	0.04098441996463209
14	0x3f895ddd7acf030c	0.012386064825365327
15	0x3fa361124002fad6	0.037849970163269894
16	0x3fb9f1919a944614	0.10134229682832824
17	0x3fc98115e65f9b73	0.19925187824921017
18	0x3fc1c64115ce6d73	0.13886273922694733
19	0x3fc45a0b367a860c	0.15899791870201374
20	0x3fb0dd4e2bb2f446	0.06587685171958055
21	0xbfa9a5c9ee9b4287	-0.05009299314190679
22	0x3fbe9215b59af0c5	0.11941657718392935
23	0xbfd1f52f700d945a	-0.28058992331199806
24	0xbf86988f9ba123db	-0.011033174454626085
25	0x3fc0ff5fb695f271	0.13279339232748869
26	0xbfaaadd0b8ad3238	-0.052107355636142605
27	0x3f8711b49b73270a	0.011264239305450303
28	0xbf9b8b217d126fb6	-0.02689792943839083
29	0x3f96d22e83005b26	0.022286154504480703
30	0xbfdc491aac0e4ac0	-0.44196192552878344
31	0xbf974bad06069d1b	-0.022749618046558156
32	0x3fa6ee93c0438a03	0.04478894922228351
33	0x3fba68de68832da0	0.10316267062733298
34	0xbfb460eaff73b24c	-0.0796038507139169
35	0x3fb998f1e17e6b9a	0.0999900031587643
36	0x3fa34d56aef91b1f	0.03769942174817786
37	0xbf9d9304eab1d808	-0.02888114626372132
38	0x3fa25785e71ff2bf	0.03582399793956403
39	0x3fbe5e677366bdd1	0.11862799231925371
40	0xbf803ebde2671b76	-0.007932170364154816
41	0x3fca424d56b237bd	0.20514837964259228
42	0xbfa7a6dc00000000	-0.04619491100311279
43	0x3fbb8bc4ef635e6a	0.10760145992696271
44	0xbfb141d71b769588	-0.0674108926819682
45	0xbf9a26d900000000	-0.025538817048072815
46	0xbf7cf3cede1e6c29	-0.0070684510009427015
47	0x3fbf85135408970c	0.12312432099914988
48	0xbfb134d7b4d7f8ff	-0.06721256413581854
49	0xbf8bebef4a847541	-0.01363360353621579
50	0x3fc5afd0a95c2c08	0.169427950568519
51	0xbf9b107f7af9140a	-0.026430122261690094
52	0x3fc0ca6260cd1cb2	0.13117627836820628
53	0xbfaa9c147acb1b47	-0.05197204588835418
54	0x3f9f3916bba91f29	0.030491213992973307
55	0x3fb97029b232501c	0.0993677196550497
56	0x3fbcaf834a74a0b8	0.11205311362994308
57	0xbf92824f80cfbb38	-0.018075220334078795
58	0xbf74e1870faedc23	-0.005097892363600062
59	0xbf93aea25c61af34	-0.019220864189647816
60	0x3fcec06e4dd6873f	0.24024752426799442
61	0xbf94f8d093ecd8a2	-0.02048040297378207
62	0x3fb62b66baeea121	0.0865997511269865
63	0x3fa6e772bf99af11	0.04473455990668474
64	0x3fb82978f83e7466	0.09438282070773737
65	0xbf8cf6d45063e044	-0.01414266462641945
66	0x3fafbea1fe0f4347	0.06200128771127438
67	0xbf9f87e92624ec91	-0.03079189582170422
68	0x3f93e181a10aa59c	0.019414926008413866
69	0xbf6e0066a37ab2a6	-0.003662300554273595
70	0xbf9d24b65dc7f5bf	-0.028460359071677873
71	0xbf95238100000000	-0.02064324915409088
72	0x3fa4fb05c1ab148a	0.04097764958491108
73	0x3fbc3fcf34e7e1ea	0.11034865419049536
74	0x3facbe62a34f13d1	0.056140024600189194
75	0x3f9ee3a3161772ee	0.030165241454471685
76	0x3fbf3d56ec05d515	0.12202971708559958
77	0x3f815a8a3daff65a	0.008473472602413757
78	0x3faedc79462e097e	0.06027583104789168
79	0xbfc658195ca949ac	-0.17456357025600988
80	0xbf9a4f271138e90e	-0.02569256823174109
81	0x3fc18714e0587c4d	0.13693486170174865
82	0x3fb538d381668a18	0.0828983488959597
83	0xbfa2e94d9685fba3	-0.03693621122783177
84	0x3fa6cc88f7b0083b	0.04452922843485437
85	0x3fc21fde3f7dec78	0.14159753894987026
86	0x3fc19f290e3d2288	0.13766968913320832
87	0xbfcb947fe4d8bbfb	-0.21546934770728385
88	0xbfb32c6bf68eb2f4	-0.07489657182186332
89	0xbfb6b26bd5e19622	-0.08865999194821275
90	0xbfb72c0786f20061	-0.09051558537066874
91	0xbfb5a682176df3c5	-0.08457196304330157
92	0xbf922a37689aed67	-0.01773916793784505
93	0xbfa8e5aa05c6b587	-0.0486271984149012
94	0x3fc857da15abc949	0.1901810270133615
95	0x3fae574426b7fca9	0.05925953838959092
96	0x3f96b3d7782b9106	0.022170416555028737
97	0x3fa26806ff0568c7	0.03594991553355125
98	0xbfc05928277af341	-0.12772085120914237
99	0x3f97beb5a8f41f61	0.023188436925038917

weight f8 [2, 100]
0	0xbfb24bae04486eb1	-0.07146728138507787
1	0x3fc5b01cdfc564c7	0.16943703581163147
2	0xbfa9f3a540000000	-0.05068699270486832
3	0x3fc28b23db4c927a	0.14487121780361517
4	0x3f96b491a47a8618	0.022173190750100685
5	0x3fc22f541c8d67c7	0.1420693530479282
6	0xbfc90d6bdf193b29	-0.1957220877979691
7	0x3fd17fa5d83e2b05	0.2734160053011439
8	0x3fbee424f8920317	0.12066870754825874
9	0xbfd301b0a7f008ba	-0.29697815323028076
10	0xbfbe4db760d0a3ad	-0.11837335694930458
11	0x3fb052d6347de317	0.06376398831879403
12	0xbf8a76a8932a6cb3	-0.012921635619298355
13	0x3fb7613afd31d9ab	0.09132736855995087
14	0x3facb906315a2416	0.05609912254755771
15	0xbfc6d5b199709a70	-0.1783964156358766
16	0xbfd0ab9dfd5ef960	-0.26047467940579416
17	0x3f934005eaa13ed8	0.0187989162880616
18	0xbfd4b00bd1edaddb	-0.3232450056154598
19	0x3fb10c3ffea1a3c4	0.0665931698473648
20	0x3fc68939f4b0da4e	0.17606281707567678
21	0xbf73f66be1a5c923	-0.004873677646502625
22	0xbfc708bb353e071f	-0.17995395755502216
23	0xbfdd3df15bd60e68	-0.45690568893789996
24	0x3fc6e95cda09d0a7	0.17899666448977777
25	0x3fb07aa8b88ce412	0.06437162881492522
26	0xbfd1e0813856dbaa	-0.27932768346675607
27	0x3fd7f74024277622	0.37446597605398513
28	0x3fb8765a6608d822	0.09555592528417425
29	0x3fbdf18d229fd494	0.1169670304805826
30	0x3fe3dbbb948540ad	0.6205728436271066
31	0xbfc03c5eee032fb1	-0.1268423711939
32	0xbfd84c0b6cf93626	-0.3796413959688344
33	0x3fc2c88e028cb97a	0.1467454445314152
34	0xbfdbf491ca730256	-0.43680233736453056
35	0x3fbe0381314bcc77	0.11724097684400357
36	0x3fa1a37a85d5da60	0.03445036777241195
37	0x3fb2556e597fdf70	0.07161607441946471
38	0xbfc194100691bd32	-0.1373310119701983
39	0x3fc54e2530bba4ad	0.16644730453052628
40	0x3fb6bcf9f7d1ec67	0.08882105160039232
41	0x3fc4beecded24756	0.1620765769953844
42	0xbfb8ab5c40000000	-0.09636475145816803
43	0x3fc7c797e9f32588	0.1857786075909582
44	0x3fb554aaeedd7ef0	0.08332317668600431
45	0x3fab6f1240000000	0.053581781685352325
46	0xbfbf782d3b7d852b	-0.12292750074768281
47	0x3fc3d4c71c8e8c22	0.15493096250892885
48	0x3f9276ab5bc7beb2	0.018030812718221774
49	0xbfb43980783138eb	-0.07900240835553844
50	0xbfc833cddb10dfca	-0.18908093639924878
51	0xbfb7c58c035c211e	-0.09285807687786415
52	0x3fc5b8cc27e71a57	0.16970207165123227
53	0x3fb36c1354431264	0.07586785132577628
54	0xbfc5d211894f513c	-0.1704732819040461
55	0x3fb6424b16e30e58	0.08694905575526357
56	0xbfd1c79a40aeb9bd	-0.27780777279522423
57	0xbfbad0965ddff86a	-0.10474529067866603
58	0xbfc964c6bb0bee39	-0.19838794835219334
59	0x3fc2a48fd580353e	0.1456470291599689
60	0x3fc9e062e95d251a	0.20216022867888556
61	0xbf9d7942deb2d4cd	-0.02878288730854166
62	0xbfb8f6f351c5aa62	-0.09751816507711333
63	0xbfb2a31be5add3f1	-0.07280134541890938
64	0x3fbc6d8ea5d95d33	0.11104671048211827
65	0xbfc20af91f89aa2a	-0.1409598735802587
66	0x3f95ebf3bf75d63f	0.021407898484048223
67	0xbfc758a859cb0840	-0.18239311584881257
68	0x3fb78addbbcb2af2	0.09196267924123072
69	0x3fab9c7035fc678e	0.05392790469177476
70	0xbfb90b8e1ca2cc10	-0.09783256720656675
71	0x3f93dad680000000	0.01938948780298233
72	0xbfa30d40cbb952cb	-0.03721048819412472
73	0x3fbac6eab73dadac	0.10459773038535641
74	0xbfbe6fabd0eea3ee	-0.1188914666260101
75	0xbfc059ba681bc8c4	-0.12773828586029456
76	0x3fc2cd4d94867988	0.14689035179339904
77	0x3fc6e472d857cbac	0.1788466984140461
78	0xbfb0d4684cf4b92b	-0.06574108008201011
79	0xbfe28aa9eca09f6f	-0.5794267293576761
80	0xbf9b1d18be488e46	-0.02647818242452462
81	0xbfb9f6aac04895a9	-0.10142008966848572
82	0xbfc43a5e05b8bae6	-0.15803122786879625
83	0xbfb09386bdc8544e	-0.0647510732017775
84	0xbfce5680775fc629	-0.2370148260957177
85	0xbfa715141d9ea671	-0.04508269177979408
86	0xbfa766f8feeb8543	-0.04570749389473374
87	0x3fe094eb11b3f68b	0.5181784959565489
88	0xbfb574426f3c8917	-0.08380522933706334
89	0x3fb1ac65afd7a70f	0.06903682272936983
90	0x3faf69f88800ec2e	0.061355368234636706
91	0xbfbbe9c06ad54aaf	-0.1090355168173953
92	0xbfa900a68eab3fe2	-0.04883308879436733
93	0xbf9a61b4e93cad27	-0.02576334641996172
94	0xbfc774b4406767ad	-0.1832490267250341
95	0x3fd1a6bd193f46bd	0.2758019205622125
96	0x3fc8f305df0a81af	0.19491647139240117
97	0x3faf19a384f8cb3e	0.0607424831217913
98	0xbfcbed440f3d2c3d	-0.21817827934350645
99	0x3fbe43440bf6e024	0.11821389476870131
100	0xbfb4aaf0740b184e	-0.08073332627381655
101	0x3fc44e1b2560c1d5	0.15863360715003574
102	0x3f9a925480000000	0.02594882994890213
103	0x3fb9f74e022093c1	0.10142982055602003
104	0xbf92655907730556	-0.017964736060780716
105	0x3fbf8239d0804484	0.12308083858830982
106	0xbfbf2f4776ea834b	-0.12181517270302071
107	0x3fc1b6d94ab2ff6a	0.13839260241911272
108	0x3fba7408d8d552ec	0.1033330468538442
109	0xbfd0b99e4695c425	-0.2613292397791745
110	0xbfbd67884cd3d7a8	-0.11486102939292542
111	0xbf88666324f625ea	-0.011914038243747666
112	0x3f8e65dc14698132	0.014842719433716487
113	0x3fa194ee9d19467d	0.034339386632052694
114	0x3fbc39f9240eb7f8	0.11025960092840126
115	0xbfbd31835b972913	-0.11403676019759627
116	0xbfce492bc8e38a09	-0.23660800274872454
117	0x3fd2c64832da8b0f	0.29335217443637956
118	0xbfce456623a6ad90	-0.2364928888394897
119	0x3fb0a984dc19848d	0.06508665441062274
120	0x3fc4da579bc96055	0.1629132757832418
121	0xbfbfe1e1fab95a44	-0.12454044696037508
122	0x3fc35c6b0a15b17f	0.15125787727755477
123	0xbfdb2447b14b2f5c	-0.42408935846173335
124	0x3fb2ce61737ad337	0.07346161908465097
125	0x3fc53f4030585711	0.16599275932883775
126	0xbfc8cd0c7859377e	-0.19375759006873844
127	0x3fd49128bef5cb03	0.321359812244893
128	0x3fb31913cb136f1d	0.07460139949710905
129	0x3f9819ab0e700d9a	0.023535416370589958
130	0x3fe0fb2dc51ae8cf	0.5306614732465053
131	0xbfa6566fcd6c4a7f	-0.043628209901858554
132	0xbfd6f2e11f2a64bf	-0.35857418101802446
133	0xbf85be8d20d0152e	-0.010617353977077384
134	0xbfd8d83a8a4ac069	-0.38819755082204793
135	0x3fb3f44ef3e09edd	0.0779466004756801
136	0xbf8e92133f9e8438	-0.014927053812984523
137	0x3fc7c755665c7e9a	0.1857706785021847
138	0xbfa752c79ca2dd10	-0.04555343424856961
139	0x3fad3be83713cc90	0.05709767982798397
140	0x3fa394d26127f5a1	0.038244795188784105
141	0x3fcbcca0ddab19a5	0.21718226264620202
142	0x3fb6316260000000	0.08669104427099228
143	0xbf50985ce041c277	-0.0010128886215420554
144	0x3fd40e39756cbf3a	0.3133681914068692
145	0xbfa6f15ce0000000	-0.04481020197272301
146	0x3f9b5ae63f4b20e2	0.026713941205145704
147	0x3fc2e36f61bc2c81	0.14756576797694623
148	0xbfb09e856a1a8820	-0.06491884079380883
149	0xbfb8c5a9f5a909cc	-0.09676611182752665
150	0xbfcd2bd74a30e5b0	-0.2279004204045072
151	0xbfb64053c21e10c6	-0.08691905488200566
152	0x3fab666f2e8383f0	0.05351588671488361
153	0x3fb0ea0370c8b210	0.06607076171412296
154	0xbfaec2e62889358d	-0.060080711792220055
155	0x3fc0d4cf410c3054	0.13149443317559195
156	0xbfd590d6d0b44aa5	-0.3369652784469202
157	0xbfa595bef6e61277	-0.04215809596920377
158	0xbfc52f45c165bd74	-0.16550514167054653
159	0xbfd14c91a3aeb55e	-0.2702983950101351
160	0x3fd3bbb32e0c41c3	0.3083312940298379
161	0x3fb206a628fa6f98	0.0704139566464036
162	0xbfaca31d5c52ab23	-0.055931966323745884
163	0xbfb17a97be6eccc0	-0.06827686690558021
164	0x3fb37ae40b38fafb	0.07609391473759423
165	0xbfb39d5d06a05f8e	-0.0766199246576191
166	0xbfaaa866bf3351e6	-0.05206605037679761
167	0xbfbe829fc33322cf	-0.1191806651651277
168	0xbfaca1fc36a69d58	-0.05592334906696789
169	0x3fc8cb933ea5531a	0.1937126212966625
170	0x3f4ca38de610d834	0.0008739893784255382
171	0xbfabfe2260000000	-0.05467326566576958
172	0xbfbe78347f3c7b59	-0.11902168375352797
173	0x3fb43ce7565860d2	0.07905431612050798
174	0xbf905b5fc2100667	-0.015973564357415173
175	0xbfc045193d8f619b	-0.1271087217890113
176	0x3f9c47c8d565e485	0.027617586159497626
177	0x3fadb9a3301188fc	0.05805692636273993
178	0xbfbfb001fcdf8f3e	-0.1237794153562932
179	0xbfe08113d86b35a2	-0.5157565333299099
180	0x3f59a54d3d0110f7	0.001565289905571863
181	0xbfbd564ce8b36b63	-0.11459808999226832
182	0xbf9713ddf46f524c	-0.02253672413265155
183	0xbfac88d02ad45bd1	-0.055731301525319694
184	0xbfd07b6dc56f9c16	-0.25753349572045303
185	0xbfc19c407762180b	-0.13758092717415624
186	0xbfc976afbff0d92f	-0.1989345252238279
187	0x3fdc1d3ee443b932	0.4392850140710777
188	0x3fb11faee843733b	0.06688969774718327
189	0xbfa82cc2b0351bf1	-0.0472164955231661
190	0xbfb20c326a8ccc1e	-0.07049861050909143
191	0xbfc3c1e5c3fbac03	-0.1543547827671717
192	0xbfc46770687d7466	-0.1594067106442793
193	0xbfbd987bccf434a2	-0.11560796502836237
194	0xbfbab177001831a5	-0.10427039863879502
195	0x3fd267bfdc085f63	0.28758236396378417
196	0xbf6d3acdf41f0257	-0.0035680792361463642
197	0x3fc9bb2440e86a1a	0.20102360886888065
198	0xbfda66f21e0096ec	-0.41253331117546455
199	0x3fb7601d9547f465	0.09131035704190678

bias f8 [2]
0	0x3fc301a58b47f0fe	0.14848775196868041
1	0xbf706b7fb5beffe8	-0.004008768908477102
